TASK2/gender_classification_model/checkpoint_step_3200.pth (torch, 22979 bytes, 6 tensors)

weight f4 [2, 768]
0	0x3ce210c3	0.027595883
1	0x3c479925	0.012182509
2	0xbc3b66e3	-0.011438104
3	0x3ba35406	0.0049843816
4	0xbce015a0	-0.027354062
5	0xbc842000	-0.01612854
6	0xbbaf9a9e	-0.005359008
7	0x3aef3980	0.0018251389
8	0xbcf9a14d	-0.030472422
9	0xbc14b352	-0.009075956
10	0xbce1421c	-0.027497344
11	0x3b84cf64	0.004053043
12	0xbd2a9219	-0.041643236
13	0x3c961656	0.018321197
14	0x3cc08b63	0.023503965
15	0xbc1a3fdd	-0.00941464
16	0x3c752170	0.014961585
17	0xbcc072f3	-0.023492312
18	0xbc35a224	-0.011086021
19	0xbcb1cbfc	-0.021703713
20	0x3b085a23	0.0020805679
21	0x3ca6bf5e	0.020354923
22	0x3d17cce9	0.037060652
23	0x3cc30e30	0.023810476
24	0x3d087939	0.033318732
25	0xbc2b39d2	-0.010450797
26	0xbc22dbc5	-0.009940092
27	0x39b0b5cb	0.00033704782
28	0x3cc4c4e9	0.024019675
29	0x3a4ba08e	0.000776776
30	0x3d10ad15	0.035321314
31	0x3d11f955	0.035638172
32	0x3cf68766	0.03009386
33	0x3bef3f0f	0.0073012183
34	0xbb7e0965	-0.0038762924
35	0x3d03a7eb	0.03214256
36	0x3c691eac	0.014228504
37	0xbd660824	-0.056160107
38	0x3cb08b7f	0.021550892
39	0xbd58ed84	-0.052960888
40	0x3c8d6fa0	0.017265141
41	0xbb8436ed	-0.004034868
42	0xbd1a3e83	-0.037657272
43	0x3c85631a	0.016282607
44	0xbcad9c51	-0.021192702
45	0xbbe36b35	-0.0069402703
46	0x3ce1a3b4	0.02754388
47	0x3d05dfd6	0.03268417
48	0x3c8c2e5f	0.017111955
49	0xbc68e20d	-0.014214051
50	0x3cc60027	0.024169995
51	0x3c8f7abc	0.017514579
52	0xbae8fb6a	-0.0017775123
53	0xbc9b9d6a	-0.01899596
54	0xbc4aa980	-0.0123695135
55	0xbc9bbe3f	-0.019011615
56	0x3bb8af0b	0.005636101
57	0x391240a5	0.00013947727
58	0xbb9c5439	-0.0047707823
59	0x3bf6bd78	0.0075299107
60	0x3c405335	0.011738588
61	0x3c4c9002	0.012485506
62	0xbcaeffd8	-0.02136223
63	0xbc52dea8	-0.012870468
64	0x3c9fa365	0.019487092
65	0xbca3abee	-0.019979443
66	0x3d0d07c4	0.034431234
67	0x3d0ac3a4	0.033877984
68	0xbce3ff1e	-0.02783161
69	0x3ceb0e6a	0.028693397
70	0x3c907201	0.017632486
71	0xbc584550	-0.013200119
72	0x3b7d3402	0.0038635735
73	0x3ba67ca6	0.005080777
74	0xbcd96317	-0.026536508
75	0xbcf3be25	-0.029753754
76	0xbb97c20c	-0.0046312865
77	0xbc11f97d	-0.00890958
78	0xbb62297e	-0.0034509595
79	0xbbced24d	-0.006311691
80	0x3b0ca140	0.0021458417
81	0xbba85f13	-0.005138287
82	0xbd00166f	-0.031271394
83	0x3c0a6d04	0.008448843
84	0x3b500b86	0.003174515
85	0x3bd04955	0.006356398
86	0xbc66b908	-0.014082201
87	0xbd08835b	-0.033328395
88	0x3cd807f9	0.02637099
89	0xbb0947a1	-0.0020947235
90	0x3cdf6ff8	0.02727507
91	0xbbd4b4eb	-0.0064912937
92	0x3cef689f	0.029224692
93	0x3c810670	0.01575014
94	0x3bcf387e	0.006323873
95	0xbc9c8d66	-0.019110393
96	0xb9b3557a	-0.00034205226
97	0x3d31ad22	0.043378003
98	0xbc599424	-0.013279948
99	0x3cd9043f	0.026491283
100	0xb9825096	-0.00024855573
101	0x3b8647c2	0.0040979097
102	0x3d204850	0.039131463
103	0xbca5158e	-0.02015188
104	0x3c4c694d	0.012476278
105	0xbbbed8f5	-0.005824203
106	0x3d5dcfda	0.0541533
107	0xbd354af5	-0.044260938
108	0x3b4170f4	0.0029516788
109	0x3d0f4e6a	0.03498689
110	0xbd1846a4	-0.037176743
111	0xbc92aaac	-0.017903648
112	0x3bb63d2e	0.0055614924
113	0x3b19cc1d	0.0023467608
114	0xbab5a5af	-0.0013858582
115	0x3ced24fe	0.028948303
116	0x3d7c9f78	0.06167552
117	0x3aebf850	0.001800308
118	0xbcc4ad93	-0.024008548
119	0x3d0a8a4c	0.033823296
120	0x3d26c65f	0.040716525
121	0x3d337990	0.043817103
122	0xbc083fc1	-0.008315981
123	0xbc6a5bc3	-0.014304104
124	0xbc23f710	-0.010007635
125	0x3c346e73	0.011012661
126	0xbc56a7cc	-0.013101529
127	0xbccc1b0d	-0.024915243
128	0x3b8e6114	0.0043450687
129	0xbbdb3e76	-0.0066907955
130	0xbd01acba	-0.031658866
131	0x3b904953	0.004403272
132	0x3d259d16	0.040433012
133	0x3c338548	0.01095707
134	0x3cf95dab	0.030440172
135	0xbae9eb52	-0.001784662
136	0xbcbf6b8d	-0.023366714
137	0xbca07f7d	-0.019592041
138	0x3d0dce12	0.034620352
139	0x3bd774a4	0.006575184
140	0xbcf8b7c3	-0.030361062
141	0xbc347cbc	-0.011016067
142	0x3c242293	0.010018009
143	0x3c804dbe	0.01566207
144	0xbcd94f5c	-0.0265271
145	0x3c2384b3	0.009980368
146	0x3c111cd4	0.008856971
147	0x3afe52ba	0.0019403317
148	0xbd0003fd	-0.031253804
149	0xbd0817fb	-0.033225995
150	0x3c90ca18	0.01767449
151	0xbd05069f	-0.032477017
152	0x3cae0cd6	0.021246355
153	0x3d12e740	0.03586507
154	0x3c753fe9	0.014968851
155	0xbc83b612	-0.016078029
156	0xbbb100e0	-0.0054017156
157	0xbd11152c	-0.03542058
158	0xbcdf7475	-0.02727721
159	0x3d4e8dfe	0.050428383
160	0xbc2f70e9	-0.010708072
161	0xbc5197c7	-0.012792534
162	0xbd0054c1	-0.031330828
163	0x3c889443	0.01667226
164	0xbd5e4401	-0.054264072
165	0x3d71bff8	0.059020966
166	0x3b9a21c2	0.0047037313
167	0xbd058d5b	-0.03260551
168	0xbbbde816	-0.005795489
169	0x3cb406b8	0.02197586
170	0x3ccbba53	0.02486912
171	0x3b78385d	0.0037875392
172	0xbcbdb533	-0.023157692
173	0x3c693658	0.014234148
174	0xbca5d39e	-0.020242509
175	0xbceb393a	-0.028713811
176	0x3c603864	0.01368532
177	0x3cf4a8fd	0.029865736
178	0xbb98a855	-0.0046587386
179	0x3cf55963	0.02994985
180	0x3c8c33cd	0.017114544
181	0xbcc5cf7f	-0.024146793
182	0x3c3fdb31	0.011709974
183	0xbb0e272e	-0.0021690833
184	0xbc640234	-0.013916541
185	0x3d6d576c	0.0579447
186	0xbcc7039d	-0.024293715
187	0xbcbc867e	-0.02301335
188	0x39ac2bb4	0.00032838958
189	0x3afcdfc0	0.0019292757
190	0x3bcb7118	0.00620855
191	0x3bc74def	0.0060822885
192	0xbc85342c	-0.016260229
193	0x3c285e51	0.010276393
194	0xbccbf76c	-0.024898253
195	0xbd3cc2ef	-0.04608434
196	0xbd3bf08f	-0.04588371
197	0xbc737953	-0.014860469
198	0x3d19706d	0.037460733
199	0xbceeeae8	-0.029164746
200	0xbd174469	-0.036930475
201	0xb7d60131	-2.5511343e-05
202	0x3d191ce4	0.037381068
203	0xbc5ee9dc	-0.013605561
204	0x3cf4006d	0.02978536
205	0x3c87cc2d	0.01657685
206	0xbc2f0bc5	-0.010683958
207	0xbbecc103	-0.007225157
208	0x3d235f2a	0.039885677
209	0xbb16af38	-0.0022992622
210	0x3ba87127	0.005140442
211	0x3c74b75d	0.014936295
212	0xbc2b3c1b	-0.010451342
213	0xbd013559	-0.031545017
214	0xbc925177	-0.017861111
215	0x3c9a11a2	0.018807236
216	0xbc6890ef	-0.014194711
217	0xbd1e27ea	-0.038612284
218	0xbcd4b991	-0.025967391
219	0x3cf81c71	0.030287
220	0xbcdeeda8	-0.027212933
221	0x3c519475	0.012791743
222	0x3d0554b1	0.03255147
223	0xbc9b983a	-0.018993486
224	0xba880ffc	-0.001038074
225	0xbc855743	-0.016276961
226	0xbd117422	-0.035511144
227	0x3c934c35	0.017980674
228	0xbc565dec	-0.013083916
229	0x3c5d10d0	0.013492778
230	0xbcac4d8c	-0.021033071
231	0xbc0378c7	-0.008024401
232	0x3ca1e286	0.019761335
233	0x3cc8192f	0.024426071
234	0x3c5a6f3b	0.0133321835
235	0x3d1b5d99	0.03793106
236	0xbbbc1339	-0.005739596
237	0xbcf31eee	-0.029677834
238	0xbca72a47	-0.020405902
239	0x3be08a02	0.0068523893
240	0xbc90e7f2	-0.017688725
241	0xbc165f94	-0.009178061
242	0x3d0c238b	0.034213584
243	0x3d034e46	0.03205707
244	0x3c82a533	0.015947914
245	0x3cf2af0d	0.029624486
246	0xbc24af8b	-0.010051618
247	0x3c645083	0.013935211
248	0xbc352293	-0.011055606
249	0x3c8b01be	0.016968604
250	0x3bb9cab6	0.005669917
251	0x3c29a63e	0.010354577
252	0x3cf5e7c2	0.030017737
253	0xbc820e6e	-0.015876021
254	0x3cc37086	0.023857366
255	0x3cf9ecad	0.030508364

bias f4 [2]
0	0x3cc57a14	0.024106063
1	0xbb95db8c	-0.004573291

exp_avg f4 [2, 768]
0	0xbcd8b4d4	-0.026453413
1	0x3bc90be1	0.0061354493
2	0x3a83b1e8	0.0010047527
3	0xbd84c328	-0.064825356
4	0xbd892907	-0.066972785
5	0xbc8394d9	-0.016062187
6	0x3e0de88e	0.13858244
7	0x3d520580	0.051274776
8	0xbfc3a859	-1.5285751
9	0xbdf4cba5	-0.119529046
10	0xbccc8e3c	-0.024970166
11	0x3d86911b	0.065706454
12	0x3cf49e0e	0.029860523
13	0x3de8e4d3	0.1137177
14	0x3d73c7c8	0.059516698
15	0x3beb6ad0	0.007184364
16	0xbc6c83b3	-0.014435696
17	0x3d0466bf	0.03232455
18	0xbd257e18	-0.040403455
19	0xbd651d75	-0.055936296
20	0xbd2f1b94	-0.04275091
21	0xbd238343	-0.039920103
22	0x3c7b1d4d	0.01532681
23	0x3d769d07	0.060208347
24	0x3dc380cf	0.09546053
25	0x3d356784	0.044288173
26	0xbb376705	-0.0027984988
27	0x3d8d5d90	0.06902611
28	0xbcc89328	-0.024484232
29	0x3c43cce7	0.011950708
30	0xbdd85e27	-0.10564833
31	0xbd497ec1	-0.049193148
32	0x3d4b2821	0.049598817
33	0x3dd925bf	0.106029026
34	0x3d1af7bf	0.037833925
35	0x3da62ae6	0.08113651
36	0x3da70f79	0.08157248
37	0xbc784892	-0.015154021
38	0x3eec8b70	0.46200132
39	0xbc82a692	-0.015948568
40	0x3cf50f24	0.029914446
41	0xbc2f5ef8	-0.010703795
42	0xbbc1ae17	-0.0059106457
43	0xbea019d1	-0.31269696
44	0xbddd9e0e	-0.10821162
45	0xbcced60c	-0.02524855
46	0x3d477bd2	0.04870207
47	0x3d095a08	0.033533126
48	0x3b093b62	0.0020939936
49	0xbd5c958f	-0.053853568
50	0xbd4f98b3	-0.050682735
51	0xbd524fb9	-0.05134556
52	0xbcf35823	-0.029705113
53	0x3bbde571	0.005795174
54	0xbd83090d	-0.06398211
55	0xbc49df23	-0.012321266
56	0xbc5d9f14	-0.013526697
57	0x3d77d404	0.06050493
58	0x3d499666	0.049215697
59	0x3d1559e3	0.036462676
60	0xbd685032	-0.056717105
61	0x3da3b0ea	0.07992728
62	0xbc1a0ea9	-0.009402909
63	0x3e098117	0.1342815
64	0xbae52f14	-0.0017485344
65	0xbdd111b5	-0.102084555
66	0x3d5dc5f6	0.05414387
67	0xbc3f4fe8	-0.011676766
68	0xbdbca9bc	-0.09212062
69	0xbd822e89	-0.06356532
70	0x3cbd248b	0.023088714
71	0x3d716162	0.058930762
72	0x3caa0892	0.02075604
73	0xbcf81946	-0.030285489
74	0xba34705d	-0.00068831985
75	0x3d183ece	0.03716927
76	0xbda71925	-0.08159093
77	0x3c009c23	0.007849726
78	0xbd57ef53	-0.05271847
79	0x3d64c678	0.055853337
80	0xbc6643ef	-0.014054283
81	0x3caa4742	0.020785931
82	0x3c5066d6	0.0127198305
83	0xba10bdb0	-0.00055214297
84	0xbd08db79	-0.03341243
85	0x3ce7a4d1	0.028276833
86	0xbe188733	-0.14895324
87	0xbc9b03a7	-0.01892264
88	0x3d78de02	0.0607586
89	0x3c077c74	0.008269418
90	0x3cd6cb57	0.026220007
91	0x3bbfe8ec	0.005856624
92	0x3d7762b2	0.060396858
93	0xbde7c0b6	-0.113160536
94	0xbd462e73	-0.04838414
95	0x3d29fa4c	0.041498467
96	0xbc4bb415	-0.012433072
97	0xbc982141	-0.018570544
98	0x3cfab9fc	0.030606262
99	0x3ded6c5f	0.11592936
100	0xbd1dc113	-0.038514208
101	0x3ce27ae2	0.027646486
102	0x3d94da03	0.07268145
103	0xbd7b4365	-0.06134357
104	0xbe63f002	-0.22259524
105	0x3b264454	0.0025370317
106	0xbc1d798c	-0.009611499
107	0x3bca3300	0.0061706305
108	0x3d49c5bb	0.049260836
109	0xbcdbb8e6	-0.026821565
110	0x3d031e1d	0.03201114
111	0x3d421560	0.047383666
112	0x3cc46846	0.023975503
113	0x3d595823	0.05306257
114	0x3cdede93	0.027205741
115	0x3c4f3290	0.012646332
116	0x3c1f3558	0.009717308
117	0xbd3e72d6	-0.046496235
118	0xbd8190d9	-0.063264556
119	0xbd2bdd38	-0.041959018
120	0xbcde5270	-0.027138919
121	0x3cabc377	0.020967228
122	0x3c34462d	0.011003059
123	0x3d922af3	0.07137098
124	0xbd4fae0d	-0.050703097
125	0xbe06abd1	-0.1315148
126	0x3d376b8f	0.04478031
127	0xbc3a7343	-0.01138002
128	0xbd4ca7e4	-0.0499648
129	0xbcd70771	-0.026248666
130	0xbca74f70	-0.020423621
131	0x3da9cc1e	0.082908854
132	0x3c8b515b	0.017006567
133	0x3d55cc65	0.05219688
134	0xbda709e4	-0.08156183
135	0xbd052c67	-0.03251305
136	0xbd45b361	-0.048266772
137	0x3ca1ff60	0.019775093
138	0x3d5ed289	0.0544
139	0xbc87f127	-0.016594483
140	0xbd9ff62c	-0.078106254
141	0xbcef78a4	-0.02923233
142	0xbd9c0c08	-0.07619482
143	0xbcf94b26	-0.030431341
144	0xbd5947d4	-0.053047016
145	0x3d053383	0.03251983
146	0x3aad8e24	0.0013241214
147	0x3dd13dd3	0.1021687
148	0x3ca81a68	0.020520404
149	0x3d0f69a9	0.035012875
150	0x3cd37236	0.025811296
151	0x3ca7344b	0.020410677
152	0x3cef7dc1	0.029234769
153	0xbd8b7151	-0.06808723
154	0x3d871e06	0.065975234
155	0x3dbac9ce	0.091205224
156	0xbcaae453	-0.020860827
157	0x3d80755c	0.062723845
158	0x3d31f8a1	0.04345
159	0xbcb52c71	-0.022115918
160	0xbd9119c5	-0.07084993
161	0xbd7e3d30	-0.06207007
162	0xbcbf064c	-0.023318432
163	0x39d79ffd	0.00041127196
164	0xbcb5e847	-0.022205485
165	0xbc1d317a	-0.009594316
166	0x3d3b52c5	0.045733232
167	0x3dc2ca62	0.09511258
168	0xbcacbd63	-0.0210864
169	0x3d1a213a	0.037629344
170	0xbdef4542	-0.11683132
171	0xbc26e7aa	-0.010187069
172	0xbc5aaf6a	-0.013347486
173	0xbc4842f7	-0.012222997
174	0x3d60bf73	0.05487008
175	0x3defc074	0.117066294
176	0xbd96f6ee	-0.07371317
177	0xbd87743b	-0.06613966
178	0x3c3e9ab2	0.011633562
179	0xbd3f7681	-0.046743874
180	0x3dac0347	0.083990626
181	0xbd867ca0	-0.06566739
182	0xbd4cac8f	-0.049969252
183	0x3b0bb6c9	0.0021318665
184	0xbd612ccd	-0.054974366
185	0x3a908053	0.0011024572
186	0x3d298c41	0.041393522
187	0x3badd462	0.005304859
188	0x3a6f1d74	0.00091215153
189	0xbd7da229	-0.061922226
190	0xbda90eb7	-0.0825476
191	0xbcf03050	-0.029319912
192	0x3ceec3af	0.029146044
193	0xbc3f70a1	-0.011684568
194	0xbd53107b	-0.05152939
195	0x3c0c6be5	0.008570646
196	0xbd097f04	-0.033568397
197	0xbc35f038	-0.011104636
198	0x3d61c285	0.05511715
199	0x3c18369f	0.009290366
200	0xbd1e8e4d	-0.038709927
201	0xbd3eee02	-0.0466137
202	0xbd546f0b	-0.05186371
203	0xbca80392	-0.020509515
204	0xbc8bb10e	-0.0170522
205	0xbc9a9a29	-0.018872337
206	0xbc1bab5f	-0.009501307
207	0x3b97c6ac	0.004631838
208	0x3c6cf8e0	0.014463633
209	0xbc9de3ee	-0.019273724
210	0xbc02e11b	-0.00798824
211	0xbd095a02	-0.033533104
212	0xbcc60fa1	-0.024177374
213	0x3d4b91f1	0.049699727
214	0xbe6eab08	-0.2330743
215	0x3d271af6	0.040797196
216	0x3d0e9347	0.034808423
217	0xbd796800	-0.060890198
218	0xbd0e0454	-0.034672096
219	0x3ded483a	0.11586042
220	0xbcf17e1d	-0.02947908
221	0xbc4a4142	-0.01234466
222	0xbe40d08b	-0.18829553
223	0xbd392d54	-0.045209244
224	0xbd6e6ed1	-0.05821115
225	0xb9c27af2	-0.00037094165
226	0xbd1eca8a	-0.038767375
227	0x3daa181e	0.08305381
228	0xbd040c7f	-0.03223848
229	0xbab48739	-0.001377321
230	0x3c74efcf	0.014949753
231	0xbe251931	-0.16122891
232	0x3d423cee	0.04742139
233	0x3c1114b0	0.00885503
234	0x3daa60b1	0.08319224
235	0xbcfeb42b	-0.03109177
236	0x3d8f8101	0.070070274
237	0x3d8d7d5c	0.06908676
238	0x3dd1ff0e	0.10253726
239	0xbd473f89	-0.048644576
240	0x3d5f44db	0.054509025
241	0x3bcffc82	0.00634724
242	0x3ccd93d3	0.025094902
243	0x3cdca181	0.02693248
244	0xbd0d5edd	-0.034514297
245	0xbb337002	-0.0027379994
246	0x3c406933	0.011743831
247	0x3cc2a631	0.023760887
248	0xbd7408ca	-0.059578694
249	0xbcf3d00d	-0.029762292
250	0x3dc1d2b0	0.094640136
251	0xbd9a35df	-0.07529806
252	0xbd72f886	-0.05931904
253	0xbb86587b	-0.004099903
254	0xba425204	-0.0007412734
255	0xbd97be73	-0.07409372

exp_avg_sq f4 [2, 768]
0	0x3b8e8d41	0.004350335
1	0x3afe4731	0.0019399879
2	0x3b218fde	0.0024652402
3	0x3cc7b9c0	0.024380565
4	0x3cfeb4b3	0.031092023
5	0x3ab30b44	0.0013659974
6	0x3da69523	0.08133914
7	0x3c2af1c9	0.010433623
8	0x41463ed3	12.390338
9	0x3d95dbad	0.073172905
10	0x3b03e328	0.002012441
11	0x3ca66681	0.02031255
12	0x3c0cb0ce	0.008587075
13	0x3d5d5d68	0.054044157
14	0x3c8432e4	0.016137548
15	0x3b9b541e	0.004740252
16	0x3ac5dcdd	0.001509573
17	0x3c045d96	0.008078953
18	0x3bbb8a1b	0.0057232506
19	0x3c47f7b7	0.012205056
20	0x3c2e07f5	0.010622014
21	0x3c41bd04	0.01182485
22	0x3c09d0a4	0.00841156
23	0x3c88c025	0.016693184
24	0x3d829b51	0.063772805
25	0x3ba39f05	0.004993322
26	0x3ae61724	0.0017554504
27	0x3cefa3c7	0.0292529
28	0x3ae2dbaa	0.0017307897
29	0x3b16a01f	0.0022983623
30	0x3d7cec73	0.061748933
31	0x3c38d415	0.011281033
32	0x3c2756b1	0.01021354
33	0x3d4ea2fa	0.050448395
34	0x3c1370c1	0.008999051
35	0x3cb02ae7	0.021504832
36	0x3d2405e0	0.040044665
37	0x3aab8163	0.0013084825
38	0x3f9072b2	1.1285002
39	0x3ae294e6	0.0017286807
40	0x3bcca3f0	0.006245129
41	0x3bc3433e	0.0059589436
42	0x3adc1c0b	0.0016793025
43	0x3ee049a5	0.43806186
44	0x3d5f0d64	0.05445613
45	0x3b338bad	0.0027396486
46	0x3cf4dd5c	0.029890709
47	0x3c3af958	0.011411987
48	0x3ad383bf	0.0016137286
49	0x3c7c28e5	0.015390609
50	0x3c1720cc	0.009224128
51	0x3c552cab	0.013011138
52	0x3c094568	0.008378364
53	0x3ac31dd6	0.0014886211
54	0x3c9eb3ff	0.019372938
55	0x3bb66da2	0.0055672685
56	0x3b888c65	0.004167127
57	0x3c81a00c	0.015823387
58	0x3c9414a4	0.018076248
59	0x3c086c97	0.008326671
60	0x3ca2b4c3	0.019861585
61	0x3cbefbe6	0.023313474
62	0x3b16d9cf	0.0023018008
63	0x3dcf2766	0.101149365
64	0x3af6e548	0.0018836642
65	0x3d6e41a9	0.058168087
66	0x3c316f8e	0.010829819
67	0x3b0dc88f	0.0021634435
68	0x3d19653a	0.037450053
69	0x3d0e9af8	0.03481576
70	0x3b873599	0.0041262624
71	0x3c23275a	0.009958113
72	0x3b135305	0.0022479903
73	0x3bc627cf	0.006047226
74	0x3b907c90	0.0044093803
75	0x3c353a32	0.011061238
76	0x3d0b2af6	0.033976518
77	0x3afb3198	0.001916456
78	0x3ca5c084	0.0202334
79	0x3c872be7	0.016500426
80	0x3b0cae03	0.0021466024
81	0x3bbc6fa9	0.0057506156
82	0x3b1be159	0.002378544
83	0x3ac05bb5	0.0014675768
84	0x3c1ca2e6	0.009560322
85	0x3ba44449	0.005013023
86	0x3dd55ab9	0.104176946
87	0x3b75c84f	0.0037503426
88	0x3ccb262a	0.024798471
89	0x3b324cf3	0.002720651
90	0x3c1c0d10	0.009524599
91	0x3a971c51	0.0011528825
92	0x3d030409	0.03198627
93	0x3d6f2ae6	0.05839052
94	0x3c3a5444	0.01137263
95	0x3b8187d6	0.0039529605
96	0x3b836a68	0.0040104873
97	0x3bde8b0d	0.0067914785
98	0x3bfcb583	0.0077120676
99	0x3da724a4	0.081612855
100	0x3bac8660	0.005265042
101	0x3c06a4a1	0.0082179615
102	0x3cc4dcb7	0.024031026
103	0x3c38f55b	0.011288966
104	0x3e32468c	0.17409724
105	0x3b1c455b	0.002384505
106	0x3ae68837	0.0017588203
107	0x3b76237e	0.0037557776
108	0x3cd44fe5	0.025917003
109	0x3b7fce87	0.0039033012
110	0x3c24765e	0.010037987
111	0x3c0e3314	0.00867917
112	0x3bb2afba	0.005453077
113	0x3c19d0ce	0.009388162
114	0x3ba06194	0.0048944447
115	0x3aac383e	0.001313932
116	0x3af4192d	0.0018623226
117	0x3c246f65	0.010036324
118	0x3d0846f3	0.033270787
119	0x3c9fef10	0.019523174
120	0x3c2c52d7	0.010517797
121	0x3b09010d	0.0020905167
122	0x3b0149c3	0.0019727803
123	0x3d1a80e7	0.037720587
124	0x3c07f9ea	0.00829933
125	0x3db87c35	0.090080656
126	0x3bd960ff	0.0066338773
127	0x3b29ef3c	0.0025929948
128	0x3c4ebd99	0.012618446
129	0x3ba63b85	0.0050730132
130	0x3bd9cf43	0.006647022
131	0x3c9f7d54	0.01946894
132	0x3ad777aa	0.0016438861
133	0x3cc29e06	0.023756992
134	0x3cd22784	0.025653608
135	0x3c725a61	0.014792056
136	0x3c2883da	0.010285342
137	0x3b6c4f86	0.0036058142
138	0x3c46a795	0.012124916
139	0x3b18a5c3	0.002329216
140	0x3cc42145	0.023941645
141	0x3c2f233b	0.010689552
142	0x3cae0253	0.021241343
143	0x3c80381d	0.015651757
144	0x3c02fae8	0.007994391
145	0x3c0b6cc0	0.008509815
146	0x3b10dfc9	0.0022106043
147	0x3d719a14	0.05898483
148	0x3b47d00e	0.0030489
149	0x3c2f0046	0.010681218
150	0x3bb217bf	0.0054349597
151	0x3b04c5d0	0.0020259507
152	0x3c137f4c	0.009002518
153	0x3ce5b68c	0.028041147
154	0x3cf17ca5	0.02947838
155	0x3d55c723	0.052191865
156	0x3ad2a299	0.0016070186
157	0x3d2ca402	0.042148598
158	0x3c0316cf	0.008001043
159	0x3c1d29af	0.009592458
160	0x3c9220e8	0.017837957
161	0x3cc4d45d	0.024027044
162	0x3b8bec25	0.004270094
163	0x3ac95508	0.0015360424
164	0x3b288db8	0.0025719237
165	0x3b0de487	0.0021651105
166	0x3bccc27a	0.0062487694
167	0x3d2c069e	0.0419985
168	0x3bde7304	0.0067886133
169	0x3b558bbf	0.0032584516
170	0x3d897b47	0.067129664
171	0x3b1f77fb	0.0024332989
172	0x3b0c0279	0.0021363779
173	0x3b93f0fa	0.0045148106
174	0x3cbecaf7	0.02329014
175	0x3d8ccbb0	0.06874788
176	0x3d08ccc3	0.0333984
177	0x3cce69ca	0.025196929
178	0x3b4edf48	0.0031566191
179	0x3c38acd3	0.011271673
180	0x3d12c24b	0.035829823
181	0x3cd6e474	0.026231982
182	0x3c3f6d64	0.011683796
183	0x3ac62ef9	0.00151202
184	0x3ccc3f72	0.024932597
185	0x3b095166	0.0020953058
186	0x3c4abdae	0.012374325
187	0x3adf79ee	0.0017049888
188	0x3b8ee8a3	0.0043612286
189	0x3d01ce01	0.0316906
190	0x3d10c5d7	0.035344925
191	0x3bb0d4bd	0.005396454
192	0x3c13a604	0.009011749
193	0x3b146577	0.0022643486
194	0x3cc5ff88	0.024169698
195	0x3b0559d9	0.0020347743
196	0x3c363dfd	0.011123178
197	0x3b054567	0.0020335556
198	0x3c32fc74	0.010924447
199	0x3b325519	0.0027211367
200	0x3bbb88c7	0.0057230922
201	0x3b610979	0.0034337922
202	0x3c7aad6a	0.015300134
203	0x3b1a4ee0	0.0023545548
204	0x3bff87be	0.007798164
205	0x3b8b5f6d	0.004253319
206	0x3bb2639f	0.0054440047
207	0x3ae72427	0.0017634676
208	0x3b521118	0.0032053646
209	0x3b99fa99	0.004699063
210	0x3b8de4bc	0.004330246
211	0x3be44a5b	0.0069668717
212	0x3b47bf82	0.0030479138
213	0x3bd565bd	0.0065123723
214	0x3e9385d4	0.2881304
215	0x3c5b5965	0.013388013
216	0x3bb81514	0.005617747
217	0x3c90daf7	0.017682536
218	0x3c34ba77	0.011030785
219	0x3d973ca9	0.07384617
220	0x3c281c15	0.0102606015
221	0x3bb29e20	0.005450979
222	0x3e39ec6c	0.18156594
223	0x3c7bef73	0.015376913
224	0x3c47c04d	0.012191844
225	0x3b434146	0.0029793545
226	0x3c251244	0.010075156
227	0x3ce6be62	0.028166953
228	0x3c13d033	0.0090218065
229	0x3ae40ce7	0.0017398865
230	0x3bfa43a8	0.00763746
231	0x3e103547	0.14082824
232	0x3c4d326b	0.012524228
233	0x3ae82fbb	0.001771442
234	0x3cdee72a	0.027209837
235	0x3ae58f64	0.0017514047
236	0x3cd53fca	0.026031394
237	0x3c825330	0.015908808
238	0x3d235d60	0.03988397
239	0x3c7007a3	0.014650258
240	0x3c034840	0.008012831
241	0x3b712d49	0.0036800674
242	0x3b4a96e4	0.0030912692
243	0x3bc858af	0.0061140875
244	0x3ae41107	0.0017400094
245	0x3b2fc14d	0.0026818097
246	0x3b53cb8e	0.0032317373
247	0x3b85b00f	0.0040798257
248	0x3c95c411	0.018281968
249	0x3b6312b8	0.0034648608
250	0x3d37b9c9	0.044854913
251	0x3cbeab72	0.02327511
252	0x3c52a1f4	0.012855995
253	0x3af848ea	0.0018942629
254	0x3aa26ddf	0.0012392363
255	0x3cdc5987	0.026898159

exp_avg f4 [2]
0	0x3d9a4d8c	0.07534322
1	0xbd9a4d8a	-0.07534321

exp_avg_sq f4 [2]
0	0x3cf1ee7a	0.02953266
1	0x3cf1ee78	0.029532656
