TASK2/gender_classification_model/checkpoint_step_13400.pth (torch, 22993 bytes, 6 tensors)

weight f4 [2, 768]
000000 6a 11 c3 3c c0 e7 09 3c 4e 48 17 3d e9 5c 88 3c
       0.023812015 0.00841707 0.03693419 0.016645866
000010 af 15 d4 bc 09 4e 4c 3c c1 2c 07 bc e0 50 10 bd
       -0.025889246 0.012469777 -0.008250416 -0.03523338
000020 3a 44 fc bc a8 cf 89 bc 97 d3 53 bd ff da 19 bc
       -0.030794252 -0.016822651 -0.05171546 -0.009390592
000030 8a d4 4e bd ae 76 bb 3c c1 9a c5 3c 33 4e 18 bc
       -0.05049566 0.02288374 0.024121644 -0.009295988
000040 69 4f fa 3a 7e 65 8d bc 9c 6f b5 3b e7 0f d0 bc
       0.0019097152 -0.01726031 0.0055369865 -0.025398208
000050 45 a8 4e bc d6 2e a4 3c d1 fc 3e 3d 78 40 29 3b
       -0.012613361 0.020041864 0.046627823 0.002582578
000060 d8 27 1a 3d 58 1a 57 bc 32 0f d5 3c 3c 1c a7 3b
       0.037635654 -0.013128839 0.026008222 0.0050998013
000070 72 60 90 3d 9b 55 26 3a 7b b8 f6 3c 9d 9f 06 3d
       0.070496455 0.00063451537 0.030117264 0.032867063
000080 e2 90 5d 3c 0c 97 62 3a 79 1b 44 bc 36 65 1b 3d
       0.013523312 0.00086437236 -0.011969441 0.03793832
000090 39 cf 2f 3c 99 5a 92 bd e7 39 94 3c 79 c0 c3 bd
       0.010730558 -0.071461864 0.018094016 -0.095581956
0000a0 f1 64 03 3d da 57 ef 3a 31 32 02 bd 51 1e 60 3c
       0.032078687 0.0018260435 -0.031786148 0.013679103
0000b0 e0 4a b9 bc e0 3b 4f bb c8 58 0e 3d c2 fc 56 3d
       -0.022618711 -0.0031621382 0.034752637 0.052487142
0000c0 ae 4c 5b 3d 5e 08 dd bc dd 2b 20 3c 90 88 ac 3c
       0.053539924 -0.026981529 0.009776083 0.021061212
0000d0 5b c5 41 bc db 44 1d bd c6 9f a4 bb ca b7 cd bc
       -0.011826838 -0.038395744 -0.0050239293 -0.025112052
0000e0 45 54 dc bb 9d f7 12 bc da ca 4c bb 27 ed d8 3c
       -0.006723913 -0.008970168 -0.0031248839 0.02648027
0000f0 b6 79 e9 3b ea 68 b4 3b 66 ee 53 bd 6b bf 84 bc
       0.007125105 0.005505671 -0.051741026 -0.016204556
000100 f7 60 6e bc cd a2 6d bc df cb 4d 3d ab 87 93 3d
       -0.014549485 -0.014504147 0.050243255 0.07203611
000110 64 b5 22 bd 4b d2 03 3d 01 49 35 bb 0b d0 38 3b
       -0.03972377 0.032182973 -0.0027661922 0.0028200175
000120 07 20 cb bb cb 1f 9a bc ee 27 b6 bc 30 73 11 bd
       -0.0061988863 -0.018813988 -0.022235837 -0.035510242
000130 3b a0 da bb 6c 9f b3 3c 75 75 b1 bb 12 f8 8e bc
       -0.006671933 0.021926604 -0.0054156133 -0.017452274
000140 75 7d ea 3c 1c 3d e6 bc 1a b9 9d bd 48 6d 91 3b
       0.028624276 -0.028105311 -0.07701321 0.004438076
000150 bf de 5d 3c 99 18 a9 3c 4c 7b 95 bc 15 c6 4f bd
       0.013541876 0.020641612 -0.01824727 -0.050726015
000160 cd 3b 33 3d 9a 2b 5a 3c ee 83 42 3d 35 83 79 bd
       0.043758202 0.0133160595 0.0474891 -0.060916144
000170 03 fd 1e 3d 00 58 9b 3c 79 8a 8e 3b a9 32 23 bd
       0.03881551 0.01896286 0.0043500033 -0.039843235
000180 19 d9 40 ba e6 67 4b 3d 0e fe 27 bc f5 36 0c 3d
       -0.0007356569 0.049659632 -0.010253442 0.0342321
000190 a1 b2 51 bc c1 5c 5e 3c 18 a7 50 3d 0e 85 aa bc
       -0.012798936 0.013571919 0.050940603 -0.020815399
0001a0 54 33 28 3c 5d 94 79 ba ed e6 90 3d 43 73 48 bd
       0.010266144 -0.0009520704 0.070752956 -0.048938047
0001b0 53 68 ef bb 0d bc 99 3d f3 a2 2d bd ca d6 8a bc
       -0.0073061376 0.07506571 -0.04239173 -0.016948123
0001c0 59 2a 96 3c da b0 d5 bb 1f 60 a4 3b c5 2a a6 3c
       0.01833074 -0.0065213265 0.0050163413 0.020284066
0001d0 13 b7 c2 3d d6 1d 8e bc 5c 45 1d bc 47 e0 8c 3c
       0.09507575 -0.017348211 -0.009599056 0.017196788
0001e0 34 d4 a1 3d 14 a2 89 3d 4e 60 2c bc 86 85 e0 ba
       0.07901803 0.06720367 -0.010521008 -0.0017129637
0001f0 85 6a 62 3c 3e 8b c8 3b f8 20 08 bd 9f 88 e7 bc
       0.013819342 0.0061201146 -0.033234566 -0.028263388
000200 5e 4b ae 3a 75 76 c7 bc 65 1e 3e bd f8 14 96 3b
       0.0013297608 -0.024348477 -0.046415705 0.0045801364
000210 38 d9 69 3d 54 44 38 3c b0 87 1e 3d d0 3e 54 3c
       0.05709192 0.011246759 0.03870362 0.012954429
000220 2e b7 d4 bc 92 c9 da bb 0e 72 2b 3d 35 7a 63 bc
       -0.025966253 -0.006676861 0.041856818 -0.013884117
000230 84 85 31 bd 64 ea 8c bc 0a 9e bb bb 91 1f 47 3c
       -0.04334022 -0.01720161 -0.005725627 0.012153522
000240 cf b6 f6 bc 4e 63 31 3b 2f b3 7f bb 4f 0a b3 b8
       -0.030116467 0.0027067247 -0.0039016714 -8.537305e-05
000250 3d ca 2d bc 01 e0 b9 bc 26 44 e7 3c c5 0b 52 bd
       -0.010607299 -0.022689821 0.028230738 -0.051280756
000260 c8 b7 35 3d 4d bb 4a 3d 2b 3b e2 3c a8 39 ec bb
       0.04436472 0.04949503 0.027616104 -0.0072090216
000270 0a ed 99 bc f2 e6 1e bd 8e 7e 98 bc a7 90 85 3d
       -0.018789787 -0.038794465 -0.018615033 0.06521731
000280 80 8f df bb 77 28 8b bc 18 ed c5 bc 39 df be 3c
       -0.0068225265 -0.016987069 -0.024160907 0.0232998
000290 bf d9 4c bd 05 71 b8 3d e9 f2 b6 bc 65 91 f6 bc
       -0.050012346 0.09005932 -0.022332625 -0.030098626
0002a0 16 5c e4 bc cf 77 24 3c 1d c0 ce 3c 35 50 77 3c
       -0.027875941 0.01003833 0.025238091 0.015094806
0002b0 58 87 10 bd 39 c9 d1 3c c5 e2 1b bc 9c 5c e1 bc
       -0.035285324 0.025608646 -0.009514515 -0.02750998
0002c0 08 40 c8 3c fa ec 13 3d c3 6f 40 3c 31 41 27 3d
       0.024444595 0.03611467 0.011745396 0.040833656
0002d0 20 88 fc 3c 61 d1 a3 bc ae 71 61 3b ee 83 3e bc
       0.030826628 -0.0199973 0.0034400034 -0.011628134
0002e0 15 8d ca bc fd 05 af 3d b0 8c de bc 14 86 2f bd
       -0.024725476 0.08546064 -0.027166694 -0.042852476
0002f0 0f b4 30 bc 61 ae ad 3b 29 24 2e 3c 7c 97 65 bb
       -0.010785117 0.0053003286 0.010628738 -0.0035032919
000300 75 db ab bc 71 e8 1e 3d 06 20 2a bd b8 d1 bb bd
       -0.020978669 0.038795892 -0.041534446 -0.0917086
000310 de bf 91 bd 98 a5 5d bd 46 ab 51 3d 04 68 11 bd
       -0.07116674 -0.054113 0.05118873 -0.035499588
000320 51 6f 81 bd 9b f3 dd bb 54 7f 44 3d ef 91 96 3c
       -0.0632006 -0.006773425 0.047972992 0.018380133
000330 c2 63 de 3c 6c ea 37 3d 59 82 fd 3a b3 8b a8 bc
       0.027147178 0.044901296 0.0019341215 -0.020574426
000340 25 1d 76 3d 04 32 a7 3b 46 22 80 3c 31 d2 86 bb
       0.06008639 0.005102398 0.015641343 -0.0041144122
000350 a8 10 99 bc 44 bb 23 bd c7 85 b9 bc 90 97 13 3d
       -0.0186847 -0.039973512 -0.022646798 0.036033213
000360 8b fd be bc ee 01 0c bd 6a 1e a1 bc ed b5 d0 3c
       -0.023314258 -0.034181528 -0.019667823 0.025477374
000370 b0 de 4d bd bc 4c ed 3b e3 18 09 3d 16 25 05 bd
       -0.0502612 0.0072418135 0.033471 -0.03250607
000380 f3 a5 0c 3c ce d7 ce bb 1c 71 3b bd 62 83 76 3c
       0.008584487 -0.006312347 -0.045762166 0.015045973
000390 db 9e bc ba 75 30 86 bc a7 60 69 bc f2 52 26 bc
       -0.0014390604 -0.016380528 -0.014244235 -0.010151612
0003a0 92 71 94 3c 82 93 3b 3d d3 b4 c5 3b e5 69 c6 3d
       0.01812056 0.04579497 0.006033519 0.096881665
0003b0 21 bb 32 bb 64 af 34 bd 56 0e 17 bd b5 48 dc 3c
       -0.0027272182 -0.044112578 -0.036878906 0.026890138
0003c0 85 fb ff bc 22 50 a8 bc 7f eb 08 3d a1 49 2e 3d
       -0.031247864 -0.020546023 0.03342771 0.042550687
0003d0 ea 78 33 3d eb aa 11 3d 7d cd fb bb 9b 62 37 3b
       0.043816485 0.03556339 -0.007684408 0.0027982357
0003e0 33 92 82 bb fd d1 5c 3c ad 81 41 bc f4 6b 1a 3c
       -0.0039847135 0.0134777995 -0.011810702 0.009425152
0003f0 df 0a 23 3d 67 49 bf bc 00 2a 78 3b b1 86 17 3d
       0.03980529 -0.02335043 0.003786683 0.036993686

bias f4 [2]
000000 67 d1 c7 3c 52 b7 a5 bb
       0.024391843 -0.005057254

exp_avg f4 [2, 768]
000000 b7 60 f2 3b b1 2d c9 bb f1 bd a3 bb ec 01 01 3c
       0.007396783 -0.00613948 -0.004997008 0.007873993
000010 04 a9 38 3c 8c c8 b1 3a 8a 2e a0 3c 1e 5d 6c bc
       0.011270765 0.0013563796 0.019553442 -0.014426498
000020 d9 d3 ad 3d 16 e5 40 bb 47 08 fc bb dc 82 1e bc
       0.08487672 -0.002943342 -0.0076914164 -0.009674754
000030 71 78 13 bb 18 4b 93 bc 5a d7 1f bc 80 17 e3 ba
       -0.0022502209 -0.017980143 -0.009755934 -0.0017325729
000040 ac fa 4d 3b 72 b6 db bb 18 18 dd bb 3a ed 3a 3c
       0.003142993 -0.006705099 -0.006747257 0.011409098
000050 17 fa 07 3b ea a3 bb bc 02 55 92 3c 92 b0 4f 3b
       0.002074843 -0.022905309 0.0178628 0.0031690937
000060 2b 7b 53 bc e4 37 12 bc df 36 57 bc 29 d4 56 bc
       -0.0129077835 -0.008924458 -0.013135641 -0.013112106
000070 5e 4a 7d ba b7 c1 bf bb e0 98 84 3b f8 c6 36 3c
       -0.00096622657 -0.00585195 0.0040465444 0.011155836
000080 43 df 7b bc 49 65 12 bc 2f 74 db 3b 01 34 91 bc
       -0.015373054 -0.008935281 0.0066972 -0.017724993
000090 10 2b 92 bb a5 6c 10 3c 4e 77 ef ba 2e c8 41 ba
       -0.0044607 0.008814965 -0.0018269808 -0.0007392195
0000a0 b1 02 13 3c 9e ba b5 ba b4 27 f1 3b a7 e5 a8 3c
       0.00897281 -0.001386482 0.0073594693 0.02061732
0000b0 de 92 2e 3c 0b d4 3a 3c bb 1f 34 bc a9 4a 9a bb
       0.010655133 0.011403094 -0.010993893 -0.004708607
0000c0 7c 69 9d bb a7 1c c0 3b 62 c6 f6 3b 40 b4 29 3c
       -0.0048038345 0.0058627906 0.0075309733 0.010357916
0000d0 7f e6 30 3c 83 c2 41 bc 40 e0 ad 3a 9f 89 46 3c
       0.010797142 -0.01182616 0.0013265684 0.012117772
0000e0 22 49 21 bb 73 2b b5 bb f9 f6 f6 3b 1d 4c 98 ba
       -0.002461024 -0.005528861 0.0075367657 -0.0011619363
0000f0 95 6e 77 bc 7a 7a 00 bc 32 d0 80 3a 17 c0 06 bb
       -0.015102048 -0.007841701 0.0009827672 -0.0020561272
000100 df 77 30 3c b0 d5 5a 3c f0 8a c0 bb 26 d7 72 bb
       0.010770767 0.013356611 -0.0058759376 -0.0037054508
000110 f6 cc 8f 3c 50 b3 8c bb a4 8d 7d bc 1f 22 36 bc
       0.017553788 -0.0042938367 -0.015475664 -0.011116534
000120 f5 70 1c 3c d8 66 8f bb ed ea 93 bc be 6a 18 3c
       0.009548415 -0.0043762736 -0.018056357 0.009302793
000130 de 52 54 3c b4 50 2d bc c0 85 2b 3a 31 de 76 bc
       0.01295921 -0.010578323 0.00065430626 -0.015067623
000140 08 96 08 bb e3 67 87 bb bc e5 2b 3c 3e b4 37 bb
       -0.0020841379 -0.0041322573 0.010491785 -0.0028031017
000150 f7 bc 11 bc 0a cb 97 bc e2 5f ff 3a fb 9b c5 3c
       -0.00889515 -0.018529434 0.0019483531 0.024122229
000160 90 d5 43 bb 2b d3 a6 bb e4 50 23 3b 86 3b 27 3c
       -0.0029881932 -0.005091091 0.002492004 0.010207063
000170 17 1e 3d 3c b0 f8 4f 3b 50 b7 96 3a 84 2f 8d bc
       0.0115428185 0.0031733923 0.0011498723 -0.017234571
000180 53 eb 70 bb 2d 22 b2 3b a4 9d 75 bc ce 85 4e bc
       -0.0036761358 0.005436203 -0.014991198 -0.012605144
000190 34 32 0d 3c 70 11 11 bc 29 9e 3b bc 3c 27 77 3c
       0.008617926 -0.008854255 -0.011451283 0.015085038
0001a0 76 fd da 3c e0 a3 de bb 5e 45 3b 3c 43 be 75 3b
       0.026732188 -0.0067944378 0.011430113 0.0037497438
0001b0 db 3d 30 3c f3 b7 20 ba 2c 15 00 bc 92 c3 ba bc
       0.010756935 -0.0006130926 -0.007817548 -0.022798333
0001c0 78 8b 3b 3c df c4 2a bc ed 87 83 3b 34 82 ce 3a
       0.011446826 -0.010422914 0.0040140064 0.0015755356
0001d0 ce 1e 41 bc c7 62 3e 3c cf ea d6 bb 20 a6 f4 ba
       -0.01178713 0.01162023 -0.006558753 -0.0018665232
0001e0 83 20 ac 3b b9 35 b8 bb 97 1d eb bb f2 17 63 bc
       0.005252899 -0.0056216386 -0.0071751582 -0.0138606895
0001f0 c3 50 75 3c a8 4a 80 3b 6b 80 0b 3c 60 6a c3 3b
       0.014972868 0.0039151497 0.008514504 0.0059636086
000200 b3 4c 1f 39 b4 8f 99 3c c3 ae a6 3c 9c 66 87 bc
       0.00015191994 0.01874528 0.020347005 -0.01652842
000210 3d 6d b7 ba a0 c0 a0 bb 0d da a3 3a 8c 3a 84 bb
       -0.0013994348 -0.004905775 0.0012500897 -0.0040352996
000220 9f 9a 86 3c 34 90 d6 3b 9d bc 82 bb db c9 d6 3b
       0.016431151 0.006547952 -0.0039897696 0.0065548248
000230 52 eb 29 3c d9 c8 b4 3a 91 a9 de 3b c5 29 3d 3b
       0.010371046 0.0013792767 0.0067951162 0.0028864008
000240 77 b7 28 3c e3 94 a9 3b 7e e3 23 bc ad dd 8e bc
       0.010297648 0.0051752194 -0.010002969 -0.017439688
000250 07 b1 8e bb 5b 8e 97 bb a7 6c 81 3b fa ed 86 3b
       -0.0043545994 -0.0046251244 0.00394972 0.0041177245
000260 85 6b c2 3b 68 18 0d bb c4 7e 2b 3b 7d e4 83 bb
       0.0059332275 -0.002152944 0.0026168087 -0.0040250407
000270 8e bf e6 3b 0e e2 9c bb c4 e1 31 bc d6 e3 3c bc
       0.007041878 -0.00478769 -0.010857049 -0.01152893
000280 b6 0b bb 3a 68 6e 6b bc 2f 46 15 bb b4 2c 63 bb
       0.0014270458 -0.014369585 -0.0022777428 -0.0034664096
000290 ab 31 77 3c 6f 4c 7d 3c 46 72 1d ba a4 d3 1f bc
       0.015087525 0.015460118 -0.0006006103 -0.009755049
0002a0 61 5a 1a 3b e6 7f 4f bc 16 fe c1 3c 04 4b 6a 3c
       0.0023552405 -0.012664771 0.023680728 0.014300112
0002b0 c2 56 dc 3a b5 27 9f 3b 06 ce 87 3c af 74 0e bc
       0.0016810524 0.0048570284 0.016577732 -0.008694812
0002c0 56 2b 9a 3c 6a c3 e6 3b f8 1d b9 3a d8 b3 55 3c
       0.018819492 0.007042338 0.0014123311 0.013043366
0002d0 0c ad 14 bb 3b ce 6c bc 92 b3 4f 3b c3 fa a7 bb
       -0.0022686152 -0.014453466 0.0031692726 -0.0051263287
0002e0 37 07 3d 3b 48 b6 ac 3a db 23 0c 3c 99 bb 50 3b
       0.0028843412 0.0013176883 0.0085534705 0.0031850098
0002f0 79 fa a7 3c ab c8 f9 3b 06 66 1e 3b e6 ad a6 3b
       0.020505177 0.0076227984 0.0024169697 0.0050866483
000300 b4 80 8a 3b 95 22 3b 3a 0b e2 51 3c 96 9c 0d 3c
       0.0042267684 0.0007138637 0.0128102405 0.00864329
000310 23 03 a5 ba 40 40 8a bb ed 1e af bb 42 b0 2f 3b
       -0.0012589436 -0.004219085 -0.005344263 0.0026807939
000320 c9 a8 43 3c a5 87 84 3c 3f fc d6 bb 8c 6b cd bb
       0.011942097 0.016177962 -0.006560832 -0.006268924
000330 dc 3d 9e 3b 19 32 f3 3b fc fb 65 3c ac 3a 11 bc
       0.0048291516 0.0074217436 0.014037129 -0.008864086
000340 e6 40 2d bc 12 04 ac bc 4b 85 c0 3b 78 46 82 3c
       -0.010574555 -0.020998035 0.0058752648 0.015902743
000350 68 0a d9 bb e3 55 ba bb 03 2e a8 bb 9a 11 ec 3a
       -0.006623555 -0.005686508 -0.005132438 0.0018010617
000360 12 e9 7b 3b f6 82 08 3b 03 1f 6f 3b e1 cb 75 bb
       0.0038438481 0.0020830012 0.003648699 -0.0037505555
000370 48 7c 6b 3b 87 9c 17 bc c6 f8 25 3c 00 ab 56 3b
       0.0035932232 -0.009253628 0.010130113 0.0032755733
000380 33 61 5f 3c df 94 48 3c 8b aa 65 b9 4c a0 76 bb
       0.013634014 0.012242525 -0.00021902674 -0.0037632165
000390 82 e6 c5 3b 57 93 45 39 63 98 7e b8 3b 96 27 3c
       0.0060394416 0.00018842272 -6.070024e-05 0.010228689
0003a0 56 7f 57 bb 63 f8 cb b9 e6 b5 07 3c e7 06 5d 3c
       -0.0032882295 -0.0003890424 0.008283114 0.013490415
0003b0 0c 9c 9f 3a 3f e9 53 bc 2a 51 36 bc a3 ba c4 3b
       0.0012177243 -0.012934028 -0.011127749 0.006003694
0003c0 db c8 09 bc aa a0 fc 3b 89 82 8b 3c 4d 16 e9 3b
       -0.008409704 0.0077095823 0.017030017 0.007113254
0003d0 77 79 1e 3c 30 9a 93 bb 14 c0 a9 ba a6 43 47 bc
       0.009672514 -0.0045044646 -0.001295092 -0.012162125
0003e0 5d cf 8e 3a 90 6b 9a ba c8 e5 8a bb 18 d6 39 3c
       0.0010895539 -0.0011781324 -0.004238818 0.011342548
0003f0 bf 34 32 3c a0 44 47 ba b8 d1 85 bb e6 c6 c5 3b
       0.010876833 -0.00076014735 -0.0040838383 0.0060356734

exp_avg_sq f4 [2, 768]
000000 6f 76 8a 3b 9d 5a e7 3a 50 6b 1d 3b 19 dc bf 3c
       0.004225544 0.0017650906 0.0024020262 0.02342038
000010 3f 32 f3 3c 72 ef b8 3a 4f bf 9d 3d bf a6 28 3c
       0.029687045 0.0014109446 0.07702505 0.010293662
000020 a3 59 38 41 b2 73 8b 3d 0e bf fc 3a 5c 5f 9a 3c
       11.521884 0.068091765 0.0019283013 0.018844299
000030 2c 6b 03 3c c6 e1 51 3d d9 a8 6f 3c de 07 88 3b
       0.008021157 0.051240705 0.014627659 0.0041513285
000040 5b a1 c3 3a 62 5a f8 3b ee 7a ae 3b 02 6c 3a 3c
       0.0014925407 0.007579134 0.005324713 0.01137829
000050 5f ce 22 3c f8 85 31 3c 2b 98 f5 3b c7 63 7c 3c
       0.009936898 0.010835163 0.0074949465 0.015404648
000060 29 91 70 3d 9d cf 9a 3b e4 f7 e6 3a 4a ec e1 3c
       0.058732186 0.0047244565 0.0017621485 0.027578492
000070 cb db e3 3a 14 28 13 3b a6 c2 6c 3d 7a 86 2f 3c
       0.0017384229 0.0022454308 0.05780282 0.010713214
000080 2d 37 1d 3c c1 e2 3d 3d ba 3e 0a 3c 66 7e a5 3c
       0.009595674 0.046358828 0.008437807 0.020201873
000090 87 80 14 3d 7b 28 a4 3a cd 49 84 3f 19 77 d9 3a
       0.036255386 0.0012524271 1.0335022 0.001659128
0000a0 9b 1d c6 3b ac b0 c3 3b fe 39 e6 3a 10 d0 cb 3e
       0.0060460097 0.0059719887 0.001756489 0.39807177
0000b0 a9 2d 53 3d 26 08 2a 3b be 33 e9 3c 32 c5 2e 3c
       0.051557217 0.0025944798 0.028467055 0.010667132
0000c0 e0 59 cc 3a fe 69 69 3c 75 f5 07 3c 6d f4 4a 3c
       0.001559075 0.014246462 0.008298268 0.012387377
0000d0 61 e4 02 3c 00 77 bf 3a 22 a9 98 3c a2 b3 ae 3b
       0.00798902 0.0014607608 0.018635336 0.0053314725
0000e0 f1 6c 84 3b 9d 7c 7a 3c 8c 5a 8a 3c d2 87 f3 3b
       0.004041307 0.015288499 0.01688888 0.0074319625
0000f0 1e ca 90 3c df 09 b1 3c b3 6c 13 3b 1f 59 c2 3d
       0.017674502 0.021611152 0.002249521 0.09489655
000100 40 07 f4 3a 30 91 5d 3d 0e 7d 2a 3c 0c 38 09 3b
       0.0018617883 0.05409354 0.010405792 0.0020937948
000110 b1 3d 0b 3d 80 96 03 3d d9 df 87 3b e9 e1 16 3c
       0.03399438 0.03212595 0.0041465578 0.009209135
000120 b5 ea 12 3b 84 d6 bb 3b 87 0e 84 3b 21 c1 25 3c
       0.0022417728 0.0057323594 0.004030052 0.010116846
000130 5c b7 01 3d 41 6c f9 3a e5 0f 9a 3c 70 dc 7a 3c
       0.031669006 0.0019029455 0.018806407 0.015311345
000140 d1 08 0b 3b eb 62 ba 3b f3 74 0f 3b cb 9c b9 3a
       0.0021214972 0.0056880615 0.0021889776 0.0014161108
000150 23 f6 10 3c b6 5c 9b 3b 09 41 c6 3d b8 ee 68 3b
       0.008847746 0.0047412766 0.09680373 0.0035542678
000160 b1 c8 b8 3c 94 f5 36 3b d2 e5 0f 3c c3 a8 92 3a
       0.022556635 0.0027917372 0.008782821 0.0011189211
000170 b3 02 ed 3c 9c 03 5c 3d 3a 87 2c 3c d7 8f 80 3b
       0.028931951 0.05371438 0.010530287 0.003923397
000180 9b 5f 7b 3b ac ac d2 3b 66 a2 fa 3b f0 c1 9b 3d
       0.0038356546 0.0064292755 0.007648754 0.0760535
000190 6a c2 9e 3b af 80 fa 3b 5f 16 b7 3c 4c e7 33 3c
       0.0048449533 0.007644735 0.022349535 0.010980438
0001a0 8e 67 27 3e 2a a2 1c 3b e6 33 d4 3a 83 a4 62 3b
       0.16348097 0.0023900368 0.0016189783 0.003458292
0001b0 6c 7d c4 3c 44 76 79 3b 21 e3 1b 3c 0e fd 09 3c
       0.023985587 0.0038064877 0.009514601 0.008422149
0001c0 b8 d5 a1 3b b1 22 10 3c 3e a5 9f 3b ae ee a2 3a
       0.0049388073 0.008797334 0.0048719933 0.0012430751
0001d0 f2 70 e4 3a 9b a6 16 3c bd 29 ff 3c f5 27 91 3c
       0.001742868 0.009194995 0.031147832 0.017719248
0001e0 bc 13 2e 3c ec 19 f3 3a d2 e3 fa 3a 7b f1 12 3d
       0.010624822 0.0018547154 0.0019141382 0.035874825
0001f0 42 9b fc 3b 8c 1f ab 3d 77 e0 bb 3b d8 5d 20 3b
       0.007708938 0.083556265 0.0057335454 0.0024469998
000200 43 68 42 3c 79 05 a4 3b a5 3a cb 3b 2f a5 94 3c
       0.011865678 0.005005535 0.0062020593 0.018145172
000210 a1 34 ce 3a d9 35 b7 3c 80 c5 c4 3c 0c ba 61 3c
       0.0015732237 0.022364544 0.024019957 0.013777267
000220 d3 e9 1d 3c 24 5d 5a 3b d2 e5 41 3c 24 81 0e 3b
       0.009638268 0.0033319676 0.011834579 0.0021744454
000230 08 fb bd 3c 22 00 23 3c 45 28 a0 3c a0 be 6a 3c
       0.02319099 0.009948762 0.019550452 0.014327675
000240 c0 cc f5 3b 50 1f 02 3c 79 64 0a 3b 40 a0 5d 3d
       0.0075012147 0.007942036 0.0021117015 0.054107904
000250 0f 54 3d 3b 79 1f 27 3c 4d 8e a3 3b e8 ae f2 3a
       0.0028889214 0.010200375 0.004991329 0.0018515261
000260 13 9b 07 3c ee 39 d6 3c 28 ec dd 3c 54 1f 48 3d
       0.008276719 0.02615067 0.027090147 0.048858
000270 67 fa d2 3a ac 56 1e 3d 07 4c fa 3b 1a 7e 0e 3c
       0.0016096354 0.038656875 0.0076384577 0.008697057
000280 50 2c 89 3c 4a bd bb 3c 15 49 84 3b f7 77 c6 3a
       0.016744763 0.022917408 0.0040370324 0.0015141953
000290 ff 4f 27 3b 20 d9 06 3b 16 e4 c3 3b 4d aa 23 3d
       0.002552986 0.0020576194 0.0059781177 0.039957333
0002a0 7c f4 ce 3b a2 a2 4a 3b 0d 24 81 3d 9b 2c 11 3b
       0.006315766 0.003091969 0.06305704 0.002215183
0002b0 df e1 03 3b 17 d1 96 3b 18 6a ab 3c b4 5b 83 3d
       0.0020123643 0.004602562 0.020924613 0.06413975
0002c0 a8 2f 01 3d 63 03 c3 3c 6c 4a 39 3b 6e c9 35 3c
       0.03153959 0.023805326 0.0028273119 0.011095388
0002d0 60 84 0b 3d 5b 51 c6 3c 5b 49 34 3c a2 3b c1 3a
       0.03406179 0.024208715 0.011003817 0.0014742503
0002e0 e9 f3 be 3c 93 9b 02 3b 31 58 3c 3c 64 e0 da 3a
       0.023309665 0.0019929155 0.011495636 0.0016698954
0002f0 b2 fd 84 3b f8 9e fb 3c 88 c7 0a 3d e8 96 a9 3b
       0.004058563 0.03071545 0.033881694 0.00517546
000300 74 dc 0c 3c 4a 9a 0f 3b 2d 66 ba 3c bb be 02 3b
       0.008597482 0.0021912032 0.0227538 0.001995011
000310 11 23 2c 3c d0 d9 02 3b c5 0a 27 3c 3e eb 31 3b
       0.010506407 0.0019966252 0.010195439 0.0027148272
000320 a0 c7 b6 3b a3 81 55 3b 46 a9 65 3c 94 03 09 3b
       0.0055779964 0.003257849 0.014017409 0.0020906674
000330 83 49 f1 3b 11 61 85 3b ac 61 aa 3b 8c 02 d5 3a
       0.0073634996 0.004070409 0.0051996317 0.0016251369
000340 62 c5 46 3b c1 4d 87 3b a8 e7 7b 3b 72 2f eb 3b
       0.0030330052 0.004129142 0.0038437638 0.007177287
000350 27 22 3b 3b a4 fb c9 3b 3d 2c 8a 3e a2 bd 45 3c
       0.0028554292 0.006164031 0.26986876 0.012069138
000360 94 5c b2 3b 5d ec 89 3c 95 5d 2a 3c 6c 0c 8c 3d
       0.005443165 0.01683634 0.010398288 0.06838307
000370 6b ae 19 3c 07 17 a8 3b 9f b7 2b 3e 98 d2 6d 3c
       0.009379963 0.005129698 0.16769265 0.0145155415
000380 ee 01 3c 3c 4d b3 38 3b af 53 18 3c c4 d9 d6 3c
       0.011475069 0.0028183043 0.0092972955 0.026226886
000390 99 76 10 3c 9c 68 cd 3a e1 02 f1 3b cd 81 05 3e
       0.008817338 0.0015671435 0.0073550795 0.13037796
0003a0 de 30 40 3c 86 ab d7 3a 9f 52 cf 3c 12 94 d0 3a
       0.011730401 0.0016454316 0.025307951 0.0015913269
0003b0 9f 31 c8 3c e6 4f 76 3c 71 db 18 3d 4c 98 5f 3c
       0.024437724 0.015033698 0.03731865 0.01364715
0003c0 f8 54 fb 3b cd ed 6e 3b 60 0d 41 3b bf 6a bb 3b
       0.007670041 0.0036457658 0.0029457435 0.0057195122
0003d0 a0 d2 db 3a 59 b0 18 3b b5 e7 35 3b 88 fb 7b 3b
       0.0016771145 0.002329847 0.0027756516 0.0038449485
0003e0 76 22 8a 3c 2e 31 51 3b 5d df 2e 3d 13 49 ae 3c
       0.016862135 0.0031920183 0.042693485 0.021275079
0003f0 74 f1 45 3c 5e cf f0 3a 59 81 99 3a 3b 83 ce 3c
       0.012081493 0.0018372347 0.0011711522 0.02520906

exp_avg f4 [2]
000000 00 e3 94 bb 0b e3 94 3b
       -0.004543662 0.004543667

exp_avg_sq f4 [2]
000000 9b 59 e1 3c 9b 59 e1 3c
       0.027508548 0.027508548
