TASK2/gender_classification_model/checkpoint_step_8800.pth (torch, 22979 bytes, 6 tensors)

weight f4 [2, 768]
00000000: 2ee5 d93c 45ba 903b 5a37 923c c53f 643c
00000010: 25f6 ddbc 909b dcba 2efa fabb 480f 99bc
00000020: b8a0 f8bc 1892 57bc 584e 2fbd 88a5 9fbb
00000030: 614c 46bd e37a ab3c ea93 c93c 419d 51bc
00000040: babc f73b dbc2 a7bc 734b 38bb 9d7f cbbc
00000050: 1d23 c2bb d930 b53c ed49 303d 0adb 353c
00000060: 68ea 0f3d 30de 3abc fa61 083c c3fb 073b
00000070: 535a 4b3d 13eb 7b3b 81d8 033d 1b32 0e3d
00000080: bc90 a83c 1505 0f3b 517d 26bc 08c6 133d
00000090: 54ed 323c 0ef2 89bd 227e 9c3c 07cc a3bd
000000a0: a745 bb3c 9800 b0b9 72a4 0bbd a849 763c
000000b0: d285 b3bc d20c fcbb 329c 023d f8d2 303d
000000c0: e64d 1d3d 1c76 babc debb 8b3c 79c6 9c3c
000000d0: cc85 afbb 7f23 12bd dde0 07bc 8efb 99bc
000000e0: 16a7 1dbb 44d8 8dbb 8032 5dbb d496 8e3c
000000f0: 7c6f 323c 0afa fd3b 269f 22bd 3332 74bc
00000100: 3e6b 8d3b d3d2 82bc 5d03 343d 3a01 673d
00000110: 86a9 0bbd c120 fb3c ea54 463b 72ee 07b9
00000120: 0253 faba 29e5 06bc 44fb cfbc 0bf8 05bd
00000130: d86c b9bb 6102 1d3c 9458 b2bb 1f41 59bc
00000140: ad2a 963c ea53 9abc 3094 80bd 1197 633b
00000150: 41e3 2b3c f175 a53c 6682 8cbc 61c9 34bd
00000160: 14c6 193d 0060 363c c15d 203d edf3 17bd
00000170: 8b05 0c3d 2fef 973c 1829 f13b eb4c f6bc
00000180: 5544 4dbb c3ba 463d c83c 4bbc 9bba fc3c
00000190: f249 0dbc 4ea2 1c3c d05f 3d3d bd83 aabc
000001a0: 9ba2 333c 574d 983a 1aed 8b3d c9e0 53bd
000001b0: e52d 31bb 1576 6b3d f0ca 29bd 2f74 95bc
000001c0: 63a8 1a3c e18b b2bb dd2f 2b3b 7406 ea3c
000001d0: d4ec a33d 03fb 06bc 46d2 84bc 5060 bb3c
000001e0: 42ec 823d 8441 7a3d bf87 97bb 537c ecbb
000001f0: 236c 9c3b 52e8 0d3c e824 e3bc da7d debc
00000200: f287 d03a d25f 9fbc f1ee 23bd d643 bd3b
00000210: 84b2 4c3d 207e 4a3c f700 143d ac8e 093c
00000220: b7ba c7bc e053 03bc 04f5 1d3d 1376 803a
00000230: 3b95 19bd 2022 3fbc 25f9 b6ba 75ce 503c
00000240: c0b6 d4bc 3ac8 9e3b 9ad2 3abb 5715 73b9
00000250: a32a 81bc 611c e9bc 5a56 c83c 3792 36bd
00000260: da91 133d 0c38 383d 9f8c b33c 9402 3abc
00000270: aa6d 4fbc 5765 17bd 7605 a7bc a303 6a3d
00000280: dfe4 03bc bcc3 73bc 5da5 d9bc b0c5 b83c
00000290: c487 58bd 1c93 a63d 645e 62bc 837f f6bc
000002a0: 7409 9bbc 5e93 873c 22b8 d93c 9936 283c
000002b0: a337 f6bc dc5f e53c 2dc1 6bbc e038 e1bc
000002c0: 4f28 a23c f24e 063d 39fc 1e3b 4439 1c3d
000002d0: a4de d23c 65d4 afbc 6b55 c43b df51 94bb
000002e0: 3dcb a1bc 29c6 993d eceb d3bc a2f8 31bd
000002f0: fa6f debb eb45 7c3b ff4d 243c 4f37 95ba
00000300: 7d85 c3bc ae5c 013d bea5 0dbd 30ea 95bd
00000310: 4abb 7bbd c1ad 2ebd 0d0e 383d bc21 19bd
00000320: b329 49bd 13d5 50bb a94b 383d 3079 293b
00000330: 8b34 ef3c 3e23 1e3d e123 90bb 56cd afbc
00000340: 28ac 633d 274a c23b d2ab 483c 83eb 903b
00000350: e0f1 9abc 4a3d 17bd 23d1 a5bc fa14 f23c
00000360: 4777 b3bc 78c5 12bd 97ec b3bc fd87 e13c
00000370: 9980 24bd e160 393c 9e3c 0b3d d955 e0bc
00000380: da86 ae3b 3938 2dbc f023 2bbd 5059 813c
00000390: 58e8 d0bb dd9c 87bb 79c7 9cbc e82e 1abc
000003a0: 60be 9f3c 12e3 1f3d 24c2 063c 47fe 973d
000003b0: c9a2 55bb 954e 1dbd f3c2 01bd a503 ab3c
000003c0: 7374 ddbc 7bba 89bc 84b0 0f3d 80da 203d
000003d0: c219 063d 1edd 053d 9b77 7dbb ed28 bf3b
000003e0: affb ffbb e62c 943c be78 6ebb 9b85 283c
000003f0: 0fea 143d 1123 95bc b35d 6d3c 268d 0a3d
0.02659854 0.0044167363 0.01784866 0.0139312195 -0.02709491 -0.0016831029 -0.0076592183 -0.018684044
-0.030350074 -0.01315739 -0.042799324 -0.004872028 -0.048412684 0.02093262 0.024606664 -0.01279384
0.0075603398 -0.020478657 -0.0028121143 -0.024841124 -0.005924596 0.022118019 0.04303925 0.011099586
0.035135657 -0.011405513 0.008324141 0.0020749427 0.049646687 0.0038439676 0.032188896 0.034715753
0.020576827 0.0021823097 -0.010161714 0.03607753 0.010920841 -0.067356214 0.019103114 -0.079978995
0.022860361 -0.00033569778 -0.034092374 0.015032209 -0.021914396 -0.007691958 0.03188724 0.043169945
0.038404368 -0.022761397 0.017057355 0.019137608 -0.005356526 -0.035678383 -0.008293358 -0.018796708
-0.002405589 -0.0043287594 -0.0033752024 0.017405905 0.010890838 0.0077507542 -0.039702557 -0.014904547
0.004315763 -0.01596967 0.04394852 0.056397654 -0.034097217 0.030655267 0.0030263015 -0.00012963431
-0.0019098225 -0.008233347 -0.025388367 -0.032707255 -0.005658727 0.009583087 -0.0054426882 -0.013260155
0.018330896 -0.018838841 -0.062782645 0.0034727494 0.010491193 0.02019784 -0.017152023 -0.044137362
0.037542418 0.011131287 0.03915191 -0.03709786 0.034184974 0.018546669 0.007359635 -0.030065974
-0.0031321247 0.048517954 -0.012404628 0.0308507 -0.008623587 0.009560181 0.046233952 -0.02081477
0.010964061 0.0011619729 0.06832333 -0.051728044 -0.0027035412 0.05748566 -0.041453302 -0.018243877
0.009439561 -0.005448804 0.0026121058 0.02856753 0.08004156 -0.008238557 -0.016213547 0.022873074
0.06392719 0.061097637 -0.0046243365 -0.007216969 0.004773633 0.0086613465 -0.02772756 -0.02715962
0.0015909655 -0.01945487 -0.040022794 0.005775909 0.049974933 0.012359172 0.036133733 0.008395832
-0.024381025 -0.008015603 0.038563743 0.0009800814 -0.037495833 -0.011665851 -0.0013959749 0.012744536
-0.025966048 0.004845646 -0.0028506876 -0.00023182236 -0.015767401 -0.028455915 0.024455238 -0.044573035
0.036027767 0.044975325 0.02191764 -0.011353154 -0.012660423 -0.03696188 -0.020388346 0.057132374
-0.008050173 -0.01487821 -0.02656811 0.022555202 -0.05286385 0.08133528 -0.01381645 -0.0300901
-0.018925406 0.016549762 0.02657706 0.010266923 -0.030055827 0.02799981 -0.014389318 -0.02749294
0.019794611 0.032790132 0.0024259223 0.03814055 0.025740929 -0.021463582 0.005991628 -0.0045263614
-0.019750232 0.07508499 -0.025869332 -0.043450005 -0.006788251 0.0038493823 0.010028361 -0.0011384281
-0.023867363 0.031582527 -0.034581892 -0.07320058 -0.06145791 -0.042646173 0.044935275 -0.037385687
-0.049112033 -0.0031865283 0.04499403 0.0025859587 0.02919986 0.03860783 -0.0043988083 -0.021460216
0.055584103 0.00592925 0.012247996 0.0044226064 -0.018914163 -0.036923684 -0.020241326 0.029551018
-0.021907462 -0.035832852 -0.0219634 0.027530665 -0.040161703 0.011314602 0.033993356 -0.027384685
0.005326134 -0.010572487 -0.04178232 0.015789658 -0.006375354 -0.0041385726 -0.019138085 -0.009410597
0.019499958 0.03903491 0.008224998 0.074215464 -0.0032598248 -0.03840502 -0.03168006 0.020875761
-0.027033066 -0.016812554 0.035080448 0.039270878 0.03273941 0.032681577 -0.0038676027 0.005833736
-0.0078119854 0.018087815 -0.0036387886 0.01028576 0.03635603 -0.018205198 0.014487672 0.033826016

bias f4 [2]
00000000: 921f c43c 9b06 94bb
0.023940835 -0.004517389

exp_avg f4 [2, 768]
00000000: 275a cabc 6299 7e3c 5681 bcbb 833c 9fbd
00000010: 1abe b6bd 2233 afbc 4b41 0b3e 58f3 193d
00000020: 7292 dabf 1813 0dbe 18c4 8abc 989b 993d
00000030: a950 383d 4b95 f63d 5ed6 633d 21c3 0f3d
00000040: ae25 49bc e675 283d 384d e7bb 238f 88bd
00000050: 2c3c 32bd 6c46 10bd fd28 ee3c 49dc 743d
00000060: d4f9 fa3d 32cf c83c 81eb 2f3c 3361 bc3d
00000070: 6d0c 20bc 6ec7 aeba 3849 d3bd 705e 6dbd
00000080: 55e7 4e3d e807 cc3d 9237 133d 7bdf 803d
00000090: 0b4c c63d 814a 113c d8b7 093f 9bff 5abb
000000a0: f55f d43c 8657 1cbd 2734 94bc e0d1 b2be
000000b0: 6683 e4bd 4d87 9bbc 046b bb3d 47ea 343d
000000c0: 05a8 483b 21be 71bd b05d 29bd fb3a 7cbd
000000d0: d236 22bd 5222 983c 8275 6bbd d358 e5bc
000000e0: f07c e8bc fd69 7b3d 4146 743d adb5 283d
000000f0: 8a9b 7bbd c00c 9c3d 39de 5ebb 6b75 1b3e
00000100: 2bd2 bf3b c7d1 fbbd 8f4b 353d dfb1 4dbb
00000110: 4c31 b7bd 04f8 aabd b818 ea3c ae68 7b3d
00000120: 4bfd 853b 6949 73bc 969a e9bc 63c8 303d
00000130: f374 bebd 53fb 643c b4a7 70bd a309 903d
00000140: e85f acbc 840a 1d3d 36e1 583c 7587 263c
00000150: c46f 36bd 9c7e 003d 6d0c 24be 12b2 f2bc
00000160: 5226 8d3d 80fc 6f3c eb09 1f3d 1baf 9cbc
00000170: 531c 9b3d 8876 f8bd 3712 6cbd 8dc1 1c3d
00000180: ff65 8fbc 53f8 fcbc b48f 093d 45ac 053e
00000190: b5eb 1cbd b1e0 0c3d e25b 9b3d 79f0 5cbd
000001a0: 0ceb 56be d3be 4cbc 1723 8bbc 49fc 743c
000001b0: 5e89 733d 2842 c7bc 1ff3 433d 52c8 553d
000001c0: dbd2 dc3c 7a9b 403d 3875 043d e272 12bc
000001d0: 3bbd aaba d658 18bd 91a1 babd f747 68bd
000001e0: 5217 4cbd c415 5b3c 084e cf3c 2ba5 c93d
000001f0: 4f5e 59bd 0b32 11be ef1e 123d 3470 afbb
00000200: 59b5 48bd b92c b7bc 738f d7bc e8f4 9b3d
00000210: 1e1d 5a3c 0585 733d 11ea 76bd f1e8 85bd
00000220: e8ef 3fbd c699 c43c a5b2 813d ab60 c2bc
00000230: c679 9abd 0a50 43bd 696c a0bd 1847 63bd
00000240: bb6a 19bd 3ad2 283d 4680 693c 9b28 0c3e
00000250: 4fc9 ff3b aedd 3d3d 40ba db3c e488 a33c
00000260: 31c7 043d c310 a2bd 119f 8a3d e58f ea3d
00000270: 1b81 42bc bc4b b83d 0fff 333d 7e7d f7bc
00000280: ab27 85bd 21ed 81bd e697 d6bc e084 953a
00000290: 8063 b5bc 83d1 e0bb 86e1 143d 233a c83d
000002a0: a3cf f5bc be99 f83c 8f11 02be bdd2 123c
000002b0: 5903 63bc 5961 513a 27ae 933d 7ae9 ec3d
000002c0: 4b4c e1bd 3b32 c6bd c17d 523c a335 56bd
000002d0: 9ed1 ba3d cbda 9dbd 1b90 59bd 7b2f e3bb
000002e0: c8f4 81bd f4dd 53bc aa2f 433d e1bb b63c
000002f0: 9880 eb3c 44cf b7bd 93ce c1bd c7d8 c2bc
00000300: 3aaf 493d 8007 9bbc e98e a4bd 9f9e 173c
00000310: 1a02 51bd 556f ffbb 3ab4 1d3d 1941 973c
00000320: b3dc 25bd a56c 13bd dcdd 5dbd 9699 67bc
00000330: 93dc 0abd 4d79 f1bc 6aef bf3b 2e0e 293c
00000340: 7e40 0c3d 317b 013c b741 f1bc 579f 15bd
00000350: 1cb3 aabc eead ed3c cbfb 85be 0242 853d
00000360: 503c 263d 1a31 87bd d0e7 30bd 3760 e83d
00000370: 3548 e7bc d7d1 dcbc e067 4cbe 1c46 90bd
00000380: bb07 5abd a8a5 dbbc d697 0ebd d53e b63d
00000390: 15f5 07bd 5d06 0c3b e349 bc3c 761d 39be
000003a0: d3b1 793d 045e 6e3b cde1 903d 8a07 a13a
000003b0: c109 9c3d 59da 813d 67b4 b23d 6a51 78bd
000003c0: edfa 1d3d 2229 b73c 7e08 cc3c f3b1 ee3c
000003d0: c2bb b9bc d22c d9ba 49dc 7a3c f801 bd3c
000003e0: f8d4 8abd 88ea 04bd 7f8e d23d bbf0 a2bd
000003f0: 98b1 58bd c67b a8bc 1673 98bb 9d2a 94bd
-0.024701191 0.015539499 -0.0057527227 -0.077752136 -0.08922978 -0.021386687 0.13599126 0.037585586
-1.7075942 -0.13776815 -0.016939208 0.0750038 0.0449988 0.12040194 0.05562436 0.0350982
-0.01227705 0.04112806 -0.0070587657 -0.06667926 -0.043514416 -0.03522341 0.02907228 0.059780393
0.12254682 0.02451286 0.010737301 0.09198227 -0.009768588 -0.0013334581 -0.103167 -0.05795139
0.050513584 0.099624455 0.035941668 0.062926255 0.09682473 0.008867861 0.5379615 -0.0033416513
0.025924662 -0.038169406 -0.018091274 -0.34925747 -0.11157875 -0.018985415 0.09151271 0.044168737
0.0030617726 -0.05901921 -0.041349113 -0.061579686 -0.039603062 0.018571053 -0.05748511 -0.027996456
-0.028379887 0.061380375 0.05963731 0.041188885 -0.06142763 0.07619619 -0.0034006967 0.1518151
0.0058539114 -0.12295871 0.04426151 -0.0031386537 -0.089449495 -0.083480865 0.02857624 0.061379127
0.0040890328 -0.014849045 -0.028516095 0.043159854 -0.0929965 0.013975936 -0.058753684 0.07033088
-0.021041825 0.038340107 0.013237288 0.010164131 -0.04454018 0.031370744 -0.16020365 -0.029625926
0.06892075 0.014647603 0.038827818 -0.019126466 0.07573762 -0.12131983 -0.05763456 0.038270522
-0.01750469 -0.030880129 0.03358431 0.13053997 -0.038310725 0.03439397 0.07585885 -0.05394027
-0.20988101 -0.012496668 -0.016984506 0.014952728 0.059457175 -0.024323538 0.04783928 0.052192993
0.026956012 0.047023274 0.03233835 -0.008938523 -0.0013026366 -0.037194096 -0.091128476 -0.056709256
-0.049826927 0.013371889 0.025305763 0.098459564 -0.053068455 -0.14179246 0.03567403 -0.005353952
-0.04900107 -0.022360193 -0.02631352 0.076150715 0.013312606 0.05945303 -0.060281817 -0.06538571
-0.04685965 0.023999106 0.06332902 -0.023727736 -0.07542758 -0.047683753 -0.078331776 -0.055487722
-0.0374553 0.041216113 0.014251774 0.13687365 0.0078059803 0.04635399 0.02682221 0.019962735
0.032416526 -0.07913353 0.06768621 0.11453227 -0.011871601 0.0899882 0.043944415 -0.030211207
-0.06501707 -0.06344057 -0.026195478 0.0011407398 -0.022142172 -0.0068609132 0.03634789 0.09776714
-0.030006235 0.030346747 -0.1270201 0.008961377 -0.013855779 0.0007987223 0.07210951 0.115679696
-0.1100088 -0.096775495 0.012847365 -0.052297246 0.091220126 -0.07707747 -0.053115945 -0.0069331503
-0.063455164 -0.012931336 0.047652878 0.022306385 0.028747842 -0.0897508 -0.09463229 -0.023785008
0.049239375 -0.018924475 -0.080350704 0.009254127 -0.051027395 -0.0077952542 0.038501956 0.018463658
-0.04049368 -0.035992283 -0.05416666 -0.014135739 -0.033901762 -0.029476786 0.005857398 0.010318322
0.034241192 0.007902906 -0.02945028 -0.03652891 -0.02083736 0.0290136 -0.26168665 0.065067306
0.040584862 -0.06601162 -0.043189824 0.113464765 -0.028232673 -0.026955528 -0.199615 -0.07044622
-0.05323003 -0.02681239 -0.03481277 0.08898703 -0.033192713 0.0021366097 0.02298445 -0.18077645
0.060960602 0.0036371956 0.07074318 0.0012285572 0.07619048 0.06340475 0.08725815 -0.060624518
0.03856938 0.02235848 0.024906393 0.029137587 -0.022672538 -0.0016569144 0.015311309 0.023072228
-0.06778902 -0.03245023 0.10281085 -0.07956072 -0.05290374 -0.020566832 -0.004652391 -0.0723469

exp_avg_sq f4 [2, 768]
00000000: ba8e 8b3b 07a4 e93a 6e23 213b 516c c73c
00000010: 0f9f fb3c 169f b63a e373 a43d 7dbd 2b3c
00000020: 569c 4241 cd80 953d 0c11 0b3b 0023 a03c
00000030: 68b5 093c 6c20 5a3d 44c4 7c3c b34c 963b
00000040: ac73 c73a 41a4 033c 958f b73b 8d18 4a3c
00000050: 968f 2c3c 98dc 3d3c a777 043c cd9a 863c
00000060: 7d2f 7c3d c9f5 9e3b 5e43 ea3a 81ff f03c
00000070: f960 db3a 7f87 0f3b 6857 773d 46a5 3e3c
00000080: 2311 253c 9898 4a3d 89e5 0e3c 9cdf ae3c
00000090: 619e 1f3d b758 a83a 88b7 8d3f f20d d53a
000000a0: 6493 d13b a48a cf3b d296 ec3a eaf2 d93e
000000b0: bc2a 5b3d d579 303b 3f88 f03c 176d 383c
000000c0: 1e8e d63a 64ef 743c ff4f 133c a9d5 533c
000000d0: f1a5 063c abf3 c53a d948 9e3c 943a aa3b
000000e0: cf96 863b 1524 813c 8dd8 933c b6de 023c
000000f0: d15f 963c aae9 b93c f473 123b 69bb ca3d
00000100: 03f3 ec3a d7ba 6c3d 5d4c 353c 8e23 0e3b
00000110: 893a 133d 7561 0b3d bca4 8c3b 3c52 203c
00000120: e17e 193b 3acf bb3b 8116 8a3b 0cd2 2d3c
00000130: aee8 083d d476 fb3a e310 9c3c ee4e 853c
00000140: fb0a 0a3b 9b04 bd3b 53a3 143b 63a0 b73a
00000150: 8194 1d3c 905f 9d3b c1dd d03d 633d 6e3b
00000160: 1cba c23c e2b9 373b 429d 173c 1674 8d3a
00000170: 9ec8 fb3c 6147 6a3d 0f2a 343c 1420 7d3b
00000180: e3ab 7e3b 4cb0 e33b fe4a fe3b 3a87 a43d
00000190: 481c b03b c595 063c 0ba3 c23c 3558 373c
000001a0: 5622 303e 6cdf 1e3b f954 d33a 23ec 653b
000001b0: 5d8c cc3c 87f1 823b d43c 253c bcb3 0b3c
000001c0: fbe5 a63b 5492 173c a446 a53b 2789 a43a
000001d0: c540 f83a c434 1f3c eb56 073d c0fa 9b3c
000001e0: baa9 333c 26da f73a 1ae5 fb3a 00de 173d
000001f0: 28dd 083c 04c6 b23d 0fdb c83b 051e 203b
00000200: 80e1 493c 4263 a53b d772 cf3b abbc 9c3c
00000210: 5f59 cc3a 8db8 bf3c 774a cd3c bddf 6b3c
00000220: 97d5 263c 259b 623b c760 493c 781b 143b
00000230: 538c c13c bd3f 2c3c 1998 a83c d7f8 753c
00000240: f7ad 033c f667 073c f35c 0a3b 4e38 6c3d
00000250: f558 533b b61a 293c 6253 aa3b 4089 083b
00000260: 16f2 0b3c 0ebe e23c 9e0e ed3c 31a9 503d
00000270: 033f d93a d0ee 263d 2a1c 003c 4006 193c
00000280: b5e5 8f3c 7ae0 c03c 7da3 833b 3650 c13a
00000290: e921 243b e034 053b 8c31 cf3b 4399 293d
000002a0: 4eb4 d33b 8b11 4b3b a321 873d e428 173b
000002b0: 8372 073b 2cf1 933b 01b2 b73c b807 893d
000002c0: 5444 073d 522a cf3c 96d3 553b 08b1 403c
000002d0: bdde 0e3d ab9a d13c 1cb5 3a3c 32e5 c43a
000002e0: 3d1d cb3c c373 0c3b db6c 493c 4a36 d53a
000002f0: 9724 853b 0de3 003d 06d5 0e3d 8b1c af3b
00000300: add8 0e3c 1110 123b 34b1 c13c 945f 033b
00000310: e168 343c a6d9 073b 48f0 333c 121d 313b
00000320: b3c0 b93b 3031 613b f9d6 763c 223a 103b
00000330: 0042 fa3b ab20 8b3b 0cbf a83b 907a da3a
00000340: 252a 4c3b 1b8f 933b ee75 853b aef4 e83b
00000350: 1c4d 4b3b 4a5a d63b fa34 913e 8c26 523c
00000360: 6c76 b83b 6cfc 8e3c 692d 2f3c 96e5 923d
00000370: dad0 203c 3127 ac3b 9fcd 343e e23a 7d3c
00000380: f0b8 433c d61f 373b 0480 223c 0622 e43c
00000390: 7dd9 123c d440 df3a b51b f13b 1fe6 0d3e
000003a0: cd36 4a3c 1ccd e03a 5509 db3c 76dc d73a
000003b0: c6b2 d53c 05d5 823c b3dc 1f3d 428c 6f3c
000003c0: f26f 013c 929f 693b c237 4a3b 51b3 bc3b
000003d0: 3616 e83a 9cfb 243b bfc0 473b 3b28 763b
000003e0: dc46 8f3c 47f5 603b d542 353d c0bb b83c
000003f0: 81ca 533c aa4a f53a 41ba a23a 916d d53c
0.0042589577 0.0017825373 0.0024587768 0.024343641 0.030715493 0.0013932909 0.08029916 0.010482189
12.163168 0.072999574 0.0021219878 0.01954794 0.008405067 0.053253576 0.015427653 0.00458678
0.0015216968 0.008034767 0.005601833 0.012334955 0.01053228 0.011588238 0.008085168 0.016431237
0.061568726 0.004851077 0.001787286 0.029418709 0.0016737274 0.002190083 0.06038609 0.011636084
0.0100748865 0.04946193 0.008721718 0.02134686 0.0389694 0.0012843822 1.1071634 0.0016254766
0.006395744 0.006333666 0.0018050319 0.4256814 0.05350755 0.0026928086 0.029361842 0.011256478
0.0016369259 0.014949653 0.0089912405 0.0129293585 0.008218274 0.0015102526 0.019321846 0.0051949713
0.0041073333 0.015764276 0.018047595 0.007987669 0.018356236 0.022694428 0.0022346945 0.09899027
0.0018077794 0.05779537 0.01106557 0.0021688673 0.035944495 0.03402849 0.004292099 0.009785231
0.0023421573 0.0057314904 0.0042141085 0.010609161 0.033425026 0.0019185194 0.019051021 0.016272988
0.0021063674 0.0057683713 0.0022680357 0.0014009591 0.009617926 0.0048026517 0.10198546 0.0036352507
0.023770384 0.0028034379 0.009253802 0.0010792043 0.03073531 0.05719698 0.010996356 0.0038623856
0.0038859777 0.0069485065 0.0077604046 0.08033605 0.005374465 0.008214419 0.023759386 0.011190464
0.17200598 0.0024242057 0.0016123346 0.0035083375 0.024969274 0.0039960775 0.010085303 0.008526739
0.005093334 0.009251196 0.0050438214 0.0012553082 0.0018940201 0.00971717 0.033041876 0.019040465
0.010965759 0.0018909618 0.0019218058 0.03707695 0.008353509 0.08729175 0.0061296294 0.0024431956
0.01232183 0.005047233 0.0063308286 0.019132933 0.00155906 0.02340343 0.025059922 0.014396605
0.01018276 0.0034577337 0.01229114 0.002259938 0.023626482 0.010513243 0.020580338 0.015012941
0.008037082 0.008264532 0.002111253 0.057670884 0.0032249067 0.01032131 0.0051979283 0.002083376
0.0085416045 0.027678516 0.028937634 0.050942603 0.0016574565 0.040755093 0.007819215 0.009339869
0.017565588 0.023544539 0.004017292 0.0014748636 0.0025044626 0.0020325705 0.006323045 0.041405927
0.006460703 0.0030985798 0.065982126 0.0023065144 0.002066762 0.004514834 0.022423746 0.06690925
0.033024147 0.025288735 0.0032627336 0.011760958 0.03488039 0.025586447 0.011395719 0.0015021919
0.024794215 0.0021431304 0.01229402 0.001626679 0.0040631997 0.031466532 0.034871124 0.0053439788
0.008718652 0.0022287408 0.023644067 0.0020045983 0.011011333 0.0020729094 0.0109825805 0.0027025384
0.0056687235 0.0034361593 0.015065902 0.0022007306 0.0076372623 0.0042458377 0.0051497277 0.0016668607
0.003115305 0.0045031435 0.004072896 0.007109246 0.0031021303 0.006541525 0.2836073 0.012826573
0.0056293514 0.017454349 0.010691979 0.07172696 0.009815419 0.0052536954 0.17656563 0.015455933
0.011945948 0.002794256 0.009918217 0.027848255 0.008962986 0.001703287 0.0073580393 0.13857315
0.012342167 0.0017150971 0.026737848 0.0016468901 0.026086222 0.015970716 0.039028835 0.014620842
0.007900225 0.003564809 0.0030855988 0.005758681 0.0017706815 0.0025174385 0.0030479876 0.00375606
0.017489843 0.0034325884 0.04425319 0.022550464 0.012926699 0.0018714268 0.0012415127 0.026053222

exp_avg f4 [2]
00000000: a5fd aa3d a5fd aabd
0.0834916 -0.0834916

exp_avg_sq f4 [2]
00000000: 2ba1 ed3c 2ba1 ed3c
0.029007515 0.029007515
