TASK2/gender_classification_model/checkpoint_step_3800.pth (torch, 22979 bytes, 6 tensors)

weight f4 [2, 768]
0	0x3cdab284	0.026696451
1	0x3c1fa95a	0.009744966
2	0xbba6c89f	-0.005089834
3	0x3bbe051d	0.0057989494
4	0xbcdfb606	-0.027308475
5	0xbc59cc0d	-0.013293278
6	0xbba210a5	-0.004945832
7	0xbaa714a7	-0.0012747244
8	0xbcfb1949	-0.030651705
9	0xbc21e04e	-0.009880139
10	0xbcea48d1	-0.028599175
11	0x3b473b79	0.0030400439
12	0xbd2e4099	-0.042542074
13	0x3c9ce5f4	0.019152619
14	0x3cbf96bc	0.023387305
15	0xbc1cf620	-0.009580165
16	0x3c412cca	0.011790464
17	0xbcc09791	-0.023509772
18	0xbc3c7788	-0.011503108
19	0xbcb67051	-0.022270354
20	0xb9b2125c	-0.00033964484
21	0x3c9f5ec3	0.019454366
22	0x3d1f5f14	0.038909033
23	0x3cb2f38b	0.021844646
24	0x3d09a4cc	0.03360443
25	0xbc347830	-0.011014983
26	0xbb95bf21	-0.0045699035
27	0x3ab5608d	0.0013837978
28	0x3ce432df	0.027856288
29	0x3b072eb9	0.0020627214
30	0x3d0efe21	0.034910325
31	0x3d103077	0.03520247
32	0x3cf30665	0.029666135
33	0x3bd9a8da	0.006642443
34	0xbbac2068	-0.0052528866
35	0x3d06d076	0.032913648
36	0x3c5ec911	0.013597743
37	0xbd60fbea	-0.054927744
38	0x3cb12eeb	0.021628818
39	0xbd6524c2	-0.055943258
40	0x3ca064de	0.019579347
41	0xbb6c7226	-0.003607878
42	0xbd1d1729	-0.038352165
43	0x3c7dec84	0.015498284
44	0xbcb3573d	-0.021892184
45	0xbbdba9e4	-0.006703602
46	0x3ce43dfc	0.027861588
47	0x3d0e1080	0.034683704
48	0x3cbbb356	0.022912662
49	0xbc82416b	-0.015900334
50	0x3cb8d28f	0.02256134
51	0x3c8bb47d	0.017053837
52	0xbaa490f1	-0.0012555403
53	0xbcab4370	-0.02090618
54	0xbc412b8b	-0.011790167
55	0xbc9560fb	-0.01823472
56	0x3ba8dddb	0.0051534004
57	0x3a6efb2a	0.0009116406
58	0xbb63ef85	-0.0034780216
59	0x3bffad37	0.0078026312
60	0x3c375ec8	0.011192031
61	0x3c41ecdf	0.01183626
62	0xbc9dc542	-0.019259099
63	0xbc4d4016	-0.012527486
64	0x3c9b9cf3	0.018995738
65	0xbca054b8	-0.019571647
66	0x3d1754ab	0.03694598
67	0x3d1e920b	0.038713496
68	0xbcf0275f	-0.029315649
69	0x3cf3c20e	0.029755618
70	0x3c6ed5e3	0.014577362
71	0xbc2162fe	-0.009850262
72	0x3b9c8574	0.004776651
73	0x3b92e66f	0.004483036
74	0xbce5d67a	-0.028056372
75	0xbcf37dbc	-0.02972304
76	0xbbafc5cb	-0.005364155
77	0xbb9bf460	-0.0047593564
78	0xbb5c4d3f	-0.0033615378
79	0xbbfce17b	-0.007717309
80	0x3bafff33	0.0053709983
81	0xbbdab7b5	-0.0066747316
82	0xbd0aae04	-0.03385736
83	0x3c1eb378	0.009686343
84	0x3b697a33	0.0035625815
85	0x3c2bdc6b	0.010489563
86	0xbc6ca312	-0.014443176
87	0xbd141d31	-0.03616065
88	0x3ce69af7	0.028150065
89	0xba1b1793	-0.00059162936
90	0x3ce18da6	0.027533364
91	0xbc16b389	-0.009198078
92	0x3cfaecf9	0.030630575
93	0x3c81265b	0.01576536
94	0x3bafeb89	0.005368654
95	0xbca1ef18	-0.01976733
96	0xbad4fa4b	-0.001624891
97	0x3d33dffe	0.043914787
98	0xbc604724	-0.013688836
99	0x3cde2707	0.027118219
100	0xbb22f043	-0.0024862445
101	0x3ba263ca	0.0049557434
102	0x3d220bf4	0.03956218
103	0xbca96e9e	-0.02068263
104	0x3c41d344	0.011830155
105	0xbba7f9d8	-0.0051262192
106	0x3d5e483d	0.05426811
107	0xbd3fbfd3	-0.046813797
108	0x3b2b7e65	0.0026167866
109	0x3d1b686a	0.037941374
110	0xbd1e9d2b	-0.038724106
111	0xbc882711	-0.01662019
112	0x3bcf0401	0.006317616
113	0x3ad2f327	0.0016094194
114	0xbab7644a	-0.001399168
115	0x3cdf0b23	0.02722699
116	0x3d80c47f	0.06287479
117	0x3a3a729e	0.0007112416
118	0xbcbe477c	-0.023227446
119	0x3d03cec0	0.032179594
120	0x3d361bcb	0.0444601
121	0x3d398db4	0.045301154
122	0xbba9c191	-0.0051805456
123	0xbc5c87c1	-0.013460101
124	0xbc019f17	-0.007911465
125	0x3c2928e2	0.010324689
126	0xbc72d5f2	-0.014821516
127	0xbcc5b1b6	-0.02413259
128	0x3b5aa8b7	0.0033364722
129	0xbbdfcce9	-0.006829847
130	0xbd035b1b	-0.032069307
131	0x3bc0ee80	0.0058878064
132	0x3d2a24d9	0.041539047
133	0x3c2b7272	0.010464298
134	0x3cfc62f4	0.030808903
135	0xb866a981	-5.4994136e-05
136	0xbcbb4812	-0.022861514
137	0xbc88fbed	-0.01672169
138	0x3d12d810	0.035850585
139	0x3b75a7d9	0.0037484078
140	0xbcfc8a0c	-0.030827545
141	0xbc41904c	-0.011814188
142	0x3c0227e2	0.007944079
143	0x3c69cf0f	0.014270558
144	0xbcd82a95	-0.026387492
145	0x3c0733a9	0.008252063
146	0x3ba85d9e	0.005138113
147	0x3b172d67	0.0023067833
148	0xbcfa3c93	-0.030546462
149	0xbd07c66d	-0.033148218
150	0x3c9c0849	0.01904692
151	0xbd035f3d	-0.03207325
152	0x3cbb155c	0.022837333
153	0x3d182dee	0.037153177
154	0x3c7fae43	0.015605512
155	0xbc7934ec	-0.015210371
156	0xbbb2dd0e	-0.0054584807
157	0xbd1025f4	-0.035192445
158	0xbcc83b56	-0.024442356
159	0x3d549d9b	0.051908117
160	0xbc2bfe12	-0.010497587
161	0xbc4c8605	-0.012483125
162	0xbcf41c46	-0.029798638
163	0x3ca08c07	0.01959802
164	0xbd679e10	-0.056547225
165	0x3d722bde	0.059123866
166	0x3b663583	0.003512711
167	0xbd08278b	-0.033240836
168	0xbbefa53f	-0.0073134
169	0x3ca36a82	0.019948248
170	0x3ccc4684	0.024935968
171	0x3c09d7c0	0.008413255
172	0xbcbce397	-0.023057742
173	0x3c8ccc35	0.017187217
174	0xbc9c6b9b	-0.019094279
175	0xbce8d23f	-0.028420566
176	0x3c5e1494	0.013554711
177	0x3ceb2efe	0.028708931
178	0xbad9b430	-0.0016609486
179	0x3cf2888a	0.029606123
180	0x3c91cddf	0.017798362
181	0xbcc3e41d	-0.023912484
182	0x3c267140	0.010158837
183	0xbb7ca954	-0.0038553076
184	0xbc735c01	-0.014853478
185	0x3d7d9365	0.061908145
186	0xbccacc0f	-0.024755506
187	0xbcc738aa	-0.024319012
188	0xbb341885	-0.0027480435
189	0x3b415b65	0.0029503938
190	0x3be9f7a5	0.007140117
191	0x3b7e4ca4	0.0038803006
192	0xbc8a5724	-0.016887255
193	0x3c6b0095	0.0143434005
194	0xbcd0e0c7	-0.025497807
195	0xbd57727f	-0.052599426
196	0xbd444cbf	-0.047924753
197	0xbcb79da8	-0.022414044
198	0x3d1cd026	0.038284443
199	0xbcdd25f3	-0.026995635
200	0xbd27d0d1	-0.040970627
201	0xb8e78456	-0.00011039588
202	0x3d1c9521	0.038228158
203	0xbc27a24e	-0.010231568
204	0x3cef7aa0	0.029233277
205	0x3ca9212c	0.0206457
206	0xbc0553f7	-0.008137695
207	0xbc3f5660	-0.011678308
208	0x3d2c5261	0.04207075
209	0xbb136c89	-0.0022495112
210	0x3bb7d1d1	0.005609729
211	0x3c71ef24	0.014766488
212	0xbc3ce56d	-0.011529309
213	0xbcfd5a70	-0.030926913
214	0xbc9574e0	-0.018244207
215	0x3cb1c831	0.021701904
216	0xbc88a06f	-0.016678063
217	0xbd224f2c	-0.039626285
218	0xbcd48622	-0.025942866
219	0x3cf72b1d	0.030171925
220	0xbcdb77ff	-0.026790617
221	0x3c549b15	0.012976428
222	0x3d0519e7	0.032495406
223	0xbcb29d51	-0.02180353
224	0xba473793	-0.0007599529
225	0xbc6c11d0	-0.014408544
226	0xbd14d61d	-0.036337007
227	0x3c8ebd3c	0.017424218
228	0xbc38feff	-0.011291265
229	0x3c214128	0.009842195
230	0xbcb1d72b	-0.021709045
231	0xbc037a75	-0.0080248015
232	0x3ca096ac	0.019603096
233	0x3cbac9a1	0.022801222
234	0x3c4ff1d8	0.012691937
235	0x3d2f2d1d	0.042767633
236	0xbb9c2667	-0.00476532
237	0xbcf53f59	-0.029937433
238	0xbcae2db1	-0.021262022
239	0x3c01d3f1	0.007924066
240	0xbc91b8d4	-0.017788328
241	0xbc23d128	-0.009998597
242	0x3d0fd624	0.03511633
243	0x3d0520f4	0.03250213
244	0x3c828ad0	0.015935332
245	0x3cf02a82	0.029317144
246	0xbc122a28	-0.008921184
247	0x3c6544b0	0.013993427
248	0xbc2c8c84	-0.010531548
249	0x3c799a8e	0.015234603
250	0x3badeaa0	0.0053075105
251	0x3c215e05	0.009849076
252	0x3d0125ae	0.031530075
253	0xbc3ee740	-0.011651814
254	0x3ccec669	0.025241094
255	0x3cf84ad1	0.030309113

bias f4 [2]
0	0x3cc6ed1c	0.024282984
1	0xbb9c0ab7	-0.0047620195

exp_avg f4 [2, 768]
0	0x3c895345	0.016763339
1	0x3abd9ef5	0.0014466929
2	0xbbde3898	-0.006781649
3	0xbae8f0dc	-0.0017771977
4	0x3cd1f466	0.025629234
5	0xbc00b2a9	-0.007855096
6	0xbb04e913	-0.0020280525
7	0x3c436758	0.011926495
8	0x3e34f646	0.17672071
9	0x3c28583e	0.010274945
10	0x3c5d3e96	0.013503691
11	0xbc4569bf	-0.012049138
12	0xbc50e46d	-0.012749773
13	0xbc1329ca	-0.008982131
14	0xbc3925ba	-0.011300499
15	0xbc14ab67	-0.009074069
16	0xbc42b021	-0.011882813
17	0x3a868936	0.0010264281
18	0xbbc078db	-0.005873782
19	0x3ca00c07	0.019536985
20	0x3c8e6574	0.017382361
21	0xbc8413a0	-0.01612264
22	0x3b6f14ee	0.003648098
23	0xbab9ac95	-0.0014165813
24	0xbca7d450	-0.02048698
25	0xbc3d59b7	-0.011557034
26	0x3b8348ae	0.004006467
27	0xbc2b60a5	-0.010460054
28	0xbb157b53	-0.0022809103
29	0x3bcb9047	0.0062122676
30	0x3bfb462e	0.007668278
31	0x3c577a56	0.013151726
32	0x3a961643	0.0011450726
33	0xbc670c37	-0.014102033
34	0x3ba8c366	0.0051502464
35	0xbba29cdd	-0.004962547
36	0xb78b28d8	-1.658911e-05
37	0x3c4487b9	0.011995249
38	0xbd3a7a3f	-0.04552674
39	0xbb32ffbe	-0.0027313079
40	0x3c4386f9	0.011934035
41	0xbba906ac	-0.005158266
42	0x3b0aead5	0.00211971
43	0x3d2f9025	0.042862076
44	0x3c22303b	0.009899194
45	0x3c2ec2d6	0.01066657
46	0xbc41ae50	-0.0118213445
47	0xbc141b89	-0.009039768
48	0xbbc7e7aa	-0.0061006146
49	0x3c223732	0.009900855
50	0x3b557e0f	0.0032576357
51	0x3be49140	0.006975323
52	0x3c3716ff	0.011174916
53	0x3ae5fd15	0.0017546738
54	0x3ac4f5bb	0.0015026847
55	0xbb38b987	-0.0028186755
56	0x3abacfb7	0.0014252578
57	0xbb1ace65	-0.0023621556
58	0xbb962cce	-0.004582978
59	0xbc90ccaa	-0.017675716
60	0x3b0780e2	0.0020676185
61	0xbc33645e	-0.010949222
62	0x3aea8212	0.0017891547
63	0xbc9da0ff	-0.019241808
64	0x3c4a5b0b	0.012350808
65	0xbbe2f523	-0.006926195
66	0xba0a9527	-0.00052865077
67	0xbcac4233	-0.02102766
68	0x3c80286c	0.015644275
69	0x3cae1b6e	0.021253314
70	0xbc27c335	-0.010239412
71	0xbc659196	-0.014011761
72	0x3bd35770	0.0064496323
73	0x3b94670e	0.0045288866
74	0x3bd44451	0.0064778705
75	0xbc82b5b7	-0.015955789
76	0x3be2e96b	0.0069247982
77	0x3b1ace03	0.0023621328
78	0x3cb817d7	0.022472305
79	0xbc951453	-0.018198168
80	0xbbe57d3d	-0.007003455
81	0x382ac735	4.0716684e-05
82	0xbb67cead	-0.003537099
83	0xbbdd9299	-0.0067618606
84	0x3b722341	0.0036947282
85	0xbc02515e	-0.00795397
86	0x3ca17489	0.019708889
87	0xbb834083	-0.004005493
88	0xbc057215	-0.008144875
89	0xbc72d43a	-0.014821107
90	0xbc54c5f2	-0.012986647
91	0x3bd44c43	0.0064788177
92	0xbb4ac7c1	-0.0030941817
93	0x3cc1396f	0.023586957
94	0x3c28d9cb	0.010305832
95	0xbbd404ac	-0.0064702835
96	0xbb91f325	-0.004454034
97	0x3c4899a5	0.012243663
98	0xb9d7498f	-0.000410628
99	0xbc7d21f1	-0.015449987
100	0x3c247ffc	0.0100402795
101	0xbcac2261	-0.021012487
102	0xbcaacf27	-0.020850731
103	0x3c374a20	0.011187106
104	0x3d1c8131	0.038209144
105	0x3bf426ed	0.0074509294
106	0xbb854351	-0.0040668626
107	0xbc39554f	-0.011311843
108	0x3c50868f	0.012727394
109	0x39933601	0.0002807826
110	0xbc6b4b3c	-0.014361199
111	0xbc497ba5	-0.012297546
112	0xbba90bf3	-0.005158895
113	0xba9c8372	-0.0011941029
114	0xbbc0e88b	-0.0058870963
115	0x3a191c12	0.00058406696
116	0xbb9d78d0	-0.0048056617
117	0xbb74b757	-0.0037340724
118	0x3c194193	0.009354013
119	0x3cb90dd7	0.022589607
120	0x3ba669b6	0.0050785197
121	0xbc5d10cd	-0.013492775
122	0x3bdcb7c4	0.0067357738
123	0xbc2a49e4	-0.010393593
124	0xbc324886	-0.010881549
125	0x3cdcb1e5	0.026940295
126	0x3bb6af48	0.0055750944
127	0x3c2fb217	0.010723612
128	0x3c32d609	0.010915288
129	0x3c023879	0.007948034
130	0x3bccc335	0.0062488564
131	0xbc9d9ebc	-0.01924073
132	0xbc920048	-0.0178224
133	0xbc936c51	-0.017995985
134	0x3c7d3747	0.015455074
135	0xbb1161f5	-0.002218363
136	0x3b0e39a9	0.0021701849
137	0xbc108cbb	-0.008822615
138	0x3acba255	0.001553605
139	0xbbc8180b	-0.006106382
140	0x3b6e1762	0.0036329855
141	0x3b9da974	0.00481146
142	0x3ce244de	0.027620729
143	0x3bd1903b	0.0063953674
144	0xbc2c0f17	-0.010501645
145	0x3a3af685	0.0007132071
146	0xbc419a05	-0.011816506
147	0xbc5a9bf9	-0.013342851
148	0xbbdb57f9	-0.006693837
149	0xbb9c3a84	-0.004767718
150	0x3b68c655	0.0035518606
151	0xbbd0a215	-0.006366978
152	0xbb170423	-0.0023043237
153	0x3ba1de1f	0.004939809
154	0xbc03381c	-0.008008983
155	0x3af377ab	0.0018575093
156	0x3a809d97	0.000981259
157	0xbce03e40	-0.027373433
158	0x3b46daa3	0.003034272
159	0x3c654fd8	0.013996087
160	0x3c98a1ed	0.0186319
161	0x3b89a76c	0.0042008664
162	0x3bd4dce0	0.006496057
163	0x3bb2a8b1	0.0054522385
164	0xbb690db4	-0.0035561146
165	0x3a254f95	0.0006306109
166	0x3b82aae0	0.003987655
167	0xbd2e29a5	-0.042520184
168	0xbb91ff2a	-0.0044554668
169	0xbb909e24	-0.004413383
170	0x3ca67c19	0.020322846
171	0x3c70d46c	0.014699083
172	0x3c20445c	0.009781923
173	0xbab6a75b	-0.0013935374
174	0xbb8900e1	-0.004181013
175	0xbb828244	-0.003982814
176	0x3aa74cd3	0.0012763984
177	0x3b189e88	0.0023287851
178	0xbbc3f8f0	-0.0059806034
179	0xbc05d903	-0.008169415
180	0xbc6821f0	-0.014168248
181	0x3c031097	0.007999561
182	0xba6d758f	-0.000905835
183	0x3bb91510	0.005648263
184	0x3c29810c	0.010345709
185	0xb927eb1d	-0.00016013948
186	0xb884d9eb	-6.334841e-05
187	0x3c214584	0.009843234
188	0x3c0827e6	0.008310294
189	0xbbaa4c3f	-0.0051970775
190	0x3c03c500	0.008042574
191	0x3c30b5d2	0.010785537
192	0xbba13f83	-0.0049209013
193	0x3b0cab58	0.0021464434
194	0x3c1cfc6f	0.009581669
195	0xbbf64c47	-0.007516417
196	0x3c1506c2	0.0090958495
197	0x39a61344	0.0003167634
198	0xbbb40a4c	-0.0054943915
199	0x3b88d0ad	0.0041752667
200	0x3bbdf014	0.005796442
201	0x3c4fffc0	0.012695253
202	0xbc2a3b88	-0.01039017
203	0x3be0668a	0.006848161
204	0xbbb08646	-0.0053871004
205	0x3c5b9066	0.0134011265
206	0x3b41394e	0.002948362
207	0xbc0ed530	-0.00871782
208	0xbc7ce62b	-0.015435736
209	0xbb177cb4	-0.00231151
210	0x3b6d78e9	0.0036235398
211	0x394117bd	0.00018414758
212	0xbc13c20d	-0.009018433
213	0xbc5cc252	-0.013474064
214	0x3ca57f87	0.020202411
215	0x3b3413a5	0.002747753
216	0xbbe936f5	-0.007117147
217	0xbb89912e	-0.004198215
218	0x3bfb6340	0.0076717436
219	0xbbe775cb	-0.0070636026
220	0x3cefeed7	0.029288692
221	0xbba970d9	-0.005170923
222	0x3ca0c491	0.01962498
223	0x3cfb0506	0.030642044
224	0x3bed8a58	0.007249158
225	0x3b23774f	0.002494294
226	0xba9d05ca	-0.0011979875
227	0xbcaaa13c	-0.020828836
228	0x3c53f6d0	0.012937263
229	0xbbadbbf1	-0.0053019454
230	0xbb0d1a52	-0.002153058
231	0x3caa6dcd	0.02080431
232	0xbc0aa38f	-0.008461847
233	0xbbad436a	-0.0052875774
234	0xbb151d69	-0.0022753126
235	0xbc05bbd9	-0.008162462
236	0xba2e9125	-0.00066592015
237	0xbcc5e3fc	-0.024156563
238	0x3aefb1f6	0.001828729
239	0xbbb9d142	-0.0056706974
240	0xba9871b8	-0.001163057
241	0xba44e1de	-0.00075104635
242	0x3ad8dbeb	0.0016545033
243	0xbc8f0ac5	-0.01746119
244	0x3c311200	0.010807514
245	0x3b17fd27	0.0023191662
246	0x3b9e9d1e	0.004840507
247	0xbc2e4f74	-0.01063906
248	0x3c88d95c	0.016705208
249	0x3bf6e74e	0.007534898
250	0xb99ad7c1	-0.00029533918
251	0x3ba43a50	0.005011834
252	0x3cd96055	0.026535193
253	0x39c9f8a6	0.00038522965
254	0x3bd9786b	0.0066366694
255	0x3c40f9ff	0.011778354

exp_avg_sq f4 [2, 768]
0	0x3b94ace6	0.0045372127
1	0x3afb5bc6	0.0019177131
2	0x3b2be736	0.0026230342
3	0x3cca6ddc	0.024710588
4	0x3d006643	0.031347524
5	0x3ab193ef	0.0013548116
6	0x3da928d4	0.082597405
7	0x3c26d57e	0.010182736
8	0x41460717	12.376731
9	0x3d973051	0.073822625
10	0x3b071a3a	0.0020614997
11	0x3ca74ba4	0.02042181
12	0x3c0e5d99	0.008689308
13	0x3d5eb58e	0.054372363
14	0x3c8159bf	0.015789865
15	0x3b98c0ad	0.0046616406
16	0x3acb1fca	0.0015497145
17	0x3c05b0f5	0.008159866
18	0x3bbc0230	0.0057375655
19	0x3c449d11	0.012000338
20	0x3c30bdb3	0.010787415
21	0x3c42c879	0.011888617
22	0x3c07e167	0.008293486
23	0x3c8864d4	0.016649641
24	0x3d81cd69	0.06338007
25	0x3ba4b7c0	0.0050267875
26	0x3ae8c7a1	0.0017759689
27	0x3cefed8d	0.029288078
28	0x3af2a0c5	0.0018511048
29	0x3b1c72be	0.0023872103
30	0x3d7cac9a	0.061688043
31	0x3c3dd4ba	0.0115863625
32	0x3c296ca6	0.010340845
33	0x3d4b7aa0	0.04967749
34	0x3c1424e6	0.009042
35	0x3cb10391	0.021608146
36	0x3d23d231	0.039995376
37	0x3aadeeba	0.0013269999
38	0x3f900df7	1.1254262
39	0x3add64e3	0.0016891028
40	0x3bda1a84	0.006655993
41	0x3bc86dd7	0.0061166096
42	0x3add025d	0.0016861666
43	0x3edd1c2c	0.43185556
44	0x3d5ff702	0.054678924
45	0x3b31ef81	0.0027150812
46	0x3cf47fc1	0.029846074
47	0x3c3b4263	0.011429402
48	0x3acfe26b	0.0015860324
49	0x3c76c426	0.015061414
50	0x3c143ee9	0.009048202
51	0x3c55f4fd	0.013058898
52	0x3c08b910	0.008344904
53	0x3acb732b	0.0015521994
54	0x3ca13cec	0.01968237
55	0x3bb49404	0.005510809
56	0x3b8a4491	0.0042195995
57	0x3c836202	0.016037945
58	0x3c97208c	0.018448137
59	0x3c0985f3	0.008393752
60	0x3c9e4898	0.019321725
61	0x3cc10928	0.023563936
62	0x3b1905a1	0.0023349302
63	0x3dcf06e1	0.10108734
64	0x3afa72d1	0.0019107704
65	0x3d6e1cba	0.058132865
66	0x3c30b464	0.010785196
67	0x3b106646	0.0022033616
68	0x3d180ca5	0.037121434
69	0x3d0f4ccf	0.03498536
70	0x3b88a8fd	0.0041705356
71	0x3c228467	0.0099192625
72	0x3b0f38d0	0.0021853931
73	0x3bc07b34	0.005874062
74	0x3b8da585	0.00432271
75	0x3c36b8f9	0.011152499
76	0x3d0c948a	0.034321345
77	0x3b0051c9	0.0019579998
78	0x3ca59c10	0.020216018
79	0x3c86bfdc	0.016448908
80	0x3b0f3e32	0.002185714
81	0x3bbe29a4	0.005803304
82	0x3b21c048	0.002468126
83	0x3ab8f8f2	0.0014112277
84	0x3c21c972	0.009874688
85	0x3ba34082	0.004982055
86	0x3dd45026	0.103668496
87	0x3b7bf017	0.0038442665
88	0x3cc988ef	0.024601428
89	0x3b36ca8d	0.0027891726
90	0x3c1e76a5	0.009671842
91	0x3a936a31	0.0011246857
92	0x3d030a6d	0.031992365
93	0x3d6f8244	0.05847384
94	0x3c383f77	0.0112456
95	0x3b825cc0	0.003978342
96	0x3b83c867	0.0040216926
97	0x3be2b2e4	0.006918298
98	0x3c017a59	0.007902705
99	0x3da6a133	0.08136215
100	0x3ba7d20d	0.0051214756
101	0x3c047ade	0.008085934
102	0x3cc415d3	0.023936188
103	0x3c3b24ad	0.011422318
104	0x3e32abd3	0.17448358
105	0x3b23a3a7	0.002496937
106	0x3ae2c3c2	0.0017300772
107	0x3b78b15b	0.003794751
108	0x3cd6e6e9	0.026233153
109	0x3b7fa464	0.0039007897
110	0x3c233553	0.009961444
111	0x3c10699e	0.008814244
112	0x3bb159b4	0.005412305
113	0x3c179c94	0.00925364
114	0x3ba487ee	0.005021087
115	0x3aac571e	0.0013148522
116	0x3aee19df	0.0018165669
117	0x3c1ffb54	0.009764511
118	0x3d09664a	0.033544816
119	0x3ca0802c	0.019592367
120	0x3c31bde8	0.0108485
121	0x3b02809e	0.0019913088
122	0x3b07e19d	0.0020733841
123	0x3d1abf02	0.037779815
124	0x3c06e669	0.008233645
125	0x3db7155b	0.0893962
126	0x3bd0e1fb	0.006374595
127	0x3b290a3a	0.002579345
128	0x3c4cdd37	0.012503914
129	0x3ba8eaa0	0.0051549226
130	0x3bd5bca3	0.0065227314
131	0x3c9fcc68	0.019506648
132	0x3ad6083e	0.0016329361
133	0x3cbfbb89	0.023404853
134	0x3cd1d626	0.02561481
135	0x3c757ef0	0.014983878
136	0x3c2cabac	0.010538977
137	0x3b69a061	0.0035648572
138	0x3c4a0b0f	0.012331738
139	0x3b189577	0.0023282447
140	0x3cc575d2	0.024104033
141	0x3c302f1c	0.010753419
142	0x3caa226c	0.020768367
143	0x3c814c94	0.015783586
144	0x3c02b013	0.00797655
145	0x3c09d7c3	0.008413258
146	0x3b14037e	0.002258509
147	0x3d703c6c	0.058651373
148	0x3b50acc7	0.0031841265
149	0x3c2f57bb	0.010702069
150	0x3bb4b6f9	0.005514976
151	0x3afef203	0.0019450787
152	0x3c133b17	0.008986256
153	0x3ce4c59c	0.027926259
154	0x3cf6462c	0.030062757
155	0x3d559a06	0.05214884
156	0x3acfafcc	0.0015845238
157	0x3d29429b	0.041323286
158	0x3c062cbd	0.008189377
159	0x3c1d59ab	0.009603898
160	0x3c8f9e29	0.017531471
161	0x3cc92b99	0.024556922
162	0x3b8abbb0	0.0042338
163	0x3ad17661	0.0015980714
164	0x3b27e676	0.0025619543
165	0x3b0f5238	0.0021869075
166	0x3bd14753	0.0063866763
167	0x3d28a221	0.041170243
168	0x3bdd1d5c	0.0067478847
169	0x3b50e667	0.0031875612
170	0x3d89b261	0.06723476
171	0x3b1bfaa2	0.0023800512
172	0x3b0ca492	0.0021460396
173	0x3b9cd982	0.004786671
174	0x3cbce4d1	0.023058327
175	0x3d8cfcc7	0.06884151
176	0x3d0accb3	0.033886623
177	0x3cd210f1	0.025642844
178	0x3b52435f	0.0032083613
179	0x3c40a647	0.011758394
180	0x3d11dc9e	0.035610788
181	0x3cd5940d	0.026071573
182	0x3c410e3d	0.01178318
183	0x3ad02b69	0.0015882078
184	0x3ccb80d9	0.024841713
185	0x3b0a589f	0.0021109951
186	0x3c4abb61	0.012373776
187	0x3ae0f673	0.0017163291
188	0x3b8fe8fc	0.0043917876
189	0x3d03b4e3	0.03215493
190	0x3d0fccd6	0.035107456
191	0x3bb27ebf	0.005447238
192	0x3c12e29a	0.008965159
193	0x3b0fd110	0.002194468
194	0x3cc87067	0.02446766
195	0x3b0b4948	0.0021253396
196	0x3c35b33f	0.011090099
197	0x3b09fffe	0.0021057124
198	0x3c3159d9	0.010824644
199	0x3b336af7	0.0027376988
200	0x3bbb1183	0.0057088747
201	0x3b67f920	0.0035396293
202	0x3c7c2ff8	0.015392296
203	0x3b14eccd	0.0022724152
204	0x3c019e9d	0.0079113515
205	0x3b8a93b2	0.0042290324
206	0x3bb2e48b	0.0054593734
207	0x3ae9124d	0.0017781943
208	0x3b504a13	0.0031782433
209	0x3b972a5c	0.004613204
210	0x3b878f4c	0.0041369554
211	0x3bee538f	0.0072731446
212	0x3b4c875b	0.0031208608
213	0x3bd92ce8	0.0066276677
214	0x3e93d333	0.2887207
215	0x3c6159f4	0.013754357
216	0x3bb85e9d	0.005626513
217	0x3c950889	0.018192546
218	0x3c3485e8	0.011018254
219	0x3d96d733	0.07365265
220	0x3c27b1fa	0.010235304
221	0x3bb8b66b	0.0056369803
222	0x3e3a4c39	0.18193139
223	0x3c7dcd76	0.01549088
224	0x3c4a8788	0.012361415
225	0x3b3da2c2	0.0028936123
226	0x3c2b7c61	0.010466666
227	0x3ce8c907	0.02841617
228	0x3c15add2	0.00913568
229	0x3ae4e9e7	0.0017464728
230	0x3c01500c	0.00789262
231	0x3e0f0557	0.1396688
232	0x3c4b33f9	0.012402528
233	0x3ae79eb4	0.0017671199
234	0x3cdf72e5	0.027276466
235	0x3adc186e	0.0016791949
236	0x3cd576bf	0.0260576
237	0x3c80b78f	0.015712528
238	0x3d24b487	0.040211227
239	0x3c6fa3c3	0.014626446
240	0x3c040a24	0.008059058
241	0x3b6eb8fe	0.0036426182
242	0x3b4fb051	0.0031690786
243	0x3bc50fb7	0.0060138362
244	0x3ae8eaac	0.0017770133
245	0x3b31de97	0.002714073
246	0x3b4bea87	0.003111513
247	0x3b884ea8	0.004159767
248	0x3c95e742	0.018298749
249	0x3b64042d	0.0034792528
250	0x3d37da2d	0.044885803
251	0x3cbea4a3	0.023271864
252	0x3c540624	0.012940917
253	0x3afb49ce	0.0019171776
254	0x3a9f10f9	0.0012135796
255	0x3cdb82f4	0.026795842

exp_avg f4 [2]
0	0xbc1fd83e	-0.009756146
1	0x3c1fd83d	0.009756145

exp_avg_sq f4 [2]
0	0x3cf1da7b	0.029523125
1	0x3cf1da7a	0.029523123
