TASK2/gender_classification_model/checkpoint_step_5200.pth (torch, 22979 bytes, 6 tensors)

weight f4 [2, 768]
0.02772998 0.006421884 0.0034912308 0.009337138 -0.026477108 -0.00969541 -0.0067095757 -0.008336095
-0.03026651 -0.0110438075 -0.032580547 0.00091378513 -0.043798327 0.019849813 0.024562912 -0.0103352945
0.011420403 -0.02258807 -0.00814665 -0.02218825 -0.0013036936 0.020301556 0.039304316 0.020133315
0.034184784 -0.011634657 0.00056574837 0.0024497826 0.032212663 0.0051551694 0.034560844 0.036268607
0.026135262 0.0061424924 -0.0070429337 0.034046784 0.012858866 -0.06155583 0.020413695 -0.06650049
0.018701106 -0.0018546517 -0.03728717 0.015461287 -0.020899769 -0.00768696 0.027429497 0.036337543
0.02895904 -0.017853368 0.02072281 0.017084712 -0.0046006674 -0.025292011 -0.009542714 -0.017492035
0.0036643902 -0.0010577599 -0.004861282 0.010901383 0.008501741 0.0100727985 -0.026197761 -0.013081476
0.010545898 -0.018640429 0.039287135 0.048549246 -0.03220115 0.031407446 0.011405622 -0.00834498
-0.0020048937 0.0011786943 -0.025722308 -0.030090665 -0.0052894996 -0.00444932 -0.0038328203 -0.008838282
0.011953063 -0.01364504 -0.039960008 0.011531883 0.0057264096 0.017408486 -0.015270558 -0.036971096
0.030883707 -0.0021390792 0.02911614 -0.018253237 0.03035136 0.01687303 0.005323493 -0.020181349
-0.001108841 0.045446027 -0.014659988 0.028058574 -0.0049040606 0.0049879607 0.042151004 -0.01879281
0.011080115 5.17209e-05 0.052980844 -0.0465298 0.0009946807 0.044854537 -0.040876087 -0.01786247
0.00827761 -0.0013410251 1.212906e-05 0.02604404 0.06631058 -0.0021229782 -0.020496188 0.02806514
0.052126672 0.054598507 -0.009126395 -0.012198115 -0.0050565167 0.009420327 -0.016811015 -0.029231625
0.0031058562 -0.010298773 -0.03686 0.0079201115 0.04315287 0.010421969 0.03315189 0.0004990639
-0.021380644 -0.015219125 0.035884656 0.0035175416 -0.032505278 -0.012507733 0.005290617 0.014053472
-0.027657304 0.005840749 0.0029014773 0.0006304773 -0.02736547 -0.03181507 0.01938448 -0.035823338
0.026991548 0.039941214 0.016486427 -0.013893788 -0.008733236 -0.03566465 -0.023462355 0.053043395
-0.010897999 -0.012653312 -0.026135584 0.021171007 -0.058266435 0.066677205 -0.0017835179 -0.03242696
-0.011008519 0.020110816 0.02420102 0.011754877 -0.02701028 0.014540619 -0.018176982 -0.028479304
0.016489495 0.03084033 -0.0041093505 0.033924457 0.019173957 -0.02350873 0.008500612 -0.002866273
-0.017256496 0.0663679 -0.02702449 -0.026580546 -0.0037068045 0.004170029 0.007112119 0.005217986
-0.018528547 0.020969424 -0.027143618 -0.05821085 -0.050534792 -0.02730382 0.039140385 -0.026651092
-0.045444872 -0.000110111614 0.04126239 -0.0061353566 0.030916896 0.026091639 -0.0056853476 -0.015426661
0.04445324 -0.0030763303 0.006795546 0.0122799445 -0.014165267 -0.031837948 -0.018177845 0.024250077
-0.019514099 -0.037746556 -0.023259843 0.030132126 -0.036037195 0.014215458 0.033072732 -0.022120362
0.0022008673 -0.012695542 -0.038517278 0.015377324 -0.00899016 0.008874488 -0.023081185 -0.008418536
0.018378168 0.026341233 0.009798204 0.051989492 -0.0048882356 -0.032684408 -0.024751415 0.009930767
-0.021192601 -0.011860926 0.033288334 0.03378941 0.024924353 0.028675139 -0.008920658 0.010495854
-0.009355209 0.0144016 0.0022767163 0.00843669 0.031273644 -0.01113652 0.021759002 0.030092213
00000000: fc29 e33c ab6e d23b 22cd 643b ccfa 183c
00000010: 85e6 d8bc 7fd9 1ebc 00dc dbbb 1e94 08bc
00000020: 79f1 f7bc 16f1 34bc 2e73 05bd 158b 6f3a
00000030: e065 33bd 139c a23c 2938 c93c 5e55 29bc
00000040: a41c 3b3c 9e0a b9bc 8779 05bc 22c4 b5bc
00000050: b3e0 aaba 734f a63c 90fd 203d 9fee a43c
00000060: 5805 0c3d 4a9f 3ebc bb4e 143a 888c 203b
00000070: 6df1 033d b2ec a83b ac8f 0d3d 648e 143d
00000080: 9e19 d63c f646 c93b 69c8 e6bb a474 0b3d
00000090: fead 523c f721 7cbd 9f3a a73c 6931 88bd
000000a0: 1033 993c c917 f3ba 6eba 18bd 5751 7d3c
000000b0: fe35 abbc e5e2 fbbb d3b3 e03c add6 143d
000000c0: 823b ed3c 3a41 92bc e2c2 a93c 3df5 8b3c
000000d0: 32c1 96bb 3131 cfbc 0b59 1cbc 754b 8fbc
000000e0: 4426 703b 88a4 8aba 644b 9fbb b79b 323c
000000f0: e34a 0b3c 6108 253c b09c d6bc b053 56bc
00000100: b4c8 2c3c d0b3 98bc 8ceb 203d 93db 463d
00000110: 5ae5 03bd 18a5 003d a5de 3a3c 62b9 08bc
00000120: 8964 03bb 6b7e 9a3a 97b7 d2bc b380 f6bc
00000130: 8a53 adbb 9acb 91bb 0e30 7bbb 71ce 10bc
00000140: c8d6 433c 728f 5fbc 1bad 23bd 39f0 3c3c
00000150: 9ba4 bb3b 3e9c 8e3c 5d31 7abc 016f 17bd
00000160: d4ff fc3c cb2f 0cbb f984 ee3c d087 95bc
00000170: 6aa3 f83c 4f39 8a3c b270 ae3b 5b53 a5bc
00000180: 8856 91ba 9d25 3a3d 7230 70bc 18db e53c
00000190: 3eb2 a0bb 0c72 a33b 88a6 2c3d 61f3 99bc
000001a0: 5f89 353c e5ee 5838 7102 593d 0896 3ebd
000001b0: f25f 823a 64b9 373d af6d 27bd 5154 92bc
000001c0: d09e 073c 56c5 afba eb7d 4b37 505a d53c
000001d0: d7cd 873d aa21 0bbb 9fe7 a7bc dde8 e53c
000001e0: c782 553d afa2 5f3d e086 15bc 9ada 47bc
000001f0: 23b1 a5bb b757 1a3c 41b7 89bc 2977 efbc
00000200: 9f8b 4b3b 2fbc 28bc 83fa 16bd 5bc3 013c
00000210: 10c1 303d e8c0 2a3c 47ca 073d 9dd3 023a
00000220: 7626 afbc a359 79bc cafb 123d 8e86 663b
00000230: 4124 05bd 3ced 4cbc e95c ad3b 8940 663c
00000240: 9291 e2bc c163 bf3b b626 3e3b 9e46 253a
00000250: 8d2d e0bc 8550 02bd 33cc 9e3c 7ebb 12bd
00000260: 611d dd3c 6699 233d 8b0e 873c c5a2 63bc
00000270: d915 0fbc 1915 12bd 2034 c0bc 0844 593d
00000280: 858d 32bc d64f 4fbc 4b1a d6bc d26e ad3c
00000290: c9a8 6ebd 0f8e 883d eec4 e9ba 22d2 04bd
000002a0: 135d 34bc 70bf a43c 3841 c63c 8797 403c
000002b0: aa44 ddbc c73b 6e3c e5e7 94bc 6e4d e9bc
000002c0: fa14 873c dca4 fc3c bba7 86bb 5ff4 0a3d
000002d0: b412 9d3c 6195 c0bc 2746 0b3c 15d8 3bbb
000002e0: 7f5d 8dbc e5eb 873d 7762 ddbc 72bf d9bc
000002f0: dced 72bb bda4 883b c70c e93b a4fb aa3b
00000300: 2ec9 97bc 12c8 ab3c 4b5c debc 806e 6ebd
00000310: 92fd 4ebd 43ac dfbc ab51 203d 6453 dabc
00000320: 6724 3abd b9eb e6b8 c002 293d 1a0b c9bb
00000330: 6e45 fd3c 22be d53c 274c babb 1bc0 7cbc
00000340: 9a14 363d 429c 49bb 2cad de3b d231 493c
00000350: 7015 68bc 8268 02bd b4e9 94bc 19a8 c63c
00000360: 08dc 9fbc 229c 1abd 6d8b bebc a6d7 f63c
00000370: bd9b 13bd f4e7 683c 4677 073d c335 b5bc
00000380: 6d3c 103b f600 50bc 4bc4 1dbd 2cf1 7b3c
00000390: 774b 13bc 4d66 113c c114 bdbc e6ed 09bc
000003a0: d08d 963c 92c9 d73c a588 203c eff2 543d
000003b0: 7e2d a0bb 16e0 05bd 7bc3 cabc a8b4 223c
000003c0: 1b9c adbc 5454 42bc 5959 083d c466 0a3d
000003d0: 282e cc3c 20e8 ea3c f427 12bc cdf6 2b3c
000003e0: 9746 19bc b0f4 6b3c f634 153b 0b3a 0a3c
000003f0: cb18 003d f375 36bc ef3f b23c f283 f63c

bias f4 [2]
0.02401623 -0.004522713
00000000: afbd c43c 4433 94bb

exp_avg f4 [2, 768]
-0.029197866 0.016135324 -0.011830204 -0.066247575 -0.08063617 -0.0042495797 0.1165647 0.040383223
-1.5101337 -0.11640571 0.00064158684 0.053907238 0.04096836 0.097677946 0.05297324 0.027548451
-0.000784339 0.032528076 -0.016690817 -0.031753145 -0.04073192 -0.03857774 0.032198228 0.038858835
0.11931954 0.030867146 0.0077399067 0.06775797 -0.0021465549 -0.0056655635 -0.09174691 -0.03151715
0.03288654 0.088852346 0.040021185 0.054194003 0.098690204 0.0020442144 0.4631573 0.006161925
0.02384192 -0.025555426 -0.009085873 -0.29738036 -0.10266058 -0.017331168 0.07405294 0.033247724
0.00031669645 -0.057588715 -0.044231627 -0.051842403 -0.035098605 0.017622622 -0.049885586 -0.026513934
-0.027683059 0.06605287 0.04949863 0.02942733 -0.055824753 0.063213535 0.008948025 0.14230849
0.011510621 -0.09944666 0.048670728 0.009252314 -0.0831804 -0.08604728 0.020442322 0.03420322
0.008445817 -0.026652953 0.0053713513 0.044524737 -0.09069204 -0.00012103829 -0.053510133 0.04596624
-0.004187317 0.027840182 0.021150757 0.0012422946 -0.029168334 0.04237524 -0.13887094 -0.013275717
0.06332873 0.00480645 0.036091473 0.007092219 0.06809251 -0.10574246 -0.040705115 0.024944758
-0.012750577 -0.024184223 0.025749944 0.12209383 -0.037156228 0.03766517 0.05798653 -0.05497414
-0.16469033 -0.01382416 -0.01361691 0.014173236 0.06784088 -0.016081227 0.037935648 0.045497715
0.032597378 0.048459996 0.026925841 -0.009382154 0.0040738448 -0.033643074 -0.076008625 -0.064377405
-0.040171675 0.01674279 0.0009220731 0.062035583 -0.030080948 -0.11729295 0.027951792 -0.015876975
-0.055060554 -0.013560588 -0.018176362 0.06014998 0.01481399 0.06419136 -0.06027679 -0.036026426
-0.035977673 0.03545917 0.041490328 -0.0023054841 -0.06484092 -0.0291701 -0.06307394 -0.04794542
-0.035715245 0.035579685 0.006903019 0.111628726 0.008683351 0.0356755 0.018085942 0.021036878
0.026325993 -0.082385406 0.05972394 0.07809225 -0.0145648355 0.09408763 0.04487266 -0.03992093
-0.05427092 -0.053969234 -0.02550816 -0.002281978 -0.00791238 -0.025541034 0.03948628 0.08892
-0.045552913 0.01848375 -0.11443874 -0.0009066952 -0.0025045406 0.0012505221 0.049753748 0.09760426
-0.08520505 -0.07274655 0.023208706 -0.049285892 0.07336554 -0.0702227 -0.04249139 -0.00160729
-0.060147103 0.0006950641 0.038427796 -0.0052528656 0.012822587 -0.07617347 -0.069265775 -0.022462677
0.022793474 -0.021169387 -0.05192178 0.0189077 -0.038738035 -0.0029747898 0.032180157 0.01038905
-0.026332075 -0.025413483 -0.052375022 -0.022536881 -0.03439011 -0.029431667 0.02225563 0.015650889
0.015261956 0.0032231505 -0.031725224 -0.027477851 -0.022720808 0.035444535 -0.22345848 0.05255164
0.0309027 -0.049293898 -0.05659456 0.11506407 -0.023994215 -0.020928904 -0.17416851 -0.049267333
-0.041777562 -0.018782709 -0.024549043 0.080093235 -0.044282418 0.008334746 0.04284181 -0.1493978
0.044716075 -0.009555063 0.06932629 -0.008888564 0.06987461 0.065678366 0.07294891 -0.04537987
0.031116731 0.018864157 0.007635161 0.02340997 -0.011880825 -0.019666327 0.016075585 0.030755406
-0.05461387 -0.029905844 0.08147664 -0.046717174 -0.050923843 -0.014847599 -0.014261961 -0.07172101
00000000: 5d30 efbc 3a2e 843c 79d3 41bc cfac 87bd
00000010: 9424 a5bd 0f40 8bbb 79b9 ee3d e168 253d
00000020: 104c c1bf 1e66 eebd 2a30 283a d6cd 5c3d
00000030: 70ce 273d 600b c83d 78fa 583d 4aad e13c
00000040: 199c 4dba 293c 053d 2ebb 88bc 960f 02bd
00000050: 84d6 26bd b103 1ebd 4ae2 033d 712a 1f3d
00000060: ce5d f43d 19dd fc3c 0b9f fd3b b1c4 8a3d
00000070: 37ad 0cbb 31a6 b9bb cee5 bbbd 2118 01bd
00000080: 09b4 063d 38f8 b53d 41ed 233d 88fa 5d3d
00000090: 171e ca3d 3af8 053b f422 ed3e f9e9 c93b
000000a0: 2150 c33c 9d59 d1bc eadc 14bc 3d42 98be
000000b0: b63f d2bd 18fa 8dbc 11a9 973d c42e 083d
000000c0: 470a a639 25e2 6bbd 392c 35bd b358 54bd
000000d0: 8ec3 0fbd 515d 903c d454 4cbd c033 d9bc
000000e0: 95c7 e2bc ba46 873d 13bf 4a3d 9511 f13c
000000f0: 7fa8 64bd 1976 813d bd9a 123c 51b9 113e
00000100: 0b97 3c3c b1aa cbbd f55a 473d 0597 173c
00000110: 7c5a aabd 8e39 b0bd a876 a73c ad18 0c3d
00000120: 5360 0a3c 4b57 dabc 2902 b03b 925f 363d
00000130: c0bc b9bd f0d5 fdb8 712d 5bbd 1947 3c3d
00000140: c335 89bb 1811 e43c 5a44 ad3c 7dd4 a23a
00000150: 6ef2 eebc a991 2d3d 2f34 0ebe 6582 59bc
00000160: 7eb2 813d 6d7f 9d3b a7d4 133d d865 e83b
00000170: 1674 8b3d 818f d8bd 68ba 26bd f358 cc3c
00000180: cce7 50bc fe1d c6bc 8cf1 d23c 540c fa3d
00000190: 2131 18bd cb46 1a3d 4983 6d3d 902c 61bd
000001a0: 95a4 28be bb7e 62bc 7619 5fbc dc36 683c
000001b0: 29f0 8a3d c7bc 83bc 6962 1b3d d05b 3a3d
000001c0: d484 053d fd7d 463d 9593 dc3c 9bb7 19bc
000001d0: e37d 853b 52cd 09bd 69aa 9bbd 4dd8 83bd
000001e0: 0e8b 24bd 2d28 893c 47b7 713a 0619 7e3d
000001f0: 526c f6bc 4937 f0bd 28fb e43c 6e10 82bc
00000200: 2d87 61bd 3a2d 5ebc 98e6 94bc d35f 763d
00000210: 61b6 723c c276 833d cce4 76bd 7290 13bd
00000220: 535d 13bd a23d 113d c3f1 293d 9b17 17bb
00000230: 51cb 84bd 22f6 eebc e92c 81bd 6b62 44bd
00000240: 264a 12bd 01bc 113d b832 e23b 9a9d e43d
00000250: 9d44 0e3c 7920 123d f828 943c 8855 ac3c
00000260: 9ca9 d73c aeb9 a8bd 17a1 743d d4ee 9f3d
00000270: 59a1 6ebc 04b1 c03d 65cc 373d 2184 23bd
00000280: 2f4b 5ebd d80e 5dbd 7df6 d0bc 3d8d 15bb
00000290: eda2 01bc 6e3b d1bc 5ebc 213d b01b b63d
000002a0: b195 3abd 3c6b 973c dc5e eabd 49af 6dba
000002b0: 3823 24bb 8fe8 a33a 96ca 4b3d bee4 c73d
000002c0: fc7f aebd 25fc 94bd 2f20 be3c 01e0 49bd
000002d0: ac40 963d ebd0 8fbd 740b 2ebd b4ab d2ba
000002e0: cf5c 76bd f634 363a 7766 1d3d 3b20 acbb
000002f0: d415 523c d600 9cbd 37db 8dbd a603 b8bc
00000300: 61b9 ba3c 6c6b adbc efab 54bd 52e4 9a3c
00000310: c6ab 1ebd b1f4 42bb 57cf 033d d536 2a3c
00000320: 5db6 d7bc f02f d0bc 3187 56bd 449f b8bc
00000330: a5dc 0cbd ae1a f1bc 7051 b63c 4b36 803c
00000340: 480d 7a3c 7e3b 533b 4ff2 01bd 3b19 e1bc
00000350: fd20 babc 4a2e 113d 4dd2 64be 6340 573d
00000360: a927 fd3c 66e8 49bd b3cf 67bd b6a6 eb3d
00000370: 848f c4bc 1873 abbc 3b59 32be 8bcc 49bd
00000380: f31e 2bbd 32de 99bc 131b c9bc ec07 a43d
00000390: 7b61 35bd 758e 083c e57a 2f3d bdfb 18be
000003a0: 3428 373d d78c 1cbc f1fa 8d3d 57a1 11bc
000003b0: 6b1a 8f3d 6182 863d 3d66 953d 3ee0 39bd
000003c0: 84e8 fe3c 0189 9a3c 5f30 fa3b 44c6 bf3c
000003d0: cba7 42bc 471b a1bc f2b0 833c c3f2 fb3c
000003e0: cbb2 5fbd 1afd f4bc 3add a63d 825a 3fbd
000003f0: 8595 50bd 5843 73bc 00ab 69bc 77e2 92bd

exp_avg_sq f4 [2, 768]
0.004506444 0.0019113749 0.0024738207 0.024380151 0.0313133 0.0014851976 0.080359116 0.010521972
12.22698 0.07309084 0.0020256748 0.019770455 0.008744875 0.053927235 0.01546468 0.004685336
0.0014347696 0.00811145 0.005849507 0.012333029 0.010272462 0.011311634 0.008350938 0.01621948
0.06278766 0.0048625893 0.0017460074 0.029532863 0.0017387959 0.0022786353 0.06124964 0.011169733
0.010447248 0.04915492 0.008945685 0.021359568 0.039424896 0.0013228024 1.1148163 0.0017924731
0.006436512 0.0060956827 0.0018274215 0.43232688 0.054255866 0.0028052717 0.029213777 0.011223665
0.0016213347 0.015001005 0.009265211 0.013091106 0.008345199 0.0016289279 0.019212188 0.0052487664
0.0041501326 0.01562714 0.018157357 0.008308209 0.018984742 0.023429891 0.0022772178 0.10033565
0.0019567646 0.057775617 0.011090707 0.0021636453 0.036757287 0.034427784 0.0038978192 0.0102907205
0.0023464232 0.0058389045 0.0040951716 0.010873685 0.0337325 0.0019650748 0.019326046 0.016004162
0.0021864213 0.005899507 0.0024332993 0.0014740204 0.00962249 0.0050740223 0.10265916 0.0038001654
0.024110729 0.0028009592 0.009348941 0.0011807712 0.03104785 0.057513442 0.011332938 0.004019885
0.004004255 0.006987698 0.007623862 0.08029239 0.00515669 0.008072253 0.023436382 0.0114608705
0.17275804 0.0023067945 0.0016886111 0.0036954838 0.025623692 0.003951351 0.00994052 0.008815809
0.0054056575 0.009492509 0.0050795604 0.0013189227 0.0018772876 0.009552568 0.03342168 0.01927865
0.010984919 0.002007278 0.0020280017 0.03702939 0.008359839 0.08895755 0.0065230667 0.0025611902
0.012849558 0.0049796314 0.006590558 0.019647388 0.001668023 0.023403907 0.02551018 0.014592515
0.01026943 0.003497635 0.012118304 0.0023296415 0.023854764 0.0106725 0.021237688 0.015526829
0.008064398 0.00816338 0.0021406151 0.05852649 0.0030914743 0.010716527 0.0051316195 0.0020268355
0.008822923 0.02784396 0.029259115 0.05171639 0.001627884 0.041427918 0.008303499 0.009507849
0.017262192 0.024082845 0.004129197 0.0015490653 0.0026358748 0.0021339732 0.0064199283 0.04156887
0.006799497 0.0031727313 0.06708245 0.0023761434 0.002129379 0.0047435407 0.02228918 0.06714668
0.03357813 0.02577504 0.0032487987 0.011680022 0.034837477 0.025878917 0.011700589 0.0014830967
0.025196135 0.0020738367 0.012060674 0.0017152216 0.0041891825 0.03208011 0.034396466 0.005446208
0.008581968 0.0022829454 0.023607334 0.0020967762 0.010836532 0.0020440337 0.0107845105 0.002754401
0.0058158003 0.00352007 0.014646498 0.002292421 0.007833084 0.0042440016 0.005373377 0.0017639252
0.0030738304 0.0045170095 0.0041956785 0.007284137 0.0030172556 0.0065388046 0.285227 0.013495387
0.005740369 0.018079342 0.0108860815 0.07288886 0.010130115 0.0054518203 0.179811 0.015748814
0.012171812 0.0027307915 0.010042789 0.028308298 0.0091330325 0.0017839371 0.007508653 0.13858974
0.012270491 0.0017097892 0.026881874 0.0016578052 0.026358379 0.016115459 0.039598763 0.014676978
0.007961518 0.0034941854 0.0029575892 0.006073252 0.001829467 0.0025873957 0.003092042 0.0042602806
0.0179781 0.0034326564 0.044076614 0.023223994 0.012910923 0.0018858621 0.0012164863 0.026402952
00000000: cbaa 933b 1987 fa3a d31f 223b e2b8 c73c
00000010: 6042 003d f6aa c23a 5293 a43d 5964 2c3c
00000020: b6a1 4341 a6b0 953d 2fc1 043b a6f5 a13c
00000030: aa46 0f3c cee2 5c3d 925f 7d3c 7287 993b
00000040: e10e bc3a e3e5 043c 39ad bf3b 7910 4a3c
00000050: d44d 283c 6f54 393c 5fd2 083c b7de 843c
00000060: d196 803d 5b56 9f3b 49da e43a e7ee f13c
00000070: 4fe8 e33a 2855 153b e7e0 7a3d 4101 373c
00000080: ef2a 2b3c ab56 493d ec90 123c 43fa ae3c
00000090: 007c 213d e261 ad3a 4db2 8e3f 6bf1 ea3a
000000a0: 60e9 d23b 4bbe c73b 1786 ef3a f359 dd3e
000000b0: 663b 5e3d a6d8 373b bb51 ef3c 77e3 373c
000000c0: f782 d43a c6c6 753c 1dcd 173c 147c 563c
000000d0: 4dba 083c c081 d53a e162 9d3c d8fd ab3b
000000e0: d6fd 873b 7d04 803c bdbe 943c 271f 083c
000000f0: e485 9b3c 0bf0 bf3c 603d 153b c77c cd3d
00000100: 103d 003b 20a6 6c3d ccb5 353c f2cb 0d3b
00000110: cf8e 163d 2604 0d3d 8e72 7f3b 699a 283c
00000120: 73c6 193b 4854 bf3b ca30 863b 8a27 323c
00000130: 172b 0a3d 7cc8 003b a851 9e3c 291b 833c
00000140: 104a 0f3b a750 c13b fd77 1f3b eb33 c13a
00000150: a6a7 1d3c fc43 a63b f73e d23d 320c 793b
00000160: dd83 c53c 4c90 373b 4d2c 193c 1bc4 9a3a
00000170: 1058 fe3c 3793 6b3d caad 393c 3db9 833b
00000180: 2036 833b 0ff9 e43b 97d1 f93b 5670 a43d
00000190: 73f9 a83b 7c41 043c a8fd bf3c 60c6 3b3c
000001a0: 7ce7 303e 972d 173b 6354 dd3a ee2f 723b
000001b0: c7e8 d13c 567a 813b 90dd 223c 2f70 103c
000001c0: f121 b13b 7886 1b3c 7172 a63b b4df ac3a
000001d0: 520f f63a 6082 1c3c 2ce5 083d 42ee 9d3c
000001e0: 17fa 333c 898c 033b 39e8 043b 21ac 173d
000001f0: b5f7 083c 602f b63d 73bf d53b a4d9 273b
00000200: f486 523c 2d2c a33b 9cf5 d73b 8ff3 a03c
00000210: 90a1 da3a 8db9 bf3c bafa d03c 7215 6f3c
00000220: 1c41 283c 9438 653b da8b 463c e6ac 183b
00000230: 116b c33c b6db 2e3c a9fa ad3c 3e64 7e3c
00000240: 8920 043c b3bf 053c 9049 0c3b 79b9 6f3d
00000250: 559a 4a3b 5f94 2f3c 2527 a83b a8d4 043b
00000260: 058e 103c 0419 e43c d0b0 ef3c 91d4 533d
00000270: b95e d53a 52b0 293d 660b 083c cfc6 1b3c
00000280: 7169 8d3c 6349 c53c 374e 873b 020a cb3a
00000290: a4be 2c3b 21da 0b3b 435e d23b 1f44 2a3d
000002a0: 51ce de3b 99ed 4f3b 8662 893d 12b9 1b3b
000002b0: 0d8d 0b3b b46f 9b3b cc97 b63c 3384 893d
000002c0: 3989 093d 2d26 d33c cce9 543b 905d 3f3c
000002d0: beb1 0e3d 0600 d43c d4b3 3f3c 7864 c23a
000002e0: 2068 ce3c 35e9 073b 229a 453c 49d1 e03a
000002f0: 6945 893b 6f66 033d 4fe3 0c3d 1b76 b23b
00000300: 629b 0c3c 789d 153b 2b64 c13c 116a 093b
00000310: b68b 313c 32f5 053b 84b1 303c 2e83 343b
00000320: 7892 be3b fab0 663b ddf7 6f3c 713c 163b
00000330: 5656 003c 4411 8b3b 2713 b03b 8233 e73a
00000340: 5172 493b 6c03 943b e77b 893b c5af ee3b
00000350: 26bd 453b 7843 d63b 4609 923e c11b 5d3c
00000360: b519 bc3b 211b 943c 895b 323c c146 953d
00000370: c8f8 253c 2fa5 b23b 6020 383e a803 813c
00000380: 486c 473c 14f7 323b 838a 243c cee6 e73c
00000390: b7a2 153c ffd2 e93a 260b f63b 78ea 0d3e
000003a0: 2b0a 493c 011b e03a 6037 dc3c b64a d93a
000003b0: 87ed d73c 9104 843c 5032 223d b577 703c
000003c0: 0771 023c b4fe 643b 1dd4 413b 2102 c73b
000003d0: baca ef3a 4c91 293b dba3 4a3b d399 8b3b
000003e0: cf46 933c 6bf6 603b ae89 343d 3f40 be3c
000003f0: 5688 533c 082f f73a 8272 9f3a 014b d83c

exp_avg f4 [2]
0.073128514 -0.07312851
00000000: 67c4 953d 66c4 95bd

exp_avg_sq f4 [2]
0.029208608 0.02920861
00000000: e446 ef3c e546 ef3c
