TASK2/gender_classification_model/checkpoint_step_2000.pth (torch, 22851 bytes, 6 tensors)

weight f4 [2, 768]
-0.1388477 0.018138438 0.17375848 0.021253524 0.03574965 0.11689261 0.005091232 -0.21322352
-0.023472197 -0.0015381979 -0.06882612 -0.08029007 -0.011068332 0.021610225 0.021784663 0.035849474
-0.16163898 0.016266134 0.0097476365 -0.027057854 0.008053978 -0.020688878 0.01995176 -0.08416997
0.024773242 0.07744773 -0.013144021 0.1033464 0.22073683 0.023998028 -0.040505167 0.02151941
-0.08131039 -0.030219492 -0.076207824 -0.029100621 -0.0022065016 -0.030382773 -0.006628052 -0.041493263
0.13935591 0.026339222 -0.055735722 -0.0046041287 -0.010444918 -0.07037618 0.054150052 0.13411663
0.16792624 -0.0068163113 -0.09870368 0.091933355 -0.12655543 0.045018025 0.070800774 -0.14241722
-0.16376488 -0.10340603 0.05133036 0.13140747 -0.043326803 -0.08002153 0.005847902 -0.019242574
-0.20269613 0.010390635 0.08772905 -0.024589533 -0.026257245 0.039337274 -0.09920266 0.061861224
0.008442515 -0.23482476 0.11703199 -0.15836564 -0.004761509 0.121631205 -0.03323421 -0.028083157
0.22159404 -0.08562418 -0.17104976 0.30689442 0.050307617 0.03896148 -0.008046367 -0.09207057
0.097195245 0.08811271 0.06367794 -0.2735843 0.09186858 0.0531603 -0.012904278 -0.13632593
0.030373879 -0.043648444 0.057715714 0.031058438 -0.06768366 0.03393954 0.050142094 0.057283767
0.025024455 -0.18664065 0.03247567 -0.11434264 -0.04524468 0.12125943 -0.03284729 0.08472914
0.046463832 -0.0026434716 -0.012772677 0.037310008 0.3322293 -0.061486162 0.029681506 -0.05188628
0.21013321 0.23581283 -0.11506596 0.0453323 0.121272475 -0.013842154 -0.009920643 0.028172925
0.055840533 0.015339113 -0.027191637 0.01817993 0.112218186 -0.023340164 0.049163643 0.13324721
-0.04942748 0.07217115 0.06025099 -0.2580485 -0.12708935 -0.07044293 -0.10006276 -0.086611785
-0.04792154 -0.020223796 -0.15418169 -0.017234346 0.080522574 0.1180811 0.054367054 -0.13981159
0.02744744 0.051766343 0.10418333 0.015566462 -0.11013009 -0.015076468 0.0048173093 0.07919032
-0.04732341 -0.016266879 0.10653414 0.037399657 0.23257317 0.21840176 -0.103146076 0.07459691
-0.109128274 0.072940506 0.0030302883 -0.018287428 -0.055879653 0.085815206 0.05511507 0.022241369
0.1320743 0.026214391 0.19694908 0.04578245 0.083749816 -0.0024618073 0.02988708 -0.13414702
-0.06903999 0.18465215 -0.05193141 -0.052921526 0.009191183 -0.01665709 0.018798642 -0.025037317
-0.121173635 0.07452285 -0.07643567 -0.23272628 -0.12114514 -0.23024714 0.07734827 -0.016866852
-0.07544996 0.04280204 0.05385783 0.15620889 0.019240558 0.25548434 -0.0038407443 -0.025389584
0.11467171 -0.036319215 0.077289484 -0.047549944 -0.0988164 -0.004129666 -0.03274181 0.09317314
-0.059643 0.063936666 -0.05276256 -0.023953142 -0.030936556 -0.103853725 0.00050940155 0.004498139
-0.0029189668 0.0059409398 -0.06856703 0.03555447 0.020428997 -0.17128524 0.06221502 0.0020382677
-0.094132744 0.094137065 -0.011460339 0.26005492 -0.030300831 -0.00047001676 -0.02460023 -0.0036153237
-0.0669277 0.036462918 -0.055610213 0.051435374 0.12025235 0.0039809053 0.077142246 -0.009892781
0.060195263 0.0014583474 -0.10826689 0.009103855 0.0130564505 -0.07098038 -0.03207587 0.047249105
00000000: 172e 0ebe 1097 943c beed 313e df1b ae3c
00000010: 3a6e 123d 6565 ef3d 59d4 a63b 4457 5abe
00000020: c448 c0bc 5b9d c9ba b5f4 8cbd 1f6f a4bd
00000030: f357 35bc ed07 b13c c075 b23c e6d6 123d
00000040: b084 25be 8e40 853c 8db4 1f3c 6fa8 ddbc
00000050: d5f4 033c b97b a9bc e071 a33c 4e61 acbd
00000060: 41f1 ca3c ea9c 9e3d 055a 57bc 47a7 d33d
00000070: d608 623e 8397 c43c bfe8 25bd 7949 b03c
00000080: 1086 a6bd de8e f7bc d912 9cbd 6d64 eebc
00000090: f49a 10bb 4be5 f8bc 2130 d9bb d7f4 29bd
000000a0: 51b3 0e3e 5ac5 d73c 244b 64bd 3bde 96bb
000000b0: 2921 2bbc 6321 90bd 72cc 5d3d df55 093e
000000c0: dbf4 2b3e 5d5b dfbb 2825 cabd 8e47 bc3d
000000d0: bf97 01be d264 383d ffff 903d d2d5 11be
000000e0: fbb1 27be 8ac6 d3bd c93f 523d ae8f 063e
000000f0: 7277 31bd 54e2 a3bd c29f bf3b 9aa2 9dbc
00000100: 938f 4fbe 7b3d 2a3c 4aab b33d fd6f c9bc
00000110: 6f19 d7bc 1f20 213d c42a cbbd 3262 7d3d
00000120: 7952 0a3c e775 70be 78ae ef3d 9a2a 22be
00000130: 6f06 9cbb c819 f93d 9820 08bd a60e e6bc
00000140: 8ce9 623e bb5b afbd ab27 2fbe 4421 9d3e
00000150: 5c0f 4e3d 1396 1f3d e9d4 03bc 7f8f bcbd
00000160: 4d0e c73d 7074 b43d 9469 823d 3e13 8cbe
00000170: 9825 bc3d 9dbe 593d 776c 53bc 0699 0bbe
00000180: a4d2 f83c b6c8 32bd 5067 6c3d 446e fe3c
00000190: bb9d 8abd 3004 0b3d cc61 4d3d 62a2 6a3d
000001a0: 1600 cd3c ba1e 3fbe 3505 053d 792c eabd
000001b0: 7c52 39bd dd56 f83d e18a 06bd 7986 ad3d
000001c0: dc50 3e3d 183e 2dbb 7d44 51bc 61d2 183d
000001d0: f519 aa3e ead8 7bbd a126 f33c b586 54bd
000001e0: 292d 573e eb78 713e b4a7 ebbd 5dae 393d
000001f0: b45d f83d 34ca 62bc 318a 22bc e8ca e63c
00000200: 0bb9 643d e750 7b3c ffc0 debc 14ee 943c
00000210: a6d2 e53d df33 bfbc d15f 493d f571 083e
00000220: 7874 4abd 78ce 933d bec9 763d ef1e 84be
00000230: b623 02be 6244 90bd b4ed ccbd 8561 b1bd
00000240: 6049 44bd 60ac a5bc cee1 1dbe 0b2f 8dbc
00000250: 05e9 a43d 81d4 f13d fdaf 5e3d c52a 0fbe
00000260: 74d9 e03c f208 543d 125e d53d 790a 7f3c
00000270: e28b e1bd 4a03 77bc 85da 9d3b 892e a23d
00000280: 31d6 41bd 1e42 85bc 922e da3d 6230 193d
00000290: a927 6e3e b6a4 5f3e 403e d3bd 44c6 983d
000002a0: a57e dfbd d561 953d cd97 463b 84cf 95bc
000002b0: 10e2 64bd e2bf af3d 57c0 613d 8833 b63c
000002c0: 7c3e 073e 90bf d63c 05ad 493e 6186 3b3d
000002d0: 0685 ab3d 4656 21bb c0d5 f43c d65d 09be
000002e0: d764 8dbd 7415 3d3e 08b6 54bd 3ec4 58bd
000002f0: 9e96 163c 7374 88bc 9cff 993c 0f1b cdbc
00000300: e229 f8bd 709f 983d 4e8a 9cbd cc4f 6ebe
00000310: f11a f8bd e8c5 6bbe c568 9e3d 5a2c 8abc
00000320: 8285 9abd 3151 2f3d 079a 5c3d 39f5 1f3e
00000330: 609e 9d3c d8ce 823e ffb4 7bbb d1fd cfbc
00000340: 00d9 ea3d 75c3 14bd f349 9e3d bbc3 42bd
00000350: 4160 cabd 2652 87bb 471c 06bd 8fd1 be3d
00000360: 384c 74bd 3af1 823d 8e1d 58bd 6139 c4bc
00000370: a96e fdbc 43b1 d4bd 5c89 053a 2065 933b
00000380: 234c 3fbb 37ac c23b df6c 8cbd 90a1 113d
00000390: b65a a73c 6665 2fbe 2dd5 7e3d 7594 053b
000003a0: abc8 c0bd efca c03d 25c4 3bbc eb25 853e
000003b0: 7339 f8bc 956c f6b9 6c86 c9bc 11ef 6cbb
000003c0: 6411 89bd 245a 153d 89c7 63bd e6ad 523d
000003d0: dd46 f63d 4172 823b c1fc 9d3d 5515 22bc
000003e0: 4f8f 763d 0526 bf3a 08bb ddbd 5628 153c
000003f0: b9ea 553c 295e 91bd fd61 03bd 4788 413d

bias f4 [2]
-0.021679865 0.023456525
00000000: f999 b1bc e627 c03c

exp_avg f4 [2, 768]
-0.006145315 -0.0039021187 -0.0071359025 -0.015359208 -0.0030720525 -0.0025756408 0.011574084 0.0072845183
-0.08562106 -0.009029075 0.00012404335 0.0062039597 0.004135413 0.009787159 0.00048937777 -0.0055312533
-0.0011191301 0.0043679466 -0.0020287703 -0.0032693772 -0.007955045 -0.0061078942 -0.008168707 0.008383102
0.0015088529 0.0003702044 0.002135781 0.00400014 -0.00789959 -0.0031842713 -0.011287585 -0.006726457
-0.0006286904 0.00360679 0.0021389702 0.00030852118 0.008897211 -0.0022070354 0.0016985703 0.00012414639
0.005847648 -0.0056408206 0.0022962776 0.012436033 -0.011507987 -0.0005980436 0.009459399 -0.004262448
-0.0016572541 -0.004750164 0.0019603306 -0.0018395842 -0.0059134164 -9.7120865e-05 0.0013724177 -0.010345489
-0.0019844442 0.008929552 0.0067400048 -0.0014890548 0.0024248476 0.011364871 -0.004954968 0.009255954
-0.005137494 -0.007816619 0.000454628 0.00320464 -0.0024369839 -0.003550266 0.0049057542 0.0027147953
0.0010008786 -0.00024141975 0.0060459296 0.011190323 -0.00887165 -0.0065491213 0.0016431172 0.0031290224
0.0015803602 5.487974e-05 -0.0022731267 0.0054287743 -0.0063699028 -0.004665097 -0.008468642 0.0043394514
0.0051685334 -0.0027747108 0.004411624 0.0017658259 0.008218278 -0.00082169345 0.0010356556 0.00869903
0.00085913745 0.0013411917 0.007668816 0.0064918315 -0.0039102877 0.0030816812 -0.0005818464 0.00230018
-0.011074215 -0.0004636111 -0.0009845688 0.0026844055 0.006485777 -0.00015282138 0.005788977 0.003807226
-0.0044450667 -0.0015601551 0.0047755097 0.004764315 -0.0033017558 -0.00029228075 -0.0051395656 -0.0030680227
-0.0013207719 0.001918383 0.0006492217 0.0066366154 -0.0023937877 -0.0052713677 -0.004741642 -0.00651447
-0.0006886868 0.0020412132 -0.0050831973 0.0011416279 0.0018367183 -9.041671e-06 0.00024160836 -0.0041644066
0.00064759614 -0.0003704331 0.0029904703 -0.0031575575 -0.007906135 -0.0065642293 0.003873727 -0.0017101602
-0.0030762595 0.00406408 0.0031281773 -0.0015621497 0.0014692073 0.005940609 0.008590517 -0.002253616
-0.0034088045 -0.005289158 0.0067507825 0.009447114 0.001503935 0.0020744714 0.0021812327 -0.0056614885
-0.003225493 -0.0031010862 0.00019351172 0.0063187866 -0.0026093912 0.00025335726 0.0066833706 0.0069871405
-0.006804226 -0.0028322442 -0.0070537208 -0.0057469453 -0.00045158062 0.0059170164 -0.0013847915 0.0098409625
-0.00073574664 0.0015943026 -0.008898383 -0.0084305545 0.0063862507 -0.013207732 -0.004010115 -0.00012837331
-0.005129291 0.003556228 -0.0020696507 0.0048220973 0.00047599987 -0.0059676683 -0.014174023 -0.004776535
0.0065360707 0.000618313 -0.010902829 0.00096407917 0.004496918 0.0028743024 -0.00057326705 0.0032715613
-0.009089179 -0.0023435014 -0.0020642574 0.00019698343 0.00070451765 -0.0014330245 0.0098312665 0.00613218
0.0026583343 0.012556278 -0.0042536804 -0.00814574 0.000264093 0.006753373 -0.019375583 0.0007854273
0.003022988 -0.0042925603 0.004700731 0.004505225 -0.0055389204 0.0004294016 -0.020276481 0.003215443
-0.004708803 -0.0012235269 -0.00816484 0.0014480439 -0.0045973253 0.0005240971 0.011284789 -0.006542522
0.0072025307 0.0003488097 0.00026823656 0.0024158226 -0.0007136333 -0.0019113923 0.0085511 -0.004142548
0.0012532948 0.0022116401 0.0026281294 0.004664222 -0.0024176396 -0.0040803845 -0.002109543 -0.00061687664
-5.734822e-05 0.0031022935 0.01093765 -0.004447224 -0.007034454 -0.0010098717 0.00211816 -0.006428902
00000000: a35e c9bb b0ba 7fbb 4ad4 e9bb 30a5 7bbc
00000010: 7d54 49bb 15cc 28bb 3aa1 3d3c f8b2 ee3b
00000020: 185a afbd afee 13bc a211 0239 964a cb3b
00000030: 5c82 873b 525a 203c 9649 003a 843f b5bb
00000040: c6af 92ba fe20 8f3b 1ef5 04bb 0c43 56bb
00000050: e155 02bc bb24 c8bb 0ad6 05bc 4759 093c
00000060: b4c4 c53a fe17 c239 76f8 0b3b 9b13 833b
00000070: 486d 01bc 35af 50bb 90ef 38bc 9c69 dcbb
00000080: b3ce 24ba e55f 6c3b f72d 0c3b 03c1 a139
00000090: 9cc5 113c e9a3 10bb 90a2 de3a 4b2d 0239
000000a0: a09d bf3b a2d6 b8bb 257d 163b 81c0 4b3c
000000b0: ff8b 3cbc 07c6 1cba 98fb 1a3c 01ac 8bbb
000000c0: 3838 d9ba 44a7 9bbb e478 003b 341e f1ba
000000d0: 55c5 c1bb 5ead cbb8 b2e2 b33a 2080 29bc
000000e0: 730d 02bb 414d 123c 42db dc3b 632c c3ba
000000f0: 31ea 1e3b b933 3a3c 495d a2bb 49a6 173c
00000100: 6c58 a8bb 4711 00bc 235b ee39 f004 523b
00000110: ceb5 1fbb 94ab 68bb 73c0 a03b b5ea 313b
00000120: ea2f 833a 9f25 7db9 ef1c c63b 9e57 373c
00000130: 665a 11bc 039a d6bb dd5d d73a 4910 4d3b
00000140: 1724 cf3a ac2e 6638 bdf8 14bb dce3 b13b
00000150: 9eba d0bb acdd 98bb 0fc0 0abc f531 8e3b
00000160: cd5c a93b ecd7 35bb 628f 903b 4973 e73a
00000170: f5a5 063c ea66 57ba d6be 873a 6086 0e3c
00000180: bd37 613a edca af3a b14a fb3b 6eb9 d43b
00000190: df21 80bb 08f6 493b 0d87 18ba 9ebe 163b
000001a0: a070 35bc d410 f3b9 a60c 81ba daec 2f3b
000001b0: a486 d43b ad3e 20b9 75b1 bd3b a782 793b
000001c0: eca7 91bb 1e7e ccba e17b 9c3b f91d 9c3b
000001d0: 4562 58bb 423d 99b9 cd69 a8bb e110 49bb
000001e0: c01d adba 4072 fb3a 8830 2a3a f777 d93b
000001f0: 18e1 1cbb 70bb acbb c75f 9bbb 5677 d5bb
00000200: fd88 34ba e0c5 053b f390 a6bb ada2 953a
00000210: 0abe f03a aeb1 17b7 4058 7d39 9375 88bb
00000220: 71c3 293a b036 c2b9 c4fb 433b 06ef 4ebb
00000230: bc88 01bc bf18 d7bb 5bde 7d3b 7427 e0ba
00000240: 129b 49bb f92b 853b 1b02 4d3b 0cc1 ccba
00000250: 6b92 c03a 71a9 c23b 3dbf 0c3c 67b1 13bb
00000260: 4066 5fbb ac50 adbb ab35 dd3b 11c8 1a3c
00000270: af1f c53a dbf3 073b 03f3 0e3b 0284 b9bb
00000280: cb62 53bb 983b 4bbb 68e9 4a39 d30d cf3b
00000290: 5202 2bbb 09d5 8439 2d00 db3b 62f4 e43b
000002a0: fcf5 debb 2c9d 39bb e622 e7bb df50 bcbb
000002b0: 20c2 ecb9 88e3 c13b e481 b5ba fd3b 213c
000002c0: 1fdf 40ba ebf7 d03a 86ca 11bc 4f20 0abc
000002d0: c143 d13b 3e65 58bc 4867 83bb f39b 06b9
000002e0: 9d13 a8bb 9b0f 693b faa2 07bb af02 9e3b
000002f0: 9f8f f939 6e8c c3bb 293a 68bc 7b84 9cbb
00000300: 892c d63b 4816 223a c7a1 32bc 42ba 7c3a
00000310: e25a 933b cb5e 3c3b 4d47 16ba b167 563b
00000320: c8ea 14bc 6e95 19bb 7e48 07bb 568d 4e39
00000330: 61af 383a 53d4 bbba 5213 213c 74f0 c83b
00000340: 7337 2e3b d9b8 4d3c 7562 8bbb b675 05bc
00000350: f675 8a39 664b dd3b 8bb9 9ebc 22e5 4d3a
00000360: 531d 463b 9ba8 8cbb 9708 9a3b 91a0 933b
00000370: d57f b5bb 4f21 e139 dd1a a6bc 2fba 523b
00000380: 4d4c 9abb c05e a0ba d2c5 05bc 4acc bd3a
00000390: 29a5 96bb 9063 093a d6e3 383c a762 d6bb
000003a0: 3503 ec3b 72e0 b639 1aa2 8c39 c752 1e3b
000003b0: 1f13 3bba af87 faba ea19 0c3c 36be 87bb
000003c0: 9845 a43a 2af1 103b b23c 2c3b 54d6 983b
000003d0: 4371 1ebb bfb4 85bb 4240 0abb e4b5 21ba
000003e0: 2f89 70b8 d94f 4b3b d433 333c 05ba 91bb
000003f0: 4781 e6bb ac5d 84ba d4d0 0a3b 8aa9 d2bb

exp_avg_sq f4 [2, 768]
0.0005077325 0.00060875295 0.00064636866 0.008915709 0.012586222 0.0005558647 0.030197233 0.002776302
4.627398 0.024089549 0.0005131123 0.0076156543 0.0028833337 0.018527543 0.0059998715 0.0008601979
0.00022217324 0.003470794 0.0010644315 0.004913105 0.004246178 0.0025071017 0.0030174567 0.0053473804
0.021974467 0.0013095862 0.00018762195 0.010825743 0.0004495764 0.00031242194 0.024682792 0.0045775534
0.0025099753 0.016713971 0.0030010138 0.0066728955 0.01785177 0.00024144206 0.4038222 0.00015609706
0.0020273922 0.0017752141 0.00033992575 0.1678633 0.018939532 0.0008380849 0.012808979 0.0036066058
0.00022569385 0.0053988933 0.002240988 0.0051984526 0.0032119239 0.00017861793 0.006500374 0.0018320846
0.0018106543 0.0039748135 0.007339786 0.0033444515 0.006089059 0.00936352 0.00026729508 0.04002224
0.00039337305 0.024640536 0.003962681 0.00036667057 0.016164139 0.015725665 0.0006090231 0.004063131
0.00031749596 0.0013754324 0.00076971523 0.0034432015 0.01384195 0.00038548265 0.0058733593 0.0056124227
0.00028456823 0.002222095 0.00031085714 0.0003905776 0.0028858061 0.0021801782 0.03556654 0.00094937324
0.0093384 0.00062987464 0.0033508872 0.00011251335 0.011592079 0.018736606 0.003975255 0.00202863
0.0011032161 0.0025174646 0.002226574 0.028390845 0.001501866 0.0033188418 0.0107800355 0.00459286
0.06647351 0.00025865398 0.00032910903 0.0011622224 0.0090901945 0.001604082 0.006900612 0.003508212
0.00111518 0.0034198035 0.0016048327 0.0002128918 0.0002530717 0.0031758596 0.011937909 0.005490084
0.0023953374 0.00024368965 0.0004484733 0.012807088 0.0035945757 0.033465948 0.0025039886 0.0005182851
0.0036125183 0.0013255213 0.0036548367 0.005119302 0.00034138476 0.0074295863 0.007762394 0.004683751
0.0037296726 0.00037808498 0.0037392704 0.00022457552 0.009083957 0.004658231 0.0093998145 0.0040165954
0.0042493828 0.0022849098 0.00041629624 0.024182372 0.00063150516 0.004165527 0.0013315605 0.00017521564
0.0024947482 0.011457449 0.009935104 0.022016669 0.00024823085 0.012804405 0.0026984096 0.0031209332
0.005981427 0.009043087 0.0010417989 0.00055432244 0.0005589657 0.00028624266 0.003008797 0.017249806
0.0024769744 0.00062371 0.021999542 0.00088991766 0.00030519997 0.0005485108 0.008347991 0.026362147
0.012024953 0.008245421 0.00053358334 0.0035449734 0.009900955 0.01146621 0.0032130848 0.00025184164
0.0090793045 0.0005117645 0.0034894217 0.00087681186 0.0011617456 0.01195419 0.0159801 0.0019565965
0.0034775455 0.00036983736 0.009312706 0.00048759737 0.003523728 0.00020500747 0.0038370176 0.00054800214
0.0025748627 0.00080871955 0.004988847 0.0006952122 0.0021443747 0.0010284184 0.000932342 0.0005315006
0.0011344303 0.0011254377 0.0015342283 0.001911071 0.0006232901 0.0013931433 0.10380647 0.0045684376
0.0017216265 0.006606533 0.0030313814 0.026404658 0.0039948137 0.0011216715 0.06576674 0.004365825
0.0042413967 0.00084950187 0.0023188237 0.009770248 0.003345364 0.00017392825 0.0025035145 0.056703232
0.004801895 0.00030796434 0.010498591 0.000298056 0.008990538 0.006837378 0.014691363 0.005521936
0.0025012519 0.0006359773 0.0006946593 0.0023261816 0.00037158607 0.00051310606 0.0013175239 0.0010374197
0.0062604146 0.0009371948 0.016152894 0.0077687902 0.005848478 0.00049925136 0.0003179126 0.0088226665
00000000: 5a19 053a b894 1f3a 1171 293a 3213 123c
00000010: 7136 4e3c 73b7 113a 3060 f73c 9ef2 353b
00000020: a513 9440 7257 c53c 6282 063a bd8c f93b
00000030: 50f6 3c3b 13c7 973c 929a c43b e77e 613a
00000040: 2df7 6839 4376 633b 6584 8b3a 1dfe a03b
00000050: 8623 8b3b 304e 243b 86c0 453b 1439 af3b
00000060: cc03 b43c 6ca6 ab3a 62bc 4439 755e 313c
00000070: 1fb5 eb39 90cc a339 9133 ca3c 4dff 953b
00000080: 667e 243b bdeb 883c a8ac 443b 4ea8 da3b
00000090: e03d 923c 9c2b 7d39 c9c1 ce3e fcad 2339
000000a0: ffdd 043b 4dae e83a 1038 b239 5be4 2b3e
000000b0: 1427 9b3c edb2 5b3a c0dc 513c ce5c 6c3b
000000c0: 3ba8 6c39 33e9 b03b 8add 123b c857 aa3b
000000d0: 247f 523b 634b 3b39 1701 d53b 8f22 f03a
000000e0: 7a53 ed3a 273f 823b 9682 f03b 962e 5b3b
000000f0: bb86 c73b 7369 193c bd23 8c39 5cee 233d
00000100: a33d ce39 f3da c93c 61d9 813b b13d c039
00000110: a86a 843c 1cd3 803c d9a6 1f3a 0324 853b
00000120: 9675 a639 da47 b43a b7c6 493a 56a7 613b
00000130: 59c9 623c 9b1a ca39 4f75 c03b 6ae8 b73b
00000140: 1a32 9539 91a0 113b 8afa a239 70c6 cc39
00000150: cb1f 3d3b 52e1 0e3b 38ae 113d 5cdf 783a
00000160: 1700 193c 2c1e 253a 8f9a 5b3b 25f5 eb38
00000170: b4ec 3d3c 837d 993c db42 823b c4f2 043b
00000180: ca99 903a 0cfc 243b b7eb 113b eb93 e83c
00000190: 43da c43a ed80 593b bf9e 303c b47f 963b
000001a0: 4323 883d f39b 8739 448c ac39 b655 983a
000001b0: 0aef 143c 0f40 d23a 871e e23b 08ea 653b
000001c0: 3b2b 923a c81e 603b 4059 d23a b53b 5f39
000001d0: b5ae 8439 1522 503b 3897 433c 2ae6 b33b
000001e0: 18fb 1c3b f186 7f39 1121 eb39 d2d4 513c
000001f0: f992 6b3b 9713 093d f519 243b 86dd 073a
00000200: 00c0 6c3b 1dbd ad3a fc85 6f3b d1bf a73b
00000210: e3fb b239 e373 f33b ae5b fe3b 277a 993b
00000220: 866d 743b b539 c639 8c0e 753b 087c 6b39
00000230: e1d4 143c 13a4 983b ae01 1a3c a59d 833b
00000240: 683e 8b3b 6dbe 153b 5642 da39 1c1a c63c
00000250: 988b 253a f97e 883b c287 ae3a 17ba 3739
00000260: ee7e 233b 06b8 3b3c d9c6 223c 4d5c b43c
00000270: fb24 8239 91c9 513c cdd7 303b 9288 4c3b
00000280: d9ff c33b 7529 143c f88c 883a f34f 113a
00000290: 8e87 123a d712 9639 3d2f 453b 774f 8d3c
000002a0: bc54 223b 7880 233a 6238 b43c 5d49 693a
000002b0: 3f03 a039 f0c9 0f3a 03c6 083c 6ef5 d73c
000002c0: 4f04 453c cd17 073c 2ce0 0b3a c952 683b
000002d0: 9d37 223c c5dc 3b3c 9e92 523b 9d09 8439
000002e0: 5dc1 143c ef27 063a c8ae 643b d9d9 653a
000002f0: b745 983a 82db 433c b3e8 823c 3e3a 003b
00000300: 88e7 633b bbe6 c139 5294 183c 36a4 ff39
00000310: 59ee 663b 46f7 5639 7976 7b3b cda7 0f3a
00000320: 07bf 283b 4000 543a 7b79 a33b e73e 363a
00000330: a388 0c3b ffcb 863a 6a68 743a 6754 0b3a
00000340: 2ab1 943a 6c83 933a 2918 c93a e77c fa3a
00000350: 4a64 233a 229a b63a 7d98 d43d d5b2 953b
00000360: 33a8 e13a 9e7b d83b 24aa 463b 954e d83c
00000370: ede6 823b 0d05 933a b6b0 863d 320f 8f3b
00000380: 6afb 8a3b 1bb1 5e3a 68f7 173b 6413 203c
00000390: e53d 5b3b 8260 3639 0112 243b a641 683d
000003a0: 3759 9d3b 4676 a139 4802 2c3c 6644 9c39
000003b0: 0d4d 133c 150c e03b 0bb4 703c 5bf1 b43b
000003c0: 0bec 233b b7b7 263a cc19 363a da72 183b
000003d0: 70d1 c239 f781 063a c4b0 ac3a 07fa 873a
000003e0: 2a24 cd3b 14ae 753a 1353 843c 5691 fe3b
000003f0: 97a4 bf3b 31e0 023a 82ad a639 f28c 103c

exp_avg f4 [2]
0.00460962 -0.0046096155
00000000: 4c0c 973b 420c 97bb

exp_avg_sq f4 [2]
0.01180934 0.01180934
00000000: f67b 413c f67b 413c
