TASK2/gender_classification_model/checkpoint_step_11800.pth (torch, 22993 bytes, 6 tensors)

weight f4 [2, 768]
0	0x3ccfebce	0.025380995
1	0x3b92cfed	0.004480353
2	0x3d01b559	0.031667087
3	0x3c6b922b	0.014378111
4	0xbcdc8bc7	-0.02692212
5	0x3b93bcc4	0.0045085866
6	0xbc01a0ee	-0.007911904
7	0xbcf1101b	-0.029426625
8	0xbcfa4172	-0.030548785
9	0xbc7c2969	-0.015390732
10	0xbd43c939	-0.047799323
11	0xbc0348a0	-0.008012921
12	0xbd4b66bc	-0.049658522
13	0x3cb512a6	0.022103619
14	0x3cc01bd7	0.023450775
15	0xbc153c69	-0.009108641
16	0x3b5df909	0.003387036
17	0xbc8ed44a	-0.017435212
18	0x3b9ca774	0.004780704
19	0xbcc90ee2	-0.02454323
20	0xbc2e9a87	-0.010656959
21	0x3cb0c637	0.021578891
22	0x3d2c19f1	0.042016927
23	0x3be5f1fb	0.0070173717
24	0x3d15428a	0.03644041
25	0xbc479a1f	-0.012182741
26	0x3cb85d64	0.02250547
27	0x3b880ca2	0.0041518966
28	0x3d8386fc	0.064222306
29	0x3a850f5c	0.0010151672
30	0x3cfa9313	0.030587709
31	0x3d057c48	0.032589227
32	0x3c81d8e3	0.01585049
33	0x3ab7503c	0.0013985704
34	0xbc45f793	-0.012082952
35	0x3d168051	0.036743466
36	0x3c2ebde1	0.010665388
37	0xbd8c8f9c	-0.06863329
38	0x3c922a3d	0.017842406
39	0xbdbdfabe	-0.09276341
40	0x3cf0e49c	0.029405884
41	0x39a6722e	0.00031747058
42	0xbcfcc0b2	-0.030853603
43	0x3c749cd1	0.014929966
44	0xbcb8fb54	-0.02258078
45	0xbbb41371	-0.0054954817
46	0x3d072888	0.032997638
47	0x3d498e06	0.04920771
48	0x3d401be4	0.0469016
49	0xbcd31336	-0.025765996
50	0x3c41ebeb	0.011836032
51	0x3ca98ea8	0.020697907
52	0xbc42ca86	-0.011889106
53	0xbd12c56e	-0.035832815
54	0xbb97146c	-0.004610589
55	0xbcbca68c	-0.023028634
56	0xbbdaff8b	-0.006683295
57	0xbbe575c7	-0.0070025655
58	0xbb3140de	-0.002704672
59	0x3cb086d6	0.02154867
60	0x3c211637	0.009831957
61	0x3bea46f7	0.007149573
62	0xbd49240a	-0.049106635
63	0xbc7e2b76	-0.015513292
64	0xbc255fe9	-0.010093668
65	0xbc795d1a	-0.015219951
66	0x3d45ae05	0.04826166
67	0x3d88b33e	0.06674813
68	0xbd1b8516	-0.037968718
69	0x3d00a344	0.031405702
70	0x39a2867a	0.0003099924
71	0x3ade5032	0.0016961156
72	0xbba707bf	-0.005097359
73	0xbc69f443	-0.014279428
74	0xbcab7c35	-0.02093325
75	0xbd0ee869	-0.034889612
76	0xbbc88a07	-0.0061199698
77	0x3c894b27	0.016759468
78	0xbb851506	-0.004061344
79	0xbc822d92	-0.01589087
80	0x3ce7a8b0	0.028278679
81	0xbccede6d	-0.025252545
82	0xbd91523e	-0.070957646
83	0x3bb17038	0.005414989
84	0x3c39f2a5	0.011349355
85	0x3cb305dc	0.02185338
86	0xbc907f4c	-0.017638825
87	0xbd46fe0a	-0.048582114
88	0x3d2b9ca6	0.04189744
89	0x3c603964	0.013685558
90	0x3d34a6bc	0.044104323
91	0xbd5b2158	-0.053498596
92	0x3d181f22	0.037139066
93	0x3c9fe404	0.019517906
94	0x3b96f251	0.004606523
95	0xbd134734	-0.035956576
96	0x392c4dce	0.00016432183
97	0x3d4c0f9e	0.04981958
98	0xbc1247ad	-0.008928222
99	0x3d084213	0.03326614
100	0xbc422500	-0.011849642
101	0x3c25af0f	0.010112538
102	0x3d499c6d	0.049221445
103	0xbca8bdb5	-0.020598272
104	0x3c2d6fa1	0.010585696
105	0xbb75094f	-0.0037389582
106	0x3d8eac10	0.06966412
107	0xbd586520	-0.052830815
108	0xbbcd4f7f	-0.00626558
109	0x3d8f3a15	0.069935
110	0xbd2a5eae	-0.0415942
111	0xbc829b95	-0.015943328
112	0x3c5f96c5	0.013646786
113	0xbbdc8f10	-0.0067309216
114	0x3b948801	0.0045328145
115	0x3cd3be10	0.025847465
116	0x3db964ad	0.090524055
117	0xbc62a052	-0.013832169
118	0xbc38b287	-0.011273033
119	0x3c9d9e12	0.019240413
120	0x3d9253a6	0.07144861
121	0x3d83c7ae	0.0643457
122	0xbc0ac1cd	-0.008469057
123	0xbb7e9c2b	-0.0038850408
124	0x3c284686	0.01027072
125	0x3bf0fa58	0.007354062
126	0xbd0464fd	-0.032322872
127	0xbd01334f	-0.031543072
128	0x3b0ae3bd	0.0021192871
129	0xbcb7898d	-0.022404457
130	0xbd3f5359	-0.046710346
131	0x3bc2e79a	0.005948019
132	0x3d5d01e8	0.053956896
133	0x3c40bbf3	0.011763561
134	0x3d1f820a	0.038942374
135	0x3c4887c8	0.012239404
136	0xbccb03f2	-0.024782155
137	0xbbfa1a43	-0.007632525
138	0x3d22cd6d	0.03974669
139	0xbc1089fb	-0.00882196
140	0xbd2a8fe3	-0.041641127
141	0xbc731a59	-0.014837825
142	0xbb7019fe	-0.0036636586
143	0x3c422144	0.011848751
144	0xbcef8600	-0.0292387
145	0x3b4a5aca	0.0030876868
146	0xbbb3bcde	-0.005485161
147	0xb91e7b5d	-0.0001511401
148	0xbc568851	-0.013094024
149	0xbcc571d8	-0.024102136
150	0x3ce25933	0.027630424
151	0xbd421fc2	-0.047393568
152	0x3d292ef9	0.041304562
153	0x3d449013	0.047988962
154	0x3cd18c2c	0.025579534
155	0xbc0a4d1e	-0.008441238
156	0xbc99377e	-0.018703219
157	0xbd206df0	-0.039167345
158	0xbc9ab5ee	-0.018885579
159	0x3d7f7c13	0.062374186
160	0xbc00d509	-0.007863292
161	0xbc86f26d	-0.01647302
162	0xbcc38eda	-0.023871828
163	0x3cbda7ab	0.02315124
164	0xbd586a60	-0.052835822
165	0x3db4aaae	0.08821617
166	0xbc891c1b	-0.016737035
167	0xbcfca2c6	-0.030839335
168	0xbcd7194e	-0.026257183
169	0x3c4180dd	0.011810509
170	0x3cd1def5	0.02561901
171	0x3c705ace	0.014670087
172	0xbd0cbf62	-0.034362204
173	0x3ce219ff	0.027600287
174	0xbc5891f5	-0.013218393
175	0xbce0aa5a	-0.02742498
176	0x3cb9ef2a	0.02269705
177	0x3d10deb4	0.035368636
178	0x3c01f35a	0.007931555
179	0x3d1e7c9a	0.038693048
180	0x3cebf653	0.02880398
181	0xbcaa08d7	-0.020756168
182	0x3b881291	0.004152604
183	0xbbec9d6d	-0.007220915
184	0xbcc14716	-0.023593467
185	0x3da995e8	0.082805455
186	0xbcea0358	-0.028566048
187	0xbd21b9fd	-0.039484013
188	0xbc2e4754	-0.010637123
189	0x3b8bc7c9	0.0042657596
190	0x3c254605	0.010087495
191	0xbb6d5128	-0.0036211703
192	0xbca8e82e	-0.020618524
193	0x3d189510	0.037251532
194	0xbd231d7c	-0.03982304
195	0xbdae7121	-0.085176714
196	0xbd8a8dae	-0.067653045
197	0xbd49562b	-0.04915444
198	0x3d44f73c	0.048087344
199	0xbd164cd3	-0.03669436
200	0xbd7a5861	-0.06111944
201	0xbbc2c81f	-0.0059442664
202	0x3d40f2f4	0.0471067
203	0x3c3d8605	0.011567597
204	0x3ceaf387	0.028680576
205	0x3d283f4f	0.041076
206	0xbb042f90	-0.002016995
207	0xbc972355	-0.018449465
208	0x3d6a6d52	0.057233162
209	0x3c07d5b8	0.008290701
210	0x3c4a39d0	0.012342885
211	0xbb07c5c3	-0.002071724
212	0xbc987cbc	-0.018614165
213	0xbd1c86bf	-0.03821444
214	0xbcb34507	-0.0218835
215	0x3d0d6afb	0.034525853
216	0xbcbbd39e	-0.022928055
217	0xbd0e4902	-0.034737594
218	0xbca31adb	-0.019910267
219	0x3cd70b77	0.026250584
220	0xbd412b7f	-0.04716062
221	0x3c0a59d9	0.008444273
222	0x3d08c268	0.033388525
223	0xbcf19613	-0.029490506
224	0x3bcb6476	0.0062070442
225	0xbbd5b8a3	-0.0065222546
226	0xbd33b258	-0.043871254
227	0x3c7cdce1	0.015433521
228	0xbb671dae	-0.0035265493
229	0xbc5c3763	-0.01344094
230	0xbc83643a	-0.016039003
231	0xbc17e164	-0.009270046
232	0x3c9ae6cb	0.018908879
233	0x3d39d600	0.045370102
234	0x3be26572	0.006909066
235	0x3db51ccc	0.08843383
236	0xbb70abb9	-0.0036723448
237	0xbd2fd935	-0.042931754
238	0xbd107ef8	-0.035277337
239	0x3cc46e44	0.02397836
240	0xbcf2ccc2	-0.029638652
241	0xbc9ed18e	-0.019387033
242	0x3d055371	0.03255028
243	0x3d25369a	0.040335275
244	0x3d3243d1	0.043521706
245	0x3d08612a	0.033295788
246	0xbc04f67b	-0.008115406
247	0x3b986f3c	0.004651932
248	0xbba8ff09	-0.0051573557
249	0x3c753de5	0.01496837
250	0xbc11d882	-0.008901717
251	0x3c1fa86c	0.009744745
252	0x3d1f94a4	0.038960114
253	0xbcb1d920	-0.021709979
254	0x3bd63624	0.006537216
255	0x3d11424c	0.035463616

bias f4 [2]
0	0x3cc664fc	0.024218075
1	0xbb9f0309	-0.0048526567

exp_avg f4 [2, 768]
0	0xbb9fc638	-0.0048759244
1	0x3c0c3a27	0.0085587865
2	0xbc6ca08b	-0.014442573
3	0xbc519388	-0.012791522
4	0x3c5e7b26	0.013579166
5	0x3c61b1da	0.013775313
6	0x3bc21c5d	0.0059237913
7	0x3ce6c60f	0.028170614
8	0xbcdec7f3	-0.027194953
9	0xbb4968a8	-0.0030732546
10	0x3aabfcaf	0.001312157
11	0xbb8e8b0b	-0.0043500713
12	0x3c5e3d7a	0.013564462
13	0xbc265055	-0.010150989
14	0xbc45cc12	-0.01207258
15	0x3b1fe52f	0.0024398079
16	0xbb6b5a12	-0.003591184
17	0xbc6813cb	-0.014164875
18	0xbc244eed	-0.010028583
19	0x3ac01304	0.0014654105
20	0x3c4f8d17	0.012667916
21	0xbc1718a3	-0.009222182
22	0xbcb071bd	-0.02153861
23	0x3bfbf1a3	0.0076887175
24	0x3bc5b991	0.006034084
25	0xbbc874e2	-0.006117449
26	0xbc9a645d	-0.018846685
27	0x3c6fbc50	0.0146323
28	0xbcb1345c	-0.021631412
29	0xbcddabb1	-0.027059408
30	0xbbb8f7ea	-0.005644788
31	0x3b582646	0.0032981797
32	0xbcd7eba3	-0.026357478
33	0x3c1771ad	0.009243411
34	0xbc50f272	-0.012753116
35	0x3c0b0571	0.008485184
36	0x3ba66e7f	0.00507909
37	0x3c2932f5	0.0103270905
38	0xbc0dc032	-0.00865178
39	0x3a51dc37	0.0008005532
40	0x3c3a243d	0.011361179
41	0xbbb6fe80	-0.005584538
42	0x3bb712ed	0.005586973
43	0x3cfafec8	0.030639067
44	0xbc98212b	-0.018570503
45	0xbb75da21	-0.0037514048
46	0x39285057	0.00016051657
47	0xbbb2c7a9	-0.0054559303
48	0x3c6e2ea8	0.014537491
49	0xbb8a3ec8	-0.00421891
50	0x3c19d5b4	0.00938933
51	0x3bbfd075	0.0058537074
52	0x3bb759c7	0.005595419
53	0xbbce32ff	-0.0062927003
54	0xbbbffa82	-0.0058587203
55	0x3c169034	0.009189654
56	0x3c1101ab	0.008850495
57	0x3c4b5e6f	0.012412651
58	0x3be72666	0.007054138
59	0xbb63eb41	-0.0034777673
60	0x3b1eae99	0.0024212955
61	0x3ae1edbe	0.001723699
62	0x3b7c7800	0.0038523674
63	0xbb35c349	-0.0027734807
64	0x3cac187e	0.021007773
65	0x3c261e6e	0.010139091
66	0xbbc32fc7	-0.0059566232
67	0x3c64287f	0.013925671
68	0x3b225c98	0.0024774428
69	0x3ba94487	0.00516564
70	0x3c5dee26	0.013545549
71	0xbc7b3877	-0.0153332865
72	0x3c078b6a	0.008272985
73	0xbbad9c9f	-0.0052982117
74	0x3cb635e9	0.022242503
75	0x3c810ec3	0.01575411
76	0xba4e922e	-0.0007880059
77	0xbc52703e	-0.012844143
78	0xba4260d7	-0.0007414943
79	0xb9f66b82	-0.00047000876
80	0x3c8e673b	0.017383208
81	0x3bc6c1d0	0.0060655847
82	0x3c255129	0.010090151
83	0xbc0a6182	-0.008446099
84	0xbc1c5d34	-0.009543706
85	0xbaa7ac20	-0.0012792386
86	0xba44e35d	-0.00075106864
87	0x3cedd24a	0.029030938
88	0x3904d408	0.00012667489
89	0xbccdc770	-0.025119513
90	0x3c2ef3b4	0.010678221
91	0x3c6d1f18	0.014472745
92	0xba9fa8c3	-0.0012181032
93	0xbc0b56a4	-0.008504543
94	0x3c9f43e8	0.01944156
95	0xbc4f6ad0	-0.012659743
96	0xbc59e317	-0.013298771
97	0xbbdce446	-0.0067410795
98	0x3c47cf00	0.012195349
99	0x3c835aae	0.01603445
100	0x3b7fc20b	0.003902557
101	0x3c1feb49	0.009760686
102	0xbca62712	-0.020282302
103	0x3c39f317	0.011349461
104	0x3a9b330c	0.0011840775
105	0xbace1c2a	-0.0015724946
106	0xbb95fb25	-0.004577058
107	0xbc285fbd	-0.010276732
108	0x3c8637f2	0.016384099
109	0xbc343681	-0.010999323
110	0xbc7b47cc	-0.015336942
111	0xbc2dba70	-0.010603532
112	0x3b832034	0.0040016416
113	0x3b40f4c5	0.002944277
114	0xbb8ae3e4	-0.0042385925
115	0xbc099317	-0.008396885
116	0x3bca8225	0.006180065
117	0x3c025868	0.007955648
118	0xbc1d6938	-0.009607606
119	0xbd014a74	-0.031565145
120	0xbbcf7b35	-0.006331826
121	0x3c7e9d66	0.015540456
122	0xbcbe33d0	-0.023218066
123	0xbcd0c890	-0.02548626
124	0x3c4ede48	0.012626238
125	0x3b3bad59	0.0028637259
126	0xbcc6d62b	-0.024272045
127	0xbc2d23c1	-0.010567606
128	0xbc71915c	-0.014744129
129	0x3c3a2d37	0.011363319
130	0xbc1d0f08	-0.009586103
131	0x3b9c4270	0.004768662
132	0x3b93cb83	0.0045103445
133	0xbb5e4d9c	-0.003392077
134	0xbc615ca4	-0.013754997
135	0xbc475cb7	-0.012168101
136	0x3be796cd	0.0070675374
137	0x3cf71c86	0.030164968
138	0x3b94fe0d	0.004546887
139	0x379ce575	1.8703498e-05
140	0xbce083b1	-0.027406545
141	0x3a5e0ffe	0.0008471011
142	0x3bddacc4	0.00676498
143	0x3c53b8df	0.012922495
144	0x3c07da3d	0.008291778
145	0x3c777cd7	0.015105448
146	0x3c1d4c59	0.009600722
147	0xbbe69a2e	-0.0070374226
148	0x3c3bb922	0.011457713
149	0x3c735852	0.0148526
150	0x3c2a7c5d	0.010405627
151	0xbbb2d301	-0.0054572825
152	0xbc0e73bc	-0.008694585
153	0xbcc2ec55	-0.023794333
154	0x3c0ffbb5	0.008788039
155	0x3af8d329	0.0018983829
156	0x3caa1205	0.020760546
157	0x3b27c333	0.0025598526
158	0xbc134d9e	-0.008990673
159	0xbc820df7	-0.0158758
160	0xbcb48142	-0.022034291
161	0x3b58af57	0.0033063495
162	0x3ca6edf8	0.020377144
163	0x3bd42ff3	0.0064754426
164	0x3c22dc43	0.00994021
165	0xbc47526d	-0.012165648
166	0x3c2394d2	0.009984212
167	0x3aefdfe7	0.0018300981
168	0x3b6f1761	0.003648244
169	0xbc81a6c5	-0.015826592
170	0x3bf86d21	0.0075813686
171	0xbd01f3b8	-0.03172657
172	0xbc94a4c7	-0.018144978
173	0xbb6b9ef0	-0.0035952888
174	0xbb265ed0	-0.0025386102
175	0x3b8b6d7f	0.0042549963
176	0x3c3985e6	0.011323428
177	0x3c8bbe9a	0.01705866
178	0x39b5c03d	0.0003466624
179	0x3ba648d2	0.005074599
180	0x3c32dbfc	0.010916706
181	0xbc600b4f	-0.013674571
182	0xbc31060c	-0.010804664
183	0xbbb250b9	-0.005441752
184	0xbc436c5e	-0.011927692
185	0x3ca2e246	0.019883286
186	0x3c84ef66	0.016227435
187	0x3afda49b	0.0019351424
188	0xbc37b0c8	-0.0112115815
189	0xbb159e12	-0.0022829813
190	0x3ba9924e	0.0051749116
191	0xbae6901a	-0.0017590553
192	0xbc82b805	-0.015956888
193	0x3c7b5ab9	0.015341454
194	0x3ca0568e	0.019572522
195	0x3c1e663d	0.00966793
196	0x3c303569	0.0107549215
197	0xbca5471b	-0.020175507
198	0xbbe561cc	-0.0070001837
199	0x3c93aa7c	0.01802563
200	0xbc598cc1	-0.013278187
201	0x3c470fb6	0.012149742
202	0xbb429f82	-0.0029697125
203	0x3c8b30a3	0.016990965
204	0x3c989e39	0.018630134
205	0xbb1b2ebb	-0.0023678977
206	0x3cdbf273	0.026849007
207	0x3aae9eb2	0.0013322441
208	0xbb851469	-0.004061271
209	0x3b8a4d63	0.004220651
210	0xbbbd9ca5	-0.0057864957
211	0xb981596d	-0.00024671425
212	0x39797667	0.00023790599
213	0x3c32634f	0.010887935
214	0xbaaf9704	-0.0013396447
215	0xbcd5e79c	-0.026111417
216	0x3bba90df	0.0056935395
217	0xba1d9b1c	-0.0006012188
218	0xbcb4c829	-0.0220681
219	0x3c52fd64	0.012877796
220	0xbc02d9e1	-0.007986517
221	0xbaebddb7	-0.0017995153
222	0xbca93154	-0.020653404
223	0x3b943687	0.0045231017
224	0xbc20b0ad	-0.009807748
225	0x3c005cb5	0.007834603
226	0xbbea43db	-0.0071492023
227	0xbc608b00	-0.013705015
228	0xbcc12d35	-0.023581127
229	0x3c92bc74	0.017912127
230	0x3c9f84a0	0.01947242
231	0x3ca3e3b9	0.020006048
232	0xbae574ca	-0.0017506119
233	0xbcc96760	-0.024585426
234	0x3c01f6be	0.007932363
235	0xbc3b5435	-0.011433651
236	0x3c0b61c6	0.008507198
237	0xbc1e5915	-0.0096647935
238	0xba875881	-0.0010326059
239	0x3ae0ce18	0.0017151264
240	0xbb6c4ee2	-0.003605776
241	0x3bb9f86d	0.0056753666
242	0x3a8a502d	0.0010552459
243	0x3c3d1e91	0.011542932
244	0x383ff520	4.576624e-05
245	0xbcd1f10b	-0.025627634
246	0xbc1c51d8	-0.009540997
247	0xb91df28e	-0.00015063045
248	0x3a026446	0.00049740484
249	0x3bb8d4ba	0.0056405934
250	0xbba1a880	-0.004933417
251	0xbc116518	-0.0088742
252	0xbb799a3d	-0.0038086318
253	0x3bd373a4	0.0064529944
254	0x3ba849c8	0.0051357485
255	0xbbab79cb	-0.0052330247

exp_avg_sq f4 [2, 768]
0	0x3b8d86da	0.004319054
1	0x3af38484	0.0018578921
2	0x3b1eb2f4	0.002421555
3	0x3cc5b483	0.024133926
4	0x3cfa5f88	0.030563131
5	0x3ab412c3	0.0013738502
6	0x3da0d1a3	0.07852485
7	0x3c2a42b8	0.010391884
8	0x413df9ef	11.873519
9	0x3d90f9aa	0.0707887
10	0x3b05e785	0.0020432186
11	0x3c99779d	0.018733794
12	0x3c07015c	0.00824007
13	0x3d59d47e	0.053181164
14	0x3c74a8d6	0.014932832
15	0x3b90c045	0.0044174516
16	0x3ac0ba80	0.0014704019
17	0x3c012b74	0.007883895
18	0x3bb64500	0.0055624247
19	0x3c433f0f	0.01191689
20	0x3c264cec	0.010150176
21	0x3c352ffd	0.011058805
22	0x3bfde172	0.0077478224
23	0x3c811084	0.015754946
24	0x3d7ac0f2	0.061219163
25	0x3b9ecec7	0.004846427
26	0x3adf7e7c	0.0017051245
27	0x3cea3dfd	0.028594011
28	0x3aeb9316	0.0017972912
29	0x3b0e2f27	0.0021695585
30	0x3d74b98a	0.059747256
31	0x3c306563	0.01076636
32	0x3c230778	0.009950511
33	0x3d4523c3	0.04812981
34	0x3c0d0abb	0.008608515
35	0x3caaf0d2	0.020866785
36	0x3d1bb027	0.03800979
37	0x3aa9cfcc	0.0012955605
38	0x3f89b338	1.0757818
39	0x3ad870c3	0.0016513098
40	0x3bd1e201	0.0064051156
41	0x3bc5dc66	0.0060382364
42	0x3ae4a534	0.0017444254
43	0x3ed521f1	0.41627458
44	0x3d58713f	0.052842375
45	0x3b37f7f7	0.0028071383
46	0x3ce9bbf2	0.028532002
47	0x3c2c9082	0.0105325
48	0x3ad25a4a	0.0016048637
49	0x3c6e6cdc	0.014552321
50	0x3c0f5ad0	0.008749679
51	0x3c557c1f	0.013030081
52	0x3c098a13	0.008394736
53	0x3abf50e2	0.0014596249
54	0x3c9d157a	0.01917528
55	0x3bae5530	0.0053202137
56	0x3b8a7899	0.004225802
57	0x3c7fe47f	0.015618443
58	0x3c8f469d	0.017489726
59	0x3c03e8ec	0.008051138
60	0x3c97fb49	0.01855244
61	0x3cb879f4	0.02251909
62	0x3b12e7d1	0.0022416005
63	0x3dc6e6f2	0.09712018
64	0x3afa465b	0.0019094454
65	0x3d650c52	0.055919953
66	0x3c2ccef7	0.010547391
67	0x3b127c00	0.0022351742
68	0x3d115ce9	0.035488997
69	0x3d0b5b84	0.034022823
70	0x3b84c26d	0.0040514977
71	0x3c1fa278	0.009743325
72	0x3b09067d	0.0020908408
73	0x3bbcaee8	0.005758155
74	0x3b8774e6	0.0041338084
75	0x3c31937d	0.010838387
76	0x3d065238	0.032793254
77	0x3af4bd6e	0.0018672177
78	0x3c9a2470	0.018816203
79	0x3c810d75	0.015753487
80	0x3b05337d	0.002032488
81	0x3bbe504f	0.0058079134
82	0x3b10493d	0.002201631
83	0x3ab9a4d9	0.0014163508
84	0x3c186cdf	0.009303301
85	0x3ba1a4c3	0.004932971
86	0x3dcb529a	0.099278644
87	0x3b6ad691	0.0035833458
88	0x3cc0e8d0	0.023548514
89	0x3b43980a	0.002984526
90	0x3c173b37	0.0092304265
91	0x3a950e36	0.0011372033
92	0x3cf6bf17	0.030120416
93	0x3d65d488	0.05611089
94	0x3c3297c9	0.010900446
95	0x3b7b092b	0.0038305025
96	0x3b7ee8b8	0.0038896035
97	0x3bdacbe9	0.00667714
98	0x3bf65306	0.0075172214
99	0x3da12c4a	0.078697756
100	0x3ba20f10	0.0049456432
101	0x3c03160c	0.008000862
102	0x3cb746bb	0.022372594
103	0x3c3445d1	0.011002974
104	0x3e2c0d21	0.16801883
105	0x3b2131c8	0.0024596322
106	0x3ad4d5ab	0.0016237994
107	0x3b676a23	0.0035311065
108	0x3ccd5231	0.025063606
109	0x3b7c717a	0.0038519786
110	0x3c20241c	0.009774234
111	0x3c0bc92b	0.008531849
112	0x3ba78bd3	0.005113104
113	0x3c1502e5	0.009094928
114	0x3ba47f42	0.005020053
115	0x3aa9cad3	0.0012954123
116	0x3ae17b53	0.0017202891
117	0x3c1b09f2	0.00946282
118	0x3d03a974	0.032144025
119	0x3c9850c3	0.018593198
120	0x3c336b1a	0.010950828
121	0x3af44f29	0.0018639314
122	0x3b001cbd	0.001954838
123	0x3d15fb8d	0.03661685
124	0x3c01f0b4	0.007930923
125	0x3db27b27	0.08714896
126	0x3bcc87f4	0.006241793
127	0x3b24879a	0.002510524
128	0x3c4a6452	0.01235302
129	0x3ba0d927	0.004908699
130	0x3bd10f42	0.0063799927
131	0x3c99ca73	0.018773293
132	0x3ad84755	0.0016500751
133	0x3cbb5500	0.02286768
134	0x3ccb0a68	0.024785236
135	0x3c64e2ba	0.013970071
136	0x3c24308b	0.010021339
137	0x3b5e16e9	0.0033888167
138	0x3c435e3b	0.011924322
139	0x3b14bc1b	0.0022695127
140	0x3cbffafb	0.023435107
141	0x3c2b4b36	0.010454943
142	0x3ca58831	0.020206543
143	0x3c79b355	0.01524051
144	0x3bfd2924	0.0077258516
145	0x3c06921c	0.008213546
146	0x3b11cfdd	0.002224914
147	0x3d67845d	0.056522716
148	0x3b46bc7a	0.0030324743
149	0x3c27997a	0.010229463
150	0x3ba71c1f	0.005099788
151	0x3afabdad	0.0019130014
152	0x3c0b662e	0.008508248
153	0x3cdcdde9	0.026961284
154	0x3ce5ba13	0.028042829
155	0x3d4e1542	0.05031324
156	0x3ad86604	0.0016509895
157	0x3d22eee8	0.03977862
158	0x3c01ee62	0.00793037
159	0x3c13b5f9	0.009015554
160	0x3c8b6ee9	0.01702066
161	0x3cbfa918	0.02339606
162	0x3b850949	0.004059945
163	0x3aca8b38	0.0015452867
164	0x3b234d90	0.0024918057
165	0x3b06891e	0.0020528506
166	0x3bcb4cde	0.0062042316
167	0x3d27f4e3	0.041005027
168	0x3bd5e9ea	0.006528129
169	0x3b43088e	0.0029759738
170	0x3d84398e	0.0645629
171	0x3b1ba974	0.0023752125
172	0x3b05c85e	0.0020413618
173	0x3b9ff69e	0.004881694
174	0x3cb0dfc6	0.021591078
175	0x3d86593f	0.06559991
176	0x3d05e855	0.032692272
177	0x3cc9edce	0.024649527
178	0x3b46b6cb	0.0030321355
179	0x3c3930a0	0.011303097
180	0x3d0cb34c	0.03435068
181	0x3cd0f34a	0.025506634
182	0x3c3b6d2a	0.011439601
183	0x3ac71f1e	0.0015191769
184	0x3cc9f010	0.024650604
185	0x3b063e06	0.0020483746
186	0x3c3cd0ae	0.0115243625
187	0x3ae45211	0.0017419477
188	0x3b8895f6	0.0041682674
189	0x3d0170b8	0.031601638
190	0x3d0ab343	0.033862364
191	0x3ba83e01	0.0051343446
192	0x3c0a2bf7	0.008433334
193	0x3b10fc9b	0.002212322
194	0x3cbe5584	0.023234136
195	0x3b015110	0.0019732155
196	0x3c2d22f7	0.010567418
197	0x3b088536	0.0020831353
198	0x3c2ad462	0.010426613
199	0x3b3460d1	0.0027523527
200	0x3bbdb933	0.0057898997
201	0x3b5ba1fe	0.0033513303
202	0x3c6f779d	0.01461592
203	0x3b156a43	0.0022798933
204	0x3bfdc929	0.0077449274
205	0x3b849187	0.0040456685
206	0x3bae5ced	0.005321136
207	0x3adc1118	0.0016789762
208	0x3b4a23ba	0.0030844049
209	0x3b961fa2	0.0045814076
210	0x3b851fc5	0.004062625
211	0x3be99649	0.007128511
212	0x3b3cef8e	0.002882931
213	0x3bd158ed	0.0063887746
214	0x3e8edf5b	0.27904782
215	0x3c53c9fd	0.012926576
216	0x3bb58901	0.005540014
217	0x3c8e1269	0.017342763
218	0x3c2e015d	0.010620442
219	0x3d92d566	0.07169609
220	0x3c1e91a4	0.009678278
221	0x3bb22823	0.0054369136
222	0x3e32dfeb	0.1746823
223	0x3c73a661	0.014871211
224	0x3c41548d	0.011799944
225	0x3b3298c6	0.0027251705
226	0x3c1b09a3	0.009462747
227	0x3cdcc3fd	0.026948923
228	0x3c14f5f2	0.009091841
229	0x3ad66ffc	0.0016360278
230	0x3bfa2d22	0.007634775
231	0x3e0992fb	0.13434975
232	0x3c484b3e	0.01222497
233	0x3adca759	0.0016834541
234	0x3cd6b36a	0.026208598
235	0x3ad53c24	0.0016268534
236	0x3cd11923	0.025524681
237	0x3c7b92f5	0.0153548615
238	0x3d1e7ac0	0.038691282
239	0x3c6a2065	0.01428995
240	0x3c01df6c	0.007926803
241	0x3b692129	0.0035572744
242	0x3b422c07	0.0029628293
243	0x3bbfe43c	0.005856065
244	0x3ae2acd1	0.0017293935
245	0x3b245172	0.002507296
246	0x3b4380d4	0.0029831426
247	0x3b8766c5	0.004132124
248	0x3c8f7d62	0.017515842
249	0x3b5f4443	0.0034067787
250	0x3d30d539	0.043172095
251	0x3cb9153b	0.022593131
252	0x3c4c800b	0.0124817
253	0x3b020f4e	0.0019845548
254	0x3aa621d1	0.0012674873
255	0x3cd566b5	0.026049951

exp_avg f4 [2]
0	0x3aa4c277	0.0012570162
1	0xbaa4c227	-0.0012570069

exp_avg_sq f4 [2]
0	0x3ce8d1ea	0.028420407
1	0x3ce8d1ea	0.028420407
