TASK2/gender_classification_model/checkpoint_step_4400.pth (torch, 22979 bytes, 6 tensors)

weight f4 [2, 768]
0	0x3ce2302d	0.027610863
1	0x3bf6855b	0.0075232214
2	0x3a39583b	0.00070703373
3	0x3bfab3fe	0.0076508513
4	0xbcdca18d	-0.026932502
5	0xbc66442f	-0.014054342
6	0xbbc43f70	-0.0059890077
7	0xbb9de705	-0.0048187994
8	0xbcf880bd	-0.030334825
9	0xbc2ab59c	-0.010419276
10	0xbd019177	-0.031632867
11	0x3aec8b2f	0.0018046851
12	0xbd2f33b1	-0.042773906
13	0x3c9cd713	0.019145524
14	0x3cbf1d91	0.023329528
15	0xbc0ee278	-0.008720987
16	0x3c4e1053	0.012577134
17	0xbcbfdb50	-0.023420006
18	0xbc3aa172	-0.011391031
19	0xbcb4cd8c	-0.022070669
20	0xb956fba8	-0.0002050238
21	0x3ca88386	0.020570528
22	0x3d242f96	0.040084444
23	0x3caf7abe	0.021420833
24	0x3d09dd31	0.03365821
25	0xbc1cd6c9	-0.009572693
26	0xbbf30cef	-0.0074173133
27	0x3b0fa8bc	0.0021920642
28	0x3cf45804	0.029827125
29	0x3b7d4cb0	0.0038650446
30	0x3d0c9749	0.034323964
31	0x3d101c75	0.03518339
32	0x3cde3bb2	0.027128074
33	0x3bcd6046	0.00626758
34	0xbbec4780	-0.007210672
35	0x3d08f45f	0.033436175
36	0x3c4f437a	0.012650365
37	0xbd645109	-0.055741344
38	0x3cab3092	0.020897184
39	0xbd732df3	-0.059369992
40	0x3c96ca35	0.018406967
41	0xbb53ed49	-0.0032337478
42	0xbd2346c9	-0.039862428
43	0x3c847b75	0.01617215
44	0xbcae3f9a	-0.021270562
45	0xbbfb650a	-0.007671957
46	0x3ce1fd19	0.027586507
47	0x3d113f99	0.035461042
48	0x3cb61b8a	0.022229929
49	0xbc7ee25f	-0.015556901
50	0x3cae46f3	0.021274066
51	0x3c8d9ad8	0.01728575
52	0xbb805377	-0.0039162
53	0xbca4f2fc	-0.020135395
54	0xbc38fff4	-0.011291493
55	0xbc84d8e7	-0.016216708
56	0x3bc57e28	0.006027002
57	0x3a0cc5b1	0.00053700345
58	0xbb84d393	-0.004053542
59	0x3c1df6e6	0.009641385
60	0x3c1dc6e6	0.009629941
61	0x3c3bb411	0.011456505
62	0xbcb84588	-0.022494093
63	0xbc582412	-0.013192194
64	0x3c850cd4	0.016241468
65	0xbc99ed91	-0.018790038
66	0x3d1f2c42	0.038860567
67	0x3d25a06b	0.04043619
68	0xbcfa7d4f	-0.03057733
69	0x3cf5d69e	0.030009564
70	0x3c50ee21	0.012752087
71	0xbc1c1422	-0.009526284
72	0x3b7e034f	0.0038759296
73	0x3b21c133	0.0024681806
74	0xbccfa184	-0.025345571
75	0xbcf58cf8	-0.029974446
76	0xbbad7235	-0.0052931556
77	0xbb5e75a2	-0.0033944626
78	0xbb64654b	-0.0034850414
79	0xbbfb1b76	-0.0076631857
80	0x3bbb9cde	0.005725487
81	0xbc25f8aa	-0.010130087
82	0xbd160efe	-0.03663539
83	0x3c171678	0.009221666
84	0x3b8dd175	0.0043279477
85	0x3c5c5b12	0.013449447
86	0xbc74b02f	-0.014934584
87	0xbd106bf8	-0.035259217
88	0x3ceb7ae1	0.028745117
89	0x3aa26a12	0.001239123
90	0x3ceac300	0.028657436
91	0xbc516b19	-0.012781882
92	0x3cf892c8	0.030343428
93	0x3c82b19d	0.015953833
94	0x3bb8b91c	0.005637301
95	0xbca6a44d	-0.020342017
96	0xba1c390d	-0.0005959429
97	0x3d39c1d7	0.045350876
98	0xbc645d85	-0.013938312
99	0x3ce2230e	0.027604606
100	0xbae716f3	-0.0017630741
101	0x3b9900c6	0.0046692817
102	0x3d26d78a	0.040732898
103	0xbc9ae9e8	-0.018910363
104	0x3c3c3abd	0.011488614
105	0xbaacc19a	-0.0013180256
106	0x3d632008	0.05545047
107	0xbd42af02	-0.04753018
108	0x3adf600b	0.0017042173
109	0x3d2b4fd1	0.041824166
110	0xbd20b892	-0.03923852
111	0xbc8bc5d9	-0.017062115
112	0x3c089a77	0.008337609
113	0x3a482677	0.0007635126
114	0xba695910	-0.0008901516
115	0x3cc85c0d	0.024457956
116	0x3d843997	0.06456297
117	0xb94df958	-0.00019643211
118	0xbcb1d190	-0.021706372
119	0x3cf93a49	0.0304233
120	0x3d41f351	0.047351185
121	0x3d4c5eec	0.049895212
122	0xbbcb3c44	-0.0062022526
123	0xbc54df0b	-0.012992631
124	0xbbbc155f	-0.0057398523
125	0x3c27191a	0.010198856
126	0xbc743c40	-0.014906943
127	0xbce18b6a	-0.027532298
128	0x3b386bea	0.0028140494
129	0xbbec1473	-0.007204586
130	0xbd0e5211	-0.034746233
131	0x3bf3ad24	0.0074364115
132	0x3d2f05d7	0.04273018
133	0x3c325ac6	0.0108859
134	0x3d000769	0.031257067
135	0x3715ea1d	8.935601e-06
136	0xbcb75081	-0.022377254
137	0xbc83ce1c	-0.016089492
138	0x3d14c1aa	0.036317505
139	0xba2e5b58	-0.00066511845
140	0xbd020d03	-0.03175069
141	0xbc377076	-0.011196246
142	0x3bd73b8b	0.0065683774
143	0x3c65799e	0.014006047
144	0xbce2d01a	-0.027687121
145	0x3bc0a9dc	0.005879624
146	0x3b7f15f4	0.0038922997
147	0x3aac2b7b	0.0013135517
148	0xbce557f3	-0.027996039
149	0xbd088367	-0.03332844
150	0x3c8fecdf	0.017569004
151	0xbd004ed4	-0.031325176
152	0x3cc854c9	0.024454491
153	0x3d1caf25	0.03825297
154	0x3c863f17	0.016387505
155	0xbc6cc705	-0.014451747
156	0xbbb62bd0	-0.005559422
157	0xbd149d7b	-0.036282998
158	0xbcc62bcd	-0.024190808
159	0x3d54d52e	0.051961116
160	0xbc335c30	-0.010947272
161	0xbc58b16a	-0.013225893
162	0xbceb6e89	-0.02873923
163	0x3c8a4429	0.016878204
164	0xbd6414b1	-0.055683795
165	0x3d80b3f3	0.062843226
166	0x3a0456ae	0.00050483167
167	0xbd052dac	-0.03251426
168	0xbbeaf216	-0.007169972
169	0x3cba8afc	0.022771351
170	0x3ccc80cf	0.024963764
171	0x3c48f270	0.012264833
172	0xbccb9081	-0.024849178
173	0x3c838c07	0.016057981
174	0xbc9c69f8	-0.019093499
175	0xbce7af81	-0.028281929
176	0x3c7ccc45	0.015429561
177	0x3cf256cf	0.02958241
178	0xbb47aadd	-0.0030466833
179	0x3d0287c1	0.031867746
180	0x3c91e20d	0.017807985
181	0xbcc1e605	-0.023669252
182	0x3c204880	0.00978291
183	0xbb02630d	-0.0019895465
184	0xbc7edc09	-0.01555539
185	0x3d87f433	0.06638374
186	0xbcd3a83b	-0.025837054
187	0xbcda4cc7	-0.026647938
188	0xbb77d58f	-0.00378165
189	0x3b7cc66c	0.0038570417
190	0x3bff2cf7	0.0077873426
191	0x3b85b5dd	0.0040805177
192	0xbc94839c	-0.018129162
193	0x3c903afc	0.017606251
194	0xbcd508da	-0.026005197
195	0xbd581c3b	-0.052761298
196	0xbd49c9ab	-0.04926459
197	0xbcb314c9	-0.021860497
198	0x3d1d0a7b	0.038340073
199	0xbce716d4	-0.028209127
200	0xbd27405f	-0.040832873
201	0xba2035f0	-0.0006111553
202	0x3d21a66a	0.039465345
203	0xbc1ec151	-0.009689645
204	0x3cf90f0a	0.030402679
205	0x3caf310a	0.021385688
206	0xbbf2a280	-0.0074046254
207	0xbc75f84c	-0.015012812
208	0x3d29d32f	0.041461166
209	0xbb7d6407	-0.0038664357
210	0x3bfe12e2	0.007753716
211	0x3c5b0222	0.013367208
212	0xbc5ad5e9	-0.013356664
213	0xbcfd256f	-0.030901639
214	0xbc944fbb	-0.018104425
215	0x3cb111e4	0.021614976
216	0xbc87c31d	-0.01657253
217	0xbd1e4a73	-0.03864522
218	0xbccc9074	-0.024971224
219	0x3cf44baa	0.029821236
220	0xbcfce262	-0.030869666
221	0x3c598c4d	0.013278079
222	0x3d0654d6	0.03279575
223	0xbcb20a3d	-0.021733398
224	0x3a49118b	0.00076701556
225	0xbc643148	-0.013927765
226	0xbd1a3235	-0.037645537
227	0x3c87f157	0.016594572
228	0xbc2076ed	-0.009793979
229	0x3c08c6ec	0.008348208
230	0xbcb671fe	-0.022271153
231	0xbc08b2bd	-0.008343396
232	0x3c9580bc	0.018249862
233	0x3cc9b100	0.024620533
234	0x3c42223d	0.011848983
235	0x3d4a92a5	0.049456257
236	0xbb8a3ce3	-0.004218684
237	0xbcfae0ce	-0.030624773
238	0xbcbe2f10	-0.0232158
239	0x3c1f998a	0.009741196
240	0xbca5d126	-0.020241331
241	0xbc40f183	-0.011776331
242	0x3d0fdf7e	0.035125248
243	0x3d03e9b2	0.03220529
244	0x3caaf46f	0.020868508
245	0x3cf13f24	0.029449053
246	0xbc221728	-0.009893216
247	0x3c33b48d	0.01096834
248	0xbc2ed111	-0.0106699625
249	0x3c76c05c	0.0150605105
250	0x3b771180	0.003769964
251	0x3c119620	0.00888589
252	0x3cfd5d4c	0.030928276
253	0xbc3df0a3	-0.011593017
254	0x3cb279e7	0.021786643
255	0x3cf5a112	0.02998403

bias f4 [2]
0	0x3cc4484e	0.023960259
1	0xbb91da30	-0.004451059

exp_avg f4 [2, 768]
0	0xbc181cc3	-0.009284201
1	0x3c8735a0	0.016505063
2	0xbc22db02	-0.009939911
3	0xbd205138	-0.039139956
4	0xbd3311d5	-0.043718178
5	0xbb8a2f16	-0.004217039
6	0x3dbe1e42	0.09283115
7	0x3d041a80	0.032251835
8	0xbf87383b	-1.0564035
9	0xbd9ee3fa	-0.07758327
10	0xbc8e4bd1	-0.017370136
11	0x3d28f89d	0.04125272
12	0x3cc63c34	0.024198629
13	0x3d9516a6	0.072797105
14	0x3cd74cb0	0.026281685
15	0x3cc31de4	0.023817964
16	0x379db01c	1.8797866e-05
17	0x3cc1bb46	0.02364887
18	0xbc035147	-0.0080149835
19	0xbc2f1276	-0.010685554
20	0xbcdea734	-0.027179338
21	0xbc28a630	-0.010293528
22	0x3cb002ce	0.021485712
23	0x3d2cd708	0.042197257
24	0x3d85e66e	0.065380916
25	0x3b1fe14f	0.002439577
26	0xbb8709f4	-0.0041210596
27	0x3d2ccf59	0.04218993
28	0x3c178dd1	0.00925012
29	0x3b502b0c	0.003176394
30	0xbd59ea10	-0.053201735
31	0xbcc422f2	-0.023942444
32	0x3d1569fe	0.036478035
33	0x3d94377d	0.07237146
34	0x3cb974b5	0.022638658
35	0x3cfd6a73	0.030934548
36	0x3d8332b2	0.06406154
37	0x3c03b358	0.008038364
38	0x3ea7d866	0.32782286
39	0x3aa4532a	0.0012536992
40	0x3bfaea27	0.0076573077
41	0xbb1fbe74	-0.0024374994
42	0x3bd187a6	0.0063943444
43	0xbe5c2d54	-0.21501666
44	0xbd887bf9	-0.06664271
45	0xbcac14d3	-0.021006024
46	0x3d731a47	0.059351232
47	0x3d13d5eb	0.03609268
48	0x3b1ab380	0.0023605525
49	0xbd109515	-0.035298426
50	0xbc743fd0	-0.014907792
51	0xbcae073f	-0.02124369
52	0xbca1b1fb	-0.019738188
53	0x3ac90f38	0.0015339619
54	0xbcdd5e58	-0.027022526
55	0xbd177525	-0.036976952
56	0xbc13d158	-0.009022079
57	0x3d009442	0.03139139
58	0x3d247ed6	0.040160023
59	0x3cb61832	0.022228334
60	0xbcd29549	-0.02570595
61	0x3d4e6251	0.05038673
62	0x3b4278ed	0.0029674128
63	0x3db804cc	0.0898529
64	0xbba693e5	-0.0050835484
65	0xbdab0ff8	-0.08352655
66	0x3cb31f15	0.021865407
67	0xbc66576d	-0.01405893
68	0xbd7cb7d3	-0.061698746
69	0xbd508a75	-0.050913293
70	0x3c2384a9	0.009980359
71	0x3cfb0ae5	0.030644843
72	0x3b0f7186	0.0021887734
73	0xbcad9f76	-0.021194201
74	0xbbe9b19c	-0.0071317684
75	0x3ccc0b70	0.024907798
76	0xbd694738	-0.056952685
77	0x3bfa2ee6	0.0076349853
78	0xbcc75d4c	-0.02433648
79	0x3d37caac	0.044871017
80	0x3a35b0eb	0.0006930965
81	0x3d0b297a	0.033975102
82	0xbb52c098	-0.0032158252
83	0x3b928c7f	0.004472315
84	0xbd2b959a	-0.041890718
85	0x3cd090a8	0.025459602
86	0xbdae47e6	-0.08509807
87	0xbc9b95f0	-0.018992394
88	0x3d215697	0.03938922
89	0x3b7948fd	0.003803789
90	0x3caefc90	0.021360666
91	0x3c13b8f0	0.0090162605
92	0x3d836d35	0.06417314
93	0xbd925cb0	-0.07146585
94	0xbd0fb63f	-0.035085913
95	0x3c9e07cc	0.019290827
96	0xbcdd7ef9	-0.027038084
97	0xbce222c1	-0.027604463
98	0x3c8dd70f	0.017314462
99	0x3d931ed0	0.071836114
100	0xbc5926be	-0.013253866
101	0x3ca92591	0.020647796
102	0x3d563bfc	0.0523033
103	0xbd08e343	-0.03341986
104	0xbdd93049	-0.10604913
105	0xbc1b90f9	-0.009495013
106	0x3b42117d	0.0029612475
107	0x3cade6e7	0.021228267
108	0x3d4c7eb6	0.04992553
109	0xbbb6ae99	-0.005575013
110	0x3ce692ff	0.028146265
111	0x3d21c11b	0.0394908
112	0x3c4419a6	0.011969006
113	0x3cf2a47a	0.029619444
114	0xbbc77a0f	-0.0060875486
115	0xbac4da87	-0.001501874
116	0xbb9c3d37	-0.0047680396
117	0xbcfc9d78	-0.030836806
118	0xbd477598	-0.04869613
119	0xbd21d6c7	-0.03951147
120	0xbd543254	-0.05180581
121	0x3ae600d9	0.001754786
122	0x3c385ebb	0.011253054
123	0x3d3c6ce1	0.046002273
124	0xbd042547	-0.032262113
125	0xbdc23100	-0.09482002
126	0x3cc5b781	0.024135353
127	0x3bb6f6ab	0.0055836043
128	0xbd02fea7	-0.031981137
129	0xbc6364bf	-0.013879
130	0xbcc6aa04	-0.024250992
131	0x3c9ca4c5	0.019121537
132	0xbbc7799d	-0.0060874955
133	0x3d728343	0.059207212
134	0xbd2f3bca	-0.04278163
135	0xbd2fbfe7	-0.04290762
136	0xbd0a5b40	-0.03377843
137	0x3b7868f8	0.0037904363
138	0x3beb88e1	0.007187948
139	0xbc157774	-0.009122718
140	0xbccbfd28	-0.024900988
141	0xbd0c4d6e	-0.03425353
142	0xbd404dd4	-0.046949223
143	0xbd55ca3b	-0.052194815
144	0xbcbf2772	-0.023334239
145	0x3cc2c80c	0.02377703
146	0x3c7da15a	0.015480364
147	0x3d9c25e8	0.076244175
148	0x3c8ea594	0.017412938
149	0x3cd2d559	0.025736498
150	0x3cf99078	0.030464396
151	0x3c8389c8	0.01605691
152	0x3d0f41a8	0.034974724
153	0xbd51ea1d	-0.05124866
154	0x3d4fc10d	0.050721217
155	0x3dab84e1	0.08374954
156	0xbc35bbbf	-0.011092125
157	0x3d308a8a	0.04310087
158	0x3d065d43	0.032803785
159	0xbc03830b	-0.008026849
160	0xbd10421e	-0.035219304
161	0xbd6991de	-0.057023875
162	0xbc853a1b	-0.016263058
163	0x3aeeaabe	0.0018208844
164	0xbc0714b2	-0.00824468
165	0xbc9fa879	-0.019489514
166	0x3cca296b	0.024677953
167	0x3ccb3ec1	0.024810197
168	0xbce5394b	-0.027981421
169	0x3c8d265a	0.017230202
170	0xbda053b2	-0.078284636
171	0xbbf4d70b	-0.007471924
172	0xbc34eb62	-0.011042448
173	0xbc5338ec	-0.012891989
174	0x3d54c932	0.051949687
175	0x3d924d52	0.07143654
176	0xbd99caac	-0.0750936
177	0xbd6286c0	-0.05530429
178	0x3cda0a3e	0.026616212
179	0xbca04037	-0.01956187
180	0x3d417f6c	0.04724066
181	0xbd3181e3	-0.04333676
182	0xbc6f1a72	-0.014593707
183	0xbaf022b8	-0.0018320894
184	0xbd21ed42	-0.039532907
185	0xbaf7b517	-0.0018898573
186	0x3d24f711	0.040274683
187	0x3cb6a2f1	0.022294493
188	0x3cbc4310	0.022981197
189	0xbd5cc267	-0.053896334
190	0xbd40345d	-0.046924938
191	0xbccc7aca	-0.024960894
192	0x3d036698	0.032080263
193	0xbc4d6110	-0.012535349
194	0xbd2235e9	-0.039602194
195	0x3c539915	0.012914916
196	0xbcd14af0	-0.025548428
197	0xbc1958c6	-0.009359544
198	0x3d180e2b	0.037122887
199	0x3c0d7580	0.008633971
200	0xbcc17445	-0.023615012
201	0x3bd86412	0.006603726
202	0xbd2cf791	-0.042228285
203	0xbba521ee	-0.005039445
204	0xbd010ed3	-0.031508278
205	0xbc734c34	-0.014849711
206	0x3c72c1f0	0.014816746
207	0x3c0823fa	0.008309359
208	0x3c73864e	0.014863564
209	0xbbf87f7a	-0.0075835558
210	0xbcbf0bd4	-0.02332107
211	0xba71b471	-0.0009220308
212	0xbc768f7b	-0.015048857
213	0x3c01ca6e	0.007921798
214	0xbe153c85	-0.14573868
215	0x3d2ce15d	0.04220711
216	0x3c75e32e	0.015007777
217	0xbd730246	-0.05932834
218	0xbd02a1f4	-0.03189273
219	0x3dad5380	0.08463192
220	0xbcbfe93a	-0.02342664
221	0xbcadbecf	-0.021209149
222	0xbdf7dc42	-0.12102558
223	0xbd07fd2a	-0.03320042
224	0xbcf0871b	-0.029361298
225	0xbb8aab11	-0.0042318185
226	0xbc437b67	-0.011931277
227	0x3d6ad145	0.05732848
228	0xbb1b1080	-0.0023660958
229	0x3bf33e34	0.0074231867
230	0x3cbdfd5d	0.023192102
231	0xbdcbc75c	-0.09950134
232	0x3cb6bfe7	0.022308303
233	0x3ba34ab6	0.0049832715
234	0x3d3773fe	0.044788353
235	0x3b73501f	0.0037126613
236	0x3d4ff256	0.05076822
237	0x3d2aa68d	0.04166274
238	0x3d7f9960	0.06240213
239	0xbd43c1e3	-0.047792327
240	0x3ce2cc17	0.027685208
241	0x3c8c8545	0.017153392
242	0x3c924716	0.017856162
243	0x3c89a0c3	0.01680029
244	0xbbb50938	-0.0055247806
245	0xbc83fdc8	-0.016112223
246	0x3bcb74fb	0.0062090135
247	0x3caf1699	0.02137308
248	0xbd35ff9f	-0.044433232
249	0xbcca836f	-0.024720876
250	0x3d5ffac1	0.054682497
251	0xbd3363c4	-0.043796316
252	0xbcc6d9e2	-0.024273816
253	0xbbb98671	-0.0056617786
254	0xbc229861	-0.009924025
255	0xbd57e64b	-0.05270986

exp_avg_sq f4 [2, 768]
0	0x3b9865f5	0.004650826
1	0x3af70300	0.0018845499
2	0x3b221af8	0.0024735313
3	0x3ccd7189	0.025078552
4	0x3d0234ce	0.03178864
5	0x3ac5db92	0.0015095344
6	0x3da8e40f	0.08246624
7	0x3c2a9482	0.010411384
8	0x41470ded	12.4409
9	0x3d98051d	0.0742285
10	0x3b057d5d	0.0020368912
11	0x3ca51db9	0.020155774
12	0x3c13b7cb	0.009015988
13	0x3d61325a	0.05497966
14	0x3c821971	0.015881272
15	0x3b989395	0.004656265
16	0x3acfaec4	0.0015844931
17	0x3c0640b0	0.008194134
18	0x3bc107a6	0.0058908043
19	0x3c4e48e9	0.012590625
20	0x3c3228e0	0.010874003
21	0x3c3e48d4	0.011614043
22	0x3c0c4151	0.0085604945
23	0x3c87ffe4	0.01660151
24	0x3d828c32	0.063743964
25	0x3ba2fda9	0.0049740863
26	0x3ae4343a	0.0017410584
27	0x3cf20ff0	0.029548615
28	0x3af37cfd	0.0018576678
29	0x3b1d15dc	0.0023969328
30	0x3d7dcd3c	0.061963305
31	0x3c3b69d9	0.01143881
32	0x3c2ce1db	0.010551895
33	0x3d4e0779	0.050300095
34	0x3c150a93	0.009096759
35	0x3cb20f6b	0.021735867
36	0x3d2535c1	0.040334467
37	0x3aa71e00	0.001275003
38	0x3f906feb	1.1284155
39	0x3aec4ca5	0.0018028213
40	0x3bd93c04	0.006629469
41	0x3bcbfdd1	0.0062253256
42	0x3ae209d2	0.0017245358
43	0x3ede649b	0.4343613
44	0x3d608459	0.054813717
45	0x3b3d2929	0.0028863645
46	0x3cf2d708	0.02964355
47	0x3c383246	0.011242455
48	0x3ad3baae	0.0016153657
49	0x3c75ac27	0.014994658
50	0x3c1a11f7	0.009403697
51	0x3c596855	0.013269504
52	0x3c0a902c	0.008457225
53	0x3ad13560	0.0015961342
54	0x3ca05a24	0.019574232
55	0x3bb48908	0.0055094995
56	0x3b8922c2	0.0041850517
57	0x3c8313bf	0.016000627
58	0x3c9778ef	0.018490283
59	0x3c08be3f	0.008346139
60	0x3c9e2c95	0.019308368
61	0x3cc543b5	0.024080137
62	0x3b15b928	0.0022845957
63	0x3dd13a98	0.10216254
64	0x3b018507	0.0019763128
65	0x3d6fb203	0.058519375
66	0x3c35e08d	0.0111009
67	0x3b0da719	0.002161449
68	0x3d17a5fa	0.037023522
69	0x3d0ec900	0.034859657
70	0x3b884f8e	0.0041598743
71	0x3c25e90c	0.0101263635
72	0x3b0fe4ac	0.0021956367
73	0x3bc18a2d	0.0059063644
74	0x3b882a91	0.004155465
75	0x3c39baec	0.01133607
76	0x3d0d3dde	0.03448283
77	0x3afc87ba	0.0019266524
78	0x3ca4dd76	0.020125132
79	0x3c86fe72	0.01647875
80	0x3b0ed348	0.0021793414
81	0x3bbe0720	0.005799189
82	0x3b20f1f7	0.0024558285
83	0x3abcf712	0.0014416894
84	0x3c1eb547	0.009686775
85	0x3ba83afc	0.0051339846
86	0x3dd6682e	0.104690894
87	0x3b765ee4	0.003759318
88	0x3ccf23d2	0.025285635
89	0x3b36fe47	0.0027922557
90	0x3c1e4733	0.00966053
91	0x3a9365d3	0.0011245556
92	0x3d023e17	0.031797495
93	0x3d71ea9b	0.059061628
94	0x3c3a5e5f	0.011375039
95	0x3b832047	0.0040016505
96	0x3b833a93	0.0040047853
97	0x3be79716	0.0070675714
98	0x3c020713	0.007936257
99	0x3da910a5	0.08255128
100	0x3bac4c70	0.0052581355
101	0x3c062b08	0.00818897
102	0x3cc585ef	0.024111716
103	0x3c3bd32b	0.011463921
104	0x3e34afe1	0.17645217
105	0x3b215134	0.0024615051
106	0x3ada9598	0.0016676662
107	0x3b7a0ff0	0.0038156472
108	0x3cd6472b	0.026156982
109	0x3b81f88b	0.003966396
110	0x3c26b073	0.010173905
111	0x3c154bc5	0.009112303
112	0x3bacde60	0.0052755326
113	0x3c1c965f	0.009557336
114	0x3ba7ba21	0.005118624
115	0x3aad879e	0.001323927
116	0x3ae7ae0a	0.0017675769
117	0x3c223342	0.009899916
118	0x3d0ae562	0.033910163
119	0x3ca0589d	0.019573504
120	0x3c3ade69	0.011405566
121	0x3b040840	0.002014652
122	0x3b05a19f	0.0020390523
123	0x3d1ac844	0.037788644
124	0x3c0831d0	0.0083126575
125	0x3db8e219	0.090275
126	0x3bd3cfb1	0.0064639677
127	0x3b261731	0.0025343413
128	0x3c5109e0	0.012758702
129	0x3ba16d74	0.004926378
130	0x3bdc22ee	0.006718031
131	0x3ca0df06	0.019637596
132	0x3adc5f32	0.0016813038
133	0x3cc04a62	0.023472968
134	0x3cd1a0c5	0.025589356
135	0x3c76d102	0.01506448
136	0x3c29c70d	0.010362399
137	0x3b67429c	0.0035287505
138	0x3c4bc354	0.012436707
139	0x3b19e16a	0.0023480305
140	0x3cc6f590	0.024287015
141	0x3c2e6d0d	0.010646117
142	0x3caf430c	0.021394275
143	0x3c7ff314	0.015621919
144	0x3c066399	0.008202457
145	0x3c063b0f	0.008192792
146	0x3b11d83b	0.0022254128
147	0x3d71690e	0.05893808
148	0x3b4e9d59	0.0031526892
149	0x3c31e433	0.01085763
150	0x3bb60944	0.005555304
151	0x3b034da7	0.0020035298
152	0x3c0faad5	0.008768757
153	0x3ce5d3f2	0.028055165
154	0x3cf20f61	0.029548349
155	0x3d59d185	0.05317833
156	0x3ad925fd	0.0016567108
157	0x3d2abb77	0.041682687
158	0x3c084761	0.008317799
159	0x3c1bb3b1	0.009503291
160	0x3c8fda42	0.017560128
161	0x3cc8cf8c	0.024513029
162	0x3b8c9874	0.0042906348
163	0x3acea2a8	0.0015765028
164	0x3b302c53	0.0026881888
165	0x3b115cfd	0.002218067
166	0x3bd20225	0.006408947
167	0x3d2bf764	0.041983977
168	0x3be019e9	0.006839026
169	0x3b4fe09c	0.003171957
170	0x3d8bd1b9	0.06827111
171	0x3b18f063	0.002333664
172	0x3b0a5bb0	0.002111178
173	0x3b9d2ab2	0.0047963494
174	0x3cba47c1	0.022739293
175	0x3d8d26c8	0.068921626
176	0x3d0d07c5	0.034431238
177	0x3cd5e93f	0.026112197
178	0x3b4b4f4d	0.0031022609
179	0x3c435a8b	0.011923443
180	0x3d1261f4	0.035737947
181	0x3cd7cdc8	0.026343241
182	0x3c44d5f5	0.012013902
183	0x3ac857e3	0.0015284981
184	0x3ccfa53b	0.025347343
185	0x3b0ac02c	0.0021171672
186	0x3c49c7c6	0.012315696
187	0x3ad79e84	0.001645044
188	0x3b8ad2e3	0.0042365654
189	0x3d05e2af	0.032686885
190	0x3d11b662	0.035574324
191	0x3bb442ad	0.0055011124
192	0x3c0eeb6d	0.008723122
193	0x3b13aba1	0.0022532719
194	0x3cc488cf	0.023991017
195	0x3b088b8c	0.002083513
196	0x3c319955	0.01083978
197	0x3b0d0328	0.0021516774
198	0x3c35c8a7	0.0110952025
199	0x3b32d6e0	0.002728872
200	0x3bc111f2	0.005892032
201	0x3b7337e6	0.0037112175
202	0x3c75f7c8	0.015012689
203	0x3b16a376	0.0022985614
204	0x3c018bf8	0.007906906
205	0x3b8ad162	0.004236386
206	0x3bb318f1	0.0054656197
207	0x3ae01be4	0.0017098156
208	0x3b4dd662	0.00314083
209	0x3b9762ef	0.004619948
210	0x3b8d037c	0.004303394
211	0x3bf88af0	0.007584922
212	0x3b4e4835	0.0031476144
213	0x3bd86aa8	0.0066045113
214	0x3e9543dd	0.29153338
215	0x3c61486f	0.01375018
216	0x3bbba10e	0.0057259863
217	0x3c987a82	0.018613104
218	0x3c367405	0.01113606
219	0x3d9763e9	0.07392103
220	0x3c28c3ed	0.010300619
221	0x3bb6c3c9	0.0055775386
222	0x3e3b5fce	0.18298265
223	0x3c802c3c	0.015646093
224	0x3c4b0d1e	0.012393264
225	0x3b382528	0.0028098319
226	0x3c290f17	0.010318539
227	0x3cead332	0.028665159
228	0x3c173611	0.009229199
229	0x3ae32b47	0.0017331623
230	0x3bfb5296	0.007669757
231	0x3e10b61c	0.14131969
232	0x3c4e7a22	0.012602361
233	0x3aec9ee3	0.0018052723
234	0x3ce1c099	0.027557658
235	0x3adf20fa	0.0017023378
236	0x3cd81b18	0.026380107
237	0x3c846692	0.01616219
238	0x3d27636d	0.040866304
239	0x3c70d439	0.014699035
240	0x3c046226	0.008080041
241	0x3b61a05c	0.0034427857
242	0x3b49e0df	0.00308042
243	0x3bcd5ffa	0.006267545
244	0x3aee80d4	0.0018196353
245	0x3b2c569c	0.002629674
246	0x3b4f6f4d	0.0031652034
247	0x3b87466c	0.004128268
248	0x3c962f27	0.01833303
249	0x3b624539	0.0034526123
250	0x3d365080	0.044510365
251	0x3cc2c188	0.023773924
252	0x3c542ede	0.012950627
253	0x3af6faaa	0.0018843014
254	0x3aa012c1	0.001221262
255	0x3cdc6ac6	0.026906382

exp_avg f4 [2]
0	0x3d4e1c25	0.05031981
1	0xbd4e1c23	-0.050319802

exp_avg_sq f4 [2]
0	0x3cf39c2c	0.029737554
1	0x3cf39c2b	0.029737553
