TASK2/gender_classification_model/checkpoint_step_6000.pth (torch, 22851 bytes, 6 tensors)

weight f4 [2, 768]
000000 dd f3 56 be f6 10 e8 3d 5f a6 0d 3e 3c 2b ae 3c
       -0.20991464 0.1133136 0.13832997 0.02126085
000010 98 ff f5 3c 07 90 f1 3d 85 3f 72 bc 0e c4 87 be
       0.030029103 0.11795049 -0.014785652 -0.26516765
000020 ab 10 a5 bc c0 9e b5 bc a7 a6 0d bd e4 0c 17 be
       -0.02014955 -0.022170424 -0.03458276 -0.14751011
000030 08 61 00 bd 44 a0 34 3d be e4 a7 3d fa 55 9f 3d
       -0.031342536 0.044098154 0.08197926 0.077800706
000040 c4 d7 a4 bd b7 d9 6d bc 05 fc b1 bd 00 8c 91 bd
       -0.080489665 -0.014517239 -0.08690647 -0.07106781
000050 0c eb e6 3c 38 72 f9 bc e4 be 71 3d 5a 85 e5 bd
       0.028188251 -0.030449972 0.059019938 -0.112070754
000060 81 66 0b bb 7a 64 1c 3e be 69 bb 3c 3c 4c 3e 3e
       -0.0021270814 0.15272704 0.02287757 0.18583769
000070 a5 84 8b 3e 26 1d 22 bc ba 59 a2 bd 71 48 9f 3d
       0.27249637 -0.009894645 -0.0792727 0.07777489
000080 5c 76 c2 bd ba 14 3c bd df aa e0 bd 9b 3d 26 3b
       -0.094952315 -0.045918204 -0.10970091 0.002536631
000090 a7 4b 37 3d 97 82 f0 3c c8 d6 87 bb ec 13 38 bd
       0.044749882 0.029359145 -0.004145477 -0.044940874
0000a0 0c 7b 6d 3e 26 6b 33 bd 70 ed c5 bc 38 5a cd bc
       0.2319147 -0.043803357 -0.02416107 -0.025067434
0000b0 4e d5 99 bb f1 d7 ad bd 3d 18 81 3d 21 6a 7d 3e
       -0.0046946174 -0.08488453 0.06303451 0.24747516
0000c0 92 ff 8f 3e ac 3f 63 bc 93 3f 03 be 55 8e 58 3e
       0.28124672 -0.013870161 -0.1281722 0.21148045
0000d0 e6 f4 6e be 10 89 c0 3d 09 ca 1d 3e 3d cd 6e be
       -0.23335609 0.094011426 0.15409102 -0.2332048
0000e0 7b 02 8c be 0d dc 65 be 10 80 0c 3d 91 17 4a 3e
       -0.27345642 -0.22447224 0.034301817 0.19735552
0000f0 7e fd 92 bd 15 c1 ef bd 4d 7b 15 3d 60 2b 83 bd
       -0.07177256 -0.11706749 0.036494542 -0.064047575
000100 be 89 83 be 06 78 c0 3c 1f b0 62 3e 6c 2d 81 3c
       -0.25691026 0.023494732 0.22137497 0.01576873
000110 d3 1c 78 3c b7 4c 8a 3d 00 de 24 bc 4b f0 05 3d
       0.015143591 0.067529134 -0.010062695 0.032699864
000120 51 52 56 3d 12 b0 92 be 9e 91 22 3e 14 c6 67 be
       0.052324597 -0.28649956 0.15875861 -0.22634155
000130 59 4d 09 bd d9 97 1e 3e 55 47 9d bd 1d 04 81 bd
       -0.03352103 0.15487613 -0.07679621 -0.06299613
000140 f7 07 bd 3e 5e 89 80 bd a0 81 2c be 25 0d b2 3e
       0.3692014 -0.06276201 -0.16846323 0.34775653
000150 4d a2 b3 3d 26 9f 26 3d da 31 3f 3c 12 33 16 be
       0.08771191 0.04067912 0.0116696 -0.1466792
000160 48 2c 14 3e 4c f1 7a 3c 07 0e d1 3d 5e b2 b3 be
       0.14470017 0.015316319 0.10207754 -0.3509702
000170 38 a6 21 3e 4f 9e 0b 3d 37 0a a2 3c cd 97 30 be
       0.15786064 0.03408652 0.019780261 -0.17245407
000180 a9 45 91 3d 2a 60 c2 bd 01 6f dd 3d 34 a1 5e 3c
       0.07093365 -0.09490998 0.10812188 0.0135882385
000190 60 ff f0 bd c2 d4 13 3d 97 56 59 3d ed 78 86 3d
       -0.11767459 0.036091574 0.053061094 0.065660335
0001a0 fa ee cf 3c 47 43 a5 be 59 2d 12 bd a4 6f 07 be
       0.025382508 -0.3227789 -0.03568778 -0.13226181
0001b0 4c c7 b2 bd 05 64 03 3e 10 8c b7 bd 95 ef c2 3d
       -0.08729419 0.12831123 -0.08962262 0.09518353
0001c0 f8 ab c4 3d 8f e4 03 3c f5 00 89 bd ab 33 7a 3d
       0.09603113 0.008050098 -0.06689636 0.06108443
0001d0 39 3a eb 3e 16 50 bb bd d7 b0 41 3d da 62 ad bd
       0.45942858 -0.091461346 0.04728779 -0.0846612
0001e0 a0 5c 44 3e 71 b7 97 3e 47 97 59 be a2 3a 5f 3d
       0.19175959 0.29632142 -0.21249114 0.054499276
0001f0 76 af 39 3e 99 64 a5 bd cc 2d 93 3d c8 89 36 3c
       0.1813334 -0.08075828 0.071864694 0.011141248
000200 59 dc 65 3d e6 b1 01 3d a3 b1 a0 bd d0 3a ae 3d
       0.056118343 0.031663798 -0.078463815 0.08507311
000210 f9 8e d6 3d e2 58 19 bd d5 6a 9b 3d dd 9e 4b 3e
       0.104764886 -0.03743828 0.07588736 0.1988482
000220 54 c5 0d be 38 55 a7 3d 91 6c b8 3d 4f e6 a1 be
       -0.13844806 0.08170551 0.090050824 -0.31621024
000230 df e1 53 be 4b c1 a4 bd 3a d6 4a be cd 7e 0b be
       -0.20691632 -0.0804468 -0.19808283 -0.1362259
000240 15 2a ed bd c1 51 90 bc 27 83 06 be 72 8e 74 bc
       -0.11580292 -0.017617108 -0.13135968 -0.01492654
000250 1a 73 bd bb c0 b6 70 3e 1e 84 11 3d 6c 69 01 be
       -0.0057815434 0.23507214 0.035526387 -0.12637872
000260 16 fc 0d 3c e9 eb 51 3d 54 90 19 3e d7 61 90 3c
       0.008666059 0.051250372 0.14996463 0.017624779
000270 9d 6a d2 bd d6 4b 08 bd 29 16 15 3d 0d c9 f7 3d
       -0.10274241 -0.033275448 0.036398087 0.12098894
000280 98 9b d0 bd 89 d2 5e bd 79 3a 52 3e 17 ea be 3d
       -0.10185927 -0.0544 0.20530118 0.09321993
000290 83 4b 91 3e 4a 6a af 3e a8 16 a8 bd 67 1b 0d 3e
       0.28377923 0.3426078 -0.08207446 0.13779984
0002a0 42 2a 1a be 87 ef fc 3d 7f 6c 1c 3c 8b 62 ce bc
       -0.15055183 0.12350374 0.009547352 -0.025193473
0002b0 1a 00 28 3c 63 bd 0d 3e da f4 d5 3d 80 5b e8 3c
       0.01025393 0.13841777 0.10447092 0.028363943
0002c0 dd c6 2b 3e ed ce 7f 3d 2d 1d 5d 3e 73 90 02 bd
       0.16775079 0.0624532 0.21593161 -0.03187604
0002d0 2a 01 dc 3d 92 79 90 bc 1b e1 5e 3d ba c4 85 be
       0.107424095 -0.017636094 0.054413896 -0.26126653
0002e0 69 3f 1a be b8 c8 81 3e a5 5e af bd 1a 61 6b bd
       -0.15063252 0.2534845 -0.08562974 -0.05746565
0002f0 a8 7d df 3d f9 ca 00 bd fd 7c 59 3d fe f5 27 bd
       0.10912639 -0.03144357 0.053097714 -0.04100608
000300 80 29 1c be 70 fd 5d 3c 63 a5 21 be 40 26 4b be
       -0.15250206 0.013549194 -0.15785746 -0.1983881
000310 d4 f7 50 be 11 d4 89 be 22 fe 1a 3e 05 d1 02 3d
       -0.20407039 -0.26919606 0.15136006 0.031937618
000320 ba d8 ab bd 05 ca 88 3d 11 df ab 3d 5b 5d 71 3e
       -0.08390947 0.06679157 0.08392156 0.23570769
000330 1a bd ae 3d 17 ad 80 3e 20 b3 03 3d 40 7c 7e bd
       0.08532162 0.25132057 0.03215325 -0.062130213
000340 a7 7d 09 3e 05 5c bc bd 2c 1e b6 3d 93 51 0f bd
       0.13426839 -0.09197239 0.088924736 -0.034989905
000350 32 ea 9d bd 87 f5 eb bc 55 d4 66 bd 21 03 57 3e
       -0.07710685 -0.0288036 -0.05635484 0.20997287
000360 31 90 02 be 7e 21 12 3e 32 0f cc bd d0 29 7a bd
       -0.12750317 0.14270589 -0.09963836 -0.06107503
000370 30 50 2c 3d b6 a6 f1 bd dc e8 d8 3b 76 da 90 3c
       0.04206866 -0.11799376 0.006619556 0.017682295
000380 fb b7 18 bd 4f 80 a4 3d c7 6b 12 bd 66 b3 aa 3d
       -0.037284832 0.080322854 -0.035747316 0.08334999
000390 98 06 b4 bc 56 e4 53 be 9a 15 b4 3d 17 96 a2 bc
       -0.0219758 -0.20692572 0.08793183 -0.019846959
0003a0 cf 46 d1 bd 62 c7 fd 3d 2e 40 d4 bb 33 61 85 3e
       -0.10218584 0.12391545 -0.0064773774 0.2605072
0003b0 cc 98 11 bd 24 76 98 bc a5 1c 0f bd 4f fe ba bd
       -0.03554611 -0.018611021 -0.034939427 -0.09130537
0003c0 8a e2 17 be 93 aa 9c 3d be 33 5d bd 1e bb d4 3d
       -0.14832512 0.07649722 -0.054004423 0.10387252
0003d0 98 18 34 3e 5d d1 72 bb 01 a4 0c 3e 7b 20 a4 bc
       0.17587507 -0.003705106 0.13734438 -0.02003502
0003e0 70 15 f9 3d d7 28 dd 3c 18 79 30 be f0 39 de bc
       0.12162292 0.026997013 -0.17233694 -0.027127236
0003f0 4c 85 d0 bc de 41 63 bd 0e 9a 77 bd 90 0d e3 3d
       -0.025454186 -0.055482738 -0.060449652 0.11086571

bias f4 [2]
000000 cb 17 d7 bb bc 5c 03 3c
       -0.0065641156 0.008017715

exp_avg f4 [2, 768]
000000 0b 15 89 3b b3 f7 3d 3a 79 85 1b 3b e3 de c7 3b
       0.0041834167 0.0007246688 0.002373068 0.006099568
000010 1c 3c 91 3b 5c 0a 0e bb 41 f1 bd 3b f7 23 b5 bb
       0.0044322144 -0.0021673655 0.005796582 -0.005527969
000020 09 e7 85 bb 29 7b c6 3b 96 7c ef 3a 92 c8 5a 3a
       -0.0040863794 0.0060571623 0.0018271382 0.00083459273
000030 77 a7 be ba 56 2b 72 3a 05 3d ac bb 8b be 99 3b
       -0.0014545758 0.0009238025 -0.0052562975 0.004691904
000040 01 ba 26 b9 2a 22 3e ba 9a 48 f8 ba 2a 27 4d 3b
       -0.00015900286 -0.00072530156 -0.0018942535 0.0031303861
000050 89 a2 dd 3b 43 4c 07 bb bd 86 d2 3b ac 57 20 bb
       0.0067637605 -0.002064482 0.0064247535 -0.002446632
000060 56 66 15 3b 18 16 10 3b 18 21 62 ba a3 f3 f4 3a
       0.0022796593 0.0021985825 -0.0008626147 0.0018688332
000070 a6 69 bc 3b de 1e 3e bb 24 97 43 3b db 2f 1d 3b
       0.005749899 -0.0029010097 0.0029844726 0.0023984823
000080 9a a1 a2 3b 3d e5 17 bb 20 e7 2b bb 05 7d 62 bb
       0.004963112 -0.0023177408 -0.002623029 -0.003455938
000090 1b e0 81 b9 62 77 27 3b 1f 22 e9 3c ec b7 36 bb
       -0.0002477177 0.0025553335 0.028458653 -0.0027880622
0000a0 12 25 0e 3b 63 19 81 3b b0 19 7d bb 32 a8 dc bc
       0.0021689576 0.003939794 -0.0038620047 -0.02693567
0000b0 af 16 a9 3b ba cf 7f ba b9 9d 6b 3a da 02 bd 3b
       0.005160175 -0.00097584317 0.0008988041 0.005768162
0000c0 eb d6 00 bb 67 a5 40 3b b4 49 0d 3b a4 2b 60 3a
       -0.001965935 0.0029395462 0.0021558823 0.0008551425
0000d0 67 6b e9 3b 8a b5 15 bb f9 10 7b 3a 5d 97 bd 3b
       0.007123399 -0.0022843801 0.0009577419 0.005785866
0000e0 3a d7 c2 b9 53 c3 e1 ba d3 43 da 3a 63 32 a0 ba
       -0.0003716292 -0.0017224349 0.0016652293 -0.0012222048
0000f0 e1 46 e9 ba 79 a6 bd bb 51 3a 99 3b cb ba 93 bb
       -0.0017797613 -0.0057876674 0.0046761413 -0.0045083514
000100 dc 5c 48 3c 0a 19 f5 ba 4b 7a 9a ba e6 8e d3 bb
       0.012229171 -0.0018699479 -0.0011785714 -0.006456244
000110 40 50 47 3b 4b dd 07 ba 9a 3c 6d 39 46 9b d5 39
       0.0030412823 -0.00051828165 0.00022624657 0.00040742214
000120 3f f5 df 3b cb c4 f8 b8 53 bf 87 bb 1f 7f 97 3a
       0.0068346555 -0.00011862217 -0.0041426807 0.0011558271
000130 7a 54 31 bb 5b 2b d0 3b 03 22 bd b9 6d 9f 05 ba
       -0.0027058409 0.0063528246 -0.0003607423 -0.00050973037
000140 69 8b e6 ba e4 6f 79 3b bc c1 00 ba 6a d1 5c bb
       -0.0017589155 0.0038061077 -0.0004911681 -0.0033694156
000150 33 a0 1d bb a4 96 ef ba 6f c7 ed 3a 4b cf 41 3b
       -0.0024051785 -0.0018279147 0.0018141101 0.002957302
000160 f3 5c 5e 3b 71 7a e4 ba 01 40 2b 38 24 ba 4d ba
       0.0033929914 -0.001743151 4.0829185e-05 -0.00078478665
000170 f7 49 60 3a 17 64 52 3b 85 16 07 b9 ef b1 9a bb
       0.00085559435 0.0032103115 -0.00012882992 -0.0047209184
000180 3c 07 97 ba a0 d6 89 3a 7a 68 98 bb 28 d4 49 bb
       -0.0011522542 0.0010516234 -0.0046511265 -0.003079662
000190 9c 83 2c bb 96 78 93 39 06 76 d8 3a ac 1e a4 ba
       -0.0026323562 0.00028127868 0.0016514666 -0.0012521348
0001a0 39 95 ab bb c9 35 07 3b db 1d b5 3a f3 05 5b ba
       -0.0052362946 0.0020631424 0.0013818102 -0.00083550735
0001b0 35 c4 b9 3a 45 c4 25 3b 4a 0d 8a bb 7d be 75 ba
       0.0014172854 0.0025293988 -0.00421301 -0.0009374393
0001c0 03 ee b2 3b 75 a9 4c 3b eb 4a 15 bb 86 03 87 bb
       0.005460502 0.0031228934 -0.002278025 -0.004120293
0001d0 c8 73 82 bb c8 2f c4 3a cd c6 f4 39 b8 f8 f0 ba
       -0.0039810874 0.0014967853 0.00046687425 -0.0018384671
0001e0 24 c3 db b8 e1 68 a1 bb 25 52 26 3a 3d d0 19 bb
       -0.000104790815 -0.0049258326 0.0006344638 -0.0023470067
0001f0 e5 46 18 3b 52 9b 86 3a 3e 92 5b 3b ca da 66 3b
       0.0023235616 0.0010269678 0.0033503915 0.0035225623
000200 b5 87 9c ba 8a 57 14 39 99 4e 44 3c be ff d7 bb
       -0.0011942299 0.0001414699 0.01198163 -0.006591766
000210 88 d5 b4 bb 85 5d a1 bb 87 58 40 3a 6b fb 9b ba
       -0.005518619 -0.0049244785 0.00073374104 -0.001190049
000220 cc 62 1a bb f3 14 f3 ba b3 9e 30 bb d7 f9 75 ba
       -0.0023557423 -0.0018545672 -0.002695006 -0.00093832373
000230 4c 13 a1 3b fe 9e 48 ba 8e c6 18 39 72 ee a5 bb
       0.0049156304 -0.0007653086 0.00014569817 -0.0050638253
000240 55 99 be ba 96 53 80 ba 50 e6 b1 3a 36 d0 25 3c
       -0.0014541546 -0.0009790536 0.0013572667 0.010120442
000250 e5 5e 47 39 a1 46 85 3a 12 68 89 3b d4 e0 1f 3b
       0.0001901347 0.0010168144 0.0041933144 0.0024395483
000260 b5 87 6f 3b 80 46 35 bb 19 69 6c bb e5 28 66 bb
       0.0036549394 -0.002766043 -0.0036073385 -0.003511959
000270 7d 8f 9a 3a bc fe 83 3b 0b ca 80 3a ef b3 fe b9
       0.001179203 0.0040281694 0.0009825838 -0.00048580716
000280 22 c7 d6 3b e5 a8 db 3a 52 b7 f1 39 4a 93 a8 ba
       0.0065545 0.0016758709 0.00046103686 -0.0012861278
000290 17 7b 2f 3b 2b a6 65 bb 13 70 a2 bb 14 0b 00 3b
       0.0026776248 -0.003504167 -0.004957208 0.0019537853
0002a0 c6 e7 f3 3a 37 1a 82 bb 90 b0 6e 3b 41 dd 95 3b
       0.0018608503 -0.00397041 0.0036421157 0.0045734947
0002b0 f0 94 e8 3b 13 f7 9a bb a1 f2 b7 ba e1 29 5c b9
       0.007097833 -0.0047291606 -0.0014034101 -0.00020996436
0002c0 4a 5c 1c bb 05 fb 96 bb 7c 9d 3d 3c 82 52 78 3b
       -0.002385872 -0.0046075606 0.011573192 0.0037890975
0002d0 55 ec 77 bb 14 73 80 3b 62 ac b7 3b c1 9c 1b bb
       -0.0037830074 0.0039199684 0.0056052664 -0.0023744556
0002e0 ff 2c 8f 3b 93 7b 15 bc f5 75 a7 ba bd 55 81 bb
       0.0043693776 -0.009123701 -0.0012776243 -0.0039469884
0002f0 96 e0 30 3b 7e 4d 04 3c a8 39 27 3c 67 6c 8e 3a
       0.0026989332 0.008075116 0.010206617 0.0010866047
000300 59 5b 15 3a 3d 0f 84 bb 8b 4d 03 3b 6d ff b7 bb
       0.0005697511 -0.004030137 0.0020035233 -0.005615166
000310 a1 be a3 38 58 53 76 bb 70 42 0f 3a a3 e5 87 bb
       7.807953e-05 -0.0037586298 0.0005464917 -0.004147248
000320 68 f8 4e bb cc fd 14 3b 6e 30 c4 bb 32 f9 72 3b
       -0.0031581167 0.0022734283 -0.0059872186 0.0037074802
000330 14 a0 9d bb aa 09 8a 3a 1a 92 db bb cb 10 06 b6
       -0.0048103426 0.0010531445 -0.0067007663 -1.997733e-06
000340 42 08 aa ba a4 fe 04 bc 70 13 3a 3b ee 33 f4 3b
       -0.0012972432 -0.008117352 0.0028392933 0.0074524796
000350 b6 e6 58 3b 05 c8 cd b9 5b f9 98 3b d3 fc ea 3b
       0.0033096499 -0.00039249673 0.0046683974 0.0071712523
000360 af a1 36 38 d2 a5 66 bb 5c 44 f5 ba 02 b3 a0 3b
       4.354276e-05 -0.0035194051 -0.0018712389 0.004904152
000370 8c ef 0e 3a 00 41 31 bb cd 4c 98 3b de 16 4b bb
       0.00054525654 -0.00270468 0.0046478272 -0.0030988972
000380 0c 90 27 3b 65 0e 8a 3b 07 8e bb bb 14 ee 98 bb
       0.0025568036 0.0042131417 -0.005723718 -0.004667053
000390 c3 ad 1b 3a 39 43 1b 3a 56 a5 3a ba 05 c9 0a 3c
       0.0005938673 0.0005922798 -0.0007119974 0.008470778
0003a0 d2 22 09 3b 64 f6 07 bb e1 50 39 3a 22 42 54 ba
       0.0020925296 -0.0020746225 0.0007069242 -0.0008097013
0003b0 5d 33 d6 b8 41 05 d2 3a 2f d5 cb bb 99 ff 54 3b
       -0.00010213882 0.0016023294 -0.006220482 0.003250098
0003c0 45 cf 2e 39 14 e9 84 bb fe 2a 35 bb 23 7b 92 bb
       0.00016671147 -0.0040561054 -0.0027644034 -0.0044702454
0003d0 3a e7 14 bb d0 c2 8a 3a 48 a5 12 3b 00 e8 46 3b
       -0.002272083 0.0010586623 0.0022376347 0.0030350685
0003e0 c6 b3 0f ba 44 7e 82 ba e4 22 fa 37 d5 3d e7 b9
       -0.00054818054 -0.0009955843 2.981857e-05 -0.00044105822
0003f0 7c bf b5 3b fb 28 8f 3a e7 ef d8 39 f2 f0 02 3c
       0.0055465084 0.0010922247 0.00041377472 0.007992016

exp_avg_sq f4 [2, 768]
000000 51 b5 1d 3a 48 88 2f 3a 90 3e 4d 3a 9f 56 30 3c
       0.0006016093 0.00066960277 0.0007829452 0.01076284
000010 32 f5 78 3c df 3f 32 3a 54 d3 13 3d fe 4a 54 3b
       0.015195178 0.00067996787 0.03609021 0.0032393332
000020 a0 d6 b1 40 f8 15 ef 3c bc 68 1f 3a 92 8c 13 3c
       5.5574493 0.02918528 0.0006080975 0.009005683
000030 2f ad 66 3b eb 7e b6 3c 2b dc eb 3b 81 fe 7b 3a
       0.003519844 0.022277316 0.007197877 0.0009612814
000040 16 98 86 39 b8 3d 8a 3b 98 bd b2 3a 67 ed c5 3b
       0.00025671785 0.004218783 0.0013636826 0.0060402635
000050 06 b0 a9 3b 8f 80 43 3b 8a 38 60 3b 5b 85 d4 3b
       0.0051784543 0.0029831266 0.0034213387 0.006485624
000060 db b5 d5 3c 5b 26 ca 3a 51 13 60 39 b1 e3 54 3c
       0.026087692 0.0015422808 0.000213695 0.012993739
000070 b5 78 12 3a c0 cc af 39 f4 da f5 3c bc d1 b6 3b
       0.0005587445 0.00033531152 0.030011632 0.0055792015
000080 98 3e 42 3b 9e a6 a5 3c 56 f6 68 3b 19 87 04 3c
       0.002963936 0.02022105 0.0035547218 0.00808885
000090 3e 0d b1 3c 32 99 97 39 7d 5d f5 3e b7 cc 44 39
       0.02161276 0.00028915104 0.47922888 0.00018768279
0000a0 70 09 24 3b eb 98 0b 3b ac 01 d1 39 f3 ad 4a 3e
       0.002503004 0.0021300863 0.00039864832 0.19792919
0000b0 07 51 bc 3c 84 ca 82 3a f6 e7 7a 3c c5 6d 8b 3b
       0.022987856 0.0009978567 0.015314093 0.004255029
0000c0 a2 96 88 39 71 aa d5 3b 74 05 36 3b e3 42 ce 3b
       0.00026052172 0.0065205623 0.0027774246 0.0062945946
0000d0 bf fb 7b 3b a1 9d 5a 39 a8 c3 03 3c ca bb 0d 3b
       0.0038449613 0.00020848821 0.008042254 0.0021626824
0000e0 a7 56 0d 3b 21 bf 9c 3b c5 1d 11 3c a5 fb 84 3b
       0.0021566541 0.0047835265 0.008857195 0.0040583187
0000f0 4b 53 f0 3b 25 b7 38 3c fb bd a7 39 d6 11 46 3d
       0.007334148 0.011274134 0.0003199427 0.048356853
000100 0f d8 e5 39 10 b4 f2 3c f3 85 9d 3b e1 ef db 39
       0.0004383926 0.029626876 0.0048072278 0.0004194966
000110 8e 29 9e 3c eb c9 99 3c 6a d3 42 3a 4f 02 9f 3b
       0.019306924 0.01877304 0.0007432016 0.00485257
000120 39 60 b1 39 2a b2 d6 3a ef 83 4b 3a 23 83 88 3b
       0.00033831762 0.0016380001 0.0007763495 0.0041660233
000130 f2 95 86 3c 92 2f e7 39 30 6e e7 3b ed f9 db 3b
       0.016428921 0.00044095196 0.007062696 0.006713143
000140 b4 d6 a2 39 79 df 2d 3b 1e 2e bd 39 ad 16 eb 39
       0.00031059014 0.0026530905 0.0003608325 0.00044839588
000150 0f ea 62 3b 71 43 29 3b c8 3e 2f 3d db 5d 95 3a
       0.0034624373 0.0025827552 0.042784482 0.0011395769
000160 fc 42 39 3c 83 c5 32 3a e7 5c 82 3b 1c 64 06 39
       0.011307474 0.00068195927 0.00397836 0.0001281653
000170 2e cf 63 3c 2d 68 b8 3c 56 73 99 3b 57 90 20 3b
       0.013904376 0.022510612 0.0046829386 0.0024500096
000180 23 c7 a9 3a 99 12 48 3b e4 d4 31 3b b1 00 0d 3d
       0.0012953024 0.0030528663 0.002713495 0.034424488
000190 fe e5 e8 3a 28 7e 86 3b 37 e8 4f 3c 3b 59 b4 3b
       0.0017768738 0.0041043945 0.012689642 0.005503801
0001a0 29 13 a4 3d 51 e5 98 39 e4 9b cd 39 54 f5 a8 3a
       0.08011467 0.00029162553 0.00039216795 0.0012890496
0001b0 00 84 34 3c 4d aa 01 3b 8d 3e 08 3c 82 c0 88 3b
       0.011017799 0.0019785345 0.0083156945 0.0041733393
0001c0 39 33 b1 3a d4 65 84 3b 57 9e fa 3a 38 66 7c 39
       0.0013519294 0.004040459 0.0019120675 0.00024070672
0001d0 de 48 8e 39 d1 41 7d 3b e0 d0 70 3c 0a 1b d9 3b
       0.0002713864 0.0038643966 0.014698237 0.0066255378
0001e0 da 38 39 3b 70 3b 8d 39 32 81 05 3a 64 10 7e 3c
       0.0028262646 0.000269379 0.0005092799 0.0155068375
0001f0 cf 6e 8d 3b 87 89 23 3d b6 bd 40 3b 3d 21 28 3a
       0.004316188 0.03992608 0.0029409952 0.00064136443
000200 cc a8 8f 3b 59 9f cd 3a 2e 3c 8e 3b 42 76 cc 3b
       0.004384136 0.0015687748 0.00434067 0.0062396834
000210 cb b2 c9 39 2b 9b 10 3c f3 9a 18 3c 5d 28 b8 3b
       0.0003847092 0.008826057 0.0093142865 0.005620046
000220 9c 05 8f 3b e2 88 e2 39 6a 94 93 3b 03 fb 88 39
       0.0043646824 0.00043208065 0.0045037763 0.0002612696
000230 9a 1a 33 3c b1 e6 b6 3b 28 dc 39 3c 2d 0a 9a 3b
       0.010931635 0.0055817 0.011343993 0.00470092
000240 c3 07 a6 3b bb 4a 31 3b cd a0 f8 39 5a 1c eb 3c
       0.0050668432 0.00270526 0.00047422052 0.028700043
000250 38 7b 49 3a 2c 19 a0 3b 38 3c d3 3a c8 6a 54 39
       0.00076859025 0.004885813 0.0016115969 0.00020257675
000260 a8 21 41 3b 07 ba 61 3c ba 91 43 3c 80 e7 d9 3c
       0.0029469524 0.0137772625 0.011936599 0.026599646
000270 f2 c3 9d 39 73 62 7c 3c 48 4d 51 3b ab a9 7c 3b
       0.00030091364 0.0154043315 0.0031936932 0.0038553278
000280 21 b0 ed 3b 38 33 31 3c 53 51 9b 3a 1a 02 2c 3a
       0.007253662 0.010815434 0.0011849798 0.00065615925
000290 91 a1 31 3a d8 25 a5 39 6d 4d 6c 3b 2b 26 ab 3c
       0.00067760894 0.00031499448 0.0036056892 0.020892223
0002a0 38 84 44 3b 9b a1 3f 3a 3b 71 d9 3c 5d df 8a 3a
       0.0029986035 0.0007310153 0.02654325 0.0010595132
0002b0 39 00 b1 39 76 3e 23 3a 5e 2c 24 3c 00 97 01 3d
       0.00033760237 0.0006227264 0.010020344 0.031638145
0002c0 4e 35 6c 3c 9f 52 20 3c 6b c2 1a 3a b6 82 8e 3b
       0.014417006 0.009785323 0.00059036043 0.004349078
0002d0 a1 e6 44 3c 5e 98 61 3c 1b 70 82 3b c6 e0 89 39
       0.012017877 0.013769237 0.003980649 0.00026298146
0002e0 59 ba 34 3c 52 fc 14 3a a4 11 86 3b 62 9d 82 3a
       0.011030757 0.00056833506 0.0040914584 0.0009965117
0002f0 23 80 b5 3a 90 6d 6e 3c c1 10 9e 3c e8 d7 1a 3b
       0.0013847392 0.014552489 0.019295098 0.0023627225
000300 5e 1b 84 3b a0 41 cc 39 e0 89 38 3c fb 51 1e 3a
       0.0040315827 0.00038958807 0.011263341 0.0006039438
000310 a3 f9 8c 3b 17 c8 71 39 59 f0 95 3b d6 85 2c 3a
       0.00430222 0.0002305809 0.004575771 0.00065812224
000320 c4 1e 4b 3b 91 95 7b 3a c3 ae c0 3b 3f 64 5b 3a
       0.003099368 0.0009597177 0.005880208 0.0008369125
000330 b0 3a 23 3b c9 39 a2 3a 39 17 90 3a 39 08 2b 3a
       0.0024906807 0.001237684 0.0010993249 0.00065243576
000340 35 d9 b2 3a 1c ce ad 3a 60 dd ea 3a 9c b0 16 3b
       0.0013645055 0.0013260278 0.0017918758 0.002299345
000350 63 42 3f 3a b5 42 e3 3a ea c2 ff 3d e6 11 b2 3b
       0.0007295964 0.0017338606 0.12488349 0.0054342626
000360 0c e0 07 3b b7 25 01 3c a7 05 6e 3b cc 81 01 3d
       0.0020732908 0.007882527 0.0036319287 0.031617925
000370 f5 ee 9d 3b 4e ab ac 3a f7 6d a3 3d 4d e4 ab 3b
       0.0048197457 0.0013173611 0.079799585 0.0052457214
000380 42 67 a7 3b e6 09 89 3a 6f 38 39 3b c0 4b 3f 3c
       0.005108745 0.001045522 0.0028262397 0.011675775
000390 4b b3 86 3b a8 87 4e 39 0f 1a 43 3b d9 68 8b 3d
       0.004110729 0.00019696227 0.002977017 0.068071075
0003a0 96 d3 bb 3b d4 e5 c9 39 d8 4f 4e 3c 94 88 b6 39
       0.00573201 0.00038508943 0.012592278 0.00034815504
0003b0 a8 fa 32 3c 70 da 05 3c 8b 51 91 3c 6a 22 da 3b
       0.010924019 0.008169755 0.017739078 0.0066569345
0003c0 c2 51 48 3b ab e7 3f 3a f7 36 59 3a 13 21 3c 3b
       0.003056631 0.0007320593 0.00082860835 0.0028706237
0003d0 a0 97 db 39 4c 7f 1b 3a c1 78 c7 3a c8 74 a2 3a
       0.00041883904 0.00059317495 0.0015218483 0.0012394423
0003e0 c4 62 f5 3b ee d0 8b 3a c6 d3 9d 3c 98 75 17 3c
       0.0074885804 0.0010667124 0.01926602 0.009244345
0003f0 89 6f e6 3b 68 95 16 3a 12 eb bd 39 53 be 2e 3c
       0.007032339 0.0005744309 0.0003622403 0.010665494

exp_avg f4 [2]
000000 c1 09 53 ba 52 0a 53 3a
       -0.00080504647 0.0008050549

exp_avg_sq f4 [2]
000000 91 c1 68 3c 91 c1 68 3c
       0.014206306 0.014206306
