TASK2/gender_classification_model/checkpoint_step_11400.pth (torch, 22993 bytes, 6 tensors)

weight f4 [2, 768]
0	0x3cc93a3a	0.024563897
1	0x3b6d57c9	0.0036215654
2	0x3ce5ccef	0.028051822
3	0x3c699ce2	0.014258595
4	0xbce19ccb	-0.027540585
5	0x3b72a716	0.003702586
6	0xbbf87859	-0.007582706
7	0xbcdc3edd	-0.026885444
8	0xbcfcb5bb	-0.030848375
9	0xbc7eff7e	-0.015563844
10	0xbd3e1016	-0.04640206
11	0xbbfaf5f5	-0.007658715
12	0xbd484282	-0.04889155
13	0x3cb8e71b	0.022571137
14	0x3cc18f69	0.023627954
15	0xbc076412	-0.008263605
16	0x3b8ab1d5	0.004232625
17	0xbc92491e	-0.01785713
18	0x3b831ab8	0.004000988
19	0xbcc6077d	-0.024173493
20	0xbc2a2482	-0.010384681
21	0x3cad524d	0.021157408
22	0x3d33c4a4	0.043888703
23	0x3bdab66f	0.00667458
24	0x3d14f8d7	0.036370125
25	0xbc436cf9	-0.011927837
26	0x3cb307a0	0.021854222
27	0x3b9f668d	0.00486452
28	0x3d7f070d	0.062262584
29	0x3a12812a	0.0005588705
30	0x3cf7907d	0.030220265
31	0x3d03c4e6	0.0321702
32	0x3c866372	0.016404841
33	0x3b077bf0	0.0020673238
34	0xbc42dce3	-0.011893484
35	0x3d15e27b	0.03659294
36	0x3c2b61dd	0.010460344
37	0xbd87217c	-0.065981835
38	0x3c979987	0.018505825
39	0xbdba96cd	-0.09110794
40	0x3ce86af1	0.028371306
41	0xbac7801f	-0.0015220678
42	0xbd025e0b	-0.031827968
43	0x3c6a565a	0.014302814
44	0xbcbba280	-0.022904634
45	0xbb911d55	-0.0044285455
46	0x3d079dd7	0.033109512
47	0x3d47bbba	0.048763014
48	0x3d42e3db	0.04758058
49	0xbcd10953	-0.025517141
50	0x3c3aec19	0.011408829
51	0x3ca1116c	0.019661628
52	0xbc37ab61	-0.0112102935
53	0xbd114871	-0.035469476
54	0xbba46453	-0.0050168424
55	0xbcb00261	-0.02148551
56	0xbbad4aa0	-0.005288437
57	0xbbd122d8	-0.0063823275
58	0xbb1e8353	-0.0024187162
59	0x3cab019d	0.020874793
60	0x3c15309a	0.009105826
61	0x3bea2f07	0.0071467194
62	0xbd4295f1	-0.047506277
63	0xbc786f4b	-0.015163253
64	0xbbef03b8	-0.0072941445
65	0xbc79f012	-0.015254991
66	0x3d430535	0.047612388
67	0x3d864556	0.065561935
68	0xbd1a3db1	-0.03765649
69	0x3cfd1736	0.030894857
70	0x39a1ae9e	0.00030838413
71	0x3b1c3f49	0.0023841432
72	0xbbbd14a2	-0.005770282
73	0xbc589fa5	-0.013221656
74	0xbca4752e	-0.020075407
75	0xbd082b5f	-0.033244487
76	0xbbce8b4f	-0.006303228
77	0x3c82c0c5	0.01596106
78	0xbb8f5868	-0.0043745525
79	0xbc6a6ed0	-0.014308646
80	0x3cdebafe	0.027188774
81	0xbcd3f7f4	-0.02587507
82	0xbd8d0286	-0.06885247
83	0x3bc6c662	0.0060661295
84	0x3c2f0071	0.010681258
85	0x3cba425e	0.022736724
86	0xbc934cc9	-0.01798095
87	0xbd43fcc3	-0.047848474
88	0x3d2a2a23	0.04154409
89	0x3c336bec	0.010951024
90	0x3d32626c	0.043550894
91	0xbd4dc359	-0.050235126
92	0x3d18a016	0.037262045
93	0x3c99fe95	0.018798152
94	0x3ba493aa	0.0050224857
95	0xbd0f6861	-0.035011653
96	0x394b35ca	0.00019379627
97	0x3d4a47d2	0.0493849
98	0xbc327aa1	-0.010893495
99	0x3d07f8ce	0.033196263
100	0xbc3ccda9	-0.011523643
101	0x3c391599	0.011296653
102	0x3d472e51	0.048628155
103	0xbcb06ad4	-0.021535315
104	0x3c2bfa1a	0.010496641
105	0xbb5407a1	-0.003235318
106	0x3d959ab3	0.07304897
107	0xbd559c1e	-0.052150838
108	0xbba61fe0	-0.0050697178
109	0x3d8b7850	0.06810057
110	0xbd2d4224	-0.042299405
111	0xbc7d1e5a	-0.015449131
112	0x3c675b13	0.014120835
113	0xbbd08ea9	-0.0063646627
114	0x3b930b80	0.004487455
115	0x3cd7074f	0.026248602
116	0x3db71ca9	0.08941013
117	0xbc620bcd	-0.013796759
118	0xbc44bb5a	-0.012007559
119	0x3c9d62fa	0.019212235
120	0x3d9368f2	0.07197751
121	0x3d7ff314	0.062487677
122	0xbc1d5242	-0.009602131
123	0xbb7c1ada	-0.0038468153
124	0x3c181710	0.009282842
125	0x3bec95f1	0.007220023
126	0xbcfe41be	-0.031037208
127	0xbcf27853	-0.02959839
128	0x3b04ff92	0.0020293933
129	0xbca2c491	-0.01986912
130	0xbd3963b4	-0.0452611
131	0x3baf0ea1	0.00534232
132	0x3d63b677	0.055593934
133	0x3c3b0665	0.011415099
134	0x3d1da9eb	0.038492125
135	0x3c3bbfcb	0.011459301
136	0xbccba905	-0.024860868
137	0xbbea1877	-0.0071440297
138	0x3d261712	0.040549345
139	0xbc12e872	-0.008966552
140	0xbd291d53	-0.04128773
141	0xbc77472a	-0.01509265
142	0xbb8d4fbc	-0.0043124836
143	0x3c3f58a4	0.011678848
144	0xbce35c9a	-0.027754117
145	0x3b4190fd	0.0029535883
146	0xbb9aa16c	-0.00471895
147	0x3a25eb98	0.00063293567
148	0xbc655ac0	-0.013998687
149	0xbccfbe08	-0.025359169
150	0x3ce79249	0.028267996
151	0xbd3d9562	-0.04628504
152	0x3d2df3a3	0.04246868
153	0x3d441ab5	0.047877032
154	0x3ccdc757	0.025119467
155	0xbc03ded8	-0.008048736
156	0xbc8e76f2	-0.017390702
157	0xbd1e53c4	-0.038654104
158	0xbc9da4b9	-0.019243585
159	0x3d7e3b42	0.06206823
160	0xbbf977b8	-0.0076131485
161	0xbc879c7c	-0.01655411
162	0xbccc88c4	-0.024967559
163	0x3cb3ac29	0.021932678
164	0xbd5e5c3c	-0.05428718
165	0x3db0d076	0.08633511
166	0xbc86028e	-0.01635864
167	0xbcfaab1a	-0.030599166
168	0xbcd2c142	-0.025726918
169	0x3c3e533d	0.011616525
170	0x3cd0e20b	0.02549841
171	0x3c584889	0.0132008875
172	0xbd09bb01	-0.033625606
173	0x3cdfdfc8	0.027328387
174	0xbc528321	-0.012848646
175	0xbcdda013	-0.027053868
176	0x3cb2078d	0.021732116
177	0x3d0ff3e0	0.035144687
178	0x3c08a5c0	0.008340299
179	0x3d1de00e	0.038543753
180	0x3ced7bd5	0.028989712
181	0xbcaf19e9	-0.02137466
182	0x3b845aee	0.00403916
183	0xbc0ec1c1	-0.008713187
184	0xbcc69358	-0.02424018
185	0x3da36cdc	0.07979748
186	0xbce0c50a	-0.027437706
187	0xbd24e741	-0.040259603
188	0xbc0442a8	-0.008072533
189	0x3b59f7bb	0.003325923
190	0x3c25daa8	0.0101229325
191	0xbb75b77c	-0.0037493398
192	0xbcb9160d	-0.022593522
193	0x3d16f6c7	0.03685644
194	0xbd21cec4	-0.039503828
195	0xbda640ee	-0.08117853
196	0xbd8b2126	-0.06793432
197	0xbd4f1527	-0.05055728
198	0x3d404878	0.04694411
199	0xbd13ce25	-0.036085267
200	0xbd71126e	-0.058855467
201	0xbbbef5b6	-0.005827631
202	0x3d3ef32c	0.046618626
203	0x3c11163f	0.008855402
204	0x3ce5950e	0.028025176
205	0x3d2df60f	0.042470988
206	0xba0fce6e	-0.00054857775
207	0xbca8f173	-0.020622944
208	0x3d672029	0.056427155
209	0x3bec1289	0.007204358
210	0x3c5405b9	0.0129408175
211	0xbaafe95f	-0.001342099
212	0xbc9ba780	-0.019000769
213	0xbd1b2ef9	-0.037886593
214	0xbcb35f71	-0.021896096
215	0x3d0bb4eb	0.034108084
216	0xbcb74404	-0.0223713
217	0xbd10d9b9	-0.035363887
218	0xbca766b4	-0.020434715
219	0x3cdd99ee	0.027050938
220	0xbd3e8537	-0.046513762
221	0x3c080726	0.008302486
222	0x3d0793b7	0.033099856
223	0xbceb3529	-0.028711872
224	0x3bcd8fcb	0.006273245
225	0xbbcf9356	-0.0063347025
226	0xbd35bd60	-0.044370055
227	0x3c7cd6ed	0.015432102
228	0xbb94c58b	-0.0045401505
229	0xbc3689c6	-0.011141246
230	0xbc87748e	-0.01653507
231	0xbc170288	-0.009216912
232	0x3c9f1007	0.019416822
233	0x3d344cbb	0.04401849
234	0x3be22573	0.006901437
235	0x3db5b3df	0.08872198
236	0xbb21e25c	-0.002470157
237	0xbd304ea3	-0.043043744
238	0xbd0e8b71	-0.03480095
239	0x3cc00119	0.023438023
240	0xbcec9802	-0.028881077
241	0xbca422fe	-0.020036217
242	0x3d09dac1	0.033655886
243	0x3d279cc1	0.040920977
244	0x3d236514	0.039891317
245	0x3d06af1b	0.032881837
246	0xbbd71d8b	-0.006564801
247	0x3b727930	0.0036998503
248	0xbbb67900	-0.0055686235
249	0x3c7b6054	0.015342791
250	0xbc038342	-0.0080269
251	0x3c178533	0.009248066
252	0x3d206d93	0.039166998
253	0xbc9a8413	-0.018861806
254	0x3c291edd	0.0103223
255	0x3d10f646	0.035391115

bias f4 [2]
0	0x3cc8b46e	0.024500098
1	0xbba80013	-0.005126962

exp_avg f4 [2, 768]
0	0x3c8aeabf	0.016957639
1	0xbc1c2700	-0.009530783
2	0x3ca04258	0.019562885
3	0x3d5bb80c	0.053642318
4	0x3d7d9228	0.061906964
5	0x3b28a86c	0.0025735153
6	0xbdd59924	-0.104296
7	0xbcb8455e	-0.022494014
8	0x3fa061a3	1.2529796
9	0x3dadf537	0.08494037
10	0x3b8e3aff	0.004340529
11	0xbd6447b2	-0.055732436
12	0xbd16e991	-0.03684384
13	0xbd9731b0	-0.07382524
14	0xbd44a6ed	-0.048010755
15	0xbc932b0f	-0.017964868
16	0x3c5c4967	0.013445235
17	0xbd1ee639	-0.038793776
18	0x3c8fd9e1	0.017559947
19	0x3d0e50ff	0.034745213
20	0x3d3485ef	0.04407304
21	0x3cba3757	0.022731466
22	0x3b86f85a	0.0041189613
23	0xbd59ed6d	-0.053204942
24	0xbdb18740	-0.08668375
25	0xbcb78d1b	-0.022406152
26	0xbcc3b021	-0.023887696
27	0xbd53d389	-0.051715408
28	0x3bb547fb	0.0055322624
29	0x3c7498e2	0.014929028
30	0x3db170d9	0.08664102
31	0x3d444480	0.04791689
32	0xbc84076a	-0.016116817
33	0xbda6700d	-0.08126841
34	0xbd45cac7	-0.048289087
35	0xbd589a53	-0.05288155
36	0xbd7e94ec	-0.06215374
37	0xbb8be0ba	-0.004268733
38	0xbea90169	-0.33008888
39	0x3bb2298e	0.0054370826
40	0xbc9df0e8	-0.019279912
41	0x3cfa3a7f	0.030545471
42	0xbb819de5	-0.00395559
43	0x3e45c6eb	0.19314162
44	0x3daa3b75	0.08312122
45	0x3cbaba91	0.02279404
46	0xbdab8a38	-0.083759725
47	0xbcb95390	-0.022622854
48	0xba72e245	-0.0009265284
49	0x3d6bca3c	0.057565913
50	0x3cc1a811	0.02363971
51	0x3c9f9e2e	0.019484606
52	0x3d226e0a	0.039655723
53	0xb9aae3e4	-0.00032594719
54	0x3d2ca894	0.042152956
55	0x3d262ad0	0.040568173
56	0x3c9625e5	0.018328616
57	0xbd53aef3	-0.051680516
58	0xbd04a817	-0.032386865
59	0xbd362ef9	-0.04447839
60	0x3d02018f	0.031739768
61	0xbd4d3647	-0.05010059
62	0x3ca9b500	0.02071619
63	0xbdec7c69	-0.11547167
64	0x3b2087e5	0.0024495062
65	0x3dbf6e1d	0.09347174
66	0xbc521054	-0.012821276
67	0xbc0fd0b3	-0.008777785
68	0x3d8e9d06	0.069635436
69	0x3d91e780	0.07124233
70	0xbd014554	-0.031560257
71	0xbd05679a	-0.032569505
72	0x3bfc6983	0.0077030077
73	0x3ce6fe40	0.028197408
74	0x3c2461c9	0.010033079
75	0xbcfd6483	-0.030931717
76	0x3d901eca	0.070371225
77	0xbb5b9c3f	-0.0033509878
78	0x3d404eed	0.04695027
79	0xbd3b8aed	-0.045786787
80	0x3bbeba75	0.0058205673
81	0xbcc29f6b	-0.023757657
82	0xbc306392	-0.010765927
83	0xbc5defdb	-0.0135459555
84	0x3cf6fb72	0.030149195
85	0xbccba3a1	-0.024858298
86	0x3dde3a6d	0.108509876
87	0x3cbd05f1	0.023074122
88	0xbd5d56aa	-0.054037727
89	0xbc075846	-0.008260792
90	0xbcb2c843	-0.021824008
91	0x3bd090fb	0.0063649393
92	0xbd6f2406	-0.058383964
93	0x3d9d972d	0.0769485
94	0x3cfa5efc	0.03056287
95	0xbc9ecfd3	-0.019386208
96	0x3d30a7d4	0.043128803
97	0x3cb9277b	0.022601834
98	0xbd5d34f9	-0.054005597
99	0xbdf0e74e	-0.11762868
100	0x3cded50d	0.0272012
101	0xbd216bcd	-0.039409447
102	0xbd77d38e	-0.06050449
103	0x3d25d2a2	0.04048408
104	0x3e1203bf	0.14259242
105	0x3c9c29e5	0.019062946
106	0x3b854bd6	0.0040678782
107	0xbc28af5c	-0.010295715
108	0xbd4759c3	-0.048669588
109	0x3caf6ea4	0.021415062
110	0xbd3a9b88	-0.045558482
111	0xbce71f48	-0.028213158
112	0xbbdd6a42	-0.0067570517
113	0xbce6eb57	-0.02818839
114	0xbd04d7ea	-0.032432474
115	0xbbc44406	-0.0059895543
116	0xbbfedbc5	-0.0077776634
117	0x3cd6f8b9	0.026241647
118	0x3d9c93a2	0.07645346
119	0x3d270345	0.040774602
120	0x3d8bd5fc	0.06827924
121	0xbbf8e177	-0.007595237
122	0xbc71029b	-0.014710094
123	0xbd96e7a0	-0.07368398
124	0x3cedf303	0.029046541
125	0x3dc3ad88	0.09554583
126	0x3c1b90d5	0.00949498
127	0x3c22abf9	0.009928697
128	0x3d1ef3d9	0.03880677
129	0x3cef88df	0.02924007
130	0x3cb8e695	0.022570888
131	0xbd80702b	-0.06271394
132	0xbc2a5021	-0.010395081
133	0xbd93a745	-0.072096385
134	0x3d55120e	0.05201917
135	0x3d6eeebd	0.058333147
136	0x3cf5bcd5	0.029997269
137	0xbcab0467	-0.020876123
138	0xbd3026da	-0.0430058
139	0xbbb1bed5	-0.0054243603
140	0x3d7ac4c7	0.061222818
141	0x3d007cba	0.03136895
142	0x3d5be4ba	0.053684928
143	0x3d44c51b	0.048039537
144	0x3ccfada5	0.025351355
145	0xbd429605	-0.04750635
146	0xbc14ce4e	-0.00908239
147	0xbd86ac46	-0.06575827
148	0xbcb4ef4a	-0.022086758
149	0xbcd14617	-0.025546117
150	0xbcdc230f	-0.026872186
151	0xbb118950	-0.0022207089
152	0xbd29f226	-0.041490696
153	0x3d5c4eee	0.05378621
154	0xbd78e857	-0.06076845
155	0xbdac57fe	-0.08415221
156	0x3b7a6278	0.0038205665
157	0xbd93e4a8	-0.07221347
158	0xbcb17dfb	-0.021666517
159	0x3ce0dc32	0.027448747
160	0x3d6cda7d	0.057825554
161	0x3d500276	0.050783597
162	0x3cbceb69	0.023061471
163	0x3c64759d	0.013944057
164	0xba3f4b3b	-0.0007297282
165	0xbc4cb99e	-0.012495426
166	0xbcf71406	-0.030160915
167	0xbdbd15b2	-0.09232654
168	0x3cfefdeb	0.031126937
169	0xbc707d1e	-0.014678268
170	0x3dd395d1	0.103313096
171	0x3c81077f	0.015750645
172	0x3c90e346	0.017686497
173	0xbc38f5d6	-0.011289081
174	0xbd155e99	-0.03646717
175	0xbdcb6ba9	-0.09932644
176	0x3d81833f	0.06323861
177	0x3d53c7bb	0.05170415
178	0xbc4c175a	-0.012456739
179	0x3d201482	0.039082058
180	0xbdb32aae	-0.08748375
181	0x3d863bcf	0.06554376
182	0x3d0ec4da	0.0348557
183	0xbcd17d04	-0.025572307
184	0x3d24ce93	0.040236067
185	0xba030333	-0.000499773
186	0xbd26656e	-0.040624075
187	0x3a372ee3	0.00069878827
188	0xbcae861d	-0.021304185
189	0x3d8660b6	0.06561415
190	0x3da64e2f	0.08120381
191	0x3cddfecc	0.027099036
192	0xbd4c1683	-0.049826156
193	0x3c9f01a1	0.019409956
194	0x3d8a076f	0.06739699
195	0xbc3e4661	-0.011613459
196	0x3d3d9b46	0.04629066
197	0xba88281e	-0.0010387932
198	0xbcff7fb8	-0.03118883
199	0xbcc614f1	-0.024179908
200	0x3ce396d5	0.027781883
201	0x3c52400f	0.012832656
202	0x3d13c262	0.03607405
203	0x3a39aa53	0.000708257
204	0x3c8f4b37	0.01749192
205	0x3cd0dc53	0.025495684
206	0x3bb5c507	0.005547169
207	0xbad1ef2e	-0.0016016716
208	0xbce312f4	-0.027718998
209	0xbd0df104	-0.03465368
210	0x3cca7c3f	0.024717448
211	0x3ccc7faa	0.024963219
212	0x3c396bc7	0.0113172
213	0xbd19207d	-0.0373845
214	0x3e3b3398	0.182814
215	0xbd1597ab	-0.036521595
216	0xbc3f3931	-0.01167135
217	0x3d244af0	0.04011053
218	0x3cecab86	0.028890382
219	0xbdb2cec3	-0.08730843
220	0x3d01fb70	0.03173393
221	0x3cce32c2	0.025170688
222	0x3e1cf4e0	0.15327787
223	0x3d3485ed	0.044073034
224	0x3d2d54d7	0.042317238
225	0x3ccf4746	0.02530254
226	0x3d011d8b	0.031522315
227	0xbd78bb2c	-0.060725376
228	0x3d12be90	0.035826266
229	0xbc98766c	-0.018611155
230	0xbcf3eff9	-0.029777514
231	0x3e0b0779	0.1357707
232	0xbd4a82a8	-0.04944101
233	0xbcf00b82	-0.029302362
234	0xbd7a0280	-0.06103754
235	0x3c80d16f	0.015724866
236	0xbd16b25e	-0.036791198
237	0xbd192a3f	-0.037393805
238	0xbd8cfa5b	-0.06883689
239	0x3cf6f05b	0.030143907
240	0xbcb7fa47	-0.022458209
241	0xbce1af26	-0.027549338
242	0xbc77e5ff	-0.015130519
243	0xbd231eb5	-0.039824206
244	0x3b3c76a0	0.002875723
245	0x3b9e331e	0.004827871
246	0xbc070dfc	-0.00824308
247	0xbc9c6a7c	-0.019093744
248	0x3d4453aa	0.04793135
249	0x3c3fd146	0.0117076095
250	0xbda7427e	-0.08166979
251	0x3d270d18	0.04078397
252	0x3d255e14	0.040372923
253	0x3c42c8e8	0.01188872
254	0x3c9d39f5	0.019192675
255	0x3d86402f	0.06555211

exp_avg_sq f4 [2, 768]
0	0x3b918cfb	0.004441855
1	0x3aef9326	0.0018278107
2	0x3b20eb7a	0.0024554417
3	0x3cc62433	0.024187183
4	0x3cfeb9b4	0.03109441
5	0x3ab57368	0.0013843598
6	0x3da39a0d	0.07988367
7	0x3c2ac4d2	0.010422902
8	0x41414623	12.079623
9	0x3d936f62	0.07198979
10	0x3b05b6ab	0.0020403068
11	0x3c9d515b	0.019203832
12	0x3c085827	0.008321798
13	0x3d5c2b3d	0.053752173
14	0x3c760c04	0.015017513
15	0x3b979b94	0.0046267007
16	0x3abe2c2f	0.0014509017
17	0x3c0231a6	0.007946407
18	0x3bb8f083	0.0056439056
19	0x3c49d147	0.012317962
20	0x3c284ca4	0.010272179
21	0x3c382f4e	0.011241747
22	0x3c005c0c	0.007834446
23	0x3c85cd0b	0.016333124
24	0x3d7d87f3	0.06189723
25	0x3b9d8fa1	0.0048083817
26	0x3ae0c4ca	0.0017148491
27	0x3cee2e5d	0.029074842
28	0x3ade5ccb	0.001696491
29	0x3b11d95a	0.0022254796
30	0x3d779b5f	0.060450908
31	0x3c3320a0	0.010933071
32	0x3c281914	0.010259885
33	0x3d4926d3	0.04910929
34	0x3c0f76a4	0.0087563135
35	0x3cad192c	0.021130167
36	0x3d1e7de9	0.038694296
37	0x3a9d232f	0.0011988635
38	0x3f8c0918	1.0940275
39	0x3ad87f67	0.0016517461
40	0x3bd481e3	0.0064852103
41	0x3bc6243b	0.0060467995
42	0x3ae8e856	0.0017769437
43	0x3ed83e7d	0.42235175
44	0x3d5c1b67	0.05373707
45	0x3b43dd85	0.0029886675
46	0x3cebd053	0.02878586
47	0x3c31464e	0.010819985
48	0x3acfa2da	0.001584138
49	0x3c71cd02	0.01475835
50	0x3c11fa37	0.0089097535
51	0x3c5ab25c	0.013348188
52	0x3c0c4bae	0.008562965
53	0x3ac20946	0.0014803789
54	0x3c9e2667	0.019305421
55	0x3bb1c41a	0.0054249885
56	0x3b8aa4c8	0.0042310692
57	0x3c80b53d	0.015711421
58	0x3c94599f	0.01810914
59	0x3c05f158	0.008175217
60	0x3c9a344f	0.01882377
61	0x3cbc1ddb	0.022963455
62	0x3b111a5d	0.0022140958
63	0x3dca2eba	0.09872194
64	0x3af01b16	0.0018318619
65	0x3d69f339	0.05711672
66	0x3c2f34b1	0.010693715
67	0x3b0e89e2	0.0021749665
68	0x3d137610	0.036001265
69	0x3d0cb8a9	0.034355793
70	0x3b853620	0.00406529
71	0x3c204fe2	0.009784671
72	0x3b0e5def	0.002172347
73	0x3bbf6a9b	0.005841566
74	0x3b88022a	0.0041506486
75	0x3c2fb9a5	0.010725413
76	0x3d081d9e	0.03323137
77	0x3af80f1c	0.0018925401
78	0x3c9d185e	0.019176658
79	0x3c83c6d0	0.016086012
80	0x3b08d1aa	0.0020876923
81	0x3bc1f8ae	0.0059195375
82	0x3b198df3	0.0023430556
83	0x3abcb4ec	0.0014397181
84	0x3c1b2628	0.009469546
85	0x3ba09851	0.00490097
86	0x3dd06bd6	0.10176818
87	0x3b69caa1	0.0035673755
88	0x3cc20dc8	0.023688212
89	0x3b41e819	0.0029587804
90	0x3c17abf4	0.009257305
91	0x3a95fa89	0.0011442463
92	0x3cf8fbe1	0.030393543
93	0x3d6a2e90	0.05717331
94	0x3c33921c	0.010960128
95	0x3b7cece1	0.003859334
96	0x3b80e28d	0.003933257
97	0x3bdee00e	0.0068016117
98	0x3c014a8e	0.00789131
99	0x3da3f9f1	0.08006657
100	0x3ba66b3d	0.005078702
101	0x3c052198	0.008125685
102	0x3cba3007	0.02272798
103	0x3c3518e6	0.0110532995
104	0x3e305811	0.17221095
105	0x3b20707f	0.0024481115
106	0x3adab263	0.0016685243
107	0x3b6b4ba1	0.0035903233
108	0x3cd1ff20	0.025634348
109	0x3b7ffcc6	0.0039060577
110	0x3c22a7d7	0.009927711
111	0x3c0b27f7	0.008493415
112	0x3baa1d23	0.0051914616
113	0x3c191f9d	0.009345916
114	0x3ba91c68	0.005160857
115	0x3aaa3b06	0.0012987561
116	0x3ae48e67	0.0017437459
117	0x3c18ce21	0.009326489
118	0x3d06e2c8	0.03293112
119	0x3c99bfec	0.018768273
120	0x3c338eb0	0.010959312
121	0x3af77692	0.0018879941
122	0x3affbc08	0.0019510994
123	0x3d17cbd3	0.037059616
124	0x3c058c62	0.008151146
125	0x3db534f3	0.0884799
126	0x3bcf6562	0.0063292244
127	0x3b24e3f1	0.0025160278
128	0x3c4e1cd8	0.012580119
129	0x3ba40e2f	0.0050065736
130	0x3bd2a858	0.0064287595
131	0x3c9e89ac	0.019352756
132	0x3ac6cdae	0.0015167498
133	0x3cc1f5fb	0.023676863
134	0x3cd095b5	0.02546201
135	0x3c64a17c	0.0139545165
136	0x3c286144	0.010277096
137	0x3b64fa68	0.0034939293
138	0x3c444a00	0.011980534
139	0x3b0fa900	0.00219208
140	0x3cc2444e	0.02371421
141	0x3c2c19b7	0.010504178
142	0x3caa8d2e	0.020819273
143	0x3c7d930a	0.015476951
144	0x3bfcb39b	0.0077118403
145	0x3c080a27	0.008303202
146	0x3b0dff6f	0.0021667143
147	0x3d69cab4	0.05707808
148	0x3b48108e	0.0030527445
149	0x3c2a772d	0.01040439
150	0x3ba290d9	0.004961115
151	0x3b02f421	0.0019981938
152	0x3c097ba4	0.008391295
153	0x3ce0352e	0.027369108
154	0x3cea2370	0.028581351
155	0x3d51b715	0.05119999
156	0x3ad7cd95	0.0016464466
157	0x3d263182	0.040574558
158	0x3c03f522	0.00805405
159	0x3c15e61c	0.009149101
160	0x3c8d753c	0.017267816
161	0x3cc20ecc	0.023688696
162	0x3b877b3f	0.004134565
163	0x3acf1a1f	0.0015800631
164	0x3b22205e	0.002473853
165	0x3b03b5ff	0.0020097492
166	0x3bcf1fb9	0.0063209203
167	0x3d2acb2e	0.041697673
168	0x3bda87ef	0.0066690366
169	0x3b4c85a7	0.0031207593
170	0x3d865669	0.0655945
171	0x3b16c3e7	0.002300495
172	0x3b08c5ff	0.0020869968
173	0x3b993a95	0.004676173
174	0x3cb6158e	0.022227075
175	0x3d87d906	0.06633191
176	0x3d07b6ca	0.033133306
177	0x3ccd7239	0.02507888
178	0x3b4800b3	0.0030517995
179	0x3c3b4848	0.011430807
180	0x3d0f7336	0.035021983
181	0x3cd4301e	0.02590185
182	0x3c3b86d8	0.0114457235
183	0x3abe3778	0.0014512381
184	0x3ccca7a5	0.024982283
185	0x3b048e28	0.0020226333
186	0x3c3fef4a	0.011714766
187	0x3aec4710	0.0018026549
188	0x3b89f51b	0.004210127
189	0x3d02d565	0.03194179
190	0x3d0da293	0.03457887
191	0x3ba93fb1	0.0051650633
192	0x3c0df51f	0.008664398
193	0x3b113559	0.0022157042
194	0x3cc0d8d1	0.023540886
195	0x3b013a9c	0.0019718772
196	0x3c3070b6	0.01076906
197	0x3b0af4fc	0.002120315
198	0x3c2f77ae	0.010709686
199	0x3b35bffb	0.0027732837
200	0x3bbf308c	0.0058346447
201	0x3b59b527	0.0033219547
202	0x3c710c79	0.014712446
203	0x3b19ce00	0.0023468733
204	0x3bfe39e9	0.0077583683
205	0x3b8503b2	0.0040592784
206	0x3bb1bdf0	0.0054242536
207	0x3ae0272f	0.0017101521
208	0x3b498152	0.0030747247
209	0x3b9b0a55	0.0047314563
210	0x3b8282a4	0.0039828587
211	0x3beabcb5	0.007163609
212	0x3b4255b1	0.0029653127
213	0x3bd883b4	0.006607497
214	0x3e90cb69	0.2828019
215	0x3c572401	0.013131143
216	0x3bb5d3ac	0.005548915
217	0x3c9164be	0.017748233
218	0x3c31e209	0.010857114
219	0x3d94302b	0.0723575
220	0x3c22e5e1	0.009942503
221	0x3bb3709a	0.0054760696
222	0x3e350606	0.17678079
223	0x3c7a3540	0.015271485
224	0x3c41e1d9	0.011833631
225	0x3b3253ce	0.0027210596
226	0x3c208bbd	0.009798941
227	0x3ce2d25f	0.027688203
228	0x3c164b2b	0.009173195
229	0x3ad522f0	0.0016261023
230	0x3bfc3be4	0.007697569
231	0x3e0c1c5d	0.13682695
232	0x3c4cba5f	0.012495606
233	0x3adb98e1	0.0016753935
234	0x3cda4308	0.026643291
235	0x3ad7bf64	0.0016460237
236	0x3cd55396	0.026040833
237	0x3c7de1ff	0.015495776
238	0x3d1ffa0c	0.039056823
239	0x3c715f5b	0.014732207
240	0x3c00868c	0.0078445785
241	0x3b6c054e	0.0036013904
242	0x3b4488a3	0.0029988668
243	0x3bc5bbdd	0.006034358
244	0x3adb8422	0.0016747753
245	0x3b24df82	0.0025157635
246	0x3b477ea8	0.0030440483
247	0x3b89dc48	0.004207168
248	0x3c903e6d	0.017607892
249	0x3b5e1424	0.0033886516
250	0x3d34683f	0.04404473
251	0x3cba0b59	0.02271049
252	0x3c5021ac	0.0127033405
253	0x3b025fc1	0.00198935
254	0x3aa69eb7	0.0012712096
255	0x3cd7927b	0.026314965

exp_avg f4 [2]
0	0xbd7bde8f	-0.061491545
1	0x3d7bde95	0.061491568

exp_avg_sq f4 [2]
0	0x3cec7d63	0.028868383
1	0x3cec7d63	0.028868383
