TASK2/gender_classification_model/checkpoint_step_9800.pth (torch, 22979 bytes, 6 tensors)

weight f4 [2, 768]
0.026770812 0.007302229 0.019783327 0.014599292 -0.026183812 0.00014921646 -0.0075630713 -0.022695078
-0.030695308 -0.013801473 -0.04429021 -0.0056125303 -0.04964957 0.021576272 0.024384448 -0.010167518
0.0047423504 -0.019675609 -0.0010787084 -0.025752025 -0.0058033164 0.020662645 0.04411793 0.00873171
0.035964128 -0.012674389 0.016062519 0.003735949 0.05730797 0.00026862355 0.032079577 0.034215037
0.019058226 0.0024687399 -0.009136768 0.036870696 0.010672849 -0.0626155 0.019719439 -0.08795361
0.02572188 0.0016221479 -0.034549117 0.013628409 -0.022229284 -0.0052467245 0.032359958 0.046959735
0.039537735 -0.0240472 0.014054155 0.020076632 -0.0034763762 -0.03454579 -0.0073877345 -0.018893162
-0.0018430959 -0.005543937 -0.0018596763 0.020059314 0.009148662 0.0062870956 -0.04278512 -0.015061044
0.0028917436 -0.015789283 0.04387069 0.061004456 -0.03518746 0.030554514 0.0038657382 0.0014152838
-0.0014687639 -0.007867187 -0.027762646 -0.033099037 -0.006555867 0.014142667 -0.004343377 -0.014174865
0.024787182 -0.021763194 -0.06675943 0.0045552347 0.009180563 0.019528564 -0.017556492 -0.047108892
0.04038251 0.011498323 0.040617976 -0.040357076 0.035991576 0.01878612 0.0059557427 -0.033400305
-0.0032647843 0.048004147 -0.01298886 0.031133056 -0.010844712 0.010747989 0.048398554 -0.021862758
0.010712739 -0.0023812056 0.07157146 -0.05222436 -0.0046771364 0.060503077 -0.042664077 -0.016161477
0.012046324 -0.004957822 0.004942237 0.026620144 0.080950506 -0.011378608 -0.0152881825 0.020411404
0.06871015 0.062409762 -0.0041013197 -0.0062357658 0.004630205 0.007725411 -0.02845 -0.02566568
0.003159665 -0.019563332 -0.041418668 0.005729398 0.051633496 0.011465272 0.03687046 0.008204987
-0.02509473 -0.006003354 0.03993035 -0.0046329433 -0.038798913 -0.014037659 -0.0042053517 0.012051445
-0.027633537 0.0043058437 -0.0024298665 0.0010548795 -0.015989708 -0.026446963 0.028021753 -0.04150299
0.038424894 0.045715053 0.022801604 -0.010601969 -0.015394705 -0.03850577 -0.018248374 0.061718814
-0.0074441927 -0.015050894 -0.02590361 0.019197054 -0.0531047 0.07868066 -0.015114875 -0.03107303
-0.021580175 0.0117428 0.026399922 0.0142150875 -0.030169293 0.027432285 -0.0126978075 -0.02747711
0.02026617 0.032814313 0.0064298413 0.038311828 0.027180243 -0.022813682 0.0063186935 -0.0049696076
-0.02004046 0.07392737 -0.024744308 -0.04554323 -0.0059068287 0.0040006605 0.010764122 -0.004276809
-0.02469156 0.030372065 -0.037287686 -0.07906605 -0.06397917 -0.04818786 0.046387076 -0.03395418
-0.053233743 -0.0036234758 0.044366088 0.005623944 0.030024705 0.039681304 -0.0014869374 -0.022023892
0.05750924 0.0049303877 0.011964442 0.0048230407 -0.020527449 -0.037341107 -0.021055859 0.032690525
-0.021622142 -0.03586819 -0.019759879 0.02656832 -0.04273223 0.008164518 0.033678398 -0.029373996
0.005734068 -0.009252581 -0.0428462 0.015653832 -0.004514381 -0.006771646 -0.018196754 -0.009224956
0.020119632 0.041542497 0.007852102 0.07527569 -0.002636469 -0.039045982 -0.033366077 0.021680797
-0.026678637 -0.018509073 0.036149748 0.039301094 0.02941539 0.03833973 -0.0042054057 0.007686951
-0.0077485545 0.016540743 -0.0052917846 0.009340485 0.03815102 -0.01760343 0.0148995 0.035709243
00000000: 764e db3c 8947 ef3b a510 a23c de31 6f3c
00000010: 6f7f d6bc fd76 1c39 a4d3 f7bb 07eb b9bc
00000020: ba74 fbbc 931f 62bc a769 35bd 51e9 b7bb
00000030: 595d 4bbd b9c0 b03c e5c1 c73c a995 26bc
00000040: b865 9b3b be2e a1bc 7363 8dba e9f5 d2bc
00000050: bf29 bebb b544 a93c 01b5 343d 720f 0f3c
00000060: 1f4f 133d 3ea8 4fbc 8b95 833c d3d6 743b
00000070: c3bb 6a3d 0bd6 8c39 e065 033d 1125 0c3d
00000080: ff1f 9c3c 95ca 213b 62b2 15bc ba05 173d
00000090: 2cdd 2e3c 8e3c 80bd a98a a13c 0621 b4bd
000000a0: b1b6 d23c 409e d43a 6083 0dbd b149 5f3c
000000b0: 301a b6bc b7ec abbb e08b 043d da58 403d
000000c0: 52f2 213d a2fe c4bc 6643 663c c077 a43c
000000d0: ead3 63bb e37f 0dbd cf14 f2bb d5c5 9abc
000000e0: 0994 f1ba eaa9 b5bb 62c0 f3ba 6e53 a43c
000000f0: 45e4 153c fb03 ce3b 733f 2fbd 99c2 76bc
00000100: 6883 3d3b 8758 81bc c1b1 333d cfdf 793d
00000110: ba20 10bd 764d fa3c 5358 7d3b 0b81 b93a
00000120: 8a83 c0ba 60e5 00bc 7d6e e3bc db92 07bd
00000130: 99d2 d6bb a5b6 673c e352 8ebb b13d 68bc
00000140: 7d0e cb3c ba48 b2bc 2bb9 88bd 1444 953b
00000150: 126a 163c 5efa 9f3c a2d2 8fbc 41f5 40bd
00000160: 2168 253d 7663 3c3c 095f 263d 764d 25bd
00000170: e76b 133d 59e5 993c 6428 c33b c2ce 08bd
00000180: fef5 55bb ff9f 443d 3acf 54bc c00a ff3c
00000190: 05ae 31bc 5518 303c 903d 463d 8719 b3bc
000001a0: 7c84 2f3c 000e 1cbb 0f94 923d 36e9 55bd
000001b0: aa42 99bb 13d2 773d 87c0 2ebd 1365 84bc
000001c0: f25d 453c 3a75 a2bb 7df2 a13b 7d12 da3c
000001d0: 61c9 a53d 576d 3abc 497b 7abc d135 a73c
000001e0: e8b7 8c3d 61a1 7f3d 5d64 86bb 6555 ccbb
000001f0: fab8 973b 7225 fd3b f90f e9bc d540 d2bc
00000200: 6212 4f3b 4843 a0bc 9fa6 29bd adbd bb3b
00000210: a57d 533d d6d8 3b3c 7b05 173d 366e 063c
00000220: 7793 cdbc c9b7 c4bb 028e 233d f2cf 97bb
00000230: 9ceb 1ebd 36fe 65bc 0ccd 89bb 6d73 453c
00000240: ba5f e2bc 0918 8d3b 653e 1fbb e243 8a3a
00000250: d9fc 82bc 4da7 d8bc e08d e53c 0aff 29bd
00000260: 6c63 1d3d b53f 3b3d 6eca ba3c e2b3 2dbc
00000270: 133a 7cbc 3ab8 1dbd 9d7d 95bc decc 7c3d
00000280: 6aee f3bb 0698 76bc cf33 d4bc 2443 9d3c
00000290: 5084 59bd 5323 a13d 61a4 77bc de8c febc
000002a0: e8c8 b0bc df64 403c a644 d83c 66e6 683c
000002b0: 9825 f7bc acb9 e03c 770a 50bc ad17 e1bc
000002c0: 3d05 a63c 4d68 063d 6bb1 d23b ddec 1c3d
000002d0: 1aa9 de3c c2e3 babc 0b0d cf3b 17d8 a2bb
000002e0: e42b a4bc 3c67 973d 93b4 cabc 8a8b 3abd
000002f0: 128e c1bb f917 833b 005c 303c 7924 8cbb
00000300: f445 cabc d6ce f83c f9ba 18bd 62ed a1bd
00000310: 8307 83bd a260 45bd 6000 3e3d 8a13 0bbd
00000320: a00b 5abd d677 6dbb 37b9 353d 1049 b83b
00000330: 5ff6 f53c dd88 223d 57e5 c2ba 736b b4bc
00000340: cf8e 6b3d 178f a13b 8206 443c 990a 9e3b
00000350: 2e29 a8bc fdf2 18bd 567d acbc 80e6 053d
00000360: eb20 b1bc 86ea 12bd 78df a1bc cea5 d93c
00000370: fe07 2fbd 78c4 053c 5cf2 093d bca1 f0bc
00000380: d9e4 bb3b 2398 17bc 7f7f 2fbd 773c 803c
00000390: 5fed 93bb afe4 ddbb 5c11 95bc 4524 17bc
000003a0: edd1 a43c 7728 2a3d 1aa6 003c 242a 9a3d
000003b0: 9cc8 2cbb aeee 1fbd deaa 08bd ed9b b13c
000003c0: 288d dabc 57a0 97bc c211 143d 2ffa 203d
000003d0: 8bf8 f03c 1f0a 1d3d 80cd 89bb d2e2 fb3b
000003e0: 96e7 fdbb 7480 873c b566 adbb d508 193c
000003f0: 3e44 1c3d 1235 90bc 081d 743c db43 123d

bias f4 [2]
0.02433823 -0.004934163
00000000: f860 c73c c2ae a1bb

exp_avg f4 [2, 768]
-0.00027958458 -0.0011868477 -0.002957531 -0.011604255 -0.0070866835 -0.0038380346 0.019102685 0.01763976
-0.13545251 -0.019689348 -0.015496631 0.0020170754 -0.00869985 -0.0010310245 0.0066052494 -0.027274154
0.00017957533 0.03151703 0.0029027537 0.0066774376 -0.013513407 -0.0003673465 -0.020209515 0.00050265726
-0.02516281 0.0036120475 -0.0048892503 0.008348738 0.0024334188 0.012816848 -0.0017903915 -0.015019331
0.014988486 0.009201042 0.012955779 0.0051923147 0.0043305336 -0.005615788 -0.011051843 0.0033990887
-0.01479717 0.011356651 0.0045781643 -0.005304248 -0.022234777 -0.0055601117 0.0025083304 0.0062228357
-0.0040401667 0.0007099707 0.0057858517 -0.003815824 -0.011251998 -0.007837079 0.0066617364 -0.0019563327
-0.002153549 0.012226043 0.007835999 0.008006829 0.0065454976 -0.0034226954 -0.009813495 0.024588164
0.007949093 -0.03224143 0.00076799555 -0.020853568 -0.008295586 -0.008258009 0.008896228 0.01583166
0.019041955 -0.013842716 0.010992225 -0.013910268 -0.0027893272 0.0024186072 -0.013839421 0.018082086
-0.015941104 0.019850789 0.0018798619 -0.0025254334 0.010995684 0.007307699 -0.0038070213 -0.0006898465
0.007694577 0.030592436 0.0006405531 -0.004390693 -0.0080717625 0.0041528693 -0.010149548 -0.00942349
-0.014345923 0.019210627 0.0027029314 0.0075280014 -0.0057305573 -0.015298442 -0.011964347 -0.020491444
0.006779134 -0.00079351483 0.0033727242 0.008255622 8.571615e-05 -0.0034244366 -0.0036929413 0.012678079
-0.006548959 -0.0063433144 0.007248722 0.00924353 -0.0046284827 -0.012831164 -0.006499563 0.013773114
-0.011319423 0.002645936 0.005645163 0.021272918 -0.014577136 -0.004099191 -0.011473232 -0.008912716
0.0074305916 0.009665509 -0.0028657657 -0.0077737127 -0.0019359873 0.016395237 -0.004295091 0.009421658
-0.0002888055 -0.024100501 0.002027151 0.00090156053 -0.005354895 -0.0010282943 0.0020307715 0.0066964105
-0.0048522176 -0.001295009 -0.0016571664 -0.0045906664 0.0046588746 0.00764563 -0.012703265 -0.0014450451
0.021956787 -0.00904166 -0.0030219888 0.014910828 -0.01392961 0.001654971 0.006140103 0.001423593
-0.0021900097 -0.018130153 -0.0055950154 0.0116693685 -0.007189848 0.019571353 0.015926674 -0.00016725849
0.00024764266 0.010300084 -0.0009979849 -0.00954847 0.0010196298 -0.0035520229 0.012632098 0.02008144
0.0012673915 -0.018788196 -0.0024098062 -0.011963375 0.008228897 -0.0067989416 0.009291719 -0.0014429477
0.009746601 0.0030563688 -0.005148455 0.0062513165 0.0019678301 -0.010164586 -0.03495429 -0.0058712107
0.0113768075 -0.014596908 0.004458801 0.013487271 0.006655679 -0.003931385 0.0120929275 0.0018748054
-0.010221409 -0.0040151263 0.00994125 -0.0030367458 -0.019575663 0.009057183 0.0015162788 -0.022915967
0.0074091656 0.014847341 0.012017558 -0.026051415 -0.019863367 -0.008788609 -0.023550509 0.00050783466
0.022173101 -0.0021048407 -0.006294457 0.0021595913 0.021039082 0.008495356 -0.007855547 0.015230773
-0.025366854 -0.0019712097 0.006935232 0.0020196186 -0.010579427 -0.0076063243 0.010648607 -0.009749262
0.014342722 0.024360878 0.017801201 -0.0066250656 -0.00030349268 0.011609607 0.019199267 -0.0032186036
0.0101146605 0.018030081 -0.0028113618 0.012248158 -0.0072511802 -0.006865427 0.008023159 -0.014386164
-0.009801291 -0.01826089 0.035624817 0.0044159866 0.018433206 -0.00017255908 0.0140936 -0.0169576
00000000: 3595 92b9 0090 9bba 23d3 41bb c61f 3ebc
00000010: 6937 e8bb 8987 7bbb 3c7d 9c3c 4281 903c
00000020: 10b4 0abe 8e4b a1bc 95e5 7dbc e930 043b
00000030: d189 0ebc 7123 87ba d970 d83b 0c6e dfbc
00000040: 634c 3c39 0018 013d 203c 3e3b 68ce da3b
00000050: 5667 5dbc 6a98 c0b9 6d8e a5bc c2c4 033a
00000060: 3d22 cebc 1ab8 6c3b 0136 a0bb 25c9 083c
00000070: fe79 1f3b c2fd 513c 92ab eaba a413 76bc
00000080: 4492 753c f8bf 163c 7a44 543c 4b24 aa3b
00000090: 26e7 8d3b a504 b8bb ca12 35bc 3fc3 5e3b
000000a0: d46f 72bc 3f11 3a3c 6d04 963b 42cf adbb
000000b0: b525 b6bc 9931 b6bb cd62 243b eee8 cb3b
000000c0: 6063 84bb 541d 3a3a 3e97 bd3b e712 7abb
000000d0: 4d5a 38bc 1867 00bc b24a da3b d135 00bb
000000e0: 8f22 0dbb be4f 483c 9062 003c 132f 033c
000000f0: 9d7b d63b 4d4f 60bb c8c8 20bc 1e6d c93c
00000100: ea3c 023c 970f 04bd 4f53 493a 1ad5 aabc
00000110: 36ea 07bc 9a4c 07bc 7cc1 113c 66b1 813c
00000120: e0fd 9b3c 8fcc 62bc bc18 343c e5e7 63bc
00000130: 25cd 36bb 7f81 1e3b bdbe 62bc e220 943c
00000140: eb96 82bc 1f9e a23c b365 f63a be81 25bb
00000150: 3e27 343c 6c75 ef3b 387f 79bb d1d6 34ba
00000160: ca22 fc3b fd9c fa3c caea 273a cddf 8fbb
00000170: 6d3f 04bc cb14 883b 4a4a 26bc fb64 1abc
00000180: 2a0b 6bbc 9b5f 9d3c aa23 313b 74ad f63b
00000190: 66c7 bbbb 51a6 7abc 1c06 44bc acdd a7bc
000001a0: 7f23 de3b e103 50ba ec08 5d3b 9742 073c
000001b0: 82c2 b338 836c 60bb 4605 72bb b8b7 4f3c
000001c0: a698 d6bb 94db cfbb b086 ed3b 2d72 173c
000001d0: 87aa 97bb cd39 52bc 49fa d4bb a1a8 613c
000001e0: 1a75 39bc 7167 2d3b 0ffb b83b 8b44 ae3c
000001f0: f1d4 6ebc 8252 86bb 39fa 3bbc a406 12bc
00000200: 527c f33b 155c 1e3c 92cf 3bbb a1ba febb
00000210: f4c0 fdba 4e4f 863c d6bd 8cbb 4c5d 1a3c
00000220: d16a 97b9 6a6e c5bc f3d9 043b b456 6c3a
00000230: 1d78 afbb d5c7 86ba b116 053b 906d db3b
00000240: 5aff 9ebb 4bbd a9ba 4735 d9ba 4d6d 96bb
00000250: 79a9 983b 3188 fa3b 5b21 50bc ab67 bdba
00000260: b8de b33c 7923 14bc 8f0c 46bb 8c4c 743c
00000270: 0539 64bc 9deb d83a eb32 c93b db97 ba3a
00000280: 4486 0fbb b085 94bc 6456 b7bb e130 3f3c
00000290: d198 ebbb 1a54 a03c a878 823c 1c62 2fb9
000002a0: 09d6 8139 afc1 283c d1ce 82ba 3071 1cbc
000002b0: 19a5 853a 0ec9 68bb dcf6 4e3c d581 a43c
000002c0: 9a1e a63a b4e9 99bc d7ed 1dbb 0802 44bc
000002d0: 7fd2 063c a8c9 debb 4b3c 183c 4a21 bdba
000002e0: 35b0 1f3c 5c4d 483b 5fb4 a8bb d8d7 cc3b
000002f0: b6f6 003b 5d89 26bc 3b2c 0fbd 4963 c0bb
00000300: ca65 3a3c df27 6fbc 221b 923b b7f9 5c3c
00000310: e217 da3b d9d2 80bb 6a21 463c 08bc f53a
00000320: b277 27bc 5291 83bb a0e0 223c 2404 47bb
00000330: 245d a0bc 9464 143c e0bd c63a 44ba bbbc
00000340: 96c8 f23b 4342 733c 4be5 443c c769 d5bc
00000350: 80b8 a2bc 19fe 0fbc ffec c0bc 3520 053a
00000360: 5da4 b53c 5ef1 09bb bb41 cebb ee87 0d3b
00000370: 275a ac3c 1b30 0b3c 8db4 00bc 7e8a 793c
00000380: 26ce cfbc 692f 01bb f140 e33b 945b 043b
00000390: 5555 2dbc 793e f9bb 7f77 2e3c 5ebb 1fbc
000003a0: bcfd 6a3c 7790 c73c d3d3 913c 1417 d9bb
000003b0: 191e 9fb9 3936 3e3c c847 9d3c 35ef 52bb
000003c0: f6b7 253c d2b3 933c d33e 38bb 80ac 483c
000003d0: 4f9b edbb 60f7 e0bb 9173 033c f2b3 6bbc
000003e0: 9895 20bc dd97 95bc 54eb 113d fbb3 903b
000003f0: 3c01 973c faf0 34b9 d8e8 663c aaea 8abc

exp_avg_sq f4 [2, 768]
0.004530914 0.001833008 0.0025611867 0.02464655 0.03078532 0.0013712815 0.08251785 0.010801733
12.356841 0.07364954 0.0020259253 0.020119846 0.008502228 0.054568376 0.015571055 0.0045365244
0.0015172347 0.008251609 0.005778861 0.012601541 0.010479013 0.011676079 0.008011269 0.01646801
0.06313539 0.0050693215 0.0017801942 0.02976568 0.0018218992 0.0022231645 0.061154645 0.0112348525
0.009876673 0.04977175 0.00865938 0.021563802 0.039484065 0.0013108759 1.1168928 0.0016224046
0.0067623537 0.006197608 0.0017366122 0.4297626 0.054979403 0.0028245973 0.02948738 0.011160326
0.0015786315 0.015096762 0.009189905 0.012926844 0.008494606 0.0016229964 0.0195555 0.0055210465
0.0042550857 0.016123058 0.018375752 0.008343429 0.018509764 0.02290648 0.0023019642 0.100385144
0.0018430842 0.05788761 0.011132194 0.002054039 0.03671435 0.034505345 0.0039950036 0.010222889
0.0022716545 0.0059263255 0.00427687 0.011008575 0.03402669 0.0018549057 0.019342974 0.01599709
0.0020676462 0.005827203 0.0024353366 0.0014431314 0.009711868 0.004825791 0.10344054 0.0035560657
0.024237158 0.0027696395 0.009751981 0.0011023697 0.03144558 0.05798547 0.010951316 0.0039215214
0.003977301 0.0069313017 0.00794471 0.082126625 0.00539555 0.008140887 0.02325591 0.011577408
0.17302258 0.0025235834 0.0016459977 0.0035591042 0.02593049 0.003875801 0.009877463 0.008690827
0.005262819 0.009100478 0.005159893 0.0012480753 0.0018330698 0.009791302 0.034062814 0.01930048
0.011102594 0.0018880175 0.0019326044 0.03766702 0.008461242 0.089940466 0.006109711 0.0024860126
0.012469734 0.0049505145 0.0062646656 0.019214984 0.0016085423 0.023731576 0.026050678 0.01432564
0.010267269 0.0035367343 0.012398929 0.002332797 0.024180971 0.010606719 0.021055901 0.015403217
0.007768779 0.00831845 0.0022283217 0.057631407 0.0032277978 0.010764275 0.0051221508 0.0019875949
0.00864353 0.027550323 0.029278623 0.051916968 0.0016740978 0.041133173 0.008364387 0.009607899
0.017284 0.024553582 0.003950721 0.0014110737 0.0024059715 0.0020520894 0.00650308 0.04154366
0.006550769 0.0030639034 0.065957285 0.0022965432 0.0020698456 0.004753429 0.022497011 0.06792178
0.033866633 0.025611073 0.0032991548 0.012223736 0.035922546 0.026306622 0.011706808 0.0014318202
0.024871148 0.0020517097 0.012325392 0.0017146849 0.004244497 0.032009196 0.03501207 0.0053302073
0.008869032 0.0022483259 0.023994375 0.0020298262 0.011322137 0.0021776229 0.011015918 0.0027605006
0.0057348786 0.0034273865 0.015021314 0.0022028487 0.007892004 0.0040989043 0.005188989 0.0017442934
0.0031057955 0.004427934 0.004009686 0.007144366 0.003088884 0.006673243 0.28986144 0.013347757
0.005578306 0.017684566 0.010940803 0.072943605 0.009343544 0.005363427 0.17976892 0.01534077
0.012102355 0.0027579467 0.009902206 0.028134951 0.00912491 0.0016737959 0.0077498876 0.14034837
0.012718303 0.0017210456 0.026884008 0.0015521925 0.026060298 0.015664123 0.039718173 0.01469297
0.008110768 0.0038418937 0.0030880661 0.006043097 0.0016968503 0.0025785284 0.0030814428 0.003953776
0.01781308 0.0033739442 0.044862125 0.02324708 0.012586273 0.0018627839 0.0013045637 0.026859604
00000000: 1078 943b 8b41 f03a 95d9 273b 90e7 c93c
00000010: 7f31 fc3c 92bc b33a 1eff a83d c0f9 303c
00000020: 9fb5 4541 92d5 963d 63c5 043b 60d2 a43c
00000030: ee4c 0b3c 1783 5f3d bd1d 7f3c 20a7 943b
00000040: f3dd c63a c231 073c 9a5c bd3b b276 4e3c
00000050: 2bb0 2b3c 064d 3f3c b341 033c ece7 863c
00000060: 214d 813d 8d1c a63b 6855 e93a 28d7 f33c
00000070: cbcc ee3a 83b2 113b 4b7d 7a3d 6312 383c
00000080: c5d1 213c 76dd 4b3d 12e0 0d3c 92a6 b03c
00000090: 0bba 213d b2d1 ab3a 58f6 8e3f dda6 d43a
000000a0: bc96 dd3b 4e15 cb3b 099f e33a d809 dc3e
000000b0: 1532 613d e11c 393b 858f f13c cdd9 363c
000000c0: 15ea ce3a 6958 773c 4191 163c 1dcb 533c
000000d0: f62c 0b3c b9ba d43a db32 a03c e5e9 b43b
000000e0: 3f6e 8b3b 8114 843c bf88 963c e1b2 083c
000000f0: caa1 973c 5fa6 bb3c 8ddc 163b ba96 cd3d
00000100: a593 f13a 8f1b 6d3d ce63 363c 0e9d 063b
00000110: c961 163d 7a55 0d3d 85e8 823b e77d 273c
00000120: 0ae0 143b 9f31 c23b fc24 8c3b 4f5d 343c
00000130: 925f 0b3d 4f20 f33a 2875 9e3c 540c 833c
00000140: 5981 073b 1ff2 be3b 2b9a 1f3b 7427 bd3a
00000150: 871e 1f3c ab21 9e3b a2d8 d33d e20c 693b
00000160: 018d c63c d782 353b c6c6 1f3c 647d 903a
00000170: 15cd 003d 2c82 6d3d 266d 333c 1b80 803b
00000180: 0554 823b f91f e33b 872a 023c 0132 a83d
00000190: 27cd b03b 5b61 053c 2e83 be3c 2baf 3d3c
000001a0: d52c 313e b462 253b 85be d73a dc3f 693b
000001b0: 2e6c d43c 2701 7e3b 15d5 213c f863 0e3c
000001c0: ba73 ac3b 2c1a 153c 5214 a93b 7596 a33a
000001d0: 9e43 f03a b26b 203c 7385 0b3d 0a1c 9e3c
000001e0: a8e7 353c 5b77 f73a 714f fd3a bc48 1a3d
000001f0: 05a1 0a3c b532 b83d f833 c83b 5fec 223b
00000200: db4d 4c3c ed37 a23b d347 cd3b be68 9d3c
00000210: b9d5 d23a b968 c23c 3b68 d53c 17b6 6a3c
00000220: 0c38 283c 8ec8 673b e124 4b3c d7e1 183b
00000230: 2c17 c63c cec7 2d3c 6d7d ac3c c65d 7c3c
00000240: 3e91 fe3b 1c4a 083c 0909 123b e90e 6c3d
00000250: 7689 533b a45c 303c b7d7 a73b 4f42 023b
00000260: 989d 0d3c 37b1 e13c b9d9 ef3c e3a6 543d
00000270: 676d db3a 427b 283d c80a 093c 736a 1d3c
00000280: 2d97 8d3c 9824 c93c 0d75 813b c7f3 b83a
00000290: 81ad 1d3b 597c 063b ca17 d53b af29 2a3d
000002a0: d5a7 d63b c5cb 483b 9d14 873d 9a81 163b
000002b0: 3fa6 073b a7c2 9b3b a74b b83c 931a 8b3d
000002c0: bdb7 0a3d 50ce d13c a236 583b 1146 483c
000002d0: 8523 133d fc80 d73c e9cd 3f3c eaab bb3a
000002e0: 94be cb3c fa75 063b 71f0 493c 47bf e03a
000002f0: 6c15 8b3b 131c 033d d168 0f3d 05a9 ae3b
00000300: 6b4f 113c a658 133b da8f c43c d506 053b
00000310: 7c80 393c 73b6 0e3b 1c7c 343c 84e9 343b
00000320: a6eb bb3b 019e 603b f51b 763c ab5d 103b
00000330: 774d 013c 1a50 863b 6508 aa3b c6a0 e43a
00000340: 9a8a 4b3b 3418 913b af63 833b 491b ea3b
00000350: e06e 4a3b 38ab da3b b868 943e 8db0 5a3c
00000360: 39ca b63b 39df 903c 0e41 333c 7563 953d
00000370: aa15 193c b0bf af3b 5815 383e da57 7b3c
00000380: f548 463c abbe 343b dd3c 223c 457b e63c
00000390: a680 153c 4563 db3a c5f2 fd3b 7cb7 0f3e
000003a0: 6e60 503c b594 e13a da3b dc3c f072 cb3a
000003b0: 687c d53c 0c52 803c 86af 223d c8ba 703c
000003c0: 07e3 043c 48c8 7b3b 2761 4a3b 2c05 c63b
000003d0: d968 de3a 87fc 283b 08f2 493b ad8e 813b
000003e0: bdec 913c 641d 5d3b 59c1 373d a970 be3c
000003f0: a836 4e3c a828 f43a e5fd aa3a ac08 dc3c

exp_avg f4 [2]
0.006372707 -0.0063726953
00000000: 24d2 d03b 0bd2 d0bb

exp_avg_sq f4 [2]
0.029456573 0.029456573
00000000: e94e f13c e94e f13c
