TASK2/gender_classification_model/checkpoint_step_7600.pth (torch, 22979 bytes, 6 tensors)

weight f4 [2, 768]
000000 77 a9 f0 3c 5f 93 e3 3b 92 83 65 3c b8 b5 44 3c
       0.029377682 0.0069450582 0.01400842 0.012006216
000010 a2 2d d9 bc a0 4f 2e bb 42 05 e5 bb 2a f1 86 bc
       -0.026511017 -0.0026597753 -0.006989152 -0.016472418
000020 db f3 f9 bc f0 07 4c bc f8 31 2b bd 58 bd 44 bb
       -0.030511787 -0.012453064 -0.0417957 -0.0030020084
000030 fc 4e 40 bd 2c da a3 3c 04 ff c7 3c 8c 42 27 bc
       -0.046950325 0.020001493 0.024413593 -0.010208737
000040 41 a5 31 3c c8 29 b2 bc 5a 46 08 bb 3c cc ba bc
       0.010842622 -0.021748438 -0.0020793886 -0.022802465
000050 c8 8f 81 bb 84 78 ab 3c c1 23 30 3d ad 95 66 3c
       -0.0039539076 0.02093149 0.043002848 0.014073771
000060 f8 82 0d 3d 7e e9 4f bc cb 0c f2 3b 80 31 f2 3a
       0.03454873 -0.012689946 0.007386779 0.0018477887
000070 bd 45 40 3d 04 77 56 3b 81 d9 07 3d 63 b4 0c 3d
       0.046941508 0.0032724747 0.033166412 0.034351718
000080 4c 3e bd 3c d7 ce 6e 3b 3c 90 00 bc 93 8d 0d 3d
       0.023100995 0.0036439204 -0.007846888 0.034558844
000090 a7 b5 2c 3c 84 12 84 bd 82 c2 a1 3c 2f 0a 9d bd
       0.010541356 -0.06448844 0.019746069 -0.07667958
0000a0 86 d8 b5 3c bb 91 64 ba 82 2f 04 bd f9 c6 72 3c
       0.022197973 -0.00087192253 -0.03227187 0.014817947
0000b0 6b 64 b7 bc 38 aa bb bb bf 51 fd 3c bf bc 2f 3d
       -0.02238675 -0.0057270788 0.030922769 0.04290461
0000c0 ea e1 13 3d c1 c5 b0 bc 4f 6d 9a 3c 45 ab 94 3c
       0.03610412 -0.021578671 0.01885095 0.018148074
0000d0 a6 de a9 bb 20 cd 08 bd 34 a8 05 bc 9b 3e a3 bc
       -0.0051840125 -0.033398747 -0.0081577785 -0.019927314
0000e0 dc 95 20 39 3c 8a 5e bb 98 e1 1d bb 2c f8 82 3c
       0.00015314616 -0.0033956906 -0.0024090763 0.015987478
0000f0 06 21 2e 3c 4c cb 0a 3c 28 7f 18 bd 93 73 67 bc
       0.010627991 0.008471321 -0.03723064 -0.014126676
000100 9d 1d de 3b 31 f8 8b bc a9 73 2c 3d 5f d4 56 3d
       0.0067784325 -0.01708612 0.04210249 0.052448627
000110 b3 8e 0d bd 0a 31 fc 3c 71 69 c5 3b 7e 93 1c bb
       -0.034559917 0.030785102 0.0060245325 -0.0023891623
000120 cc ee f7 3a 72 b1 ce bb e2 4d d8 bc e4 6a 00 bd
       0.0018915772 -0.006307774 -0.026404325 -0.03135194
000130 9e ea b5 bb a6 90 f8 3b 92 e8 75 bb 18 a8 33 bc
       -0.00555165 0.007585603 -0.0037522656 -0.01096537
000140 2a 3b 81 3c 43 57 8a bc c6 14 6c bd 46 0c df 3b
       0.015775282 -0.016887313 -0.057637 0.006806883
000150 c7 f1 14 3c 55 62 92 3c 5b cc 85 bc f1 35 33 bd
       0.009090847 0.017869154 -0.016332796 -0.043752614
000160 d3 2a 10 3d 72 58 43 3c 0b 3a 13 3d 9d 3e e6 bc
       0.03519709 0.0119229425 0.035944026 -0.028106028
000170 02 c2 0c 3d 8a 1b 95 3c de 32 ad 3b 42 ad ea bc
       0.034364708 0.018201608 0.005285605 -0.028647069
000180 2e 04 04 bb 0b ba 44 3d cf 3d 5b bc 9a ac f1 3c
       -0.0020144093 0.048028987 -0.013381436 0.029501248
000190 8a d2 d5 bb 49 08 f7 3b a3 97 37 3d 1b e1 b2 bc
       -0.0065253424 0.0075388295 0.044822346 -0.021835854
0001a0 31 7b 38 3c 9a b3 2e bb 1f 2d 84 3d 31 c8 4a bd
       0.01125984 -0.0026657344 0.06453919 -0.049507324
0001b0 f5 fc ff ba fc 3d 57 3d 74 2b 2a bd 1b ae 8a bc
       -0.0019530343 0.052549347 -0.041545346 -0.016928723
0001c0 c9 f0 0b 3c 21 90 56 bb 76 69 0c 3a 37 78 e7 3c
       0.008541294 -0.0032739716 0.0005356291 0.028255565
0001d0 e0 c9 9d 3d 9b 57 df bb 4b 3f 8b bc 58 c0 d5 3c
       0.0770452 -0.0068158633 -0.016997954 0.026092693
0001e0 d4 7b 7c 3d 8b 04 6f 3d d7 29 2b bb 37 73 0d bc
       0.06164153 0.058353942 -0.0026117468 -0.008633426
0001f0 ee 5d d5 3a 19 dd 15 3c 17 f0 c2 bc ab 09 d8 bc
       0.0016278604 0.009146952 -0.023796124 -0.026371798
000200 f8 83 66 3b b3 45 81 bc 4d cb 1d bd 3b a7 bb 3b
       0.0035173874 -0.015780305 -0.03852396 0.0057267225
000210 19 0e 4e 3d 31 45 3e 3c b1 f6 12 3d 1c 42 d0 3b
       0.050306413 0.011613176 0.035879795 0.006355537
000220 3f b8 c2 bc e2 bc 3d bc 7c 91 19 3d 72 c7 a6 39
       -0.023769496 -0.011580678 0.03749226 0.00031810586
000230 16 61 13 bd 27 af 63 bc 4f e1 37 39 32 cb 53 3c
       -0.03598126 -0.01389674 0.00017536174 0.0129268635
000240 a3 23 d3 bc 38 7f cc 3b 60 e8 e9 b9 c0 fa 1b 3a
       -0.025773829 0.0062407516 -0.00044614356 0.00059501454
000250 d4 60 a6 bc 4d d3 f3 bc f2 8d c0 3c 04 ca 2b bd
       -0.020309843 -0.029763842 0.023505185 -0.041940704
000260 e5 9e 0e 3d f7 0d 32 3d 60 70 a5 3c fc 13 3e bc
       0.034819502 0.04347035 0.020195186 -0.011601444
000270 36 bd 48 bc 39 11 16 bd 71 14 b1 bc 22 51 71 3d
       -0.012252143 -0.03663752 -0.021616193 0.058915265
000280 7e 29 13 bc ca f0 75 bc 8b 35 df bc 02 75 a8 3c
       -0.0089820605 -0.015011022 -0.027247211 0.020563606
000290 67 5a 69 bd 9a 86 9d 3d 40 56 13 bc ec 19 03 bd
       -0.05697098 0.07691689 -0.008992732 -0.032007143
0002a0 65 a3 70 bc b2 4a 82 3c 94 fb d3 3c f0 db 26 3c
       -0.014687394 0.015904758 0.025876798 0.010184273
0002b0 96 91 e5 bc 84 24 d0 3c 8e 1b 75 bc b7 a7 e2 bc
       -0.028023522 0.025408037 -0.014960183 -0.027667863
0002c0 47 0b 94 3c 47 44 04 3d 0d 4c dc 3a 81 8d 12 3d
       0.018071784 0.032291677 0.0016807333 0.03577948
0002d0 37 f7 c3 3c 37 fe b5 bc ac 6a f2 3b e3 17 9b bb
       0.023921592 -0.022215946 0.00739797 -0.004733072
0002e0 52 8e 90 bc c3 03 95 3d 8b 84 cf bc c7 50 15 bd
       -0.017645989 0.07276108 -0.025331756 -0.03645399
0002f0 54 eb b9 bb 9d 43 96 3b 45 cb 0f 3c 9a 7b 5a bb
       -0.0056738053 0.004585697 0.008776491 -0.0033337832
000300 a6 8f b0 bc 13 4e e5 3c e0 54 0c bd e1 28 8a bd
       -0.021552872 0.02799133 -0.03426063 -0.06746078
000310 a9 f7 72 bd 94 7b 24 bd c1 82 34 3d 9d 67 0b bd
       -0.05931822 -0.040156916 0.04407001 -0.03403436
000320 56 23 46 bd 7a 9a 1a ba 32 e7 32 3d ca 28 38 ba
       -0.048373543 -0.00058976526 0.043677516 -0.0007025121
000330 05 dc e8 3c 7d 4b 07 3d 2c 60 2f bb e0 61 9b bc
       0.028425226 0.033030976 -0.0026760204 -0.018967569
000340 69 39 5e 3d 39 51 90 3b 87 aa 19 3c b9 a5 00 3c
       0.05425397 0.0044042137 0.009379036 0.007852011
000350 63 00 7e bc df 4d 16 bd 5d 89 a1 bc ae da e4 3c
       -0.015503022 -0.036695357 -0.01971882 0.027936306
000360 99 ed a3 bc 89 0d 17 bd cd 0f b9 bc 1e c9 e6 3c
       -0.020010756 -0.036878143 -0.022590542 0.028172072
000370 f7 4c 13 bd c1 62 48 3c 1d 7d 09 3d db 28 d3 bc
       -0.03596207 0.012230576 0.033566583 -0.025776317
000380 0c 81 3d 3b e2 84 24 bc fa 72 26 bd 2b d9 84 3c
       0.002891603 -0.010041447 -0.040636994 0.016216835
000390 ba b5 c8 bb 1d 96 13 bb 52 64 a9 bc 03 5a 0f bc
       -0.006125179 -0.0022519894 -0.02067772 -0.008749488
0003a0 24 02 a7 3c 4a 79 17 3d 47 45 10 3c 78 a2 8c 3d
       0.020386763 0.036980905 0.0088055795 0.06866926
0003b0 1c 30 60 bb 3f e4 19 bd 76 47 ec bc 9e 34 92 3c
       -0.0034208363 -0.037571188 -0.028842669 0.017847355
0003c0 78 17 ca bc 03 4e 80 bc c1 98 0d 3d 07 c2 1c 3d
       -0.024669394 -0.015662199 0.034569506 0.038270976
0003d0 6f 69 ef 3c 8f 6d 16 3d 97 a7 d9 bb 3c 8e e6 3b
       0.02922508 0.036725577 -0.0066422927 0.0070359986
0003e0 9e 23 10 bc df bc 8d 3c e0 90 b9 ba db e1 25 3c
       -0.008797554 0.017301975 -0.0014157556 0.010124649
0003f0 d2 3d 16 3d bf 07 8a bc 18 05 84 3c 6a bf 04 3d
       0.03668005 -0.016849397 0.01611571 0.03240911

bias f4 [2]
000000 ac c7 c5 3c e9 e3 99 bb
       0.024143063 -0.0046963585

exp_avg f4 [2, 768]
000000 5c c8 82 ba 9c bb b5 bb 28 c1 01 bc 07 44 e4 3b
       -0.0009977925 -0.0055460464 -0.007919587 0.0069661173
000010 1f 9c 8f 3c f0 de 73 3b 80 5e aa bb dd 6b 15 3b
       0.017530499 0.0037211739 -0.0051992536 0.0022799887
000020 13 c4 d1 3d 2e bb 60 3c cd c3 ac 3a 44 fc 68 3c
       0.10242476 0.013716502 0.0013180912 0.014220301
000030 99 88 3a b9 6b 60 3c bc fb 18 05 bc 06 5d e6 b9
       -0.00017789229 -0.011497597 -0.008123632 -0.00043938326
000040 68 45 33 bc c4 76 49 bc 6e 8d f6 ba fb bb 6b bc
       -0.010941841 -0.012296382 -0.001881046 -0.01438808
000050 78 24 10 ba 37 f7 28 bc 41 0a 68 3c eb 6d 45 bc
       -0.00054985983 -0.010312847 0.014162601 -0.012050132
000060 d4 f4 49 bc b2 eb 2d 3c 90 03 0e 3c 33 22 b2 3a
       -0.012326438 0.010615276 0.008667842 0.0013590514
000070 b9 1a dd 3b 3c 96 57 3c 0b eb 18 3c dd 8b fe 39
       0.0067475704 0.013158377 0.009333382 0.00048550862
000080 69 d1 90 3c ca 4c 09 3b 72 7e 06 3b e8 bb 36 bc
       0.01767798 0.002095031 0.0020522145 -0.011153199
000090 e0 0b b1 bb 30 38 88 3b b1 d1 c8 3c e7 46 1f 3c
       -0.005403027 0.0041570887 0.024514051 0.009721494
0000a0 24 40 91 3b 5c 80 30 3c ff 97 9c bb 5b d2 56 bb
       0.004432695 0.010772791 -0.0047788615 -0.003277919
0000b0 31 b0 96 3b 0d ea 0a bc 5f e2 52 bc c8 2b 27 3a
       0.0045986404 -0.008478654 -0.012871354 0.00063770683
0000c0 54 8f d9 bb 11 b5 64 3b e9 c2 d6 3b 73 87 49 3a
       -0.0066394005 0.0034897963 0.006553997 0.0007687725
0000d0 89 f1 0f 3c 32 88 0e 3c 67 22 b3 3b 11 6b ac 3c
       0.008785614 0.008699464 0.0054667476 0.021047147
0000e0 d0 06 21 3c b1 3e 4e bc c1 fb b0 3a ad 11 5c bc
       0.009828284 -0.012588189 0.0013502763 -0.013431949
0000f0 c8 52 07 bb 45 73 91 3b 69 37 33 3c bd d1 66 bc
       -0.0020648707 0.00443879 0.010938504 -0.014088091
000100 e1 92 31 3a 92 bf b1 38 60 e6 b4 ba 3c 8b be 3b
       0.0006773901 8.4757005e-05 -0.0013801567 0.005814938
000110 17 5e 42 3c 27 c9 80 3c 13 8f 00 bc 44 a6 13 3c
       0.011863253 0.015720917 -0.007846612 0.009011809
000120 60 60 fc 3b c4 d9 62 3c 64 81 12 bc b1 f4 9c 3a
       0.0077019185 0.013845865 -0.008941982 0.0011974779
000130 60 77 33 3b 96 1c 63 3c a2 72 cf 3a 04 52 b1 b7
       0.0027384385 0.013861796 0.001582701 -2.1138236e-05
000140 b1 90 95 bb 22 3c 1e bc 1d 30 c8 bb d3 3b 04 3c
       -0.0045643677 -0.0096578915 -0.006109251 0.008070904
000150 f4 1f 92 bb 08 71 b0 bc 16 86 66 3b ca d5 6a b9
       -0.0044593755 -0.021538273 0.0035175136 -0.00022395622
000160 68 f9 6a bc d4 a9 af 3a d2 45 a8 ba 58 7b d9 3a
       -0.01434169 0.0013402053 -0.0012838191 0.0016592545
000170 1d 55 a2 3a a5 4b 72 ba 21 b8 e2 3b aa 24 1f bc
       0.0012384985 -0.00092428393 0.0069189225 -0.009713331
000180 e7 26 90 bc ba 70 0f ba df 5f bb 3b c7 b2 9f bc
       -0.017596675 -0.00054718147 0.005718216 -0.019494427
000190 5b b0 91 3b ac 32 a0 ba 72 3e 3d 3c 5f 0a 60 3c
       0.004446072 -0.0012222133 0.011550533 0.013674348
0001a0 3f f2 e4 36 c6 40 31 3c 7c 89 ae 3a b7 32 da b9
       6.8231307e-06 0.010818666 0.001331612 -0.00041617986
0001b0 93 58 86 bc 3d d5 b6 bb 90 50 33 bb 0a c3 46 bb
       -0.016399657 -0.005579619 -0.0027361251 -0.0030328655
0001c0 28 2f cb 3b d7 35 36 3b 21 26 56 ba 97 22 c1 bb
       0.00620069 0.0027803087 -0.0008169134 -0.005894016
0001d0 f4 f5 81 bc 1c 99 99 3c 18 a5 18 3c eb a7 cb 3c
       -0.01586435 0.018749766 0.009316705 0.024860343
0001e0 cc 69 c7 bb 5a 79 0a 3a c7 3e 37 bc 94 0c 51 bc
       -0.00608561 0.0005282365 -0.011184401 -0.0127593465
0001f0 f4 51 26 3b cf 44 9e ba ba 3d bc 39 af b2 9d 3c
       0.0025378438 -0.001207495 0.00035904144 0.019250242
000200 b5 f0 50 3c f5 4d 43 bb 53 a2 7a 3b 51 b3 7f 3b
       0.0127527015 -0.0029801105 0.0038243725 0.0039016793
000210 ca a2 18 bc df c6 50 bc 23 36 93 39 3d d0 72 bb
       -0.009316156 -0.012742727 0.0002807836 -0.003705039
000220 a1 b3 7e bc 59 a9 b0 3b 48 2a ad 3b 59 ec c4 b8
       -0.015545757 0.0053912816 0.0052845813 -9.3900315e-05
000230 4e d5 ba 3b ef 2b f7 ba 2b 38 03 3c 15 b9 9f 3b
       0.0057016974 -0.0018857698 0.008008997 0.0048743584
000240 80 6e 15 3b 30 79 95 bb 56 f6 e3 ba 85 29 89 3c
       0.0022801459 -0.004561566 -0.0017392139 0.01674343
000250 0c 60 02 3c a1 9f 08 bb ef 79 3f bb 7c eb 74 3c
       0.00795747 -0.00208471 -0.0029216965 0.014948722
000260 6a ea b5 bc 5a 74 1a 3c 74 84 58 39 ed 1c 02 38
       -0.022206504 0.009427154 0.00020648708 3.1021355e-05
000270 2c 7d 7c 3c c2 43 3b bc c1 49 9c bb 82 df 2e 3c
       0.015410703 -0.011429729 -0.0047695343 0.010673406
000280 40 28 ec 3b 44 d1 b9 3b fd 55 1d bb 96 38 80 bb
       0.0072069466 0.0056706984 -0.0024007552 -0.0039129956
000290 11 6c bd ba d8 40 13 bc 46 ea 4b bc 8b 56 40 ba
       -0.0014451762 -0.008987628 -0.012445992 -0.00073371147
0002a0 00 6c 7b 3c 41 07 a7 bb 5f 40 e5 3b b1 a6 31 3c
       0.015345573 -0.0050973003 0.006996199 0.010842965
0002b0 42 6f 6e 3b 40 c2 04 bc 83 04 83 bc 84 14 12 bc
       0.0036382233 -0.008102953 -0.015993362 -0.008916024
0002c0 ec c1 c4 3b 9e 07 ad ba ab 5d 43 bc f0 99 5b bb
       0.0060045626 -0.0013201123 -0.011924188 -0.0033508502
0002d0 4a 52 9f bc f9 c2 b0 39 c7 3f a6 3b 2f fb b9 39
       -0.019448418 0.00033714602 0.005073521 0.00035473096
0002e0 38 73 1e 3c a2 57 c0 bc 46 11 4b 3c d9 e2 51 bc
       0.009671025 -0.023479287 0.012394255 -0.012810432
0002f0 d8 93 c2 ba d5 e2 c2 3c b4 d8 45 ba a7 1c a8 ba
       -0.0014845086 0.023789803 -0.0007547245 -0.0012825922
000300 09 48 49 3b 19 88 b3 3a cf 44 a7 3c 51 81 52 3b
       0.0030713102 0.0013697176 0.020418553 0.0032120536
000310 f7 12 02 3c d3 82 9d 3b 28 b5 dc b7 e5 82 37 3b
       0.007939092 0.004806855 -2.6310401e-05 0.0028001603
000320 4f 90 4c 3b 27 7d a0 3b 4c a1 0c bc 68 5e 36 3c
       0.0031213944 0.004897732 -0.008583378 0.011130907
000330 9e 7f 48 3c 79 ce 6e bb 2e ba a0 bc d1 15 96 bb
       0.012237458 -0.0036438985 -0.019620027 -0.0045802374
000340 84 d7 f2 3b c4 b5 74 bc 8d c7 51 3c 6a eb 94 3c
       0.0074109454 -0.014935914 0.012803924 0.01817866
000350 a7 4c e0 ba aa 41 84 3c db 82 a0 3c 1c 61 c9 bb
       -0.0017112688 0.016144592 0.019593647 -0.0061456095
000360 09 df df bb 01 cd 8a bb 69 1a 69 3c e1 36 e6 bb
       -0.006832008 -0.004235864 0.014227488 -0.007025585
000370 e9 b7 28 3c db 02 c9 3b 37 55 0f 3d 04 03 24 bb
       0.010297754 0.0061343736 0.034993377 -0.0025026212
000380 be ae ab 3b bc c1 93 ba 1d e7 81 bc b0 43 7c 3a
       0.0052393368 -0.0011272947 -0.015857274 0.00096231233
000390 ce 7e 96 3a d5 72 05 bc 6e 96 a7 bc 57 7b 08 3c
       0.0011481883 -0.008145054 -0.020457473 0.008330188
0003a0 ca be 0b 3b 13 b0 c0 3b 41 6a 7f b9 d9 eb 4a bb
       0.0021323436 0.0058803647 -0.00024358278 -0.003096333
0003b0 48 c2 a7 bb 82 96 d8 bb 79 bc 0b 3c 37 1f 9b 3b
       -0.0051195957 -0.006609739 0.008528822 0.0047339457
0003c0 73 32 0f 3c 13 88 bc bc c7 15 1e 3c 98 63 61 3a
       0.008740055 -0.023014104 0.009648747 0.00085979095
0003d0 2c e5 cf bb ff b7 31 3c 1a 9a 08 3b e1 86 43 bc
       -0.006344458 0.010847091 0.0020843805 -0.011934013
0003e0 93 3a 33 3c b6 eb 46 3b 65 98 14 3c 00 56 13 bc
       0.010939258 0.0030352897 0.009069537 -0.008992672
0003f0 ca c1 0e 3b 53 7e 5b 3b 5d 90 69 3b 38 60 23 3c
       0.0021782988 0.0033492043 0.0035639026 0.009971671

exp_avg_sq f4 [2, 768]
000000 b3 4a 8c 3b e8 3f eb 3a ed 5d 21 3b 28 e4 ca 3c
       0.004281366 0.0017948123 0.0024622635 0.024766997
000010 77 79 fb 3c 1b 45 c0 3a 5a dc a3 3d 7f 51 30 3c
       0.030697567 0.0014669033 0.08001013 0.010761618
000020 d8 ee 41 41 dc 59 93 3d 52 5a 04 3b d3 8f a2 3c
       12.120811 0.07194874 0.0020195437 0.019843971
000030 8e f1 09 3c 72 ba 5a 3d 57 d3 7a 3c ad 61 94 3b
       0.0084194075 0.053400464 0.015309176 0.0045282454
000040 c6 11 c5 3a 61 fc 04 3c 21 21 af 3b 09 f2 48 3c
       0.0015035204 0.008116812 0.0053445254 0.012264737
000050 39 9d 25 3c 4f 75 3c 3c b2 ce fd 3b 60 fa 85 3c
       0.010108286 0.011502578 0.0077455873 0.01635474
000060 b3 61 7a 3d 92 7f 98 3b b5 74 ee 3a b9 87 ed 3c
       0.06112833 0.0046538794 0.001819274 0.028995382
000070 28 07 e2 3a 7e d9 13 3b bb 88 75 3d 3f e9 38 3c
       0.0017244564 0.0022560055 0.05994485 0.011286079
000080 79 14 24 3c 41 ee 47 3d dc d2 10 3c 8c 44 ae 3c
       0.010014647 0.0488112 0.008839335 0.02127292
000090 51 d2 1d 3d fb 26 a1 3a aa 6d 8c 3f 9c 98 db 3a
       0.03853065 0.0012294942 1.0970967 0.0016753855
0000a0 5f 86 d3 3b 4b a7 ca 3b b1 f3 df 3a 3f da d8 3e
       0.0064552273 0.0061844937 0.0017086176 0.4235401
0000b0 16 32 5c 3d 2f 9b 39 3b 5e 7f f3 3c ce c2 34 3c
       0.053758703 0.0028321256 0.02972382 0.011032773
0000c0 25 b6 dc 3a ce b8 7b 3c ed 78 13 3c be c8 52 3c
       0.0016838951 0.015363885 0.009000999 0.0128652435
0000d0 9b bf 05 3c 03 d8 c8 3a 0d b4 98 3c bc 8b ae 3b
       0.008163358 0.0015323166 0.018640542 0.005326716
0000e0 37 7c 8c 3b 8e f6 7e 3c 49 39 93 3c d2 35 03 3c
       0.0042872685 0.015561713 0.017971652 0.008008437
0000f0 5c e3 94 3c f1 ad bb 3c e4 04 0c 3b 5e 2c c9 3d
       0.01817482 0.02291009 0.002136522 0.098229155
000100 a8 b7 ea 3a 94 b6 68 3d 8f cc 31 3c 6f 3f 13 3b
       0.0017907517 0.056814745 0.010851993 0.002246823
000110 ce fe 12 3d c9 18 0c 3d 05 c5 8b 3b 52 e5 1d 3c
       0.035887532 0.034203324 0.00426543 0.009637194
000120 70 1c 16 3b 12 2f bf 3b b7 ef 89 3b d2 48 33 3c
       0.0022905134 0.0058344686 0.0042094844 0.010942655
000130 66 c1 09 3d be 53 f6 3a 54 ce 9b 3c 74 be 83 3c
       0.033631705 0.0018793268 0.019019283 0.016082026
000140 8a fe 06 3b fa a8 bd 3b 02 b2 16 3b 13 6f bb 3a
       0.0020598494 0.005787966 0.0022994285 0.001430007
000150 08 02 1d 3c c4 e4 9c 3b c1 a3 d0 3d 94 4c 6f 3b
       0.009583004 0.004788013 0.101874836 0.003651415
000160 32 4d c1 3c f9 c9 39 3b 33 86 1a 3c ec 93 8a 3a
       0.02359638 0.0028349145 0.00943141 0.0010572649
000170 26 42 fc 3c 99 e1 68 3d d0 4d 36 3c f9 c5 80 3b
       0.03079326 0.05685577 0.01112695 0.00392985
000180 b0 82 85 3b c3 7d e0 3b c9 16 00 3c 94 65 a3 3d
       0.004074417 0.0068509295 0.007817932 0.07978359
000190 ef 1b aa 3b 48 87 03 3c c2 e1 bc 3c 66 e8 36 3c
       0.005191318 0.008027859 0.023056868 0.011163807
0001a0 5c 24 30 3e b8 1b 18 3b 16 e2 d9 3a d7 f4 66 3b
       0.1720137 0.002320988 0.0016623165 0.003524115
0001b0 cc 5c ce 3c 32 37 84 3b 10 2d 23 3c 57 18 0e 3c
       0.025190733 0.0040349 0.009959474 0.008672795
0001c0 3f 52 a6 3b ec f7 18 3c 14 11 a8 3b 11 a4 aa 3a
       0.0050757225 0.009336453 0.005128989 0.0013018866
0001d0 a6 3e ed 3a 67 91 1b 3c 16 55 06 3d ee 44 9b 3c
       0.0018100336 0.009495116 0.032795988 0.018953767
0001e0 f1 b5 2f 3c ad 19 04 3b 7a 5c fe 3a e2 82 15 3d
       0.010724531 0.0020156906 0.0019406222 0.036501773
0001f0 04 50 0a 3c dc d7 b1 3d da b1 c6 3b 32 ea 23 3b
       0.008441929 0.0868375 0.006063682 0.0025011417
000200 27 c6 48 3c 2d 11 a2 3b d5 dd d4 3b 59 76 9c 3c
       0.012254274 0.004945895 0.006496171 0.019099401
000210 2c 91 cf 3a 4c a2 c0 3c 9f cd c8 3c 3f 6a 67 3c
       0.0015836111 0.02351489 0.02451211 0.014124452
000220 a4 bf 25 3c 49 38 6d 3b cd 16 49 3c 8a fa 0f 3b
       0.0101164915 0.0036196879 0.012273503 0.0021969401
000230 27 41 c3 3c a5 2c 29 3c e5 67 aa 3c 0a c4 74 3c
       0.023834778 0.0103255855 0.020801494 0.0149393175
000240 a3 fe 00 3c ff 4e 0c 3c ac 89 0e 3b cd 73 6a 3d
       0.00787321 0.008563756 0.002174954 0.057239342
000250 b4 c1 4d 3b eb 4d 2e 3c f2 2f ad 3b 95 af 03 3b
       0.0031395974 0.010638694 0.0052852565 0.0020093669
000260 b2 f3 0b 3c 0b df e3 3c 25 a9 e9 3c b6 d6 4f 3d
       0.008541988 0.027816316 0.028523037 0.050741874
000270 9b a4 db 3a d7 84 27 3d 72 48 00 3c c3 71 15 3c
       0.001675743 0.04089817 0.007829772 0.009121361
000280 be 55 90 3c 63 fa c1 3c 49 92 84 3b be 06 bb 3a
       0.01761901 0.023678964 0.004045759 0.0014268977
000290 fa fb 29 3b 20 ed 0a 3b 96 d4 ce 3b ac b2 27 3d
       0.0025937543 0.0021198466 0.0063119633 0.04094188
0002a0 e3 1f d7 3b ec 6f 49 3b e8 e5 86 3d d0 95 20 3b
       0.0065650805 0.0030736877 0.0658682 0.0024503358
0002b0 fe 23 07 3b 8b 7e 90 3b 16 93 b3 3c 75 d0 88 3d
       0.0020620818 0.0044096163 0.021920722 0.06680385
0002c0 a9 28 07 3d 6d ab cc 3c a8 3e 49 3b e9 4b 41 3c
       0.03299776 0.024984086 0.0030707512 0.011797884
0002d0 d2 39 0e 3d d7 16 d3 3c 83 ec 3c 3c ff 40 ce 3a
       0.03472311 0.025767727 0.011530998 0.0015735923
0002e0 64 23 c7 3c c7 1b 0b 3b ed 90 46 3c 48 16 e7 3a
       0.024308868 0.0021226273 0.012119514 0.0017630542
0002f0 8f 3e 85 3b b0 55 01 3d cb 36 0d 3d 2c 47 b3 3b
       0.0040662955 0.03157586 0.034476083 0.005471131
000300 ae 3f 11 3c 34 32 16 3b b6 4f bf 3c 93 a0 fc 3a
       0.00886528 0.0022918107 0.023353439 0.0019273929
000310 e6 0a 32 3c c4 e1 01 3b 63 1b 32 3c 45 e8 33 3b
       0.010866856 0.0019818405 0.010870787 0.0027451676
000320 01 17 bd 3b 3f 3d 5f 3b 4a 14 78 3c e1 13 11 3b
       0.0057705645 0.0034063605 0.015141556 0.0022137093
000330 13 53 f9 3b 66 6e 8c 3b ca 53 a9 3b 9c cc d8 3a
       0.00760878 0.0042856215 0.005167459 0.001654047
000340 65 ae 53 3b 6c e8 8c 3b 0d 61 86 3b ab b3 f5 3b
       0.0032299992 0.004300168 0.004100925 0.0074982247
000350 36 98 4a 3b 6f 13 d7 3b 5c 1e 91 3e d2 fb 54 3c
       0.0030913479 0.006563596 0.28343475 0.012999492
000360 49 76 b7 3b 85 7e 90 3c 3a 11 2f 3c 42 33 93 3d
       0.0055988175 0.017638454 0.0106852595 0.07187511
000370 c9 84 18 3c 0f 0b ae 3b 60 6e 34 3e d9 13 79 3c
       0.009309002 0.005311377 0.1762023 0.015202486
000380 48 42 46 3c 9f 78 33 3b e5 11 1f 3c 93 ce e2 3c
       0.012100764 0.0027385128 0.009708856 0.027686393
000390 7e 84 13 3c 81 47 e6 3a 54 22 f6 3b df bb 0b 3e
       0.009003757 0.0017568917 0.0075114165 0.13645886
0003a0 13 0c 50 3c a5 5f dd 3a 59 4e d7 3c b1 b8 d1 3a
       0.012698191 0.0016889466 0.026282476 0.0016000477
0003b0 4d 31 d1 3c 78 6a 80 3c f6 26 21 3d ae bc 6c 3c
       0.025536204 0.015675768 0.039343797 0.014449282
0003c0 8d b4 02 3c 04 6e 70 3b 11 66 4a 3b d5 39 be 3b
       0.007977617 0.0036686668 0.003088359 0.005805234
0003d0 e8 86 ef 3a e0 cc 20 3b c6 a4 45 3b e3 83 82 3b
       0.0018274458 0.0024536178 0.0030158027 0.0039830073
0003e0 12 25 8f 3c 74 3a 5c 3b 4c de 35 3d 33 89 b9 3c
       0.017473731 0.0033604177 0.044401452 0.02264843
0003f0 db f3 50 3c ff a8 01 3b 9d cb a7 3a 47 fa d4 3c
       0.012753452 0.0019784567 0.001280177 0.025998248

exp_avg f4 [2]
000000 e2 9f c4 bb e5 9f c4 3b
       -0.006000505 0.006000506

exp_avg_sq f4 [2]
000000 46 1e ed 3c 48 1e ed 3c
       0.0289451 0.028945103
