TASK2/gender_classification_model/checkpoint_step_6800.pth (torch, 22979 bytes, 6 tensors)

weight f4 [2, 768]
0	0x3cea91c4	0.02863396
1	0x3bdc0c2f	0.0067153196
2	0x3c1e81e1	0.00967452
3	0x3c3dd5c6	0.011586612
4	0xbcd8ea95	-0.026479045
5	0xbb82b17d	-0.0039884434
6	0xbbdf2517	-0.0068098414
7	0xbc53b3d2	-0.0129212905
8	0xbcf910c2	-0.030403499
9	0xbc40265e	-0.011727897
10	0xbd287277	-0.041124787
11	0xbaada45e	-0.0013247838
12	0xbd38beac	-0.045103714
13	0x3c9f33fd	0.01943397
14	0x3ccb16f9	0.024791228
15	0xbc0acee3	-0.008472177
16	0x3c1fef30	0.009761617
17	0xbcbcedd1	-0.023062618
18	0xbb7ededb	-0.0038890156
19	0xbcb01553	-0.021494543
20	0xbb18dc3f	-0.0023324636
21	0x3caad61e	0.020854052
22	0x3d2c68cc	0.04209213
23	0x3c81bd03	0.015837198
24	0x3d0b718a	0.034043826
25	0xbc2c2e9c	-0.010509159
26	0x3beb2ce9	0.0071769846
27	0x3ae5baae	0.0017526948
28	0x3d32d7ce	0.04366284
29	0x3b8aefac	0.004239997
30	0x3d0bfd85	0.034177322
31	0x3d0c0fdc	0.034194812
32	0x3cce398a	0.025173921
33	0x3b895b2a	0.004191776
34	0xbbf2f48c	-0.007414406
35	0x3d0cda48	0.034387857
36	0x3c31fbe4	0.010863278
37	0xbd7f7fae	-0.062377624
38	0x3ca5442e	0.020174112
39	0xbd94b03f	-0.07260179
40	0x3c9b055d	0.018923456
41	0xba1d252f	-0.00059946155
42	0xbd1b77e3	-0.03795613
43	0x3c6eaa29	0.0145669365
44	0xbcae28de	-0.021259721
45	0xbbb2290a	-0.005437021
46	0x3cf702b2	0.030152652
47	0x3d2ba14b	0.041901868
48	0x3d050d38	0.03248331
49	0xbca2ee90	-0.019889146
50	0x3c9dca9f	0.019261656
51	0x3c9ecb7c	0.019384138
52	0xbb9cfae0	-0.004790649
53	0xbce33a22	-0.02773768
54	0xbbd152f2	-0.0063880617
55	0xbc963d9f	-0.01833993
56	0x3af0137b	0.0018316353
57	0xbb16d017	-0.0023012215
58	0xbb6c317c	-0.0036040237
59	0x3c4900b2	0.012268232
60	0x3c355e1f	0.0110698035
61	0x3c0990a9	0.008396306
62	0xbd020e77	-0.031752076
63	0xbc694f22	-0.014240058
64	0x3c1dd18b	0.0096324785
65	0xbc905b61	-0.017621698
66	0x3d2daf57	0.042403545
67	0x3d48b947	0.04900482
68	0xbd0759fc	-0.0330448
69	0x3d01cd2b	0.031689804
70	0x3be6c414	0.0070424173
71	0xbb9719ea	-0.0046112435
72	0x3b3b2c4e	0.0028560343
73	0xbba1d3b8	-0.004938569
74	0xbce3874a	-0.027774472
75	0xbcff0001	-0.031127932
76	0xbbbf7782	-0.005843104
77	0x3bc19fc7	0.0059089395
78	0xbb748f94	-0.0037317025
79	0xbc1fe32b	-0.009758751
80	0x3c6abe8e	0.014327658
81	0xbc87f6bd	-0.016597146
82	0xbd601107	-0.05470374
83	0x3bfa3ed2	0.0076368833
84	0x3beb736e	0.007185391
85	0x3c965d19	0.01835494
86	0xbc81af65	-0.015830705
87	0xbd2f023e	-0.042726748
88	0x3d08cd1d	0.033398736
89	0x3bef88c6	0.007310006
90	0x3d0375c5	0.032094736
91	0xbcb66bbf	-0.022268174
92	0x3d0a767d	0.033804405
93	0x3c92a727	0.01790197
94	0x3b9d56e1	0.0048016165
95	0xbce1a026	-0.027542185
96	0xbb87dcdb	-0.004146201
97	0x3d417899	0.04723415
98	0xbc5ea99c	-0.013590243
99	0x3ceadf20	0.028670847
100	0xbbcaf1ef	-0.0061933915
101	0x3bd954d9	0.006632429
102	0x3d3529ba	0.044229247
103	0xbca00839	-0.01953517
104	0x3c3b52c7	0.01143331
105	0xb99177d3	-0.0002774583
106	0x3d7f268d	0.062292624
107	0xbd48a735	-0.048987586
108	0xba8481e6	-0.0010109514
109	0x3d532b91	0.05155522
110	0xbd2afa6b	-0.041742723
111	0xbc8cc96f	-0.017185895
112	0x3c225b3b	0.009909446
113	0xbb287772	-0.002570596
114	0xbae28cce	-0.0017284395
115	0x3cccb697	0.02498941
116	0x3d9ad642	0.07560398
117	0xbba7ec5b	-0.0051246113
118	0xbc8ec05a	-0.017425705
119	0x3cdacad8	0.026708052
120	0x3d716150	0.058930695
121	0x3d5e6957	0.05429968
122	0xbbb0da24	-0.005397098
123	0xbc2bb3ae	-0.010479851
124	0xba48e0ba	-0.00076628814
125	0x3c19d1f7	0.009388438
126	0xbcb1e121	-0.021713795
127	0xbccbb744	-0.024867661
128	0x3b38948d	0.0028164715
129	0xbc6d20f2	-0.014473187
130	0xbd16f5c0	-0.03685546
131	0x3bd48110	0.006485112
132	0x3d3d7418	0.046253294
133	0x3c378414	0.0112009235
134	0x3d101942	0.035180338
135	0x3b89129b	0.004183126
136	0xbcb29fa8	-0.021804646
137	0xbc473db8	-0.012160711
138	0x3d15e54b	0.036595624
139	0x39f64402	0.00046971446
140	0xbd0e6f63	-0.034774195
141	0xbc687b32	-0.014189528
142	0x3b3a6f49	0.0028447679
143	0x3c563265	0.013073538
144	0xbcd5d045	-0.026100287
145	0x3be1eac5	0.006894442
146	0x397b94b3	0.0002399262
147	0x3a8ccc51	0.0010742043
148	0xbcc80fd1	-0.024421604
149	0xbcf228bf	-0.029560445
150	0x3cc3089c	0.023807816
151	0xbd229dc9	-0.039701257
152	0x3d063cb9	0.032772753
153	0x3d2df26c	0.04246752
154	0x3c996981	0.018727066
155	0xbc47ea59	-0.012201869
156	0xbc1ea3fa	-0.00968265
157	0xbd154e0b	-0.03645138
158	0xbcb6ec89	-0.022329586
159	0x3d73d156	0.05952581
160	0xbc1b1142	-0.009464564
161	0xbc6a0adc	-0.014284816
162	0xbce16944	-0.027516015
163	0x3cb5cf3b	0.022193542
164	0xbd736ccb	-0.059429925
165	0x3d9036eb	0.07041725
166	0xbc0aa228	-0.008461513
167	0xbd043c54	-0.032284096
168	0xbc4cd2ad	-0.012501401
169	0x3c8cf61d	0.0172072
170	0x3cd0b4b9	0.0254768
171	0x3c459cbf	0.012061297
172	0xbce8d1bf	-0.028420327
173	0x3cc16a54	0.023610272
174	0xbc79f323	-0.015255722
175	0xbce35b1c	-0.027753405
176	0x3c8ce9a5	0.017201254
177	0x3d02e18e	0.031953387
178	0x3acc859e	0.0015603786
179	0x3d103325	0.035205025
180	0x3cb75381	0.022378685
181	0xbcadff05	-0.021239767
182	0x3c03e4a0	0.008050114
183	0xbb7886c8	-0.0037922133
184	0xbc85f899	-0.016353892
185	0x3d8ca4de	0.068673834
186	0xbccc2b30	-0.024922937
187	0xbd151b87	-0.036403205
188	0xbbccc8f9	-0.0062495437
189	0x3ba95df1	0.0051686694
190	0x3c0a122d	0.008427185
191	0xb8a681c6	-7.939669e-05
192	0xbca943d7	-0.020662231
193	0x3ccf9d43	0.025343543
194	0xbd06c649	-0.032903943
195	0xbd863e48	-0.06554848
196	0xbd68ca6a	-0.056833662
197	0xbd0caa28	-0.03434196
198	0x3d2f3e02	0.042783745
199	0xbd06eaad	-0.032938648
200	0xbd3d8ac4	-0.046274915
201	0xba97ad1f	-0.001157198
202	0x3d2de16f	0.04245132
203	0xba5e3f8e	-0.00084780983
204	0x3ceba5f4	0.028765656
205	0x3d096fce	0.03355389
206	0xbbf728c9	-0.0075427038
207	0xbc9e1c9c	-0.019300751
208	0x3d4c7d84	0.04992439
209	0x3a26a2f2	0.0006356678
210	0x3c0a0902	0.008424999
211	0x3c1d93e5	0.00961778
212	0xbc89425b	-0.016755274
213	0xbd0e9a18	-0.034814924
214	0xbc9a70b6	-0.018852573
215	0x3cd66215	0.026169816
216	0xbcac3ba6	-0.021024536
217	0xbd187d2b	-0.037228744
218	0xbcb2ccf1	-0.02182624
219	0x3ced4be1	0.028966846
220	0xbd113a17	-0.03545579
221	0x3c5ec52d	0.013596815
222	0x3d09fee9	0.033690367
223	0xbcbe3993	-0.023220813
224	0x3b2f6483	0.002676279
225	0xbc180c76	-0.009280315
226	0xbd290b0e	-0.04127031
227	0x3c83acff	0.016073702
228	0xbbcf14c8	-0.006319616
229	0x3a4dbecc	0.00078485603
230	0xbcb42949	-0.021992343
231	0xbc097f95	-0.008392234
232	0x3c9d0aca	0.019170184
233	0x3d0d4aa9	0.03449503
234	0x3c0e717d	0.00869405
235	0x3d79cf3d	0.060988653
236	0xbb5e47be	-0.0033917273
237	0xbd0fa478	-0.03506896
238	0xbce1634a	-0.027513165
239	0x3c89f337	0.016839607
240	0xbcbdbf37	-0.023162467
241	0xbc865527	-0.016398026
242	0x3d071d44	0.032986894
243	0x3d120f33	0.035659026
244	0x3cd35d48	0.025801316
245	0x3d06b838	0.03289053
246	0xbbf00f4b	-0.007326042
247	0x3c0d2105	0.0086138295
248	0xbc0a8f76	-0.008457055
249	0x3c5644ed	0.013077957
250	0xb9380055	-0.00017547731
251	0x3c1bd742	0.009511771
252	0x3d11bae7	0.035578635
253	0xbc72546c	-0.014790636
254	0x3c8523b7	0.016252382
255	0x3d0328f8	0.032021493

bias f4 [2]
0	0x3cc36b67	0.023854924
1	0xbb8fef98	-0.0043925755

exp_avg f4 [2, 768]
0	0xbc2f19ef	-0.010687335
1	0x3b56ec9d	0.003279484
2	0xbc63c0c7	-0.013900942
3	0xbb2aff07	-0.002609195
4	0xba15cc76	-0.0005714366
5	0xbc2a418a	-0.010391602
6	0x3cfaef0f	0.03063157
7	0xbc272f21	-0.0102041075
8	0xbea07511	-0.31339315
9	0xbd02fc3b	-0.031978827
10	0xbb5e7dc9	-0.0033949486
11	0x3c366fe5	0.011135076
12	0x3c38f2d0	0.01128836
13	0x3d05a33d	0.03262638
14	0x3bd030ee	0.006353489
15	0xbc83e5ed	-0.016100848
16	0xbaca93e6	-0.0015455454
17	0x3c90c943	0.017674094
18	0x3b522bb9	0.0032069518
19	0xbcc0b9f6	-0.023526173
20	0xbb93b5bb	-0.004507748
21	0xbb8fa76d	-0.0043839724
22	0x3b0ea65a	0.0021766634
23	0x3cb761ec	0.02238556
24	0x3c60f005	0.0137291
25	0x3b91fc40	0.0044551194
26	0x3c40dcd8	0.011771403
27	0x3cb65b45	0.022260318
28	0xbc208c27	-0.00979904
29	0xbc0a7692	-0.008451121
30	0xbb6a745c	-0.0035774922
31	0xba03d37a	-0.0005028766
32	0x3c005e5a	0.007834995
33	0x3c4112ee	0.011784298
34	0x3a9d6094	0.0012006932
35	0x3c3dd715	0.011586924
36	0x3cac5cb4	0.021040298
37	0xbbcc309d	-0.006231381
38	0x3da2f73a	0.07957311
39	0x3be82a17	0.0070850956
40	0x3c7342be	0.014847456
41	0x3b7d3ce3	0.0038641028
42	0xbb49831b	-0.003074831
43	0xbd60a7e7	-0.054847624
44	0xbcb77cbd	-0.022398347
45	0xba6c1e0d	-0.00090071635
46	0x3d086eb7	0.03330871
47	0x3c75373a	0.01496678
48	0xbb1c1cad	-0.0023820803
49	0xbcc81360	-0.024423301
50	0xba9df3f4	-0.0012050853
51	0xbbced63a	-0.006312159
52	0xbbe56bca	-0.007001375
53	0xba115ead	-0.0005545419
54	0xbc7dd923	-0.015493664
55	0xbc52ae2a	-0.012858907
56	0xbc982b15	-0.01857523
57	0x3be1419a	0.0068742754
58	0x3c487184	0.0122340955
59	0x3c2486bd	0.01004189
60	0xbc7ba0c7	-0.0153581565
61	0x3a16966a	0.00057444593
62	0xbc4c4f9d	-0.012470153
63	0x3cc79ac0	0.024365783
64	0x3cb4837d	0.022035355
65	0xbcfc820e	-0.030823734
66	0x3b1fdaf3	0.0024391979
67	0xbc176c08	-0.009242065
68	0xbc9baad5	-0.019002357
69	0xbcb04764	-0.021518417
70	0x3c74afcc	0.014934491
71	0x3c51bb06	0.0128009375
72	0x3c68a229	0.014198818
73	0x3c013a41	0.007887424
74	0xbabc7a54	-0.0014379718
75	0x3c62aedd	0.013835636
76	0xbb887903	-0.0041648163
77	0xbbe84c10	-0.0070891455
78	0xbc1ff541	-0.009763063
79	0x3c1f5708	0.00972534
80	0x3bc8ffc1	0.006134004
81	0x3ce0250f	0.02736142
82	0x3c2e96b9	0.010656052
83	0xba9c8321	-0.0011940935
84	0xbc513279	-0.012768381
85	0x3c02e24e	0.007988526
86	0xbd0bf258	-0.034166664
87	0x3ba45bb4	0.0050158147
88	0x3cb307e9	0.021854358
89	0x3bf8193e	0.0075713685
90	0x3c9a7e97	0.01885919
91	0x3ac75e21	0.0015210548
92	0x3b340477	0.0027468482
93	0xbc841aa0	-0.016125977
94	0xbc2147f1	-0.009843812
95	0xbb67ccad	-0.00353698
96	0xbc831e0f	-0.016005544
97	0xbc5c1ad5	-0.013434132
98	0x3c188e57	0.00931128
99	0x3cb4aba3	0.022054499
100	0xbcb41cb8	-0.02198635
101	0x3c35cbac	0.011095922
102	0x3ce7e412	0.028306995
103	0xbc6b0bdc	-0.014346089
104	0xbd070f10	-0.03297335
105	0xbb17b13d	-0.0023146414
106	0xbc7776ae	-0.015103979
107	0x3b2c5072	0.0026293066
108	0x3c3a73da	0.01138016
109	0xbc63cafc	-0.013903376
110	0x3c3f2d80	0.011668563
111	0x3c62ec68	0.013850309
112	0xbc8b3c1f	-0.016996441
113	0x3c5689a0	0.013094336
114	0x3c926c3f	0.017873881
115	0xbbbf9a60	-0.0058472604
116	0xbce9e987	-0.028553737
117	0xbc40cf9f	-0.011768251
118	0xbca2fbb8	-0.01989542
119	0xbc48ea2b	-0.012262861
120	0xbc8534c1	-0.016260507
121	0x3bc9f6a2	0.006163434
122	0xb8c4b7ef	-9.3802686e-05
123	0x3bbc6de3	0.005750404
124	0xbaccc5ca	-0.001562291
125	0xbcb22f2d	-0.02175101
126	0x3c211ecf	0.0098340055
127	0x3bfee9df	0.0077793445
128	0xbc1284b1	-0.008942769
129	0x3bbdff6e	0.005798272
130	0xbc261d59	-0.010138833
131	0x3b6c4958	0.0036054458
132	0x3c356bbe	0.011073051
133	0xba56daf0	-0.00081960764
134	0xbb36995e	-0.002786241
135	0xbc81294f	-0.015766768
136	0x3bd3e4ca	0.0064664828
137	0xbaaa9552	-0.0013014472
138	0x3bdbffac	0.006713828
139	0xbbce0ea5	-0.006288367
140	0xbcb00091	-0.021484645
141	0xbcb6a831	-0.022296997
142	0xbc837045	-0.016044745
143	0x3b95bdf0	0.0045697615
144	0xbb34a3d5	-0.0027563472
145	0x3b38fc52	0.0028226567
146	0x3b917db6	0.0044400347
147	0x3c87a66c	0.016558848
148	0x3b01d973	0.0019813448
149	0x3c844adb	0.016148975
150	0x3cab2fd1	0.020896824
151	0x3bbc2a08	0.005742315
152	0x3bdc25e0	0.0067183822
153	0xbcb338b7	-0.02187763
154	0xba83e312	-0.0010062179
155	0x3cac99e3	0.021069473
156	0xbc80fcbc	-0.015745513
157	0x3cd1659f	0.025561152
158	0x3cf4fba5	0.02990515
159	0xbc30dadb	-0.010794367
160	0xbca37d26	-0.019957136
161	0x3ab65a58	0.0013912423
162	0x3c908e6c	0.017646037
163	0x3c6d32f8	0.014477484
164	0x3ae7ff7c	0.0017700042
165	0xbc9f17b9	-0.019420492
166	0x3ca13ba3	0.019681757
167	0x3c7e3357	0.01551517
168	0xbba27960	-0.0049583167
169	0xba89908b	-0.0010495348
170	0xbd01d55a	-0.03169761
171	0xbb806116	-0.0039178235
172	0x3b0f7b2f	0.0021893492
173	0x3bafd964	0.005366491
174	0x3c3e1d09	0.011603602
175	0x3c9748c0	0.018467307
176	0xbc4fcea1	-0.0126835415
177	0xbc8595e1	-0.01630682
178	0xbb11b75d	-0.0022234537
179	0xbbde1554	-0.006777445
180	0x3c30f6b3	0.010801005
181	0xbd032d17	-0.032025423
182	0xbc820b05	-0.015874395
183	0x3ae2f954	0.0017316737
184	0xbc195a77	-0.009359947
185	0xbc7319bb	-0.014837678
186	0x3c57e30b	0.01317669
187	0xba66d575	-0.0008805611
188	0x3c354de2	0.011065932
189	0xbc6a4b5f	-0.014300196
190	0xbd2352a7	-0.039873745
191	0xbc39a1bd	-0.011330065
192	0x3c6c2417	0.014412901
193	0xbc8d5866	-0.017254066
194	0xbc9f84f3	-0.019472575
195	0x3c111864	0.008855913
196	0xbc7a1a7b	-0.0152651025
197	0xbc29bc1a	-0.010359788
198	0x3ba0c91c	0.0049067866
199	0x3cbb594c	0.022869729
200	0xbcd36b53	-0.025808012
201	0xbb4181da	-0.002952686
202	0xbb2b93ae	-0.0026180553
203	0xbc240ad1	-0.010012344
204	0xbadb1c74	-0.0016716854
205	0xbb7b5c38	-0.0038354527
206	0x3c9f1cd6	0.01942293
207	0x3cbb79a7	0.022885157
208	0x3c88150f	0.016611604
209	0xbacfb06d	-0.0015845426
210	0xbc3511a1	-0.011051566
211	0xbb49fa2f	-0.0030819287
212	0xbbda907c	-0.006670056
213	0x3b9742e7	0.0046161297
214	0xbd296ec7	-0.04136541
215	0x3b8fb6f2	0.0043858225
216	0x3c2fd661	0.010732264
217	0xbc51209d	-0.012764123
218	0xbbfc4347	-0.00769845
219	0x3ba74afe	0.0051053753
220	0xbbd387f4	-0.006455416
221	0xbaa75d41	-0.0012768881
222	0xbcbb9ad6	-0.02290098
223	0xbcb5d04b	-0.022194048
224	0xbba52a22	-0.005040423
225	0xbc3353a3	-0.0109452335
226	0xbc02f09e	-0.007991938
227	0x3a8f765b	0.0010945307
228	0xbc0ab74a	-0.008466551
229	0x3bcccbd9	0.0062498865
230	0x3bd13a56	0.006385128
231	0xbcc7f92c	-0.024410807
232	0x3cbae701	0.02281523
233	0x3c239c33	0.009985971
234	0x3bf5c792	0.0075005973
235	0x3a700861	0.0009156522
236	0x3bcc07c8	0.0062265135
237	0x3c6b4010	0.014358535
238	0x3c97e004	0.018539436
239	0xbc9e6c78	-0.019338831
240	0x3c05dbc1	0.008170069
241	0x3c1ba06b	0.009498696
242	0x3c9bdcb6	0.019026142
243	0x3b70ab34	0.0036723139
244	0xbb4f1ad1	-0.0031601677
245	0xb9a1f15b	-0.00030888137
246	0x3bf05eec	0.0073355343
247	0xbbc5b577	-0.006033595
248	0xbcad7e2e	-0.021178331
249	0xbbb62197	-0.0055582034
250	0x3cce6ab7	0.02519737
251	0xbbfd2b41	-0.0077261035
252	0xbc117d74	-0.008880008
253	0x3b1ac125	0.0023613658
254	0x39b201de	0.00033952197
255	0xbc550373	-0.013001311

exp_avg_sq f4 [2, 768]
0	0x3b8c169b	0.0042751557
1	0x3af63210	0.001878323
2	0x3b23db75	0.0025002633
3	0x3cc9abc4	0.024618037
4	0x3cfdde0b	0.030989667
5	0x3ac0721e	0.0014682447
6	0x3da4910b	0.08035477
7	0x3c2e3eef	0.010635122
8	0x4141d8bb	12.115413
9	0x3d936081	0.07196141
10	0x3af4cbb0	0.0018676426
11	0x3ca3fc02	0.020017628
12	0x3c093da4	0.008376513
13	0x3d5bb78b	0.053641837
14	0x3c7c3ee4	0.015395854
15	0x3b99653c	0.0046812575
16	0x3ab8a011	0.001408579
17	0x3c0079c7	0.007841534
18	0x3babc456	0.005241911
19	0x3c4b932f	0.012425228
20	0x3c24dba2	0.01006213
21	0x3c40da9a	0.011770869
22	0x3c065e99	0.008201265
23	0x3c83a7c6	0.016071212
24	0x3d7d4d1f	0.061841127
25	0x3b9aac81	0.004720271
26	0x3af176fc	0.0018422301
27	0x3cedd490	0.029032022
28	0x3ae5a1a1	0.0017519483
29	0x3b1047c8	0.0022015441
30	0x3d77b864	0.060478583
31	0x3c31011c	0.010803487
32	0x3c2407db	0.0100116385
33	0x3d4c1ed4	0.049834087
34	0x3c10a9aa	0.008829514
35	0x3cad9fe2	0.021194402
36	0x3d1f8d38	0.038953036
37	0x3ab3308a	0.0013671082
38	0x3f8db78d	1.107164
39	0x3add8689	0.0016901057
40	0x3bd27292	0.0064223493
41	0x3bcd454e	0.0062643653
42	0x3ae3e7d6	0.0017387818
43	0x3edaa00b	0.42700228
44	0x3d59bfa0	0.053161263
45	0x3b35e120	0.0027752593
46	0x3cf17996	0.029476922
47	0x3c355a1c	0.011068847
48	0x3ad46dd2	0.0016207045
49	0x3c774de0	0.01509425
50	0x3c1408ff	0.009035348
51	0x3c54a9c7	0.012979931
52	0x3c0729c6	0.008249706
53	0x3ac8a012	0.0015306494
54	0x3c9968fb	0.018726816
55	0x3bb4d514	0.005518565
56	0x3b8f30a4	0.004369812
57	0x3c7bf79e	0.015378861
58	0x3c91d37c	0.017801039
59	0x3c0347e6	0.008012747
60	0x3c9acbd2	0.018896017
61	0x3cbb9ef8	0.02290295
62	0x3b17813f	0.0023117808
63	0x3dc8637b	0.097845994
64	0x3aed36aa	0.0018097956
65	0x3d68e0be	0.056854956
66	0x3c2d2155	0.010567029
67	0x3b15eef8	0.0022878032
68	0x3d123beb	0.035701673
69	0x3d0f0f88	0.03492692
70	0x3b8549b2	0.004067623
71	0x3c24cbeb	0.010058383
72	0x3b10d044	0.0022096792
73	0x3bbc41f1	0.0057451655
74	0x3b89ca29	0.0042050076
75	0x3c332480	0.010933995
76	0x3d098599	0.033574674
77	0x3afe1478	0.0019384762
78	0x3c9de4b6	0.019274097
79	0x3c83e5e9	0.01610084
80	0x3b098f1c	0.002098984
81	0x3bbc812a	0.0057527022
82	0x3b1bf2bc	0.0023795804
83	0x3abaf037	0.0014262263
84	0x3c1c5336	0.009541323
85	0x3ba355fb	0.004984615
86	0x3dd10d02	0.10207559
87	0x3b79f0fe	0.0038138027
88	0x3cc3c968	0.023899749
89	0x3b3e0ea9	0.0029000437
90	0x3c194b34	0.009356309
91	0x3a94da5d	0.0011356581
92	0x3d003a99	0.031305883
93	0x3d6cf427	0.05785003
94	0x3c36aa15	0.011148949
95	0x3b7a0a11	0.0038152973
96	0x3b7c5060	0.0038500056
97	0x3be3b791	0.006949373
98	0x3bf9c64e	0.0076225167
99	0x3da3f13e	0.08004998
100	0x3bac08a8	0.0052500553
101	0x3c047f3c	0.008086976
102	0x3cbf988f	0.023388175
103	0x3c350567	0.011048651
104	0x3e2ef60d	0.17086048
105	0x3b1a64fe	0.0023558731
106	0x3ae16e18	0.0017198948
107	0x3b762b9d	0.0037562617
108	0x3cd13911	0.025539907
109	0x3b86955e	0.0041071614
110	0x3c22e6b7	0.009942702
111	0x3c0e9f97	0.008705041
112	0x3baf74ca	0.0053544985
113	0x3c1bacdb	0.009501661
114	0x3ba24668	0.0049522407
115	0x3aaf980b	0.0013396753
116	0x3af04b45	0.0018332979
117	0x3c1def1b	0.009639527
118	0x3d03b72e	0.032157116
119	0x3c9b4677	0.018954499
120	0x3c2e21f0	0.0106282085
121	0x3afc0ab1	0.001922926
122	0x3b03e8ac	0.0020127697
123	0x3d16266d	0.03665774
124	0x3c0ad0bc	0.008472618
125	0x3db309ed	0.087421276
126	0x3bce4c4c	0.0062957164
127	0x3b201368	0.002442563
128	0x3c48bdde	0.012252299
129	0x3b9b82c8	0.004745815
130	0x3bd7443b	0.006569413
131	0x3c983799	0.018581199
132	0x3ac7cbed	0.001524327
133	0x3cc199b3	0.02363286
134	0x3cc8c5f5	0.024508456
135	0x3c6e9dc2	0.01456398
136	0x3c2631f2	0.010143744
137	0x3b6913b1	0.0035564716
138	0x3c4776ef	0.012174352
139	0x3b166cbb	0.0022952992
140	0x3cc14ae5	0.023595283
141	0x3c2ef54f	0.010678603
142	0x3cab4c54	0.02091042
143	0x3c7c1bed	0.015387517
144	0x3c01d2ba	0.007923776
145	0x3c0a48d3	0.008440214
146	0x3b13b6e0	0.0022539422
147	0x3d6f605d	0.05844151
148	0x3b4530d4	0.0030088918
149	0x3c2a8d92	0.01040973
150	0x3bac8b16	0.005265604
151	0x3b06832d	0.0020524964
152	0x3c0d3ff8	0.008621208
153	0x3ce20c06	0.027593624
154	0x3ceb3ae4	0.028714605
155	0x3d51772e	0.05113905
156	0x3ad9ee37	0.001662678
157	0x3d272c90	0.040813982
158	0x3c052fc1	0.008129061
159	0x3c173fb5	0.0092314975
160	0x3c8ca796	0.017169755
161	0x3cc1c20c	0.0236521
162	0x3b889ff5	0.004169459
163	0x3abf208f	0.0014581847
164	0x3b27d728	0.002561042
165	0x3b0f69bd	0.0021883093
166	0x3bd06ea8	0.0063608475
167	0x3d268a71	0.04065937
168	0x3bdf9b18	0.0068239085
169	0x3b4691ea	0.0030299374
170	0x3d877c9e	0.06615566
171	0x3b2458c5	0.0025077325
172	0x3b081a4f	0.0020767634
173	0x3b9a5371	0.004709654
174	0x3cb27cb2	0.021787975
175	0x3d8788c7	0.06617885
176	0x3d095b85	0.033534545
177	0x3ccc8620	0.0249663
178	0x3b4d56d9	0.0031332283
179	0x3c3b4c39	0.011431747
180	0x3d0dd623	0.034628045
181	0x3cd500b5	0.026001314
182	0x3c39acbd	0.011332688
183	0x3ac9632f	0.0015364642
184	0x3ccb0539	0.024782764
185	0x3b0d5da3	0.0021570704
186	0x3c46e94e	0.012140585
187	0x3ae37aa3	0.0017355274
188	0x3b8a757f	0.0042254324
189	0x3d01ac63	0.03165854
190	0x3d0d12b7	0.034441676
191	0x3bb197e4	0.005419718
192	0x3c11910b	0.008884679
193	0x3b1aa7c5	0.0023598534
194	0x3cc46a09	0.023976343
195	0x3b03f59d	0.002013541
196	0x3c34b1f9	0.01102876
197	0x3b0784be	0.0020678486
198	0x3c2b255d	0.01044592
199	0x3b3b2848	0.0028557945
200	0x3bb9fef8	0.0056761466
201	0x3b61263c	0.0034355065
202	0x3c757c02	0.014983179
203	0x3b1a82ff	0.0023576615
204	0x3bfed3dc	0.0077767204
205	0x3b8c8dde	0.004289373
206	0x3bb0581b	0.0053815967
207	0x3ad6b33f	0.0016380324
208	0x3b4dac73	0.0031383305
209	0x3b8c1717	0.0042752135
210	0x3b8a1689	0.004214112
211	0x3beb5230	0.0071814284
212	0x3b4a1c4b	0.0030839618
213	0x3bd21f96	0.0064124567
214	0x3e907cfd	0.28220358
215	0x3c5b01c1	0.013367117
216	0x3bb873de	0.005629047
217	0x3c8f7162	0.01751012
218	0x3c303baf	0.010756417
219	0x3d93d384	0.07218078
220	0x3c1fb800	0.009748459
221	0x3bb2f8c8	0.005461786
222	0x3e35aa4b	0.17740743
223	0x3c7bb70e	0.015363468
224	0x3c432d75	0.011912693
225	0x3b2d6043	0.0026455082
226	0x3c226593	0.0099119125
227	0x3ce6b3f3	0.028161978
228	0x3c10c4e2	0.008836003
229	0x3ae64d42	0.0017570632
230	0x3bf38fe4	0.0074329246
231	0x3e0d14fe	0.13777539
232	0x3c4c748c	0.012478959
233	0x3adb1ef9	0.0016717605
234	0x3cd8110f	0.026375322
235	0x3ad974c3	0.0016590584
236	0x3cd4b26d	0.025963986
237	0x3c804843	0.015659457
238	0x3d21bcd7	0.039486732
239	0x3c6ee128	0.014580049
240	0x3bfdb5de	0.0077426275
241	0x3b688e5c	0.0035485243
242	0x3b459f6a	0.0030154833
243	0x3bc3f521	0.0059801494
244	0x3af0235c	0.0018321085
245	0x3b23cc9c	0.0024993783
246	0x3b49b5ce	0.003077853
247	0x3b8297c8	0.003985379
248	0x3c9187ca	0.017764945
249	0x3b5eebd5	0.0034015079
250	0x3d340473	0.043949556
251	0x3cbcc2f7	0.023042185
252	0x3c504873	0.012712586
253	0x3b01d5e4	0.0019811327
254	0x3aab3923	0.0013063293
255	0x3cd3fbab	0.02587684

exp_avg f4 [2]
0	0x3c8f49ed	0.017491305
1	0xbc8f49e8	-0.017491296

exp_avg_sq f4 [2]
0	0x3cecd3dd	0.028909618
1	0x3cecd3df	0.028909622
