TASK2/gender_classification_model/checkpoint_step_5400.pth (torch, 22979 bytes, 6 tensors)

weight f4 [2, 768]
0	0x3cdf5f9e	0.027267274
1	0x3b8d3f22	0.0043105045
2	0x3b59c518	0.003322905
3	0x3c177fd5	0.009246786
4	0xbcd7f6c6	-0.026362788
5	0xbbee3c13	-0.007270345
6	0xbbd92141	-0.0066262786
7	0xbc026080	-0.007957578
8	0xbcf9eff2	-0.030509923
9	0xbc36a9c6	-0.011148876
10	0xbd055a83	-0.03255702
11	0x3a94979a	0.0011336685
12	0xbd308dd9	-0.043104026
13	0x3ca1156c	0.019663535
14	0x3ccd9303	0.025094515
15	0xbc1e5fef	-0.009666427
16	0x3c25f3f1	0.010128961
17	0xbcbf610c	-0.023361705
18	0xbbd8f203	-0.006620647
19	0xbcb90e5a	-0.022589851
20	0xbac4ff08	-0.0015029619
21	0x3cae28aa	0.021259625
22	0x3d235b04	0.03988172
23	0x3ca39cd7	0.019972248
24	0x3d0b60b1	0.03402776
25	0xbc403849	-0.011732169
26	0x3b42ed7a	0.0029743598
27	0x3b0e4c0e	0.0021712813
28	0x3d0b60b0	0.034027755
29	0x3b9c1fae	0.0047645187
30	0x3d0c1cdb	0.034207206
31	0x3d121672	0.035665937
32	0x3cd33130	0.02578029
33	0x3bc3d787	0.0059766206
34	0xbbe6ca0e	-0.0070431298
35	0x3d0b6828	0.034034878
36	0x3c531b88	0.012884982
37	0xbd7d9315	-0.061907846
38	0x3ca83193	0.020531451
39	0xbd8b6c3c	-0.068077534
40	0x3c989711	0.018626722
41	0xba60fcb6	-0.0008582579
42	0xbd1f64ef	-0.038914617
43	0x3c7c0b8a	0.0153836105
44	0xbcac68e5	-0.021046111
45	0xbbd9eb80	-0.0066503882
46	0x3ce46aaf	0.027882902
47	0x3d19f2a8	0.03758493
48	0x3cf2887a	0.029606093
49	0xbc9280f3	-0.017883753
50	0x3ca7cc2e	0.020483103
51	0x3c8cd998	0.0171936
52	0xbba3f147	-0.0050031277
53	0xbcd1932c	-0.025582872
54	0xbc1f8f5b	-0.009738768
55	0xbc8e7e02	-0.01739407
56	0x3b88299e	0.004155352
57	0xba8859ef	-0.0010402779
58	0xbb922c64	-0.004460858
59	0x3c380daf	0.011233731
60	0x3c16f86e	0.009214504
61	0x3c1f2ef4	0.009715784
62	0xbcd8c8c6	-0.026462924
63	0xbc57b735	-0.013166239
64	0x3c2a3efa	0.010390991
65	0xbc9863ed	-0.018602336
66	0x3d255ec5	0.040373582
67	0x3d4d0d5b	0.050061565
68	0xbd03c893	-0.032173704
69	0x3d022fbd	0.031783808
70	0x3c3675d0	0.011136487
71	0xbc0be4b2	-0.008538412
72	0xbb1703dc	-0.0023043072
73	0xb88d55d2	-6.739389e-05
74	0xbccc64fc	-0.024950497
75	0xbcf2ba0e	-0.029629733
76	0xbbb4c1cf	-0.005516268
77	0xbb634bce	-0.0034682634
78	0xbb778ffb	-0.0037775028
79	0xbc14812b	-0.009063999
80	0x3c66ef59	0.014095151
81	0xbc6a4f63	-0.014301154
82	0xbd26d872	-0.040733762
83	0x3c42930c	0.011875879
84	0x3bb2ba56	0.005454342
85	0x3c8ba9e2	0.01704878
86	0xbc7f1516	-0.015568992
87	0xbd1b5635	-0.03792401
88	0x3cffaf82	0.031211618
89	0xbb84ae3b	-0.00404909
90	0x3cf14a6c	0.029454432
91	0xbc9c4e8b	-0.019080421
92	0x3cfc4b61	0.030797662
93	0x3c8981fc	0.016785614
94	0x3bb3d1cc	0.005487656
95	0xbcb1dc02	-0.021711353
96	0xbae96a3a	-0.0017808147
97	0x3d382d59	0.044965122
98	0xbc69d331	-0.014271543
99	0x3ce8c8a0	0.028415978
100	0xbb9e0a4f	-0.004823006
101	0x3bb85387	0.0056251916
102	0x3d2e4f3f	0.042556044
103	0xbc93dcc2	-0.018049601
104	0x3c32e591	0.010918991
105	0x3a2a37f5	0.00064933236
106	0x3d610694	0.054937914
107	0xbd41cd1c	-0.04731475
108	0x3a9741b8	0.0011539971
109	0x3d33ff45	0.043944616
110	0xbd274eb2	-0.040846534
111	0xbc95607b	-0.018234482
112	0x3bf9bea4	0.007621603
113	0xbac78ae4	-0.0015223888
114	0xb99ff1fe	-0.00030507141
115	0x3cd4ee57	0.025992556
116	0x3d8af8ff	0.067857735
117	0xbb40983b	-0.0029387611
118	0xbca5927a	-0.020211447
119	0x3ce16887	0.027515663
120	0x3d5a64cf	0.053318795
121	0x3d626468	0.055271536
122	0xbc314416	-0.010819456
123	0xbc41d9fd	-0.011831758
124	0xbba3d691	-0.0049999435
125	0x3c16132c	0.009159844
126	0xbc96cbd2	-0.018407736
127	0xbcf1d41f	-0.029520093
128	0x3b4d4aeb	0.0031325172
129	0xbc3a9e60	-0.011390299
130	0xbd16a5e6	-0.036779307
131	0x3c026abe	0.00796002
132	0x3d30ec08	0.043193847
133	0x3c2f515f	0.010700553
134	0x3d08a126	0.033356808
135	0x3a5f28d2	0.00085128576
136	0xbcb2cdfc	-0.021826737
137	0xbc6efb27	-0.014586247
138	0x3d13524b	0.035967153
139	0x3b47a6bd	0.0030464374
140	0xbd0809f3	-0.033212613
141	0xbc598217	-0.013275645
142	0x3bb14795	0.0054101446
143	0x3c609484	0.013707284
144	0xbce63118	-0.028099582
145	0x3bc237be	0.005927055
146	0x3b6866df	0.0035461707
147	0x3a3457ee	0.00068795576
148	0xbcddefc2	-0.027091864
149	0xbcfc35a6	-0.0307873
150	0x3ca766d7	0.02043478
151	0xbd125b55	-0.035731632
152	0x3ce04c97	0.02738027
153	0x3d2494be	0.040180914
154	0x3c8cead5	0.01720182
155	0xbc5dfbfb	-0.013548846
156	0xbc08ecce	-0.00835724
157	0xbd10d8be	-0.03536295
158	0xbcc17377	-0.023614628
159	0x3d5aecb5	0.053448398
160	0xbc3790f8	-0.011203997
161	0xbc52ec81	-0.01287377
162	0xbcda93c3	-0.026681786
163	0x3cb89951	0.022534044
164	0xbd74424a	-0.05963353
165	0x3d897a10	0.06712735
166	0xbb82d86b	-0.003993084
167	0xbd0298bf	-0.03188395
168	0xbc352b7b	-0.01105773
169	0x3ca72f58	0.020408317
170	0x3cc5b863	0.024135774
171	0x3c329e08	0.010901935
172	0xbcf3155b	-0.029673269
173	0x3c65fdfb	0.014037604
174	0xbc9007bf	-0.017581819
175	0xbce62634	-0.028094389
176	0x3c871e99	0.016494082
177	0x3d000fef	0.031265195
178	0xbb35cced	-0.0027740553
179	0x3d0c4925	0.034249444
180	0x3ca0eea7	0.019645048
181	0xbcbd1915	-0.02308325
182	0x3c016ea0	0.00789991
183	0xbb7e28f4	-0.0038781734
184	0xbc91ff34	-0.017821886
185	0x3d88a02f	0.066711776
186	0xbcdbaac0	-0.026814818
187	0xbcecb57f	-0.028895138
188	0xbb34075f	-0.0027470214
189	0x3b8ffa8e	0.004393882
190	0x3bf3e6e9	0.007443298
191	0x3ba3e920	0.005002156
192	0xbc9b6956	-0.018971127
193	0x3cbc0e1d	0.022955948
194	0xbce2de7b	-0.027693978
195	0xbd7b935f	-0.06141984
196	0xbd5158af	-0.051109966
197	0xbce4aa20	-0.027913153
198	0x3d21de39	0.03951857
199	0xbce033cf	-0.027368454
200	0xbd39ec78	-0.04539153
201	0x39f731d6	0.00047148642
202	0x3d288d67	0.041150477
203	0xbbb05620	-0.0053813607
204	0x3cfa73c6	0.030572783
205	0x3ce45806	0.027874004
206	0xbbc19de3	-0.005908714
207	0xbc7d77eb	-0.015470485
208	0x3d3c3db6	0.04595729
209	0xbb2e35d2	-0.0026582372
210	0x3bf6ed31	0.0075355996
211	0x3c399af9	0.011328452
212	0xbc7272fe	-0.014797924
213	0xbd015b0f	-0.03158098
214	0xbc9711a2	-0.018441025
215	0x3cc5a2fb	0.024125567
216	0xbca47315	-0.020074407
217	0xbd1bfedc	-0.03808485
218	0xbcbace29	-0.022803383
219	0x3cf75c31	0.030195327
220	0xbd1752a3	-0.036944043
221	0x3c721575	0.014775624
222	0x3d0741e3	0.03302182
223	0xbcb81be7	-0.022474242
224	0x3b100722	0.0021976908
225	0xbc3a2c04	-0.011363033
226	0xbd266721	-0.040625695
227	0x3c784cb3	0.015155005
228	0xbc19bc5d	-0.009383288
229	0x3c0f427e	0.00874388
230	0xbcb690e0	-0.022285879
231	0xbc0bf643	-0.0085426
232	0x3c9549a0	0.018223584
233	0x3cdf0125	0.027222225
234	0x3c200b34	0.009768296
235	0x3d59757c	0.053090557
236	0xbb93323d	-0.004492073
237	0xbd05902c	-0.032608196
238	0xbccc0864	-0.024906345
239	0x3c2f4209	0.010696896
240	0xbcb06668	-0.021533206
241	0xbc4a1564	-0.0123342015
242	0x3d04b8da	0.03240285
243	0x3d0b76b9	0.03404877
244	0x3cd6dc79	0.026228176
245	0x3ce48bf5	0.027898768
246	0xbc09ced1	-0.008411125
247	0x3c2d4a96	0.010576865
248	0xbc103039	-0.00880056
249	0x3c746dfb	0.0149187995
250	0x3b1fa39f	0.0024359
251	0x3c05654f	0.00814183
252	0x3d01d447	0.031696584
253	0xbc2b7f80	-0.01046741
254	0x3cb762bc	0.022385947
255	0x3cf7d226	0.030251574

bias f4 [2]
0	0x3cc5d53e	0.024149533
1	0xbb98b273	-0.0046599447

exp_avg f4 [2, 768]
0	0xbae69e35	-0.0017594757
1	0x3c82642b	0.015916904
2	0x3b899d8b	0.004199689
3	0xbd435b40	-0.047694445
4	0xbd837e1a	-0.06420536
5	0xbbae6289	-0.005321805
6	0x3d93f8c9	0.072251864
7	0x3cba561e	0.022746142
8	0xbf879271	-1.0591565
9	0xbd95ad19	-0.073084064
10	0xbbfb2f6e	-0.007665566
11	0x3d2c4677	0.042059388
12	0x3c4abd7a	0.012374276
13	0x3d912645	0.070873775
14	0x3d1ddb4c	0.038539216
15	0x3cb5c819	0.02219014
16	0xbc119e6d	-0.008887869
17	0x3d08424f	0.03326636
18	0x3a9fa6cf	0.001218045
19	0xbcf89be0	-0.030347764
20	0xbc9cb9ee	-0.019131627
21	0xbca90830	-0.020633787
22	0x3cedb7f6	0.029018383
23	0x3cdfcf6e	0.02732059
24	0x3db52a93	0.08846011
25	0x3c952f46	0.018211018
26	0x3aca95a1	0.001545597
27	0x3d7ab8c4	0.061211362
28	0x3a301400	0.00067168474
29	0xbb0f813c	-0.0021897098
30	0xbd95f2f3	-0.073217295
31	0xbd054abd	-0.03254198
32	0x3d04acde	0.03239142
33	0x3d9dd95a	0.07707472
34	0x3c84204a	0.016128678
35	0x3d4c1b1f	0.049830552
36	0x3d902d33	0.07039871
37	0x3c983c9e	0.018583592
38	0x3ea80636	0.3281724
39	0xbc6c3f20	-0.014419347
40	0x3c17de81	0.009269358
41	0xbc74f03d	-0.014949855
42	0xbbbca62a	-0.005757113
43	0xbe5301ed	-0.20606203
44	0xbd649ab3	-0.055811595
45	0xbb2bdda2	-0.0026224633
46	0x3d6853bb	0.056720477
47	0x3d08caf9	0.033396695
48	0x3c35083f	0.011049329
49	0xbcd85713	-0.026408708
50	0xbcddee11	-0.027091058
51	0xbd2d54d6	-0.042317234
52	0xbd2293b2	-0.039691634
53	0x3c9d0d01	0.01917124
54	0xbd32907f	-0.043594833
55	0xbca0e177	-0.01963876
56	0xbcb9b7fb	-0.022670737
57	0x3d0cf939	0.034417365
58	0x3d03a738	0.032141894
59	0x3cbda0f5	0.02314804
60	0xbd7faf82	-0.062423237
61	0x3d0953cf	0.03352719
62	0x3a39ae5a	0.00070831703
63	0x3dbe8478	0.0930261
64	0x3bddd2d7	0.006769519
65	0xbdb0559f	-0.08610081
66	0x3c934863	0.017978853
67	0x3b36f18c	0.002791497
68	0xbd82f1d1	-0.06393779
69	0xbd84e9ee	-0.06489931
70	0x3c61205f	0.013740628
71	0x3cc5670b	0.024096986
72	0x3b8e9622	0.0043513933
73	0xbbef04ee	-0.007294289
74	0xbc907913	-0.017635858
75	0x3c81fa48	0.015866414
76	0xbd54f517	-0.05199155
77	0x3bf361b9	0.007427421
78	0xbd49dd74	-0.04928346
79	0x3d377c33	0.04479618
80	0xbbe122e8	-0.006870616
81	0x3cb697f2	0.02228925
82	0x3b7a3a29	0.0038181639
83	0x3c519399	0.012791538
84	0xbcf872ff	-0.030328272
85	0x3c14a93b	0.009073551
86	0xbdc24380	-0.09485531
87	0xbca8e313	-0.02061609
88	0x3d3b0f23	0.045668732
89	0x3c797d37	0.015227607
90	0x3c228221	0.00991872
91	0xbc4c5061	-0.012470336
92	0x3d32eece	0.043684773
93	0xbd91356e	-0.07090269
94	0xbcd95db5	-0.02653394
95	0x3c85d026	0.016334604
96	0xbbc2c68c	-0.005944079
97	0xbd0ae43d	-0.03390907
98	0x3c078496	0.008271357
99	0x3dc20056	0.0947272
100	0xbbc4137e	-0.005983769
101	0x3d011c3e	0.031521074
102	0x3d218fae	0.039443664
103	0xbc878c8a	-0.016546506
104	0xbdf06a40	-0.117390156
105	0xbc2f47e6	-0.010698294
106	0xbc16d5f3	-0.009206283
107	0x3c531467	0.012883282
108	0x3d187b2b	0.037226837
109	0xbc22427b	-0.0099035455
110	0x3cd93c2a	0.026517946
111	0x3c879155	0.016548792
112	0x3cf6b7ab	0.030116877
113	0x3cb9c013	0.022674596
114	0x3cb2a580	0.021807432
115	0xbc620098	-0.013794087
116	0xbb243771	-0.002505746
117	0xbcc55716	-0.024089377
118	0xbd59f86c	-0.05321543
119	0xbcff2530	-0.031145662
120	0xbc90e1b7	-0.017685754
121	0x3b840639	0.004029062
122	0x3b920eae	0.0044573164
123	0x3d916f01	0.071012504
124	0xbcfe2a43	-0.031026011
125	0xbdb2105a	-0.08694525
126	0x3d503b82	0.050838
127	0xbc3f4efe	-0.011676548
128	0xbd2030a3	-0.039108884
129	0xbbff1ea6	-0.007785636
130	0xbcaa5ae0	-0.020795286
131	0x3d1dd25f	0.038530704
132	0xbb2c6462	-0.002630495
133	0x3d3c580b	0.0459824
134	0xbd3d291e	-0.04618179
135	0xbd23b054	-0.03996308
136	0xbcf72486	-0.030168783
137	0xbbd19702	-0.0063961754
138	0x3d0870f2	0.033310838
139	0x3c170481	0.009217382
140	0xbcd9310d	-0.026512647
141	0xbcc6e475	-0.024278859
142	0xbd289a64	-0.041162863
143	0xbd15647b	-0.03647278
144	0xbce6bf4e	-0.028167393
145	0x3d0d8b1b	0.03455649
146	0x3ca7fb06	0.02050544
147	0x3dbb0e59	0.09133596
148	0x3b145c37	0.0022637972
149	0x3c9b70aa	0.01897462
150	0x385da5cc	5.2844916e-05
151	0xb8294d19	-4.0364543e-05
152	0x3cec6f55	0.028861681
153	0xbd3b0a46	-0.045664094
154	0x3d2e9e1d	0.042631257
155	0x3da6bd80	0.08141613
156	0xbb0664df	-0.0020506901
157	0x3d8399c4	0.06425813
158	0x3caa7189	0.02080609
159	0xbca74744	-0.020419724
160	0xbd355bd5	-0.04427703
161	0xbd53bfdb	-0.05169664
162	0xbd02625f	-0.031832095
163	0xbc958856	-0.018253487
164	0xbb81e994	-0.0039646123
165	0xbbd749f9	-0.0065700975
166	0x3cda92d6	0.026681345
167	0x3d9a773c	0.075422734
168	0xbca719f3	-0.020398116
169	0x3ce99466	0.028513145
170	0xbd934810	-0.07191479
171	0xbb959b88	-0.00456566
172	0xbc1511bf	-0.009098469
173	0xbce322b1	-0.027726503
174	0x3d5089ac	0.050912544
175	0x3da93115	0.08261315
176	0xbd837095	-0.06417958
177	0xbd5b587c	-0.053551182
178	0x3c42fa63	0.011900517
179	0xbd187e9b	-0.037230115
180	0x3d122e3a	0.035688616
181	0xbd32d46e	-0.04365962
182	0xbd0d1387	-0.03444245
183	0x3be223bb	0.006901232
184	0xbd6ab64a	-0.05730275
185	0xbc4475e4	-0.011990998
186	0x3d13b250	0.036058724
187	0x3bea06cb	0.007141923
188	0x3cef77c1	0.029231908
189	0xbd532696	-0.05155047
190	0xbd814ff9	-0.06314082
191	0xbc0bec38	-0.008540206
192	0x3cd61b94	0.026136197
193	0xbc3b4f96	-0.011432549
194	0xbd3c7daf	-0.0460183
195	0x3c2279de	0.009916751
196	0xbd212f87	-0.039351966
197	0x3b3b8505	0.0028613221
198	0x3cb4145b	0.021982362
199	0x3c04b3fd	0.008099553
200	0x3b6f2692	0.0036491496
201	0xbc9d4827	-0.019199444
202	0xbd29efe8	-0.041488558
203	0xbc93a5ca	-0.01802339
204	0xbd352626	-0.044225834
205	0xbc14c43e	-0.009079991
206	0x3c96fdc1	0.018431546
207	0x3ca9b71b	0.020717194
208	0x3b05dc7d	0.002042561
209	0xbc965913	-0.01835302
210	0xbcf9b02e	-0.030479517
211	0xbc611515	-0.0137379365
212	0xbc870730	-0.01648292
213	0x3a7d36b1	0.0009659334
214	0xbe2011e3	-0.15631823
215	0x3cdd9c96	0.027052205
216	0x3ce42523	0.02784974
217	0xbcce485c	-0.025180988
218	0xbcddff02	-0.027099136
219	0x3d9bc3b4	0.07605687
220	0xbcf3c979	-0.029759156
221	0xbc1dbfb0	-0.009628221
222	0xbdff39b2	-0.124621764
223	0xbc4ed9a3	-0.012625131
224	0xbc567b53	-0.013090926
225	0xbc57d471	-0.013173209
226	0xbc30f6ec	-0.010801058
227	0x3d7510f2	0.059830613
228	0xbcb70714	-0.022342242
229	0x3b8c0851	0.0042734523
230	0x3c54d4d8	0.012990199
231	0xbde1125b	-0.10989829
232	0x3caa1a51	0.020764502
233	0xbb8a6981	-0.004224003
234	0x3d590fce	0.05299359
235	0x3c393a68	0.011305429
236	0x3d83606b	0.06414875
237	0x3d3a1d0a	0.04543785
238	0x3d6276c1	0.055289034
239	0xbd77779f	-0.060416814
240	0x3c021c1a	0.00794127
241	0x3b5a8db5	0.0033348624
242	0x3c384f6f	0.011249407
243	0x3c6a2812	0.01429178
244	0x39b81f52	0.0003511855
245	0xbc86fb4b	-0.016477248
246	0x3cb64007	0.022247327
247	0x3bd22b15	0.006413827
248	0xbd3de9a0	-0.04636538
249	0xbcd95fa5	-0.026534865
250	0x3d9a1d7a	0.075251535
251	0xbd416f33	-0.04722519
252	0xbcd2f060	-0.025749385
253	0xbb64072c	-0.0034794314
254	0xbcbaeefa	-0.022819031
255	0xbd4ac504	-0.049504295

exp_avg_sq f4 [2, 768]
0	0x3b906feb	0.004407873
1	0x3afacd3e	0.0019134653
2	0x3b20f828	0.0024561975
3	0x3cc44bfc	0.023962013
4	0x3cfd2e8d	0.030905986
5	0x3ac250fd	0.0014825162
6	0x3da29c63	0.07939985
7	0x3c27a9bd	0.01023334
8	0x413f874a	11.97053
9	0x3d92f3ee	0.07175432
10	0x3b076fff	0.002066612
11	0x3c9e91c1	0.01935661
12	0x3c0a4d8e	0.008441342
13	0x3d5a1180	0.053239346
14	0x3c790b2d	0.015200418
15	0x3b969796	0.004595707
16	0x3ac50ba1	0.0015033373
17	0x3c06929e	0.008213667
18	0x3bbd0cfe	0.005769371
19	0x3c47cc0f	0.012194647
20	0x3c257b27	0.010100163
21	0x3c37433c	0.0111854635
22	0x3c07d3d8	0.008290254
23	0x3c813e4f	0.015776781
24	0x3d7b8871	0.061409418
25	0x3b9dd43f	0.0048165615
26	0x3aee55dd	0.0018183548
27	0x3ced69da	0.028981138
28	0x3ae26bb4	0.001727453
29	0x3b196719	0.0023407398
30	0x3d75b66e	0.05998843
31	0x3c3322de	0.010933606
32	0x3c2a12f9	0.0103805
33	0x3d45c68c	0.048285052
34	0x3c10b307	0.008831746
35	0x3cac07f8	0.020999894
36	0x3d1ea954	0.038735703
37	0x3aacfa9e	0.0013197248
38	0x3f8b8419	1.0899688
39	0x3aea8f87	0.0017895558
40	0x3bcea9b1	0.00630685
41	0x3bc55a35	0.0060227164
42	0x3af206ea	0.0018465195
43	0x3ed91a60	0.42402935
44	0x3d5affbe	0.05346655
45	0x3b34b9a6	0.0027576475
46	0x3ce9e04b	0.028549334
47	0x3c3239f4	0.010878075
48	0x3ad4b345	0.0016227743
49	0x3c73b5fa	0.01487493
50	0x3c177aee	0.009245617
51	0x3c5389a9	0.012911239
52	0x3c0abb08	0.008467443
53	0x3ad32f77	0.0016112168
54	0x3c9bebba	0.019033302
55	0x3babe5e4	0.005245911
56	0x3b899c5d	0.004199548
57	0x3c7ed846	0.015554493
58	0x3c91ca3f	0.017796634
59	0x3c04ce8e	0.008105887
60	0x3c9a63c3	0.018846398
61	0x3cbb9e2a	0.022902567
62	0x3b170444	0.0023043314
63	0x3dc94c18	0.09828967
64	0x3b00a493	0.0019629344
65	0x3d6954dc	0.056965694
66	0x3c334224	0.010941062
67	0x3b0eea69	0.00218072
68	0x3d143a35	0.036188323
69	0x3d096d72	0.03355164
70	0x3b7968e6	0.003805691
71	0x3c2af520	0.010434419
72	0x3b19d2c5	0.0023471576
73	0x3bbac7e6	0.0057000993
74	0x3b8d2620	0.0043075234
75	0x3c2ae060	0.010429472
76	0x3d07b0db	0.033127647
77	0x3b03a129	0.0020085073
78	0x3c9cc7fb	0.019138327
79	0x3c80a927	0.015705658
80	0x3b105507	0.0022023336
81	0x3bbff226	0.0058577238
82	0x3b1ed895	0.002423798
83	0x3ab95e52	0.001414249
84	0x3c18abdb	0.009318317
85	0x3ba62365	0.0050701373
86	0x3dcd750e	0.10032092
87	0x3b75f208	0.0037528295
88	0x3cc33984	0.023831137
89	0x3b3ab69e	0.0028490196
90	0x3c13f5fe	0.009030817
91	0x3a9b0232	0.0011826216
92	0x3cf9d0a0	0.030494988
93	0x3d65ddd2	0.056119747
94	0x3c351b0e	0.011053814
95	0x3b81fc06	0.003966811
96	0x3b7e86c0	0.0038837641
97	0x3bdc5567	0.006724048
98	0x3bf6cd58	0.007531803
99	0x3da11d02	0.07866861
100	0x3ba53174	0.0050412957
101	0x3bfdc8cd	0.0077448846
102	0x3cb9634b	0.022630354
103	0x3c3c6242	0.011498036
104	0x3e2d80a4	0.16943604
105	0x3b16ca4a	0.0023008757
106	0x3add1f31	0.0016870258
107	0x3b69ac1c	0.0035655564
108	0x3ccdc2cd	0.025117302
109	0x3b7e3f32	0.0038794992
110	0x3c1dd2c1	0.009632767
111	0x3c0de947	0.008661575
112	0x3bb29bea	0.0054507153
113	0x3c1565bd	0.009118495
114	0x3ba6a732	0.005085849
115	0x3aa9b6a5	0.0012948109
116	0x3af239c6	0.0018480353
117	0x3c184c99	0.009295606
118	0x3d06231f	0.032748338
119	0x3c979bd5	0.018506924
120	0x3c30d17c	0.0107921325
121	0x3b010987	0.0019689517
122	0x3b03dd26	0.0020120828
123	0x3d168093	0.03674371
124	0x3c066d4f	0.008204772
125	0x3db27eee	0.08715616
126	0x3bd3f9c7	0.0064689848
127	0x3b27ada3	0.0025585673
128	0x3c4ee8de	0.012628762
129	0x3b9fc176	0.0048753573
130	0x3bd15384	0.0063881297
131	0x3c9e7f89	0.019347923
132	0x3ad4f006	0.0016245849
133	0x3cbc7616	0.023005527
134	0x3ccdb994	0.025112905
135	0x3c699b80	0.0142582655
136	0x3c238dff	0.009982585
137	0x3b646bdf	0.0034854335
138	0x3c4318bb	0.011907752
139	0x3b1cbd6e	0.002391662
140	0x3cbe6c81	0.023245098
141	0x3c2788a3	0.010225448
142	0x3caaa851	0.020832213
143	0x3c7a1c69	0.015265563
144	0x3c01d73c	0.007924851
145	0x3c034f0a	0.00801445
146	0x3b080b01	0.0020758512
147	0x3d6967d7	0.056983795
148	0x3b4870df	0.0030584855
149	0x3c2a9af3	0.010412919
150	0x3b9fc326	0.0048755584
151	0x3b03388f	0.0020022725
152	0x3c0ec153	0.008713084
153	0x3cddf740	0.027095437
154	0x3ce73e6e	0.028228011
155	0x3d506ba1	0.050883893
156	0x3ad8a5e3	0.001652893
157	0x3d2648e3	0.040596854
158	0x3c06e16c	0.008232456
159	0x3c15bbe6	0.009139037
160	0x3c8ab5dd	0.016932422
161	0x3cc30bb0	0.023809284
162	0x3b88a653	0.004170218
163	0x3acac3a0	0.0015469678
164	0x3b29dc4d	0.0025918663
165	0x3b08fb4f	0.0020901745
166	0x3bd03f8d	0.006355232
167	0x3d2549d9	0.04035363
168	0x3bdc6c7b	0.006726799
169	0x3b52e065	0.0032177207
170	0x3d855c6b	0.06511768
171	0x3b1783f5	0.0023119424
172	0x3b0ae062	0.0021190871
173	0x3ba00894	0.004883835
174	0x3cb1ce41	0.021704795
175	0x3d86d27f	0.06583118
176	0x3d080791	0.03321034
177	0x3cd41f66	0.025893878
178	0x3b50d919	0.0031867682
179	0x3c41151e	0.01178482
180	0x3d0b0902	0.033944137
181	0x3ccf3151	0.02529207
182	0x3c3ca44a	0.011513779
183	0x3ac126b9	0.0014736272
184	0x3cca2831	0.024677368
185	0x3b099731	0.0020994658
186	0x3c3f41ad	0.011673373
187	0x3add2dc7	0.0016874605
188	0x3b86f19c	0.0041181576
189	0x3d011bb5	0.031520564
190	0x3d0af106	0.033921264
191	0x3babcd98	0.0052430145
192	0x3c0cb2ef	0.008587583
193	0x3b18878b	0.002327415
194	0x3cbd6842	0.023121003
195	0x3b06ff14	0.0020598816
196	0x3c2ef7b6	0.010679176
197	0x3b03f016	0.0020132116
198	0x3c2ecdfc	0.010669228
199	0x3b32c116	0.0027275733
200	0x3bbe14dd	0.005800827
201	0x3b624c1e	0.0034530233
202	0x3c6c4888	0.01442159
203	0x3b1624ad	0.0022910044
204	0x3bff4046	0.0077896444
205	0x3b87d805	0.0041456246
206	0x3baadb7b	0.0052141524
207	0x3ae6172c	0.0017554513
208	0x3b47a255	0.0030461748
209	0x3b927488	0.004469458
210	0x3b87c916	0.0041438444
211	0x3bf0aca0	0.0073447973
212	0x3b47d978	0.0030494612
213	0x3bd76324	0.006573098
214	0x3e8f65a7	0.28007242
215	0x3c5bca5f	0.013414948
216	0x3bb702ab	0.005585035
217	0x3c907a23	0.017636364
218	0x3c2f94d7	0.0107166385
219	0x3d9189ce	0.07106362
220	0x3c20c9e0	0.009813756
221	0x3bb0eb86	0.0053991703
222	0x3e33ee41	0.17571355
223	0x3c7d0535	0.015443136
224	0x3c4518e0	0.012029856
225	0x3b2cd55f	0.0026372296
226	0x3c209fe0	0.009803742
227	0x3ce5a392	0.028032098
228	0x3c109fc9	0.008827158
229	0x3ae2939b	0.0017286421
230	0x3becdef5	0.007228727
231	0x3e0ba99a	0.13638917
232	0x3c45e187	0.012077696
233	0x3ae0bd24	0.0017146212
234	0x3cd91a39	0.026501762
235	0x3ae1a48e	0.0017215179
236	0x3cd37884	0.025814302
237	0x3c810258	0.015748188
238	0x3d1cffe5	0.038329978
239	0x3c6de35d	0.01451954
240	0x3c011a13	0.007879752
241	0x3b66f14d	0.0035239041
242	0x3b3fb35e	0.0029251198
243	0x3bc55af3	0.006022805
244	0x3aea0414	0.0017853999
245	0x3b2703bd	0.0025484406
246	0x3b47b987	0.0030475573
247	0x3b8597fb	0.0040769554
248	0x3c908e16	0.017645877
249	0x3b5fd24d	0.0034152449
250	0x3d344542	0.044011362
251	0x3cbbb0cd	0.022911454
252	0x3c4c2fc1	0.012462557
253	0x3af77b16	0.0018881287
254	0x3aa2a9c4	0.0012410213
255	0x3cd518f6	0.026012879

exp_avg f4 [2]
0	0x3d509b95	0.050929625
1	0xbd509b95	-0.050929625

exp_avg_sq f4 [2]
0	0x3ce9fd77	0.028563244
1	0x3ce9fd78	0.028563246
