TASK2/gender_classification_model/checkpoint_step_11000.pth (torch, 22993 bytes, 6 tensors)

weight f4 [2, 768]
0	0x3cd6d5ec	0.026225053
1	0x3bab658a	0.0052306103
2	0x3cdc1144	0.026863702
3	0x3c77efb8	0.015132837
4	0xbcdd66ce	-0.02702656
5	0x3ba9bd30	0.0051800236
6	0xbc01be79	-0.007918947
7	0xbcdd2a20	-0.026997626
8	0xbcf99087	-0.030464424
9	0xbc70d56a	-0.014699319
10	0xbd46a0b4	-0.048493102
11	0xbbf13bc8	-0.007361863
12	0xbd4a0f1a	-0.04933081
13	0x3cb32497	0.021868033
14	0x3cbe76a7	0.023249937
15	0xbc3a3ec7	-0.011367506
16	0x3b1bc193	0.0023766502
17	0xbc97a9dd	-0.018513614
18	0x3b312bd3	0.0027034178
19	0xbccd4127	-0.025055481
20	0xbc0df319	-0.008663916
21	0x3ca79449	0.02045645
22	0x3d36e651	0.04465324
23	0x3bf83cfe	0.00757563
24	0x3d119ec3	0.035551798
25	0xbc52c4dc	-0.012864318
26	0x3ca02771	0.019550057
27	0x3b89af26	0.0042017875
28	0x3d720573	0.059087228
29	0x3a0187a2	0.00049411703
30	0x3cffac71	0.031210156
31	0x3d09e5fe	0.033666603
32	0x3c871a22	0.016491953
33	0x3af0eb5a	0.0018380687
34	0xbc2cc20d	-0.010544312
35	0x3d164605	0.03668787
36	0x3c257133	0.01009779
37	0xbd8b1da5	-0.067927636
38	0x3c981afd	0.018567557
39	0xbdba41de	-0.090945944
40	0x3cdd9511	0.02704862
41	0x3996441a	0.0002866097
42	0xbcf0cb5a	-0.02939384
43	0x3c69a754	0.014261086
44	0xbcb8db45	-0.022565493
45	0xbb8259fb	-0.0039780117
46	0x3d07b8a9	0.03313509
47	0x3d4430d2	0.04789812
48	0x3d2f8bb1	0.04285783
49	0xbcc9e290	-0.024644166
50	0x3c3fcbb8	0.011706285
51	0x3ca0fc61	0.019651594
52	0xbc174922	-0.009233745
53	0xbd13e085	-0.03610279
54	0xbbc8866f	-0.0061195414
55	0xbcae18f4	-0.021252133
56	0xbb89657d	-0.0041930065
57	0xbbd26010	-0.006420143
58	0xbb156323	-0.0022794686
59	0x3cad8867	0.021183206
60	0x3c0fffb6	0.008788994
61	0x3bd35aa9	0.0064500165
62	0xbd40ab3f	-0.047038313
63	0xbc7db9fc	-0.015486237
64	0xbb2652ab	-0.0025378864
65	0xbc77fa80	-0.015135407
66	0x3d3f39d6	0.046686016
67	0x3d8017a4	0.06254509
68	0xbd16c9a6	-0.0368134
69	0x3d00c1ac	0.0314347
70	0x3a37c413	0.00070101133
71	0x3acb4e29	0.0015510964
72	0xbb58743d	-0.0033028268
73	0xbc551269	-0.013004878
74	0xbcbed37e	-0.023294207
75	0xbd091c28	-0.033474118
76	0xbbca0c35	-0.006166006
77	0x3c748f3a	0.014926726
78	0xbb84f8ee	-0.004057995
79	0xbc7bdf8c	-0.015373122
80	0x3cc8608c	0.0244601
81	0xbcbf8c55	-0.023382345
82	0xbd89efbb	-0.06735178
83	0x3b5041b7	0.003177745
84	0x3c427b0c	0.011870157
85	0x3caf305a	0.02138536
86	0xbc922d3f	-0.01784384
87	0xbd42171d	-0.047385324
88	0x3d269563	0.04066981
89	0x3c6b1959	0.014349305
90	0x3d2a2758	0.041541427
91	0xbd3d0a9b	-0.046152692
92	0x3d13bb56	0.03606733
93	0x3c99ff5e	0.018798526
94	0x3ba9350f	0.005163796
95	0xbd098823	-0.033577096
96	0xba7d4182	-0.00096609455
97	0x3d4e893c	0.050423846
98	0xbc3f8130	-0.011688516
99	0x3d03bbf2	0.03216166
100	0xbc36c62f	-0.011155649
101	0x3c365223	0.011127981
102	0x3d43df2a	0.047820248
103	0xbcb4f57c	-0.022089712
104	0x3c30f883	0.010801437
105	0xbb227dbf	-0.0024794189
106	0x3d9316a7	0.07182055
107	0xbd532bd3	-0.051555466
108	0xbbb46c98	-0.0055061094
109	0x3d86c920	0.0658133
110	0xbd2e5ef4	-0.042571023
111	0xbc80d0fb	-0.01572465
112	0x3c69528f	0.014240875
113	0xbbcd56f6	-0.00626647
114	0x3bb7ada5	0.005605417
115	0x3cdeacfc	0.027182095
116	0x3dac5211	0.084140904
117	0xbc52a5da	-0.012856925
118	0xbc4ad0f9	-0.0123789245
119	0x3caa0c88	0.020757928
120	0x3d969bf2	0.07353963
121	0x3d7e7cc4	0.062130705
122	0xbc18f657	-0.009336076
123	0xbb90bdca	-0.004417156
124	0x3c1a7501	0.00942731
125	0x3c04df77	0.008109919
126	0xbce8144f	-0.028329996
127	0xbceb247d	-0.028703922
128	0x3b1e7815	0.0024180461
129	0xbcae70b9	-0.021293985
130	0xbd3bbe9e	-0.045836084
131	0x3bb1b00e	0.0054225987
132	0x3d5a70a6	0.053330086
133	0x3c4032c5	0.011730854
134	0x3d1a0570	0.03760284
135	0x3c3c0f61	0.011478276
136	0xbcc9665d	-0.024584943
137	0xbc1d1ce5	-0.0095894085
138	0x3d2491a3	0.040177952
139	0xbc0bccf7	-0.008532754
140	0xbd2382ab	-0.039919537
141	0xbc61b12a	-0.013775149
142	0xbb9dea3d	-0.004819183
143	0x3c4e3b83	0.012587431
144	0xbcdb3a17	-0.026761098
145	0x3b2e6683	0.0026611395
146	0xbbbda877	-0.005787905
147	0x3a23af49	0.0006244076
148	0xbc618316	-0.0137641635
149	0xbcd40377	-0.025880558
150	0x3ce7ac36	0.028280359
151	0xbd3cd248	-0.046098977
152	0x3d295b69	0.04134694
153	0x3d4325bb	0.047643404
154	0x3cc66d35	0.024221996
155	0xbc0f4aba	-0.008745844
156	0xbc8d0870	-0.017215937
157	0xbd1d25b3	-0.03836603
158	0xbc9c1fac	-0.019058071
159	0x3d81076e	0.06300245
160	0xbbf05413	-0.007334241
161	0xbc82c714	-0.015964068
162	0xbcd2a005	-0.025711069
163	0x3cacee6a	0.021109778
164	0xbd5c3223	-0.05375875
165	0x3db05ebb	0.086118184
166	0xbc8a4013	-0.016876256
167	0xbcfe5fd8	-0.031051561
168	0xbcce7724	-0.025203295
169	0x3c53c48a	0.0129252765
170	0x3cd4c112	0.02597097
171	0x3c610087	0.013733036
172	0xbd0156e6	-0.031577013
173	0x3cebd2e7	0.02878709
174	0xbc434e4f	-0.011920526
175	0xbce02460	-0.027361095
176	0x3cb0075a	0.02148788
177	0x3d0dc637	0.03461286
178	0x3bddd40f	0.006769664
179	0x3d22413c	0.039612994
180	0x3ce9a1cd	0.028519535
181	0xbcae4e8b	-0.021277687
182	0x3b8bb9ca	0.004264091
183	0xbc086706	-0.008325344
184	0xbcb7617e	-0.022385355
185	0x3d9db546	0.07700591
186	0xbce16612	-0.027514491
187	0xbd21be94	-0.03948839
188	0xbbc20424	-0.0059209038
189	0x3b6697a5	0.0035185602
190	0x3c2b1d6e	0.010444028
191	0xbb65b66b	-0.0035051357
192	0xbcbd6328	-0.02311857
193	0x3d0e4f33	0.0347435
194	0xbd1fcf22	-0.039015897
195	0xbda426b6	-0.08015196
196	0xbd8864a2	-0.06659819
197	0xbd58e6d1	-0.0529545
198	0x3d3eb887	0.046562698
199	0xbd1ab2ff	-0.03776836
200	0xbd68e1b7	-0.056855883
201	0xbbb2b950	-0.00545422
202	0x3d3fa4ae	0.04678791
203	0x3c04db73	0.008108961
204	0x3ce8c99d	0.02841645
205	0x3d2f24e8	0.042759806
206	0xba52936f	-0.00080328336
207	0xbcb2ea56	-0.021840256
208	0x3d6abaa8	0.057306916
209	0x3bc49c71	0.0060000946
210	0x3c7916e4	0.015203211
211	0xb9e84ae9	-0.000443063
212	0xbca4b7de	-0.020107206
213	0xbd237ae6	-0.039912127
214	0xbcae5540	-0.021280885
215	0x3d09759f	0.033559438
216	0xbcbd2513	-0.023088967
217	0xbd1199c9	-0.03554705
218	0xbca49813	-0.020092046
219	0x3cd9b2d6	0.026574533
220	0xbd398786	-0.04529526
221	0x3c073c03	0.008254054
222	0x3d0a2681	0.033728126
223	0xbcebc6c7	-0.028781308
224	0x3bf22e10	0.007390745
225	0xbc0a0527	-0.00842408
226	0xbd333c92	-0.043758936
227	0x3c7c8f6a	0.015415052
228	0xbb41b862	-0.0029559364
229	0xbc1e676d	-0.009668213
230	0xbc94c80c	-0.018161796
231	0xbc16048e	-0.009156359
232	0x3c9daa04	0.019246109
233	0x3d2b9689	0.04189161
234	0x3be045d4	0.0068442617
235	0x3db3547f	0.08756351
236	0xbb267c7b	-0.0025403786
237	0xbd2d1f6e	-0.0422663
238	0xbd1193aa	-0.035541214
239	0x3cba70c6	0.022758853
240	0xbcecdfc4	-0.028915294
241	0xbca491c8	-0.020089045
242	0x3d07d48b	0.03316168
243	0x3d265d5a	0.04061637
244	0x3d1edfb9	0.038787577
245	0x3d1bebb0	0.038066566
246	0xbba6df7d	-0.00509256
247	0x3b4ebe07	0.003154637
248	0xbbd364db	-0.006451232
249	0x3c7e0d56	0.015506109
250	0xbbfac279	-0.0076525775
251	0x3c1e2856	0.0096531715
252	0x3d218801	0.039436344
253	0xbc9faa2d	-0.019490326
254	0x3c3040c3	0.010757628
255	0x3d104ed8	0.03523144

bias f4 [2]
0	0x3cc565af	0.024096338
1	0xbb9a8474	-0.0047154967

exp_avg f4 [2, 768]
0	0x3c454edf	0.01204273
1	0xbc19b6c0	-0.00938195
2	0xbb990947	-0.0046702954
3	0x3cdf245c	0.027239017
4	0x3d462c1d	0.048381913
5	0xbbc32f70	-0.0059565827
6	0xbd4aba77	-0.049494233
7	0x3c585770	0.0132044405
8	0x3f5d0180	0.86330414
9	0x3d89cf80	0.067290306
10	0x3c1485a5	0.009065066
11	0xbcca2671	-0.024676533
12	0xbc828468	-0.015932277
13	0xbda1cacf	-0.07900011
14	0xbd01bfc4	-0.031677023
15	0xbbd63aed	-0.006537786
16	0xbbbda0b0	-0.0057869777
17	0xbcf7683a	-0.030201066
18	0x3c96ce1b	0.018408826
19	0x3c92863a	0.01788627
20	0x3d02f2f4	0.03196998
21	0x3c70e8b4	0.014703918
22	0xbd0b9892	-0.03408105
23	0xbcb6c4c2	-0.022310618
24	0xbd9db306	-0.07700162
25	0xbc90c485	-0.017671833
26	0xbb379a64	-0.0028015608
27	0xbd2bad9b	-0.04191361
28	0xba544f91	-0.00080990145
29	0xbb194f50	-0.0023393221
30	0x3d9113de	0.070838675
31	0x3ce2939e	0.02765828
32	0xbd143b4e	-0.03618937
33	0xbd8539e1	-0.0650518
34	0xbc298581	-0.010346771
35	0xbd0cee05	-0.03440668
36	0xbd44ce33	-0.04804821
37	0xba957432	-0.0011402427
38	0xbe84803b	-0.25879082
39	0x3cc3913f	0.02387297
40	0xb977492a	-0.00023583011
41	0x3cd569e8	0.026051477
42	0xbc24d72a	-0.010061065
43	0x3e1bad13	0.15202741
44	0x3d78329d	0.060595144
45	0x3cba2893	0.022724425
46	0xbd527798	-0.051383585
47	0xbcbd21da	-0.02308743
48	0x3b8dbb38	0.0043252967
49	0x3cc04c35	0.023473838
50	0x3c8cb068	0.01717396
51	0x3d0c8d97	0.034314718
52	0x3cc08713	0.023501908
53	0x3b5750ff	0.0032854674
54	0x3d092d1b	0.03349028
55	0x3c1337ef	0.008985504
56	0x3cb3f9a6	0.021969628
57	0xbccdb5a2	-0.025111023
58	0xbcbb575a	-0.0228688
59	0xbca2bab3	-0.019864416
60	0x3d3cbd2c	0.046078846
61	0xbd01d36e	-0.031695776
62	0xbc47bddf	-0.012191265
63	0xbda6ceae	-0.0814489
64	0x39c174e1	0.0003689891
65	0x3d8177d4	0.063216835
66	0xbca6205f	-0.020279108
67	0x3ca4b1c5	0.020104298
68	0x3d4e82c1	0.050417665
69	0x3d38e10f	0.045136508
70	0xbb96ea31	-0.0046055545
71	0xbc9bfa33	-0.019040203
72	0x3b158e56	0.0022820435
73	0x3c62f858	0.013853155
74	0xbc0c50a1	-0.008564145
75	0xbc61d05b	-0.013782586
76	0x3cd8a924	0.02644784
77	0xbbed0e58	-0.007234376
78	0x3d7f5127	0.062333252
79	0xbd1f153f	-0.03883862
80	0x3ca3b9bd	0.019986028
81	0xbc12d5c2	-0.008962097
82	0x3c38255d	0.011239377
83	0xbc2f0ef2	-0.010684716
84	0x3c2388e9	0.009981372
85	0xbbe424a1	-0.0069623743
86	0x3dac2f60	0.084074736
87	0x3c97a29d	0.018510157
88	0xbd2afdc4	-0.041745916
89	0xbcf36bee	-0.02971455
90	0xbcdb7447	-0.026788844
91	0x3c80af6f	0.015708653
92	0xbd6199dd	-0.055078376
93	0x3d5511c8	0.05201891
94	0x3cfcd94d	0.030865336
95	0xbc3e4003	-0.011611941
96	0x3c0c50c5	0.008564179
97	0x3bd27c91	0.006423541
98	0xbbca302e	-0.0061702942
99	0xbda4de80	-0.08050251
100	0x3c028ab7	0.0079676425
101	0xbd0d303c	-0.034469828
102	0xbce2456e	-0.027620997
103	0x3cbe4fd5	0.023231426
104	0x3dbe27d5	0.09284941
105	0x3b8a65c0	0.0042235553
106	0x3b7dd83e	0.0038733627
107	0xbc5fe579	-0.01366555
108	0xbcda4e3e	-0.026648637
109	0x3c09f889	0.008421072
110	0xbca62ada	-0.020284105
111	0xbca0f394	-0.019647397
112	0xbcaa24f9	-0.020769583
113	0xbc0c6b52	-0.008570509
114	0xbbe4c85c	-0.0069818925
115	0x3c8fb916	0.01754431
116	0x3ba60af6	0.0050672246
117	0x3d022ead	0.031782795
118	0x3d1e061b	0.03858004
119	0x3cd71ee3	0.026259845
120	0x3cfe7879	0.031063305
121	0xbbb5505d	-0.0055332617
122	0xbc30e8c3	-0.010797682
123	0xbd8e367d	-0.069439866
124	0x3c26de61	0.010184855
125	0x3da5f477	0.081032686
126	0xbcbd8a43	-0.023137217
127	0x3cd0594d	0.025433207
128	0x3d150cd1	0.036389176
129	0x3cf426c4	0.029803641
130	0x3c74faf4	0.01495241
131	0xbcfbd987	-0.030743374
132	0xbb934d48	-0.0044952966
133	0xbd2c86a5	-0.042120595
134	0x3d46a9a4	0.048501626
135	0x3cdc2d24	0.026876993
136	0x3cdb5f48	0.026778832
137	0xbb46fd45	-0.0030363363
138	0xbca5ab0a	-0.02022316
139	0xbb97f5cc	-0.0046374556
140	0x3cbf0d00	0.023321629
141	0x3c807235	0.015679458
142	0x3cfcc91d	0.030857617
143	0x3d28d785	0.04122116
144	0x3b357525	0.0027688232
145	0xbc173593	-0.009229082
146	0xbbf740b7	-0.0075455564
147	0xbd7c20ef	-0.061554845
148	0xbc5a754a	-0.013333628
149	0xbc84cab6	-0.016209941
150	0x3b96ce8d	0.0046022595
151	0x3bc77fad	0.006088218
152	0xbceb16bc	-0.028697364
153	0x3d29a6a4	0.041418687
154	0xbd441a4a	-0.047876634
155	0xbd7e986d	-0.062157083
156	0x3c7dc75e	0.015489427
157	0xbd5d95d9	-0.054097984
158	0xbcb396d3	-0.021922505
159	0x3cb56599	0.022143172
160	0x3c950945	0.018192897
161	0x3d4d4201	0.050111774
162	0x3c96b7a7	0.01839812
163	0x3c334828	0.010942496
164	0x3bcb183b	0.006197957
165	0xbb207f89	-0.002449008
166	0x3c43d411	0.011952416
167	0xbd68c069	-0.05682412
168	0x3c274e63	0.01021156
169	0xbcaf1999	-0.02137451
170	0x3d8dfeab	0.0693334
171	0x3b801cf7	0.003909703
172	0xbc29d646	-0.010366028
173	0xbb923354	-0.004461685
174	0xbd15a284	-0.03653194
175	0xbd91e9a5	-0.07124642
176	0x3d2b9b07	0.041895892
177	0x3d4cff09	0.050047908
178	0xbc5ea3b6	-0.013588836
179	0x3ceb995f	0.028759656
180	0xbd4f4166	-0.05059948
181	0x3d01d082	0.03169299
182	0x3d0a3503	0.033741962
183	0xbbcb29bb	-0.006200043
184	0x3d0a861d	0.033819307
185	0x3a393cc5	0.00070662453
186	0xbc937d25	-0.01800401
187	0x3c19aa94	0.009379048
188	0xbcbad994	-0.022808827
189	0x3d428184	0.047486797
190	0x3d463ad9	0.048395965
191	0x3c2904f1	0.0103161195
192	0xbc97590a	-0.018475074
193	0x3cd1e044	0.025619633
194	0x3d49fb30	0.049311817
195	0xbc34eb2b	-0.011042397
196	0x3ce347b1	0.027744146
197	0xbb3b9b6e	-0.002862658
198	0xbcef712b	-0.029228767
199	0xbb45b422	-0.0030167182
200	0x3c2be66d	0.0104919495
201	0x3c84b4c0	0.01619947
202	0x3c4b90a1	0.012424619
203	0x3b1b36c7	0.0023683773
204	0x3d5adecc	0.053435132
205	0x3cb7b478	0.022424921
206	0xbc27ce67	-0.010242081
207	0xbc4544e6	-0.012040352
208	0xbc16dbe5	-0.0092077
209	0x3a053ac2	0.0005082303
210	0x3c026af4	0.00796007
211	0x3d045e56	0.03231653
212	0x3c2e1a3d	0.010626373
213	0xbb84bf1a	-0.0040511014
214	0x3dfeba6c	0.12437901
215	0xbcf74d9b	-0.030188372
216	0xbc9dcbd4	-0.019262232
217	0x3c8f0b9c	0.01746159
218	0x3d13daab	0.03609721
219	0xbd832bbf	-0.06404828
220	0x3c050881	0.008119703
221	0x3cdf681d	0.027271325
222	0x3dc1aea1	0.09457136
223	0x3d0d804b	0.034546178
224	0x3cc0c422	0.023531023
225	0x3c471f7d	0.0121535035
226	0x3b888bfe	0.004167079
227	0xbd5174c1	-0.051136736
228	0x3cc49b1c	0.023999743
229	0x3c14c907	0.009081132
230	0xbcca6f97	-0.024711413
231	0x3dc322de	0.09528135
232	0xbca151e6	-0.019692373
233	0xbc11aeb5	-0.008891751
234	0xbd1866c4	-0.03720738
235	0xbc1a7789	-0.009427913
236	0xbd4999f6	-0.049219094
237	0xbd0d1bfe	-0.034450524
238	0xbd41a9aa	-0.047280945
239	0x3d05a287	0.0326257
240	0xbc83fdb6	-0.01611219
241	0xbc87ebad	-0.016591871
242	0x3bc7329e	0.006079032
243	0xbc9cf07e	-0.019157644
244	0xbb7ed5e1	-0.0038884806
245	0x3c19b894	0.009382386
246	0xbc120d69	-0.00891433
247	0xbb61f745	-0.003447966
248	0x3d20b784	0.039237514
249	0x3c8da9b9	0.017292844
250	0xbd3a3576	-0.04546114
251	0x3d04a5e9	0.032384787
252	0x3cc4a13e	0.024002668
253	0x3ca109c0	0.01965797
254	0x3c3e6f5d	0.011623231
255	0x3d18b8a3	0.03728546

exp_avg_sq f4 [2, 768]
0	0x3b8f282c	0.0043688025
1	0x3af098d7	0.0018356097
2	0x3b201fa4	0.0024432922
3	0x3cc52f09	0.02407028
4	0x3cf6c4c5	0.030123124
5	0x3aaf20ce	0.0013361217
6	0x3da33931	0.07969893
7	0x3c2b23ff	0.010445594
8	0x413f26d6	11.946981
9	0x3d91b307	0.07114225
10	0x3b00e5cf	0.0019668227
11	0x3c9c8458	0.019106075
12	0x3c061a58	0.008184992
13	0x3d57d5f8	0.05269429
14	0x3c735fc9	0.01485438
15	0x3b91c83c	0.0044489186
16	0x3abd1951	0.00144271
17	0x3c04a95e	0.008097021
18	0x3bb7c3cd	0.005608058
19	0x3c442f71	0.011974202
20	0x3c2304e9	0.009949901
21	0x3c38cf71	0.011279927
22	0x3c020543	0.007935825
23	0x3c835828	0.016033247
24	0x3d79e429	0.061008606
25	0x3b9c7c5a	0.004775566
26	0x3adf6e23	0.0017046373
27	0x3cebe281	0.028794529
28	0x3ae1437d	0.0017186251
29	0x3b0f2370	0.002184119
30	0x3d7459ed	0.059656072
31	0x3c2fe0e6	0.010734772
32	0x3c235045	0.009967868
33	0x3d4582e1	0.04822052
34	0x3c0c9ceb	0.008582334
35	0x3cabaf36	0.02095757
36	0x3d1c85da	0.03821359
37	0x3aa3ffad	0.001251211
38	0x3f8a6a72	1.0813735
39	0x3ace0d7e	0.0015720574
40	0x3bd419d3	0.006472805
41	0x3bc650bb	0.0060521043
42	0x3ae32720	0.0017330386
43	0x3ed5042c	0.41604745
44	0x3d5a6a31	0.05332393
45	0x3b3a35b1	0.002841335
46	0x3ce947ce	0.028476622
47	0x3c2f0503	0.010682347
48	0x3ace81ac	0.0015755198
49	0x3c6c3a2b	0.014418165
50	0x3c0f04b9	0.008729153
51	0x3c563b57	0.013075671
52	0x3c08f2ad	0.00835864
53	0x3abb29b5	0.0014279397
54	0x3c9c07dc	0.019046716
55	0x3bafc9d2	0.005364635
56	0x3b8945c9	0.0041892272
57	0x3c7b5a7f	0.0153414
58	0x3c921d28	0.017836168
59	0x3c054d72	0.00813614
60	0x3c961fcf	0.018325714
61	0x3cb77b8f	0.022397785
62	0x3b150878	0.0022740643
63	0x3dc6dce1	0.09710098
64	0x3af13a1f	0.0018404162
65	0x3d68edd0	0.05686742
66	0x3c2dd7e7	0.010610557
67	0x3b09dad3	0.002103497
68	0x3d1141d1	0.035463158
69	0x3d08f607	0.033437755
70	0x3b84a80a	0.004048352
71	0x3c1e4ab2	0.009661363
72	0x3b12bdbc	0.0022390923
73	0x3bbe79fa	0.0058128806
74	0x3b8687b4	0.0041055325
75	0x3c2e6f61	0.010646672
76	0x3d04a294	0.03238161
77	0x3aff2eda	0.0019468919
78	0x3c9cda07	0.019146932
79	0x3c810738	0.015750512
80	0x3b0d8c80	0.0021598637
81	0x3bca121c	0.0061667096
82	0x3b213866	0.0024600266
83	0x3abaac45	0.0014242014
84	0x3c19669a	0.009362841
85	0x3b9ec498	0.004845213
86	0x3dcd9425	0.10038022
87	0x3b65ff5e	0.0035094838
88	0x3cc12f99	0.023582267
89	0x3b41988c	0.0029540388
90	0x3c18b7ea	0.009321192
91	0x3a8831b3	0.0010390788
92	0x3cf6d9ad	0.030133093
93	0x3d67e0fb	0.056611042
94	0x3c3078f8	0.010771029
95	0x3b7e2e9d	0.0038785108
96	0x3b82a65d	0.003987117
97	0x3bdaa782	0.0066728005
98	0x3bfd9513	0.0077387183
99	0x3da29b09	0.07939727
100	0x3ba48f33	0.0050219535
101	0x3c031e03	0.008002761
102	0x3cb70fc2	0.022346381
103	0x3c32c441	0.010911048
104	0x3e2d2465	0.16908415
105	0x3b1bbae2	0.0023762514
106	0x3adaa022	0.0016679803
107	0x3b68d6ed	0.0035528496
108	0x3ccef264	0.025262065
109	0x3b7a863d	0.0038226985
110	0x3c1eb343	0.009686294
111	0x3c0a79bd	0.008451876
112	0x3ba6dc95	0.0050922134
113	0x3c15cf33	0.009143638
114	0x3ba46bbe	0.0050177267
115	0x3aa840f3	0.0012836739
116	0x3add0791	0.0016863217
117	0x3c183af8	0.009291403
118	0x3d06fb64	0.03295459
119	0x3c977573	0.018488621
120	0x3c2d239e	0.010567574
121	0x3af56a86	0.0018723763
122	0x3b027372	0.0019905237
123	0x3d162642	0.03665758
124	0x3c034141	0.008011163
125	0x3db18c87	0.086693816
126	0x3bd12fe5	0.0063838833
127	0x3b1fd938	0.0024390947
128	0x3c47afa4	0.012187872
129	0x3b9c0ee5	0.0047625178
130	0x3bcfba94	0.0063393805
131	0x3c95dcd1	0.01829377
132	0x3ac60cf5	0.0015110063
133	0x3cbc4fb9	0.022987233
134	0x3cced7b1	0.025249334
135	0x3c66b403	0.014081004
136	0x3c23efa6	0.010005867
137	0x3b5dfa74	0.0033871206
138	0x3c454ec7	0.012042708
139	0x3b14072a	0.0022587278
140	0x3cbfc137	0.023407562
141	0x3c2a9a93	0.01041283
142	0x3ca720d1	0.02040139
143	0x3c770784	0.015077475
144	0x3bf8da36	0.007594372
145	0x3c04c908	0.00810457
146	0x3b0fcef5	0.0021943424
147	0x3d676f19	0.056502435
148	0x3b407a46	0.0029369756
149	0x3c2a4ce1	0.010394306
150	0x3ba583d2	0.0050511146
151	0x3afcd5c8	0.0019289786
152	0x3c09eaa6	0.008417761
153	0x3cde5496	0.027139943
154	0x3ce84bbf	0.028356431
155	0x3d5000aa	0.050781883
156	0x3ad18f33	0.0015988111
157	0x3d26a111	0.04068095
158	0x3c0357e4	0.00801656
159	0x3c183360	0.0092895925
160	0x3c89e250	0.016831547
161	0x3cc163f7	0.023607237
162	0x3b87325a	0.0041258754
163	0x3ac4d7fd	0.0015017983
164	0x3b21a5f7	0.0024665573
165	0x3b030a79	0.0019995256
166	0x3bcae47d	0.0061917887
167	0x3d270923	0.040780198
168	0x3bd875aa	0.0066058235
169	0x3b4d6dd5	0.0031345983
170	0x3d839c9f	0.064263575
171	0x3b199915	0.0023437191
172	0x3b023363	0.0019867055
173	0x3b9dd1bc	0.004816262
174	0x3cb650a2	0.022255246
175	0x3d87ef1c	0.06637403
176	0x3d066ba3	0.032817494
177	0x3cca7f59	0.024718927
178	0x3b4548e4	0.003010326
179	0x3c3cc34d	0.011521173
180	0x3d0fa90a	0.035073318
181	0x3ccf7fda	0.025329519
182	0x3c35407c	0.011062738
183	0x3ac13f60	0.0014743619
184	0x3cc99aec	0.024610005
185	0x3b069fc5	0.0020542007
186	0x3c438961	0.011934609
187	0x3adae2a2	0.0016699622
188	0x3b8b15a9	0.0042445255
189	0x3d015486	0.03157475
190	0x3d0b9e81	0.034086708
191	0x3ba8e0a3	0.005153732
192	0x3c0dd6f1	0.008657203
193	0x3b158769	0.0022816306
194	0x3cc029f6	0.023457509
195	0x3affa3d0	0.0019503776
196	0x3c313103	0.010814908
197	0x3b0a01bc	0.0021058163
198	0x3c2e3167	0.010631896
199	0x3b2e54d6	0.002660086
200	0x3bb7a7ef	0.005604736
201	0x3b56ca42	0.0032774364
202	0x3c706059	0.014671409
203	0x3b10f143	0.002211646
204	0x3bfd1488	0.007723395
205	0x3b8606d5	0.00409017
206	0x3bb0b3db	0.005392534
207	0x3ae01daf	0.001709869
208	0x3b4b6701	0.0031036737
209	0x3b95502c	0.0045566764
210	0x3b7ded9f	0.003874637
211	0x3bea56eb	0.0071514747
212	0x3b42dec9	0.002973484
213	0x3bd2560d	0.0064189495
214	0x3e8f4152	0.27979523
215	0x3c53ce01	0.012927533
216	0x3bb4b447	0.005514655
217	0x3c91b48f	0.017786292
218	0x3c318ace	0.010836316
219	0x3d913e73	0.07091989
220	0x3c189650	0.009313181
221	0x3bafd9d7	0.0053665447
222	0x3e32bb31	0.1745422
223	0x3c716156	0.014732679
224	0x3c3ecad3	0.011645037
225	0x3b2da637	0.0026496777
226	0x3c1f6ad8	0.009730063
227	0x3cdff8a6	0.027340245
228	0x3c141a38	0.009039454
229	0x3ad304dc	0.0016099471
230	0x3bf96f9b	0.0076121814
231	0x3e0b19b2	0.1358402
232	0x3c4a1921	0.012335093
233	0x3ad64b36	0.0016349319
234	0x3cd72242	0.026261453
235	0x3ad84981	0.0016501398
236	0x3cd231d6	0.02565853
237	0x3c7a8f16	0.015292903
238	0x3d1f9b6c	0.03896658
239	0x3c6c80f5	0.014435043
240	0x3bfcda0e	0.007716424
241	0x3b7057a7	0.0036673339
242	0x3b46cce3	0.0030334524
243	0x3bc02111	0.005863317
244	0x3ae64beb	0.0017570233
245	0x3b22d4cd	0.0024846077
246	0x3b4ad693	0.003095065
247	0x3b83f6a5	0.004027205
248	0x3c8dfd8f	0.01733282
249	0x3b5b04f2	0.0033419696
250	0x3d31ff7d	0.043456543
251	0x3cb73a00	0.022366524
252	0x3c4c80a4	0.012481842
253	0x3af94bf2	0.0019019826
254	0x3aa416f8	0.0012519052
255	0x3cd587b5	0.026065687

exp_avg f4 [2]
0	0xbd277a6c	-0.040888235
1	0x3d277a70	0.04088825

exp_avg_sq f4 [2]
0	0x3ce9bf6b	0.028533658
1	0x3ce9bf6b	0.028533658
