TASK2/gender_classification_model/checkpoint_step_4200.pth (torch, 22979 bytes, 6 tensors)

weight f4 [2, 768]
00000000: 00f4 e33c e6fe 063c 9bc6 3ebb 0be0 ec3b
00000010: 691c d9bc 4222 5dbc 8b2a c2bb 6c4a 70bb
00000020: e798 f7bc 42f3 20bc 0d01 00bd 7711 1f3b
00000030: 8e10 30bd 4e67 9a3c 2cf7 bb3c bf64 04bc
00000040: ff7e 6e3c e013 c9bc 5f9f 3dbc 8aff b4bc
00000050: ae13 bd39 e811 a93c 73d8 1f3d 474a ac3c
00000060: e6d5 093d 7059 2dbc 7c34 d8bb 1232 d53a
00000070: cf58 e83c 4bb3 273b 47e9 0e3d 3001 133d
00000080: ca3a e83c c223 c63b dc36 d6bb a210 063d
00000090: 1df4 483c c21d 59bd 59d5 ac3c 4567 6bbd
000000a0: 4dc3 943c 5e67 23bb e039 22bd 6d75 833c
000000b0: cc93 acbc 64e7 e0bb cc5d e03c 9a92 103d
000000c0: 49c7 bf3c 64fe 7cbc d4bd ba3c 6d82 8f3c
000000d0: 398c 2cbb 0991 a5bc 6253 39bc 7447 8cbc
000000e0: ae50 b33b f871 1939 5ba8 8ebb 2de1 113c
000000f0: 3e88 2d3c d515 413c e565 b8bc fa21 5abc
00000100: 35b6 833c 5a72 9abc 533c 193d 614e 213d
00000110: 3da8 f3bc 2216 f53c 0145 5e3c 4efc 2abc
00000120: 0da0 a63b de71 6b3b 394e dfbc 2340 f6bc
00000130: 4d97 adbb 64a9 4ebb 1c10 46bb 576f 01bc
00000140: 8ad1 e63b 1e60 13bc f47d 1cbd c138 213c
00000150: 8caa 703b d88d 493c 08a9 6ebc 75f7 0ebd
00000160: 1bde e63c 3fcd 45b9 216b e73c db5a 1dbc
00000170: 30cb f83c 70b0 833c 6229 cd3b d554 a4bc
00000180: 37bc b8ba 97d7 393d bbd8 63bc 3ee4 dd3c
00000190: 7e4b 09bb 7578 923b ce93 243d 7278 9abc
000001a0: 67db 473c cb83 93bb c6c8 653d 78ba 42bd
000001b0: 19f3 c13a 62c0 253d 517a 21bd 0c49 86bc
000001c0: 2191 f73b 0975 563a da43 98ba ff72 cc3c
000001d0: 8bb0 803d 82d4 123a 3e89 b4bc a931 fd3c
000001e0: 5f2c 393d a391 473d dbbb debb ab8a 5ebc
000001f0: 4943 c4bb d452 293c b929 80bc a533 d7bc
00000200: 58c5 4d3b 3ccb cbbb d2e6 08bd aa59 d93b
00000210: de6d 303d 1115 293c c156 003d 8ed4 9eb8
00000220: df52 b8bc 86e4 7dbc 9dda 123d ee63 733a
00000230: 204f ffbc c93c 3dbc 5a20 ea3b 96ea 6d3c
00000240: 86a6 dbbc 6167 e83b 3b05 893b 3efc c73a
00000250: a820 e4bc b308 08bd ee3c 993c 60c0 f4bc
00000260: a456 c23c 3b66 1d3d 2687 863c 48c7 72bc
00000270: 1814 c5bb cb0a 15bd e480 c8bc cff5 583d
00000280: 1bae 2fbc 12e3 50bc 6a67 efbc 1fbf 893c
00000290: d983 69bd c8c9 793d 1589 963a b98d 07bd
000002a0: 68c0 d8bb 5a29 a83c 7572 ce3c 8d4d 483c
000002b0: 24e1 cabc 6157 8d3c 22ea 9dbc 7d6d eabc
000002c0: a35d 713c 044d f53c 646e bdba a5af 003d
000002d0: 9ee0 903c 34e7 bebc a53e 253c 7a7e 83bb
000002e0: 318d 6ebc 5528 843d 50d9 c9bc 789e d1bc
000002f0: ad45 6dbb 4830 853b 5da9 ff3b 131a 583b
00000300: 1b0e 94bc e5c1 873c f4e6 d4bc 3717 59bd
00000310: cc44 47bd a5b0 bcbc 63d6 1d3d 31aa e5bc
00000320: 4b7e 24bd 9154 e039 36f2 1d3d 259b 13bc
00000330: 3000 f43c 6001 b73c a326 00bc b625 5abc
00000340: 54a1 2a3d 4346 67bb 3200 bf3b e07c 6f3c
00000350: 389d 50bc e7cf 00bd 4c0c 93bc f578 ac3c
00000360: 2ed0 88bc 189c 1fbd 5bc3 ccbc 580f f33c
00000370: 1224 f3bc 9a4f 503c ce3f 073d f0d2 acbc
00000380: 5b87 9939 35d5 65bc 5216 16bd 5fe6 893c
00000390: a5d6 23bc b510 043c 5800 b7bc a630 fdbb
000003a0: 17c7 983c 70bc ca3c a2ef 443c 7087 3b3d
000003b0: 912b 9dbb 30f2 fabc cddc bbbc 452e 1a3c
000003c0: e9e1 98bc ee0e 3bbc 9a88 163d d0c7 003d
000003d0: 317b a13c ab72 f13c c07d 25bc f7a2 3c3c
000003e0: a3da 28bc fe15 7c3c 5c97 773b 4d13 1a3c
000003f0: c319 033d 797d 39bc 1484 bb3c 06ed f63c
0.02782631 0.008239483 -0.0029110077 0.0072288564 -0.026502805 -0.013496937 -0.0059254817 -0.0036665453
-0.030224277 -0.009823622 -0.031251002 0.0024271884 -0.042984538 0.018848088 0.02294501 -0.00808066
0.014556645 -0.02454561 -0.011573642 -0.022094507 0.00036063552 0.020638421 0.03902478 0.021031512
0.033651255 -0.010580406 -0.0065980535 0.0016265532 0.02836266 0.0025589045 0.03489044 0.035889804
0.028348345 0.006046743 -0.0065373015 0.032730706 0.012265232 -0.053006895 0.021097826 -0.057471532
0.018159533 -0.0024933438 -0.039605975 0.016047204 -0.021066569 -0.0068635214 0.027388476 0.03529606
0.023410456 -0.015441511 0.022795595 0.017518247 -0.0026328696 -0.02021076 -0.011311384 -0.017123915
0.0054722643 0.00014633674 -0.0043535656 0.008903784 0.010591565 0.01178499 -0.022509525 -0.013313765
0.016078094 -0.018853355 0.037411045 0.03938139 -0.029743308 0.02991778 0.0135662565 -0.010436131
0.0050849975 0.0035926024 -0.02725898 -0.03005988 -0.0052975775 -0.003153407 -0.0030222004 -0.007900081
0.007044022 -0.008995084 -0.038206056 0.009840191 0.0036722748 0.012301885 -0.014566667 -0.034903962
0.02818208 -0.00018863844 0.028249325 -0.009604181 0.030370325 0.016075343 0.0062610367 -0.020059982
-0.0014094178 0.045371618 -0.013906653 0.027086373 -0.0020949538 0.004469926 0.04018002 -0.01885626
0.012198306 -0.004501795 0.056099676 -0.04754111 0.001479718 0.040466674 -0.03942329 -0.016392253
0.0075551425 0.0008180892 -0.0011616901 0.024957178 0.06283673 0.0005601124 -0.022038098 0.030907469
0.04520833 0.048722874 -0.0067972965 -0.013582866 -0.0059894663 0.010334689 -0.015644895 -0.026269743
0.0031398144 -0.006219296 -0.033423252 0.0066330032 0.043073528 0.010319964 0.031332735 -7.5736185e-05
-0.022500454 -0.015496379 0.035853017 0.0009284605 -0.03116566 -0.011550137 0.00714497 0.014521262
-0.026812803 0.007092402 0.0041815317 0.0015257669 -0.027847603 -0.03321142 0.018705811 -0.029876888
0.023722954 0.038427573 0.016421866 -0.01481802 -0.0060143583 -0.036387246 -0.024475522 0.052968796
-0.010722662 -0.01274945 -0.029224116 0.016814766 -0.057010505 0.06098345 0.0011484945 -0.03309414
-0.0066147335 0.02052753 0.025201062 0.012225521 -0.024765559 0.01725358 -0.019276682 -0.028616661
0.014731797 0.02994395 -0.0014452455 0.031417508 0.01768523 -0.023303606 0.010085736 -0.00401288
-0.01456003 0.06453005 -0.024639755 -0.02558826 -0.003620486 0.0040645935 0.007802172 0.0032974526
-0.018073132 0.016571948 -0.025989033 -0.053000655 -0.048649594 -0.02303345 0.038534533 -0.028035255
-0.040159505 0.00042787616 0.03856107 -0.009009157 0.029785246 0.022339523 -0.007821712 -0.013314655
0.04165776 -0.0035289682 0.0058288807 0.014617175 -0.012732796 -0.03144827 -0.0179502 0.02105377
-0.01670083 -0.038967222 -0.024995496 0.029670402 -0.029680286 0.012714291 0.033019833 -0.021096677
0.00029283282 -0.014027883 -0.03664238 0.016833482 -0.009999906 0.008060624 -0.022339031 -0.0077267466
0.018649621 0.024748057 0.012020024 0.04578346 -0.0047964533 -0.030633062 -0.022932434 0.009410446
-0.01866241 -0.011417134 0.036751367 0.031440556 0.019712063 0.029473623 -0.010100782 0.011513463
-0.010306033 0.015386103 0.0037779426 0.009404016 0.03200699 -0.011321419 0.022890128 0.030142318

bias f4 [2]
00000000: 9733 c33c 8a66 8dbb
0.02382831 -0.004315202

exp_avg f4 [2, 768]
00000000: b54a 3abc 3f72 95bb 1af3 6fbc 5da6 9fbc
00000010: 077e 32bc 840f 3b3b ee3a 3a3d 0e4c d13c
00000020: cb9e eabe 2c31 18bd 881e a13a e0d7 693c
00000030: 77eb 40bb 2174 153d 957d 853c 5077 223c
00000040: b989 31bc f38f cc3b 6327 64bb 0cfa 853b
00000050: 6b20 c1bc d818 dabb 6469 413c 72c0 da3c
00000060: a84c d23c 68a2 1f3c ab84 253c 1d69 f43c
00000070: 96c9 51bb 98ee 2bbc c755 07bd 55b3 06bc
00000080: 46bb 5a3c 979a d43c e124 9f3b 86da a73c
00000090: 422d 493d 9ee0 863b b160 f83d 4efe 19bc
000000a0: 1751 bf3b d23c efbb e63d f83b a93c 6ebd
000000b0: 68bb 27bd 65d3 10bc d2e9 1a3d 3a71 d53b
000000c0: a361 83b9 1638 babb 0abf ebbb 890e f0bc
000000d0: e44c c7bc 1fbf 953c bcd0 13bc 9988 e3bb
000000e0: e305 9dbc 3100 3c3c cbf0 003c 63c2 a7b9
000000f0: 11b2 ecbc cf94 bf3c a29c 293c df72 143d
00000100: 3029 773c 93be 35bd 04a7 5d3b 9e77 5bbb
00000110: 7f8c bcbc 7b77 52bc 4b5f 38bc ca3d da3b
00000120: 355c 41bb 1712 ffbb 82c1 b4bb 0c9b 4f3c
00000130: e667 03bd 5cfe 6bbb 31a4 afbc 9619 9b3c
00000140: 8543 a63b 1517 583c 9feb 413c a600 873a
00000150: ef52 72bc 1b26 c33b a866 3bbd e767 1fbc
00000160: 84da ef3c 0d35 c3bc 504d d03b a158 033c
00000170: 261b 0a3d c850 f0bc 7be0 b9bb af4b 9d3a
00000180: 2267 a1bb 7bad 853a 2981 b13b 4395 323d
00000190: ad0a 903b f5bc 753b f013 b6b9 b3d1 30b9
000001a0: f44e 1bbd 0ac8 98bb 1156 863b 822d 7fbc
000001b0: cb55 083d 0010 3dbb 8be2 9c3b 8c67 4dbc
000001c0: 0c95 9c3c 304e 113a 579a c0bb 5ecf c0bb
000001d0: 8ed5 28bb a60e 35bc a1da 48bd f968 82bc
000001e0: 8b0a 81bc debc 3dbb 6d54 b0bc 2a7f e63c
000001f0: 45a1 0bbc 8f53 13bd dca9 ec3b 1622 033a
00000200: cb69 0ebd 8a98 5abc 9c4e ebba 8153 bd3c
00000210: 1df4 0c3c 108b aa3c b04f 68bc b516 96bc
00000220: b3eb 23bc 2a63 c0ba 00d3 063b 6b8d d53b
00000230: 5cfe 84bc 88c1 f63b 9f24 5a3c 04ff b8bc
00000240: d684 1a3b 6bb9 0a3c 7e63 10bc 0dce b63c
00000250: 8b9f cc3b 357e e33b 7670 83bb a0de 66bb
00000260: a32d d23b 02b0 cfbc 89fc aa3c 5839 e43c
00000270: 9b97 73bb 4d22 233d fe95 353c 8e9e a7bc
00000280: 64ca 78bc bbf6 58bc 4b63 04bc 7519 913c
00000290: 527f be3b 579f 0cbc 395e e73b d30e c83c
000002a0: 7585 8fbc 4bd5 debb 26c9 15bd 1d5d 1d3c
000002b0: 7521 3fbb 417d 5cbc dbb3 3a3c 90d6 6f3c
000002c0: 4f05 ecbc 6e92 a0bc 6134 333c b2a8 e2bc
000002d0: 573e bd3c 94be f4bb 6bbc d1bc d9e7 423c
000002e0: cea6 c6bc ed7a 10bc 917c 493c 2940 3c3c
000002f0: cd86 f73c 78a1 acbc f2a8 03bd 21e9 293c
00000300: ec11 2bbb 36c2 74bc b4fa c338 6645 b9ba
00000310: 55a1 36bc 2d76 e13b d53f 123c 1ed4 473c
00000320: 8552 613a e415 0bbc ddd4 1fbb 87be 183b
00000330: b966 b6bc ece3 2bbc f2bc fa3b 3ce4 903c
00000340: ff2c 11bb bcd4 dfb9 27ee 0fbc 979f 67bc
00000350: 05f6 37bb 5357 ac3c 6aaf 8fbd f69f 553c
00000360: a99b cbba b759 acbc a497 edbc 7427 513d
00000370: 5489 81ba 890a d7bc 7442 86bd b297 f0bb
00000380: b255 8dbc 5006 fabb ab48 79bc 71fa ab3c
00000390: 6ba9 1ebc 430e 6a3b 5269 353c a1a9 4cbd
000003a0: 501e 733b eb1e acbc 5b01 943c fefc a1bb
000003b0: db8d a83c 6afb 0bba 5b96 c43c a7da 04bc
000003c0: cafb 613b 183f a43b 627a f03b 2d46 5d3c
000003d0: 7400 913c 5d08 a9bc bbf6 623b 26b0 5c3c
000003e0: b8d9 4cbc 8fd8 fcbb c194 a73c 9fc2 07bc
000003f0: 5c20 77bc 888a baba 9507 c9bb a97e 8fbc
-0.011370351 -0.0045607383 -0.014645362 -0.019488508 -0.010894305 0.0028543184 0.045466356 0.025548961
-0.45824274 -0.03715627 0.0012292424 0.01427266 -0.0029437223 0.036487702 0.016295234 0.009916142
-0.010836058 0.006242746 -0.0034813515 0.004088646 -0.023575028 -0.0066557936 0.011804912 0.026703093
0.025671318 0.0097433105 0.010102431 0.029835278 -0.0032011024 -0.010493897 -0.033040788 -0.008221467
0.0133503135 0.02595262 0.004856691 0.020489942 0.049115427 0.004116132 0.121278174 -0.00939901
0.005838524 -0.0073009515 0.0075757382 -0.05816332 -0.04095021 -0.008839463 0.037820645 0.006513742
-0.00025059012 -0.0056829555 -0.0071944045 -0.029303806 -0.024328656 0.01827961 -0.009021934 -0.006943774
-0.019167846 0.011474655 0.0078699095 -0.00031997552 -0.028893502 0.023386387 0.010352286 0.036242362
0.015085503 -0.0443712 0.0033821473 -0.0033488045 -0.023016213 -0.012845869 -0.011253188 0.006660198
-0.0029504423 -0.007784139 -0.005516232 0.012671243 -0.032081507 -0.0036009764 -0.021440597 0.018933099
0.005073967 0.013189097 0.011835962 0.0010299876 -0.014790281 0.0059554703 -0.045752198 -0.009729362
0.029279001 -0.023829008 0.0063568726 0.008016736 0.033717297 -0.029335395 -0.005672512 0.0012000705
-0.0049256245 0.0010198796 0.0054170084 0.04359938 0.004395804 0.003749666 -0.000347286 -0.00016862787
-0.037917092 -0.0046625184 0.0040996154 -0.015574815 0.033284944 -0.0028848648 0.004787748 -0.0125368945
0.01911404 0.0005542962 -0.0058777737 -0.005884095 -0.0025762054 -0.011050856 -0.049036626 -0.015919195
-0.015752098 -0.0028951685 -0.021524632 0.028136808 -0.008522336 -0.03596836 0.0072223973 0.00050023326
-0.03476886 -0.013342032 -0.0017952505 0.023111107 0.008603123 0.020818263 -0.014179155 -0.018321374
-0.010004926 -0.0014677991 0.0020572543 0.0065171025 -0.01623457 0.007530395 0.013314395 -0.022582538
0.0023577712 0.008467059 -0.008812783 0.02231505 0.006244605 0.0069425353 -0.004011209 -0.003522791
0.0064141317 -0.025352482 0.020872371 0.027859375 -0.0037169221 0.039827634 0.011083124 -0.020461347
-0.015184972 -0.013242419 -0.008080314 0.017712334 0.0058135176 -0.008582911 0.0070607928 0.024421131
-0.017519692 -0.006800329 -0.036568783 0.0096047195 -0.002916423 -0.013457597 0.01139542 0.014638558
-0.028811125 -0.019601073 0.010937781 -0.02766833 0.023101015 -0.0074690077 -0.02560254 0.011896097
-0.02424946 -0.00881837 0.012297765 0.011489906 0.030215645 -0.021073088 -0.03214354 0.010370524
-0.0026103212 -0.014938882 9.345022e-05 -0.0014135062 -0.011146863 0.0068805427 0.008926352 0.012196569
0.0008595365 -0.008489106 -0.002438835 0.0023306923 -0.022265779 -0.0104913525 0.0076519186 0.017686956
-0.0022152064 -0.00042692374 -0.008784807 -0.01413717 -0.0028070223 0.021037733 -0.070158795 0.013038626
-0.0015534061 -0.021038873 -0.029002972 0.051063016 -0.0009882846 -0.02625014 -0.06555644 -0.0073423022
-0.017252777 -0.007630147 -0.015215079 0.020993443 -0.009683947 0.0035714067 0.011072474 -0.04996646
0.0037096925 -0.021010837 0.018067053 -0.004943489 0.020575454 -0.0005339893 0.023997476 -0.008108771
0.0034482353 0.005012404 0.007338808 0.013505501 0.017700411 -0.02063387 0.0034631926 0.013469731
-0.01250308 -0.0077162455 0.020456674 -0.008286147 -0.015083399 -0.0014231959 -0.006134937 -0.017516451

exp_avg_sq f4 [2, 768]
00000000: 52c3 983b c008 fb3a f4ca 253b a990 ce3c
00000010: 7f25 023d 92fd be3a 9855 ab3d ab89 2b3c
00000020: 6d9d 4841 bd53 993d 6c95 063b 9c81 a53c
00000030: 8a89 123c 38cb 613d cc71 823c f141 9b3b
00000040: 53f6 ca3a 7a90 0a3c bd02 c03b ed6e 4d3c
00000050: fc84 323c 2e08 403c 3b86 0a3c 62c1 883c
00000060: 5696 833d 866e a43b 0ebf e63a 6a14 f23c
00000070: c14f f93a ed19 1d3b b1ee 7f3d af18 3d3c
00000080: 8767 2b3c 131d 4e3d df01 183c 0d2c b33c
00000090: c7df 243d 342d a83a 22af 913f 23df e73a
000000a0: c013 e03b c87c ca3b 71af e33a 2873 e03e
000000b0: 3e3e 623d cfad 3a3b 2140 f73c 0a19 383c
000000c0: 5455 d63a ba78 783c ac9a 183c 324d 5a3c
000000d0: 6cb1 073c 1c96 cd3a 83b1 a03c 4774 b63b
000000e0: c258 8a3b 86bd 843c 5c34 9a3c 4497 0b3c
000000f0: 34aa 9d3c ec96 c43c 5230 153b 4422 d33d
00000100: efae fc3a 0484 713d 3469 353c 914e 0b3b
00000110: 4002 193d 9e5d 103d 5ed9 853b 2170 253c
00000120: bd0f 0e3b 4385 c63b 8afe 863b 9aa8 3c3c
00000130: 5df1 0e3d 64b1 ff3a e519 a63c 0faa 873c
00000140: 8c42 103b 1064 c13b 26c8 1f3b 0449 be3a
00000150: 9113 203c 39fd a73b 8f1c d83d 68e3 7a3b
00000160: 07f4 d03c 28cf 3b3b 55d1 1d3c f07f 923a
00000170: ea06 043d 9a60 733d fe74 3b3c a25c 833b
00000180: 1c5d 843b 0ab5 e83b fab9 013c 2201 a93d
00000190: a15a ab3b ea27 073c d9f3 c73c 015a 3f3c
000001a0: 8fd6 353e e2dd 1f3b b388 dc3a 1a17 763b
000001b0: ed95 db3c e3ee 813b ed46 293c 4c39 163c
000001c0: 2b3d ab3b ee10 1e3c c76d a73b 9e86 b03a
000001d0: 278a ed3a 4f19 223c 5c80 0b3d a98c a13c
000001e0: 5e7c 363c 5322 063b 34db 073b 1464 1b3d
000001f0: a20a 093c a6e8 b93d d3d5 d03b e2e8 253b
00000200: d26a 503c fd6a a23b 8a09 dc3b 9e3b a13c
00000210: 4bf4 dd3a 20ca c13c 830e d33c 249f 7a3c
00000220: 80d9 2c3c 45c3 6b3b 5bd1 4b3c 99f3 193b
00000230: 35ea c73c f850 323c d311 b03c fccf 823c
00000240: 8af1 053c 6036 093c cdcb 133b 1b00 743d
00000250: 15d8 503b 096f 323c 29b5 b83b eb87 013b
00000260: 9d08 133c bd97 e73c 8165 f43c 5a42 5a3d
00000270: ad87 d73a 0f52 2b3d e2b0 083c 6d14 1e3c
00000280: 532e 913c 2bbd ca3c 9e52 8c3b 6547 d13a
00000290: 8144 2e3b 6ab2 113b 0ce0 d33b d1c1 2b3d
000002a0: 66e1 e33b 2980 4f3b 5d53 8c3d 29a8 1c3b
000002b0: 4e7d 0a3b b056 9c3b 3067 bd3c 35ef 8e3d
000002c0: 4a58 0e3d 22df d53c 136f 4d3b 358f 433c
000002d0: e093 133d 456d da3c 94b3 453c 2e16 cd3a
000002e0: 6a27 d03c 2e10 0c3b a0e2 4b3c 7fdc da3a
000002f0: 0158 8f3b 1898 063d b8be 123d 6adf b63b
00000300: 06bd 0e3c 129f 153b 680e c73c b4b0 0a3b
00000310: 6c47 353c 2850 0c3b 17dc 353c fc6e 343b
00000320: 8fa5 be3b daf4 6c3b d7e6 783c bec1 193b
00000330: c072 003c d250 8b3b 3428 b43b 34f2 da3a
00000340: 536f 573b 3918 953b 60cb 8c3b fad1 f43b
00000350: df5b 4e3b 2748 da3b 0144 963e 4eb0 633c
00000360: eae5 b83b fa28 993c 24d2 373c a236 993d
00000370: 3ae3 273c 5f09 b53b 5859 3d3e 1f93 803c
00000380: c017 4d3c d19b 3b3b 7bfc 2b3c b7aa ea3c
00000390: a926 163c 8a72 e43a d15d fd3b b266 113e
000003a0: cd68 503c 5b52 ee3a 83c4 e23c 0fb2 e13a
000003b0: 5b99 d73c 5159 853c 2b97 283d da9d 703c
000003c0: 8666 053c d21e 643b b309 4d3b 24e2 c93b
000003d0: 98af f33a ecd1 2a3b 5686 503b 1311 893b
000003e0: 8b75 973c f362 643b a4ba 383d 00f9 c23c
000003f0: 41aa 563c 9cfd ff3a 4245 a03a b72d e03c
0.004661956 0.0019152388 0.0025297971 0.025215464 0.03177404 0.001457142 0.08365935 0.010469834
12.538434 0.07486675 0.002053584 0.020203404 0.008943925 0.055125445 0.015923403 0.0047380854
0.0015484787 0.008457297 0.0058597014 0.012538654 0.010895964 0.0117207 0.008454855 0.016693775
0.06425159 0.0050180582 0.0017604546 0.02955075 0.0019020961 0.0023971752 0.062483493 0.01154153
0.010461695 0.050320696 0.00927779 0.021871591 0.040252473 0.0012830854 1.1381571 0.0017690401
0.006838292 0.006179426 0.0017371011 0.43837857 0.05523514 0.0028484946 0.030181946 0.0112364385
0.0016352334 0.015165502 0.00931422 0.013324069 0.008282047 0.0015684995 0.019615894 0.0055680606
0.0042220065 0.016203653 0.018823795 0.008519951 0.019246198 0.023997746 0.0022764397 0.1030927
0.0019278208 0.05896379 0.011072446 0.0021256546 0.03735566 0.03524553 0.00408475 0.010097534
0.0021676861 0.0060583665 0.004119699 0.011514807 0.03489815 0.0019507823 0.02027602 0.016560582
0.0022012321 0.005901821 0.0024380772 0.001451761 0.00977029 0.005126622 0.10552322 0.0038282517
0.025506986 0.002865741 0.009632428 0.0011177044 0.032233156 0.0594183 0.011441467 0.0040088454
0.00403942 0.0071016597 0.007917875 0.08252169 0.0052293097 0.008249262 0.024408268 0.011679173
0.17757629 0.0024393727 0.0016825408 0.003755039 0.026804889 0.003965245 0.010331851 0.009168934
0.0052257976 0.009647591 0.005109522 0.0013467853 0.0018122838 0.009893729 0.03405796 0.019720392
0.01113805 0.0020467236 0.002073002 0.03793724 0.0083643515 0.09077577 0.006373146 0.002531581
0.01272078 0.0049566017 0.0067150043 0.019681748 0.0016933767 0.023655951 0.025763756 0.015296731
0.010549903 0.0035974544 0.012440051 0.0023491143 0.02440367 0.010883562 0.021492874 0.015968315
0.008175263 0.00837478 0.0022551895 0.059570413 0.0031867076 0.010890731 0.0056368303 0.0019764851
0.008974222 0.028270597 0.029833557 0.053285934 0.0016443633 0.041826304 0.008342953 0.009648425
0.017722284 0.024748405 0.0042823097 0.0015966712 0.0026591124 0.0022231587 0.0064659175 0.041932885
0.00695436 0.0031662083 0.06851838 0.0023903942 0.0021131816 0.004771076 0.023120493 0.06979219
0.034752168 0.026107375 0.0031346723 0.011935999 0.036029696 0.026663432 0.012066741 0.0015646869
0.02540942 0.0021371949 0.012444168 0.0016697793 0.0043745046 0.03285989 0.035826415 0.0055808323
0.008712059 0.002283041 0.024298862 0.0021162452 0.011064392 0.0021410082 0.011099837 0.0027531972
0.005818076 0.0036156685 0.015191755 0.0023461427 0.0078398585 0.004251578 0.0054979566 0.0016704262
0.003287275 0.0045500067 0.004296705 0.00747132 0.0031487865 0.0066614333 0.29348758 0.013897015
0.0056426423 0.018696297 0.011219535 0.074811235 0.010247046 0.0055247988 0.18491113 0.015695153
0.0125178695 0.002862681 0.010497208 0.028645856 0.009164491 0.0017429155 0.007732131 0.14199331
0.012720299 0.0018182503 0.027681595 0.0017219203 0.026318243 0.016277941 0.04115979 0.014686072
0.008142119 0.003480841 0.0031286299 0.0061609913 0.001859176 0.0026065065 0.0031818352 0.0041829436
0.018488666 0.0034849017 0.04509987 0.023800373 0.013102115 0.0019530538 0.0012227672 0.027365549

exp_avg f4 [2]
00000000: a2de a13c a3de a1bc
0.01975948 -0.019759482

exp_avg_sq f4 [2]
00000000: 7188 f53c 7088 f53c
0.029972287 0.029972285
