TASK2/gender_classification_model/checkpoint_step_7800.pth (torch, 22979 bytes, 6 tensors)

weight f4 [2, 768]
0	0x3cea20d2	0.028580103
1	0x3bd52886	0.006505075
2	0x3c829955	0.015942255
3	0x3c4af447	0.012387342
4	0xbcd86bf9	-0.026418673
5	0xbb7100d7	-0.0036774182
6	0xbbe2f821	-0.006926552
7	0xbc8b24f3	-0.016985392
8	0xbcf934f5	-0.03042076
9	0xbc4c0c97	-0.0124541735
10	0xbd2a7365	-0.041613955
11	0xbb6e7e44	-0.0036391178
12	0xbd41daeb	-0.047327917
13	0x3ca691d0	0.0203332
14	0x3cc3d9c2	0.023907546
15	0xbc2a7a34	-0.010405112
16	0x3c187a1b	0.009306456
17	0xbcb45b62	-0.022016231
18	0xbb47871c	-0.0030445522
19	0xbcbe3cfd	-0.02322244
20	0xbb8a9e88	-0.004230324
21	0x3ca34401	0.019929888
22	0x3d3307ab	0.043708485
23	0x3c567631	0.013089702
24	0x3d0ea47a	0.034824826
25	0xbc3ab9a7	-0.011396802
26	0x3be17903	0.006880881
27	0x3b176e78	0.0023106616
28	0x3d42d675	0.047567803
29	0x3ad14b7e	0.0015967933
30	0x3d06ecf6	0.032940827
31	0x3d0ed438	0.034870356
32	0x3cb8f0e2	0.0225758
33	0x3b627e97	0.0034560317
34	0xbc0a57ab	-0.008443753
35	0x3d0ea415	0.03482445
36	0x3c30a2b5	0.01078098
37	0xbd810a39	-0.06300778
38	0x3ca09703	0.019603258
39	0xbda09c1b	-0.07842275
40	0x3cc235ce	0.023707297
41	0xba100196	-0.00054934004
42	0xbd0f394b	-0.03496675
43	0x3c741ab6	0.0148989465
44	0xbcb3cd4b	-0.021948477
45	0xbba0b8c2	-0.0049048373
46	0x3cfc2d20	0.030783236
47	0x3d2d8b8b	0.042369407
48	0x3d105125	0.035233635
49	0xbcaed73d	-0.021342868
50	0x3c91e15c	0.017807655
51	0x3c9bc5f3	0.019015288
52	0xbba57ebe	-0.0050505092
53	0xbd066516	-0.032811247
54	0xbc097330	-0.008389279
55	0xbc9d003f	-0.019165156
56	0x3a097d7d	0.00052448345
57	0xbb5b8574	-0.0033496292
58	0xbb38ce83	-0.0028199262
59	0x3c80d706	0.015727531
60	0x3c2af603	0.01043463
61	0x3c0d03bc	0.008606847
62	0xbd195a41	-0.03743959
63	0xbc6c9b7c	-0.014441367
64	0x3bd1548d	0.006388253
65	0xbc88e579	-0.016710984
66	0x3d2d8a65	0.04236831
67	0x3d58440b	0.052799266
68	0xbd0bcd09	-0.034131084
69	0x3cfe30ba	0.031029094
70	0x3b99bbdd	0.0046915845
71	0xbb3658f4	-0.0027824016
72	0x3aa1861c	0.0012323293
73	0xbbc09982	-0.0058776746
74	0xbcd96410	-0.026536971
75	0xbd01f1d7	-0.031724777
76	0xbbb4539d	-0.0055031315
77	0x3bfb1110	0.007661946
78	0xbb5e1558	-0.0033887234
79	0xbc459498	-0.012059353
80	0x3c81b929	0.015835362
81	0xbc8ef2fc	-0.017449848
82	0xbd6b7bdb	-0.057491165
83	0x3bc4872f	0.0059975605
84	0x3c102c4b	0.008799623
85	0x3c91bcd1	0.01779023
86	0xbc85698c	-0.01628568
87	0xbd308359	-0.043094013
88	0x3d118aab	0.035532635
89	0x3c2017e2	0.009771319
90	0x3d141215	0.036150057
91	0xbcfd5025	-0.030922005
92	0x3d0b2b13	0.033976626
93	0x3c949960	0.018139541
94	0x3bad88a6	0.005295831
95	0xbcf0ccd7	-0.02939455
96	0xbaf29012	-0.0018506071
97	0x3d45a0a0	0.048248887
98	0xbc529a07	-0.012854106
99	0x3cf61df6	0.030043583
100	0xbbf18057	-0.0073700356
101	0x3c09092a	0.008364001
102	0x3d37bf79	0.044860337
103	0xbcb04a15	-0.0215197
104	0x3c3a9450	0.0113878995
105	0xbb4d9cc2	-0.0031373953
106	0x3d849c56	0.06475131
107	0xbd4cd4a1	-0.050007466
108	0xbb1e76c9	-0.0024179688
109	0x3d608c6a	0.05482141
110	0xbd2c3293	-0.04204042
111	0xbc8ec332	-0.01742706
112	0x3c1ff62b	0.009763281
113	0xbb696529	-0.0035613275
114	0x3ab72d00	0.0013975203
115	0x3cdbaf11	0.026816877
116	0x3d9e405a	0.07727118
117	0xbbf11a78	-0.0073578916
118	0xbc88caa3	-0.016698187
119	0x3ccbf991	0.024899276
120	0x3d7a1cfb	0.061062794
121	0x3d6ab4bd	0.05730127
122	0xbb4c0629	-0.0031131601
123	0xbc0b617d	-0.00850713
124	0x3b43f2ef	0.0029899438
125	0x3c1647cc	0.009172391
126	0xbcc30c8c	-0.023809694
127	0xbcd505db	-0.026003769
128	0x3b2e2473	0.0026572018
129	0xbc789b53	-0.015173751
130	0xbd21f544	-0.039540544
131	0x3bb34db1	0.005471908
132	0x3d46235f	0.048373576
133	0x3c34cd4a	0.011035273
134	0x3d126245	0.03573825
135	0x3bd559d9	0.006510955
136	0xbcc54660	-0.024081409
137	0xbc3801e9	-0.011230924
138	0x3d1e81d9	0.03869805
139	0xbb00c263	-0.0019647114
140	0xbd13e49f	-0.036106702
141	0xbc57e96a	-0.013178209
142	0x39e6fd82	0.00044057897
143	0x3c589ab4	0.013220478
144	0xbcdbc071	-0.026825162
145	0x3bb6aad9	0.005574566
146	0xbaa61e60	-0.0012673847
147	0x3a224a09	0.00061908417
148	0xbca81d5a	-0.020521808
149	0xbcee3ed4	-0.029082693
150	0x3cc5ce9b	0.024146369
151	0xbd295d64	-0.04134883
152	0x3d0c58a7	0.034264233
153	0x3d331f69	0.043731127
154	0x3ca85b79	0.02055143
155	0xbc3c0008	-0.011474617
156	0xbc594f33	-0.0132635115
157	0xbd19922c	-0.037492916
158	0xbcac32d5	-0.021020332
159	0x3d720b7a	0.059092976
160	0xbc09b6cd	-0.0084053995
161	0xbc73733c	-0.014859017
162	0xbcdb2ae4	-0.02675385
163	0x3caf6b41	0.021413447
164	0xbd6b0d9f	-0.057386037
165	0x3d9c4c38	0.07631725
166	0xbc1a506c	-0.009418588
167	0xbd034695	-0.032049734
168	0xbc874638	-0.016512975
169	0x3c79b2f9	0.015240424
170	0x3cd57328	0.026055887
171	0x3c45eeb6	0.012080839
172	0xbcf53771	-0.029933663
173	0x3ccc8630	0.02496633
174	0xbc77ca3f	-0.015123903
175	0xbce1b057	-0.027549906
176	0x3c96a96b	0.018391332
177	0x3d038666	0.032110594
178	0x3b27ddf0	0.0025614463
179	0x3d11289e	0.035439126
180	0x3cc5db0f	0.024152307
181	0xbcb47aac	-0.02203115
182	0x3be17181	0.006879986
183	0xbb82caab	-0.003991445
184	0xbc974222	-0.018464152
185	0x3d971801	0.07377625
186	0xbccffc6f	-0.025388924
187	0xbd12e7ef	-0.03586572
188	0xbbb8e4b8	-0.0056425
189	0x3b908f78	0.004411634
190	0x3c1c3776	0.009534707
191	0xbb171d6e	-0.0023058313
192	0xbcad9768	-0.02119036
193	0x3cdfe20b	0.027329465
194	0xbd0b13ab	-0.033954304
195	0xbd8f6bb6	-0.07002966
196	0xbd72b9bf	-0.059259173
197	0xbd27689d	-0.04087125
198	0x3d3530d3	0.044236016
199	0xbd0cd4fd	-0.03438281
200	0xbd4ae484	-0.049534336
201	0xbaccc6d4	-0.001562322
202	0x3d32623c	0.043550715
203	0x3a7edb84	0.00097220414
204	0x3cec1745	0.02881969
205	0x3d0bd493	0.034138273
206	0xbb93634d	-0.0044979216
207	0xbc99003d	-0.018676871
208	0x3d548ff6	0.051895104
209	0x3b647ef0	0.00348657
210	0x3c29b61c	0.01035836
211	0x3beee90f	0.0072909663
212	0xbc86aa1c	-0.016438536
213	0xbd15a9f8	-0.036539048
214	0xbca26a0c	-0.019825958
215	0x3ce76878	0.028248057
216	0xbca5500f	-0.020179776
217	0xbd1640e9	-0.036682997
218	0xbcb42712	-0.021991286
219	0x3ce4f21e	0.027947482
220	0xbd166bd6	-0.036723934
221	0x3c3d3d32	0.011550235
222	0x3d092f8c	0.03349261
223	0xbcd5f944	-0.026119836
224	0x3b60a890	0.0034280159
225	0xbc22a3c2	-0.009926738
226	0xbd260860	-0.04053533
227	0x3c8404a1	0.016115488
228	0xbbcc5333	-0.006235504
229	0xbb630814	-0.0034642266
230	0xbca49a9c	-0.020093255
231	0xbc0c4102	-0.008560421
232	0x3c9fedd6	0.019522589
233	0x3d15f90e	0.03661447
234	0x3c15298f	0.009104147
235	0x3d8bc552	0.06824745
236	0xbb55377c	-0.0032534292
237	0xbd19e08c	-0.03756766
238	0xbcf308f8	-0.029667363
239	0x3c951380	0.018197775
240	0xbcc7148c	-0.02430179
241	0xbc8432db	-0.016137531
242	0x3d0fb9e4	0.03508939
243	0x3d179615	0.037008364
244	0x3cf6b4e4	0.030115552
245	0x3d1068cd	0.035256196
246	0xbbe6ae67	-0.0070398333
247	0x3be43dd7	0.0069653797
248	0xbc0309fe	-0.007997988
249	0x3c8c1876	0.017101508
250	0xbb1b80d1	-0.0023727904
251	0x3c242773	0.010019171
252	0x3d168ee8	0.03675738
253	0xbc830e91	-0.015998157
254	0x3c73fe9c	0.014892247
255	0x3d07c6a6	0.03314843

bias f4 [2]
0	0x3cc4ff54	0.024047531
1	0xbb96e304	-0.004604699

exp_avg f4 [2, 768]
0	0xbbe91f8a	-0.0071143555
1	0xbbc2bad2	-0.005942681
2	0x3a82cd90	0.0009979475
3	0xbd07ab71	-0.033122484
4	0xbd68558e	-0.056722216
5	0xbaeabcc6	-0.0017909042
6	0x3d92b96c	0.07164273
7	0x3cbb48a3	0.022861784
8	0xbf4d2efa	-0.80149806
9	0xbd830c4f	-0.06398832
10	0xbc9e93fe	-0.019357678
11	0x3d196531	0.03745002
12	0x3cf6effd	0.030143732
13	0x3d09ce4c	0.033644006
14	0x3cbfae43	0.023398524
15	0x3b05feb2	0.0020446
16	0x3c0feb88	0.008784182
17	0xb87daacc	-6.0478967e-05
18	0xbab87a78	-0.0014074584
19	0xbd063b24	-0.032771245
20	0xbcb0fcf1	-0.021604987
21	0xbc9e13b8	-0.019296512
22	0x3c574da3	0.013141069
23	0x3d143f62	0.03619326
24	0x3d51b3a4	0.05119671
25	0x3c9bab9e	0.019002732
26	0x3bf4c38c	0.0074696
27	0x3d100794	0.035163477
28	0xba6ef590	-0.0009115571
29	0x3c02f381	0.007992626
30	0xbd580299	-0.052736852
31	0xbcfdfa71	-0.031003209
32	0x3b939b42	0.004504592
33	0x3d6b9e26	0.05752387
34	0x3ccc9a86	0.024976026
35	0x3d0ceb52	0.034404106
36	0x3d2e811f	0.04260361
37	0xba3f8adc	-0.00073067634
38	0x3e60e084	0.21960646
39	0x3b9bb62d	0.0047519417
40	0x3c57799e	0.013151554
41	0xbc093f6b	-0.008376936
42	0xbac43da2	-0.0014971981
43	0xbe18ad59	-0.14909877
44	0xbd5d0f0b	-0.053969424
45	0xbc7367c8	-0.014856286
46	0x3d1d4180	0.038392544
47	0x3cbc4a85	0.022984752
48	0xbb2fe640	-0.002684012
49	0xbcd2ac2e	-0.025716867
50	0xbcad32f0	-0.021142453
51	0xbcea930c	-0.02863457
52	0xbcb6e8b8	-0.022327766
53	0xbc591078	-0.013248555
54	0xbcf0fde9	-0.029417949
55	0xbc8d52e2	-0.017251436
56	0xbc84075c	-0.01611679
57	0x3d140334	0.036135867
58	0x3d2b3fe7	0.04180899
59	0x3cb229dc	0.021748476
60	0xbcc85378	-0.024453864
61	0x3d2579bd	0.0403993
62	0xba844408	-0.0010091076
63	0x3dd17690	0.10227692
64	0xbc01cf19	-0.007922911
65	0xbd7889b1	-0.060678188
66	0x3d012564	0.0315298
67	0x3c197783	0.009366873
68	0xbd6845c6	-0.056707166
69	0xbd30ccfb	-0.043164235
70	0x3c6f9b60	0.014624447
71	0x3ca227a5	0.019794295
72	0xb9efaf22	-0.00045716116
73	0xbc043c05	-0.00807095
74	0x3b59991c	0.0033202833
75	0x3ca6b395	0.020349303
76	0xbd01d5b4	-0.031697944
77	0x3bbd3657	0.0057743
78	0xbca48393	-0.02008227
79	0x3d25ede0	0.04051006
80	0xbc04890c	-0.008089315
81	0x3bc52be3	0.0060171946
82	0x3c0538de	0.008131234
83	0x3af004d4	0.0018311986
84	0xbc590056	-0.013244709
85	0x3d2bdcd7	0.041958656
86	0xbd9eb222	-0.0774882
87	0xbc21edbc	-0.00988334
88	0x3cfa551f	0.030558167
89	0x3ca4ad2d	0.020102108
90	0x3c855824	0.01627738
91	0x3b851ee3	0.00406252
92	0x3d033837	0.032036033
93	0xbd590bb5	-0.05298968
94	0xbd079419	-0.03310022
95	0x3cdcc6c9	0.026950257
96	0xbbc85041	-0.0061130826
97	0xbcb34fd8	-0.021888658
98	0x3d035361	0.03206194
99	0x3d61e018	0.055145353
100	0xbc667f5d	-0.014068452
101	0x3c583fbd	0.01319879
102	0x3cf8fcf1	0.03039405
103	0xbcc1165d	-0.023570234
104	0xbdf8b2cb	-0.12143477
105	0xbafcf1f9	-0.0019298188
106	0xbc84c460	-0.01620692
107	0x3cd207bb	0.025638452
108	0x3cb88916	0.022526305
109	0xbcbff39a	-0.023431588
110	0x3d14b160	0.03630197
111	0x3cd26e93	0.025687492
112	0x3ab62dcc	0.0013899147
113	0x3c741077	0.014896504
114	0x3c4b3fc5	0.012405341
115	0x3c84998c	0.016186498
116	0x3bec2e7e	0.0072076907
117	0xbc649458	-0.0139513835
118	0xbd4044f0	-0.046940744
119	0xbcbda9b0	-0.023152202
120	0xbcb6300f	-0.022239713
121	0x3bd7c2b6	0.0065844906
122	0x3c922945	0.017841944
123	0x3d1b8797	0.037971105
124	0xbcd023a3	-0.025407618
125	0xbd52c94d	-0.051461507
126	0x3b9ed3b8	0.004847016
127	0xbc1a472e	-0.009416385
128	0xbce22db4	-0.027609684
129	0xbcb6136d	-0.02222606
130	0xbd129b38	-0.03579256
131	0x3d4f8cbe	0.05067133
132	0x3c4c5e23	0.012473616
133	0x3d2140e0	0.03936851
134	0xbd0b0a4e	-0.033945374
135	0xbc7853fa	-0.01515674
136	0xbcccce88	-0.025000826
137	0x3c7f18c5	0.01556987
138	0x3ca4f761	0.02013749
139	0x3cb33c9e	0.02187949
140	0xbce88bc6	-0.028386962
141	0xbce665a7	-0.028124643
142	0xbd6d5df9	-0.057950947
143	0xbcab34a9	-0.020899134
144	0xbc900e26	-0.017584872
145	0x3c999acd	0.018750573
146	0x3afef8ef	0.001945285
147	0x3d77386f	0.060356554
148	0x3ca3008b	0.01989772
149	0x3c94247d	0.018083805
150	0xbb8f70f6	-0.0043774797
151	0x3c399034	0.011325885
152	0x3cd62718	0.026141688
153	0xbd3d8112	-0.04626567
154	0x3d0447a5	0.032294888
155	0x3d35315e	0.044236533
156	0xbc847b8a	-0.01617219
157	0x3d545aaa	0.051844276
158	0x3c0f0283	0.008728626
159	0xbc91790b	-0.017757913
160	0xbd065187	-0.032792594
161	0xbd094288	-0.033510715
162	0xbbadbc00	-0.0053019524
163	0xb9872b1f	-0.00025781334
164	0xbc301f00	-0.0107495785
165	0xbac966f6	-0.0015365768
166	0x3ccfb40c	0.025354408
167	0x3d81140b	0.06302651
168	0xbc47e2e5	-0.012200092
169	0x3bc77728	0.0060872026
170	0xbd463473	-0.048389863
171	0xbbcafed8	-0.0061949305
172	0xbbc4a39c	-0.006000949
173	0x3bdd60fb	0.0067559457
174	0x3d12f9a4	0.035882607
175	0x3d804026	0.06262235
176	0xbd2104c5	-0.03931119
177	0xbd219b53	-0.03945477
178	0xba6d8f62	-0.0009062198
179	0xbd0b3312	-0.03398425
180	0x3cf2ea92	0.029652867
181	0xbd1c80f1	-0.038208906
182	0xbc37991d	-0.011205939
183	0x3ca71ebc	0.020400397
184	0xbccca311	-0.0249801
185	0xbbce8551	-0.0063025136
186	0x3cf3e5f2	0.029772732
187	0x3b529f10	0.0032138266
188	0xbbfc7abf	-0.007705062
189	0xbd165b25	-0.036708016
190	0xbd452486	-0.048130535
191	0xbcf9ecc7	-0.030508412
192	0x3c10e757	0.008844218
193	0x3b844103	0.0040360703
194	0xbd0e72a2	-0.03477729
195	0x3c6bd7e6	0.014394736
196	0xbd1bc61b	-0.038030725
197	0x3c7dc832	0.015489625
198	0x3cbf18d1	0.023327263
199	0x3bd797d5	0.006579379
200	0xbc87b6ce	-0.01656666
201	0xbc559039	-0.013034874
202	0xbc5d28d8	-0.013498507
203	0xbc640b17	-0.01391866
204	0xbcc017a5	-0.023448775
205	0xbc4cc8ab	-0.012499015
206	0x3c802be4	0.015645929
207	0xbae0e390	-0.0017157663
208	0x3c650cd1	0.013980106
209	0x3b251cf6	0.0025194264
210	0xbc7295a8	-0.014806189
211	0xbc73c2e5	-0.014878009
212	0xbc778e06	-0.015109545
213	0x3c50f827	0.012754477
214	0xbddf1109	-0.10891921
215	0x3c78afee	0.015178664
216	0x3c40e387	0.011772997
217	0xbceae6bb	-0.028674474
218	0xbccd6bd0	-0.025075823
219	0x3d87371e	0.0660231
220	0xbcebb01a	-0.028770495
221	0xbb51da27	-0.0032020898
222	0xbdcce34b	-0.1000429
223	0xbd05897f	-0.03260183
224	0xbc7735ae	-0.015088482
225	0xbc7ee02c	-0.015556376
226	0x3b91193f	0.0044280584
227	0x3d30aaad	0.04313152
228	0xbcda9e3c	-0.02668678
229	0x3b5b31b7	0.003344638
230	0x3c43cd8f	0.011950864
231	0xbdb4510a	-0.088045195
232	0x3c92679e	0.017871674
233	0x3b964b6b	0.0045866272
234	0x3d494246	0.04913547
235	0x3c24fa38	0.010069422
236	0x3d054fd2	0.032546826
237	0x3d20aa63	0.039224993
238	0x3d30aab2	0.043131538
239	0xbccfd32f	-0.025369255
240	0x3cbb426f	0.022858826
241	0x3a62f5a4	0.0008657819
242	0x3bce7bb4	0.0063013677
243	0x3cee727f	0.02910733
244	0xbc85a668	-0.0163147
245	0x3c0ca621	0.00858453
246	0x3c4f9246	0.012669152
247	0x3c627d17	0.013823769
248	0xbd038484	-0.0321088
249	0xbc3e7853	-0.011625367
250	0x3d61f98c	0.055169627
251	0xbc9507cb	-0.018192193
252	0xbc891a51	-0.016736181
253	0xbaea1e09	-0.0017861734
254	0xbcad8a3c	-0.02118408
255	0xbd6a24bf	-0.05716395

exp_avg_sq f4 [2, 768]
0	0x3b8bdc7e	0.004268228
1	0x3aefbf29	0.0018291223
2	0x3b23b3d2	0.0024979007
3	0x3cce3408	0.025171295
4	0x3cfed71c	0.031108432
5	0x3ac26716	0.0014831747
6	0x3da6ba35	0.08140985
7	0x3c30e3da	0.010796512
8	0x4144e132	12.304979
9	0x3d952ea5	0.07284287
10	0x3b05e1df	0.002042882
11	0x3ca46223	0.020066326
12	0x3c08ba58	0.008345209
13	0x3d5be165	0.05368175
14	0x3c80086e	0.01562902
15	0x3b985141	0.004648358
16	0x3ac3c77c	0.001493677
17	0x3c070a66	0.008242225
18	0x3bb07056	0.0053844852
19	0x3c4a92f4	0.012364138
20	0x3c27114f	0.010196998
21	0x3c3d2ff2	0.011547076
22	0x3c01b901	0.0079176435
23	0x3c87d027	0.016578747
24	0x3d7c68a5	0.061623234
25	0x3b9a4e9e	0.004709079
26	0x3aedacb5	0.0018133136
27	0x3cef395b	0.029202154
28	0x3ae28061	0.0017280692
29	0x3b0f8e2d	0.0021904812
30	0x3d79165a	0.06081233
31	0x3c3d6f8e	0.011562241
32	0x3c264b1a	0.010149742
33	0x3d4a2282	0.049349315
34	0x3c1289ef	0.008944019
35	0x3caf6c9f	0.0214141
36	0x3d209b39	0.03921053
37	0x3aa31361	0.0012441688
38	0x3f8eaf3a	1.1147225
39	0x3ad9df4a	0.0016622331
40	0x3bd2e673	0.006436163
41	0x3bc903b8	0.0061344765
42	0x3adcc6a2	0.0016843865
43	0x3edc4fad	0.43029538
44	0x3d5f2e05	0.054487247
45	0x3b386ee3	0.0028142266
46	0x3cf75a68	0.030194476
47	0x3c37fea7	0.011230147
48	0x3ad79fa5	0.0016450776
49	0x3c7cdee8	0.015434004
50	0x3c148454	0.009064753
51	0x3c5670f3	0.013088453
52	0x3c072f45	0.008251016
53	0x3ac2f1c6	0.001487308
54	0x3c9af49b	0.018915465
55	0x3bb274cd	0.0054460526
56	0x3b8bb28f	0.004263229
57	0x3c80f562	0.015742008
58	0x3c96c9fe	0.018406864
59	0x3c0503f7	0.008118621
60	0x3c97fdc1	0.018553616
61	0x3cbc67e6	0.022998761
62	0x3b11d2d8	0.0022250917
63	0x3dcc80e2	0.0998552
64	0x3aea4ea5	0.0017876221
65	0x3d6c5fef	0.057708677
66	0x3c35b6d5	0.011090954
67	0x3b110c87	0.002213271
68	0x3d15bfa1	0.036559705
69	0x3d0decc7	0.034649637
70	0x3b8b55cb	0.0042521707
71	0x3c1f44fc	0.009721037
72	0x3b15ead7	0.002287557
73	0x3bbfb864	0.0058508385
74	0x3b8ceaa2	0.0043004313
75	0x3c32c222	0.010910543
76	0x3d0c0a27	0.03418937
77	0x3b009b02	0.0019623642
78	0x3c9d3e88	0.019194856
79	0x3c86c3df	0.01645082
80	0x3b08af86	0.0020856573
81	0x3bc09292	0.0058768475
82	0x3b17192f	0.0023055782
83	0x3abd095a	0.0014422343
84	0x3c1c9717	0.009557507
85	0x3ba006f6	0.0048836423
86	0x3dd3a99e	0.10335086
87	0x3b76ebcd	0.003767717
88	0x3cc560a3	0.024093932
89	0x3b3a6075	0.002843884
90	0x3c1a623c	0.009422835
91	0x3a9028ce	0.0010998489
92	0x3d01731f	0.03160393
93	0x3d6cf042	0.057846315
94	0x3c39ee69	0.011348345
95	0x3b81c9cc	0.0039608236
96	0x3b846530	0.004040383
97	0x3be38bd5	0.0069441595
98	0x3c020c79	0.007937544
99	0x3da5f901	0.08104134
100	0x3bae03b1	0.0053104986
101	0x3c0442a2	0.008072527
102	0x3cbf678d	0.023364807
103	0x3c3a9fef	0.01139067
104	0x3e32a2a8	0.17444861
105	0x3b185426	0.0023243516
106	0x3addbceb	0.0016917264
107	0x3b6702fc	0.0035249582
108	0x3cd05285	0.025429973
109	0x3b868414	0.0041051004
110	0x3c2719cc	0.010199022
111	0x3c0f6c85	0.0087539
112	0x3baa8b3b	0.005204586
113	0x3c19fdda	0.009398902
114	0x3ba944ff	0.0051656957
115	0x3aa6706e	0.0012698302
116	0x3aef99a4	0.0018280041
117	0x3c1eb0f4	0.009685744
118	0x3d080f29	0.033217583
119	0x3c9bd302	0.019021515
120	0x3c2f35c9	0.010693976
121	0x3afcda07	0.0019291051
122	0x3afef6c1	0.00194522
123	0x3d183d99	0.03716812
124	0x3c0e9f0e	0.008704914
125	0x3db400ab	0.0878919
126	0x3bcafe0a	0.0061948346
127	0x3b249fba	0.0025119619
128	0x3c49d3e7	0.012318588
129	0x3ba45791	0.0050153215
130	0x3bd5c4ba	0.006523696
131	0x3c9db9f6	0.019253712
132	0x3ad5e9c4	0.0016320278
133	0x3cc5121a	0.024056483
134	0x3ccb6477	0.024828179
135	0x3c693700	0.014234304
136	0x3c28c986	0.010301953
137	0x3b6a7417	0.0035774761
138	0x3c4b73b5	0.012417723
139	0x3b0c9173	0.0021449
140	0x3cc5e654	0.02415768
141	0x3c2e1eb4	0.010627437
142	0x3cacc232	0.021088693
143	0x3c78b545	0.015179937
144	0x3c01cf95	0.007923027
145	0x3c0c283c	0.0085545145
146	0x3b0d669c	0.0021576053
147	0x3d6f714c	0.058457658
148	0x3b4d8a56	0.0031362972
149	0x3c2f859d	0.010713008
150	0x3bac0cce	0.00525055
151	0x3b04669e	0.0020202766
152	0x3c105f0d	0.008811724
153	0x3ce6b290	0.028161317
154	0x3cebb3d2	0.028772268
155	0x3d52406d	0.051330972
156	0x3ad73a9c	0.0016420665
157	0x3d2a7566	0.041615866
158	0x3c018b64	0.0079067685
159	0x3c156a8e	0.009119643
160	0x3c90d051	0.017677458
161	0x3cc54902	0.024082664
162	0x3b86ab03	0.0041097417
163	0x3abf4b8a	0.0014594656
164	0x3b271a59	0.0025497882
165	0x3b077e21	0.0020674544
166	0x3bcf510b	0.0063267997
167	0x3d2a8e8d	0.041639853
168	0x3bdc0476	0.006714399
169	0x3b4a3494	0.0030854093
170	0x3d88ab81	0.06673337
171	0x3b1d953d	0.0024045252
172	0x3b065b4d	0.0020501197
173	0x3b8ad682	0.004236997
174	0x3cb910b3	0.02259097
175	0x3d8aa155	0.06769053
176	0x3d092c23	0.033489358
177	0x3cd0f790	0.025508672
178	0x3b4f0986	0.003159137
179	0x3c41a963	0.01182017
180	0x3d10130f	0.035174426
181	0x3cd3d5e2	0.025858823
182	0x3c3ae7e0	0.011407822
183	0x3ad0c544	0.001592793
184	0x3cc8e4b2	0.024523113
185	0x3b0bd725	0.0021337953
186	0x3c4d0835	0.012514164
187	0x3ae57839	0.0017507143
188	0x3b89aac9	0.0042012674
189	0x3d03c981	0.03217459
190	0x3d0fdb3f	0.0351212
191	0x3bb4c8ff	0.0055171247
192	0x3c116bc5	0.008875792
193	0x3b168ac2	0.002297089
194	0x3cc1e943	0.023670798
195	0x3b0396d3	0.0020078912
196	0x3c37af62	0.011211248
197	0x3afee878	0.0019447943
198	0x3c35063d	0.011048851
199	0x3b36a8fa	0.0027871714
200	0x3bbad2ec	0.0057014134
201	0x3b5c5077	0.0033617297
202	0x3c7a44a8	0.015275158
203	0x3b13fd76	0.0022581494
204	0x3bfe6e58	0.007764619
205	0x3b90bd24	0.0044170786
206	0x3baa0c20	0.0051894337
207	0x3ad6215d	0.0016336847
208	0x3b54af59	0.0032453148
209	0x3b900061	0.0043945764
210	0x3b8c2861	0.0042772745
211	0x3bf3ffff	0.0074462886
212	0x3b4c153f	0.0031140593
213	0x3bd7b30c	0.0065826233
214	0x3e92ca9d	0.28670207
215	0x3c5751e1	0.01314208
216	0x3bb7a14c	0.005603945
217	0x3c92906d	0.017891133
218	0x3c311f4d	0.010810685
219	0x3d94f5ec	0.072734684
220	0x3c1ce310	0.00957562
221	0x3baf5b47	0.0053514573
222	0x3e36d4a2	0.1785455
223	0x3c7f658a	0.015588174
224	0x3c47c78e	0.012193574
225	0x3b39222f	0.0028249135
226	0x3c20cc7a	0.009814376
227	0x3ce66cb5	0.028128007
228	0x3c1456ee	0.009053929
229	0x3ae4f57d	0.0017468181
230	0x3bf57f88	0.0074920096
231	0x3e0dac03	0.13835149
232	0x3c543db4	0.012954164
233	0x3ad93200	0.0016570687
234	0x3cdb8fb0	0.026801914
235	0x3ad1406a	0.0015964631
236	0x3cd32726	0.025775503
237	0x3c827674	0.015925623
238	0x3d2349c8	0.039865285
239	0x3c6f7cd2	0.014617162
240	0x3c039475	0.008031
241	0x3b751a00	0.003739953
242	0x3b4bb38d	0.0031082362
243	0x3bc04513	0.0058676093
244	0x3af12cd3	0.00184002
245	0x3b2293c7	0.002480732
246	0x3b4a3f29	0.00308604
247	0x3b852a05	0.004063847
248	0x3c91500a	0.01773836
249	0x3b60eedf	0.0034322066
250	0x3d38a74c	0.04508142
251	0x3cba3e07	0.022734655
252	0x3c532ffb	0.012889857
253	0x3b045968	0.0020194892
254	0x3aa465fe	0.0012542603
255	0x3cd78a9f	0.026311217

exp_avg f4 [2]
0	0x3d2b628a	0.04184202
1	0xbd2b6286	-0.041842006

exp_avg_sq f4 [2]
0	0x3cf08186	0.029358637
1	0x3cf08189	0.029358642
