TASK2/gender_classification_model/checkpoint_step_12000.pth (torch, 22993 bytes, 6 tensors)

weight f4 [2, 768]
000000 97 10 cf 3c 54 4e bd 3b a7 38 05 3d 92 1e 75 3c
       0.025276465 0.0057771597 0.03252473 0.014960902
000010 1d 14 dd bc 5b 2d 6e 3b ce 3c 01 bc 6e e3 02 bd
       -0.02698713 0.0036342952 -0.007888032 -0.031955175
000020 3e 93 fa bc 3c c8 7e bc 16 e9 3c bd d5 68 03 bc
       -0.030587789 -0.015550669 -0.046120726 -0.008020599
000030 36 d1 49 bd 0b cf b7 3c a4 8a be 3c 0e f4 24 bc
       -0.049271785 0.022437593 0.023259468 -0.010067953
000040 a7 3c 9b 3b 81 31 86 bc f1 bb a7 3b 4c e8 cd bc
       0.004737455 -0.016381027 0.00511884 -0.025135182
000050 41 df 3e bc 58 13 ae 3c 62 21 36 3d 9c 0b c0 3b
       -0.011649908 0.021249458 0.04446543 0.005860759
000060 5f 47 15 3d cd 1f 54 bc da 15 c8 3c 60 05 90 3b
       0.036445018 -0.012947035 0.024424482 0.004395172
000070 21 3f 8a 3d f2 0b aa 3a ad 07 fa 3c 79 0c 07 3d
       0.06750322 0.0012973531 0.030521238 0.03297088
000080 4e 3a 85 3c 53 81 b3 3a 69 6e 41 bc 7d f9 15 3d
       0.016263153 0.0013695158 -0.011806109 0.036614884
000090 15 7b 35 3c 5e ba 8c bd 44 7f 93 3c 66 12 c1 bd
       0.011076708 -0.06871484 0.01800502 -0.09427337
0000a0 88 61 f0 3c 32 a5 23 3a 75 52 06 bd 31 03 70 3c
       0.029343382 0.00062425726 -0.03279348 0.014649198
0000b0 0f 92 b7 bc 90 d4 7e bb c9 36 08 3d 47 1e 4c 3d
       -0.022408513 -0.0038884021 0.033255372 0.049833562
0000c0 f5 d9 3a 3d 77 43 d4 bc 04 a3 45 3c 4c 66 a8 3c
       0.045618016 -0.025911076 0.012062792 0.020556591
0000d0 89 c6 3e bc e1 c7 1c bd 95 fb 96 bb e1 ba bf bc
       -0.011644014 -0.038276557 -0.0046076276 -0.02340454
0000e0 a3 f8 f7 bb 68 9b fa bb c1 c2 36 bb db 1f b4 3c
       -0.0075674816 -0.0076479204 -0.0027887078 0.021987846
0000f0 80 97 18 3c 44 fa db 3b 61 ef 4d bd b5 ab 81 bc
       0.009313464 0.0067131836 -0.050277118 -0.015828947
000100 f2 3a 28 bc 99 26 7f bc e4 b2 43 3d de 8a 88 3d
       -0.01026796 -0.015573167 0.047778025 0.06667112
000110 f3 9e 19 bd 25 da 00 3d 34 63 b6 ba c6 04 ea 3a
       -0.0375051 0.03145804 -0.0013915063 0.0017854206
000120 6f 7f ca bb bd b1 65 bc 58 f7 ab bc d4 5b 11 bd
       -0.006179742 -0.014019427 -0.020991966 -0.035487965
000130 ee aa c6 bb 22 09 8b 3c ee 93 99 bb 6b a2 89 bc
       -0.006062857 0.016972128 -0.004686824 -0.01680108
000140 48 ef de 3c 19 86 cd bc f8 37 92 bd 87 c9 b9 3b
       0.027213708 -0.025088357 -0.071395814 0.005669776
000150 83 43 45 3c 7c 95 b0 3c f7 4b 92 bc c4 9c 4e bd
       0.012040022 0.021555655 -0.017858488 -0.050442472
000160 03 d7 2d 3d 4a 64 73 3c ed 91 36 3d 2f 56 64 bd
       0.04244138 0.014855454 0.04457276 -0.055746254
000170 7e fb 19 3d 13 3d a0 3c 35 d9 8b 3b 46 54 16 bd
       0.037593357 0.019560372 0.0042678365 -0.036701463
000180 03 92 ed 39 f8 85 4c 3d 1c e8 1b bc 8b 04 09 3d
       0.0004531295 0.04993245 -0.009515788 0.0334516
000190 29 5e 4b bc 23 dc 31 3c 23 01 4e 3d 28 1c a5 bc
       -0.012412586 0.010855707 0.050294053 -0.020155028
0001a0 da e9 2f 3c a8 c5 a5 bb bd 9e 8d 3d 54 3a 58 bd
       0.010736907 -0.005058963 0.069150425 -0.05279
0001b0 7d e8 d6 bb 5a 67 92 3d cd 3c 29 bd f0 e3 89 bc
       -0.0065584765 0.07148619 -0.04131775 -0.016832322
0001c0 43 68 6d 3c ba 6f e9 bb 8a 4f a0 3b 2b 19 c4 3c
       0.01449019 -0.0071239145 0.0048922943 0.023937782
0001d0 1c 40 b6 3d 70 bc 6c bc 15 72 34 bc 7f 25 9a 3c
       0.08898947 -0.014449224 -0.011013527 0.018816708
0001e0 cc f2 93 3d 54 9e 80 3d 21 7e 13 bc 53 24 56 bb
       0.07224044 0.06280199 -0.009002239 -0.003267546
0001f0 ee 8d 32 3c d2 d0 ea 3b dc 22 02 bd 72 29 ff bc
       0.0108980965 0.0071660066 -0.031771526 -0.031147692
000200 9c 94 27 3b 66 3d b9 bc 14 70 3c bd 81 d7 a5 3b
       0.0025570756 -0.022612285 -0.046005324 0.0050610905
000210 39 32 5e 3d 17 b9 43 3c 87 5e 20 3d aa ce 43 3c
       0.054247115 0.011945984 0.03915265 0.011951128
000220 bd 50 c8 bc ce de ff bb 8d 84 24 3d 84 40 0b bc
       -0.024452562 -0.007808543 0.040165473 -0.008499268
000230 ff a6 29 bd 04 bd 71 bc 79 1c 71 bb dd 0d 39 3c
       -0.041419026 -0.0147545375 -0.0036790653 0.011294809
000240 04 de e7 bc 8c 5c 2d 3b b0 97 95 bb c9 a1 65 38
       -0.028304107 0.0026452867 -0.0045652017 5.474853e-05
000250 75 a4 5c bc 29 34 c9 bc 23 ca d9 3c fb bd 44 bd
       -0.013466944 -0.024561005 0.026585644 -0.048032742
000260 86 f0 2e 3d 88 07 46 3d 53 8e d4 3c c0 d3 09 bc
       0.04270985 0.048347026 0.025946772 -0.008412302
000270 fc 25 9a bc ea ff 1d bd ad 10 96 bc 43 66 7e 3d
       -0.01881694 -0.038574137 -0.018318499 0.062109243
000280 a0 0f e0 bb ef 34 88 bc 0e ec c8 bc fb 17 b4 3c
       -0.0068378 -0.016626803 -0.024526622 0.021984091
000290 6f fe 50 bd e4 aa b6 3d 1a 6e 96 bc 80 c0 f9 bc
       -0.051023897 0.089193135 -0.018363047 -0.030487299
0002a0 61 c2 e1 bc 8a 4b 4c 3c 1e b7 d1 3c f4 42 84 3c
       -0.027558507 0.012469182 0.025600012 0.016145207
0002b0 e6 ba 03 bd cd 86 e6 3c 37 e7 55 bc 7d 42 e0 bc
       -0.032160662 0.02814045 -0.013055614 -0.027375454
0002c0 2b 0d be 3c 05 e6 10 3d 30 94 1c 3c 20 e1 22 3d
       0.023199638 0.035375614 0.009556815 0.039765477
0002d0 20 0c ee 3c 55 61 a7 bc c3 59 8c 3b b3 3a fb bb
       0.029058516 -0.020432154 0.0042831614 -0.0076669096
0002e0 d7 ca c2 bc 4e 51 a4 3d e1 b4 eb bc 62 38 2e bd
       -0.023778362 0.0802332 -0.028772773 -0.04253424
0002f0 a4 da 1a bc 44 d8 8c 3b 16 db 23 3c 62 d6 25 bb
       -0.009451542 0.004298242 0.010000965 -0.0025304784
000300 17 12 ae bc 18 b8 15 3d b9 8f 24 bd 77 ae ad bd
       -0.02124886 0.03655252 -0.040176127 -0.08480542
000310 e3 8c 8b bd 96 5a 44 bd c5 58 45 3d 8e b8 18 bd
       -0.068139814 -0.047937952 0.04818036 -0.03728538
000320 76 74 76 bd 84 5b e5 bb 5d 5e 41 3d 9c a6 28 3c
       -0.06016966 -0.006999435 0.047209132 0.010293629
000330 50 5d df 3c 6f 15 28 3d 77 f8 07 bb 0c db 92 bc
       0.027266175 0.041036066 -0.0020747462 -0.017926715
000340 5e d8 68 3d 68 34 05 3c ef ba 48 3c 31 24 0a bb
       0.05684697 0.00813017 0.0122516 -0.00210787
000350 36 c3 9d bc 56 bf 20 bd 7d e7 b3 bc 19 42 10 3d
       -0.019258123 -0.039244972 -0.021960968 0.035219286
000360 eb 4c bd bc 30 04 0d bd e3 f8 a0 bc a0 d4 d3 3c
       -0.023107966 -0.03442782 -0.019649928 0.025858223
000370 e7 d7 40 bd 03 57 f0 3b 25 a9 08 3d d7 d6 ee bc
       -0.0470809 0.0073345914 0.033364434 -0.029155178
000380 b8 60 da 3b a2 e8 ea bb 0e 79 35 bd fa 58 7e 3c
       0.006664362 -0.0071688453 -0.0443049 0.015524143
000390 29 6d 34 bb f5 d1 81 bc 51 91 83 bc 95 f1 1a bc
       -0.0027530885 -0.015847186 -0.016060503 -0.009457012
0003a0 fc 39 98 3c 65 90 3f 3d 69 83 ed 3b a8 21 bb 3d
       0.018582337 0.046768565 0.0072483313 0.09137279
0003b0 c3 c5 69 bb dc 5f 31 bd 45 04 12 bd 13 c8 c5 3c
       -0.0035670854 -0.04330431 -0.035648603 0.024143254
0003c0 60 3e f9 bc ff c4 9f bc 86 95 06 3d 8c 50 28 3d
       -0.03042525 -0.019503115 0.03285744 0.04109244
0003d0 4f b8 37 3d ce a8 0c 3d 00 55 ed bb fe 66 43 3b
       0.044853505 0.034340672 -0.007242799 0.0029816027
0003e0 0c b9 ba bb c2 d9 6e 3c 1a 57 16 bc ca 61 29 3c
       -0.005698329 0.014578285 -0.00917604 0.010338256
0003f0 ac 59 21 3d b0 44 c2 bc f7 5c a8 3b 8c 18 15 3d
       0.03939216 -0.023714393 0.0051380354 0.036400363

bias f4 [2]
000000 d4 2f c6 3c d3 4e 9e bb
       0.024192728 -0.004831174

exp_avg f4 [2, 768]
000000 94 8c 63 bc a4 5b 7e bb 7a 8a 69 bc 0a ad 8f 3a
       -0.013888497 -0.0038811946 -0.014254207 0.0010961604
000010 74 68 19 bc e0 77 4e 3b 5b db 7d 3c d4 fc ba bc
       -0.0093632825 0.0031504557 0.015494193 -0.022825636
000020 ff a0 c5 bc f8 9b 61 bc 9a ee 7c 3b 0c 12 56 3b
       -0.02412462 -0.013770096 0.0038594366 0.0032664565
000030 3c 12 4c bc 16 40 95 3c 32 d1 01 39 17 67 02 3a
       -0.012455519 0.018219035 0.0001238033 0.0004974468
000040 51 36 ab 3b f3 e0 05 bb 81 de c5 3b d7 de 56 bc
       0.005224981 -0.002042827 0.0060384874 -0.013114653
000050 e9 b4 0a 3b 57 12 cb 3b 53 cc 41 bc cf c2 bd 3b
       0.002116496 0.0061972546 -0.0118285 0.0057910453
000060 2d 2e 99 3c ad 18 73 ba 61 ae 98 3a 99 41 72 3b
       0.018698776 -0.00092733913 0.0011648649 0.0036965369
000070 eb eb 97 bb 58 5f 07 3c 4c 92 e5 3a 23 32 05 3c
       -0.004636278 0.008262478 0.0017514913 0.008129629
000080 b0 f9 11 bb f6 bf 72 3b e2 81 a1 3b c4 fa cb bb
       -0.002227407 0.0037040687 0.0049288133 -0.006224962
000090 7e 61 a9 3b cd f3 a7 3b 90 ea 1b 3c d3 a2 c4 bb
       0.0051690927 0.005125499 0.009516373 -0.0060008555
0000a0 13 e6 7e 3b fa d3 9c bb 29 08 ec 3b 7b b0 75 3b
       0.003889446 -0.0047860118 0.007203121 0.0037489224
0000b0 2a fd 63 3b c6 83 e7 bb db 5a 18 3c f1 e1 7b 3b
       0.0034788349 -0.007065269 0.009299005 0.0038434232
0000c0 b0 18 ee bb 6b 93 29 3c b2 4a 68 ba e2 76 5a bc
       -0.0072661266 0.010350089 -0.0008861228 -0.013334008
0000d0 7e e8 16 3b 4d 28 4b 3a 52 15 97 bb c6 fa c9 3a
       0.002302676 0.0007749841 -0.004610696 0.0015409819
0000e0 29 6f 18 bc 1d 8c e5 3b 25 01 c8 bb 46 76 49 bc
       -0.009303846 0.007005228 -0.006103652 -0.012296265
0000f0 4c de 9e bc 33 b3 11 3c d6 22 e7 3b b0 de dc 3c
       -0.019393109 0.008892822 0.0070537133 0.026961654
000100 ee 53 df 3b 5d 2c 86 3b bd c5 38 bc e0 4c 2b 3b
       0.006815425 0.004094644 -0.011277613 0.002613835
000110 f7 1f cf bb cd 57 eb b9 0d 7a b8 3b 89 c8 5c 3b
       -0.006320949 -0.0004488811 0.005629784 0.0033688864
000120 62 bb cd bb 38 d8 37 3c 0b 5d 8b bc 6e 7e 02 3b
       -0.0062784413 0.011220984 -0.01701214 0.0019911784
000130 b2 80 f2 bb f2 95 5c bb 64 92 84 bb 0b ed 80 3b
       -0.0074005956 -0.003365871 -0.0040457714 0.0039345077
000140 4b 31 3d ba 4e 7d b4 b8 da 13 da 3b d6 a4 d7 3b
       -0.0007217123 -8.606409e-05 0.0066551985 0.0065809293
000150 9c 2d 50 bc ed 0f 92 3b 13 77 3d bc 7c 23 8d 3b
       -0.012706187 0.004457465 -0.011564034 0.0043072086
000160 d5 c1 08 3c 49 b7 af bb a7 b4 69 3c ec 58 3c bb
       0.008346994 -0.0053624255 0.014264262 -0.0028739525
000170 ba 79 0b bc ac d4 02 3b c2 9f 68 3b 19 67 77 3c
       -0.008512909 0.0019963188 0.0035495614 0.015100264
000180 8e 8e 1b 3b 78 b5 25 3b 66 d9 e0 3b 2b c2 b8 bb
       0.0023736092 0.0025285166 0.0068618534 -0.005638381
000190 2b 9d 53 3a 52 d7 43 bc d1 bb 74 3c 49 26 4b bb
       0.0008072431 -0.011953192 0.014937357 -0.0030998162
0001a0 f8 bc 89 b9 de 77 15 bc 01 d2 0f bc 9e 7b 8f 3b
       -0.0002627147 -0.009122817 -0.008778096 0.00437875
0001b0 38 6c f4 bb ab c8 10 bc 98 11 44 bc ba 67 45 bb
       -0.0074591897 -0.0088369055 -0.011967085 -0.003012164
0001c0 f9 ad a4 3b 9b ec 32 bc 93 73 12 bc 03 10 94 bb
       0.005025622 -0.010920669 -0.008938688 -0.0045185103
0001d0 15 2d d2 bc 68 25 f7 3a 79 ab 62 bb 43 8e b4 bb
       -0.025656262 0.0018855752 -0.003458707 -0.005510123
0001e0 bf 12 2b bc 81 fd b0 3b c8 63 0a bc 57 fa fa 3b
       -0.010441481 0.005401314 -0.008446641 0.0076592374
0001f0 f1 5c ef 3a 57 5d 38 bc fc 16 14 3b 39 38 f0 bb
       0.0018261952 -0.011252723 0.0022596708 -0.007330921
000200 cd 6f ca bb 2d bb 9d bc 95 62 1a 3c df a4 82 3b
       -0.0061778785 -0.019254291 0.009422918 0.0039869393
000210 87 21 d4 bb 69 99 1a bc 0c 8b 15 bc af 49 d0 bb
       -0.0064737233 -0.00943599 -0.00912739 -0.00635644
000220 d4 dc b5 3b 2e fb 5c 3b 40 e2 0e 3c 3c 17 86 3c
       0.0055500064 0.003371905 0.008720934 0.0163685
000230 d5 71 1d ba 37 fd c2 3b 89 56 91 3b 63 8d 3d bb
       -0.0006006037 0.0059505957 0.0044353646 -0.0028923384
000240 ca e6 9e 3c 8c d6 70 bc be aa 05 3c 86 11 0f 3c
       0.019397158 -0.014699589 0.008158384 0.008732205
000250 cf e6 b1 3b 95 0c 79 3c 2d 2c 13 3b 60 23 a6 3b
       0.005429126 0.015200754 0.002245675 0.005070135
000260 4a 44 0d 3b 63 f2 0c 3b 72 3d db 3b 2f 9b d4 bb
       0.0021555596 0.0021506778 0.0066906745 -0.006488226
000270 19 b9 05 bc 93 3a fb 3b 4a b6 17 3b 47 41 20 bc
       -0.0081618065 0.0076668947 0.0023149424 -0.009781188
000280 1e df da 3a 67 93 0c bb 01 67 f4 3b 9e 24 25 3c
       0.0016698574 -0.0021450163 0.007458568 0.010079531
000290 78 26 31 bc 7b c8 20 3c 45 aa 30 bc 73 f4 94 3b
       -0.010812394 0.009813423 -0.010782783 0.004545742
0002a0 b5 4a 35 bc 24 4e 8e ba 62 19 31 bc 1b b0 38 3b
       -0.011065175 -0.0010857028 -0.010809274 0.002818114
0002b0 60 a7 3e 3c b4 98 ce ba 02 c4 54 bc 56 5c df 3a
       0.011636585 -0.0015762062 -0.012986185 0.0017041068
0002c0 69 f7 db ba 2c 2f 44 bc 17 85 c1 ba cf c3 a2 bb
       -0.0016782108 -0.011974137 -0.0014764395 -0.00496719
0002d0 29 1b aa b8 d8 7d 04 bb 32 9f 99 bb 92 b2 16 bb
       -8.111291e-05 -0.002021661 -0.004688167 -0.002299462
0002e0 10 c5 07 bc 99 cc 26 bc 5b 1e 08 3b e6 8b b1 3b
       -0.008286729 -0.010180616 0.0020770046 0.0054182885
0002f0 c9 6f ef 3b 7d 78 d3 bb 48 89 af bc a9 38 d1 38
       0.007307027 -0.0064535723 -0.021427765 9.9764504e-05
000300 19 46 53 3c 7b c4 26 bc 0d c4 47 bc 65 c0 20 3b
       0.012895131 -0.0101786805 -0.012192738 0.0024528739
000310 86 0f 4a bb 56 db 59 bc 63 37 ee bb de 41 6b 3b
       -0.0030832007 -0.013296923 -0.007269786 0.0035897414
000320 2f 95 0c 3b 61 c6 3e 3b 7a 12 9e bb e3 35 96 3b
       0.0021451225 0.0029109942 -0.00482398 0.0045840605
000330 f2 82 23 bc d9 92 5c bc 58 71 13 bb 51 5b 60 3c
       -0.00997995 -0.013462746 -0.0022497978 0.0136936465
000340 0a 78 fa 3b ed 03 2b 3c 26 a5 1d 3c 51 d1 8c bb
       0.0076437043 0.010437948 0.009621894 -0.0042974134
000350 46 34 a1 bb 66 b1 da 3b 15 f0 35 bb b6 e8 72 3c
       -0.0049195616 0.0066739796 -0.0027761508 0.01482599
000360 8a 20 07 3b 84 16 f4 ba da 09 30 bc 2e 5d 22 ba
       0.002061876 -0.0018622433 -0.010744536 -0.00061936944
000370 c4 30 b2 bc 73 a5 9b bc 9c 7c 9a 39 26 25 09 bc
       -0.021751769 -0.01899979 0.0002946601 -0.008370673
000380 cd 29 34 ba 46 1d 85 bb 2c 83 94 3b f0 87 1c 3c
       -0.0006872684 -0.0040623276 0.0045322385 0.009553894
000390 cb 88 0e bc 89 ae aa 3b 46 28 2e 3a 8c 8d 39 3c
       -0.008699606 0.0052087945 0.00066435745 0.011325251
0003a0 0c db 02 3b 48 45 e9 3a c5 79 25 3b 70 a4 a5 3b
       0.0019966988 0.0017797137 0.0025249582 0.005055003
0003b0 64 6b 85 bc 93 06 9f ba 3e 7c 4a bc 6b 6d 29 bc
       -0.01628656 -0.0012132697 -0.012358723 -0.010341029
0003c0 7c 2e e4 39 07 7f 9b 3b 20 bf fb 3b 8f 27 f9 3b
       0.00043522182 0.0047453674 0.007682696 0.0076035927
0003d0 03 a1 37 3b ca bd dd 3b 0d 4c 5f bb b3 9c 3f bc
       0.0028019554 0.0067670094 -0.003407243 -0.011695075
0003e0 6f 47 48 ba 71 87 95 3b 8b b0 82 3b 96 4e 08 bc
       -0.0007640039 0.004563265 0.0039883307 -0.008319518
0003f0 72 81 be bb 3c 44 3d bb 69 cc 83 3c 1e 67 cc bb
       -0.005813771 -0.0028879782 0.016088681 -0.0062378785

exp_avg_sq f4 [2, 768]
000000 26 20 8a 3b 6b c6 eb 3a 94 18 1b 3b c0 ce be 3c
       0.004215258 0.001798821 0.0023665773 0.023291945
000010 91 dd f4 3c 79 66 b5 3a 77 65 9b 3d 9c 2b 29 3c
       0.029890807 0.0013839743 0.07587712 0.010325339
000020 80 1e 38 41 c3 c4 8b 3d af f9 00 3b ca 0b 97 3c
       11.507446 0.06824639 0.0019680073 0.018438239
000030 93 12 04 3c 47 b4 52 3d 53 e3 6e 3c 33 30 91 3b
       0.008061069 0.051441457 0.0145805655 0.0044307946
000040 69 b8 c5 3a a4 d7 f9 3b 07 ef b1 3b 79 4e 3d 3c
       0.0015084866 0.0076245833 0.0054301056 0.011554354
000050 4f eb 22 3c a3 a4 2f 3c 58 c3 f7 3b ee e6 7a 3c
       0.009943797 0.010720405 0.0075611286 0.015313847
000060 31 2f 72 3d 5f fa 9a 3b 24 39 e1 3a e6 e2 e1 3c
       0.059127036 0.0047295536 0.0017183167 0.027574014
000070 76 23 e5 3a ef e9 0b 3b 55 a3 6e 3d cd 0f 2d 3c
       0.0017481882 0.0021349152 0.058261234 0.010562849
000080 6d 82 20 3c a2 68 40 3d 85 94 0a 3c 8d 48 a5 3c
       0.009796721 0.046974786 0.008458261 0.020176196
000090 1c 8f 17 3d 30 fc a3 3a a7 a9 85 3f 2e cf d3 3a
       0.037001714 0.0012511071 1.0442399 0.0016159767
0000a0 d3 cd c7 3b 55 c2 bd 3b bc 40 e8 3a 48 16 ce 3e
       0.006097534 0.0057909884 0.0017719488 0.40251374
0000b0 e0 d0 50 3d 92 ab 33 3b 46 98 e3 3c d1 69 29 3c
       0.05098045 0.0027415496 0.02778257 0.01034017
0000c0 ce be d5 3a 2d 8d 69 3c 65 07 0a 3c 4f 5d 51 3c
       0.0016307475 0.01425485 0.008424615 0.012778594
0000d0 75 ef 04 3c 29 2c c1 3a 31 2c 99 3c fd ae aa 3b
       0.008113732 0.0014737892 0.01869783 0.0052088485
0000e0 6b 2f 88 3b d7 06 76 3c 2c dc 8a 3c 19 79 fe 3b
       0.0041560433 0.015016279 0.01695069 0.007765901
0000f0 35 a2 93 3c d0 1a b3 3c ce 73 12 3b f7 14 c0 3d
       0.018021682 0.021863371 0.0022346857 0.09378999
000100 e0 ba f5 3a 18 9e 5e 3d 45 1a 2a 3c d7 9d 0d 3b
       0.001874771 0.05434999 0.01038224 0.0021608972
000110 ef 69 0c 3d 9a 43 06 3d 6c 5e 84 3b 9d dc 1c 3c
       0.034280714 0.032779314 0.0040395763 0.009574083
000120 e6 2e 07 3b 8f fa b8 3b 59 4f 89 3b 03 be 2d 3c
       0.002062732 0.0056451033 0.004190367 0.010604384
000130 82 b4 02 3d 99 ea f2 3a 36 21 98 3c ec 99 7a 3c
       0.031910427 0.001853305 0.018570524 0.015295487
000140 bb ce 05 3b 0b 9a b9 3b f6 30 0f 3b 5c c9 bd 3a
       0.002041741 0.0056641153 0.0021849251 0.0014479565
000150 9b dc 11 3c 84 73 9e 3b 6d ee c5 3d e0 83 69 3b
       0.008902694 0.004835548 0.09664617 0.0035631582
000160 17 3b bb 3c 5b 33 45 3b f6 31 13 3c ec ad 96 3a
       0.022855325 0.0030090425 0.00898408 0.0011495925
000170 2d f2 f1 3c 4b 40 5e 3d 07 4e 2e 3c e6 19 77 3b
       0.029534424 0.054260533 0.01063872 0.0037704646
000180 b9 af 75 3b fe 4a d8 3b 5b 1f f2 3b 94 9f 9c 3d
       0.0037488772 0.0066007366 0.007388992 0.076476246
000190 42 36 9d 3b bd b1 01 3c cb e4 b3 3c ad 05 32 3c
       0.004797728 0.007915911 0.021959683 0.010865611
0001a0 4d f1 26 3e e8 c2 1f 3b f9 27 d3 3a 39 8f 63 3b
       0.16302986 0.0024377648 0.0016109935 0.0034722819
0001b0 87 98 c7 3c c3 41 7a 3b b9 2f 1b 3c c6 80 09 3c
       0.024364723 0.003818617 0.009471827 0.008392518
0001c0 08 80 a3 3b a0 c1 13 3c 54 a6 9e 3b 77 26 a5 3a
       0.0049896277 0.009018332 0.004841605 0.0012599964
0001d0 a8 9d e8 3a 87 80 17 3c 99 14 ff 3c 39 5b 93 3c
       0.001774718 0.009246952 0.031137751 0.017987834
0001e0 57 38 32 3c 40 b1 f6 3a 62 d7 01 3b f4 f1 12 3d
       0.01087769 0.0018821135 0.0019812216 0.035875276
0001f0 09 26 00 3c e2 78 ad 3d 00 a3 c8 3b 2e 78 21 3b
       0.007821568 0.08470322 0.0061229467 0.0024638283
000200 6b 7e 47 3c 07 59 9d 3b ff 59 cf 3b 10 9c 94 3c
       0.0121761365 0.0048018727 0.006327867 0.018140823
000210 e4 78 ce 3a 44 04 b7 3c 13 d7 c3 3c 57 b1 60 3c
       0.0015752581 0.022340901 0.023906266 0.013714156
000220 0b db 1e 3c 6e 9f 5b 3b 16 cf 3b 3c 8a c0 0e 3b
       0.009695779 0.0033511776 0.011462947 0.0021782243
000230 58 1b bb 3c c3 e4 25 3c 04 ac a0 3c 57 f9 71 3c
       0.022840187 0.010125342 0.019613273 0.01476892
000240 19 7f fb 3b e7 1f 05 3c 90 13 11 3b 7d 08 60 3d
       0.0076750633 0.008125282 0.0022136904 0.054695595
000250 8b bc 44 3b 40 1a 23 3c d5 b2 a5 3b 21 a7 ee 3a
       0.0030019607 0.009954989 0.005056719 0.0018207767
000260 64 48 06 3c cc f7 d5 3c e2 d5 df 3c 44 7b 47 3d
       0.00819597 0.026119135 0.027323667 0.04870154
000270 fa 75 d5 3a a7 0c 1f 3d 59 c9 fa 3b 25 bf 0f 3c
       0.001628577 0.038830426 0.007653397 0.0087736
000280 78 f1 87 3c be b5 ba 3c e2 29 82 3b 58 09 ce 3a
       0.016594633 0.02279174 0.003972278 0.0015719337
000290 5a 30 21 3b cc 0a 04 3b d4 8b c4 3b e8 ce 23 3d
       0.002459547 0.0020148037 0.005998114 0.039992243
0002a0 44 6a ce 3b c5 32 43 3b b2 79 80 3d c6 26 1a 3b
       0.006299289 0.00297849 0.062732115 0.0023521646
0002b0 30 0c 07 3b bd 2f a0 3b 2f 57 ac 3c 5f ef 81 3d
       0.002060663 0.0048885033 0.021037666 0.063444845
0002c0 ea 2b 01 3d 37 40 c3 3c 74 0d 42 3b e3 34 33 3c
       0.03153602 0.023834331 0.002961007 0.010937902
0002d0 08 71 08 3d 12 31 c8 3c 12 6f 36 3c e1 57 c9 3a
       0.03331092 0.024437461 0.01113488 0.0015361273
0002e0 c3 a7 c2 3c 16 2f 06 3b df 8e 38 3c 89 a8 e3 3a
       0.023761636 0.0020474843 0.011264532 0.0017368953
0002f0 d1 b8 85 3b 1e 50 fa 3c 0c 8f 07 3d 82 12 a7 3b
       0.0040808697 0.030555781 0.033095405 0.005098642
000300 d1 4e 06 3c 5d e2 11 3b ac bb b7 3c b3 f1 f6 3a
       0.008197502 0.0022260167 0.022428356 0.0018840343
000310 2c 0f 29 3c 7b 7b 0c 3b db 43 26 3c 25 eb 30 3b
       0.010318559 0.0021435905 0.010148014 0.0026995626
000320 cb ae b9 3b 1d 34 5a 3b a5 93 68 3c d3 41 14 3b
       0.005666589 0.0033295222 0.014195357 0.0022622242
000330 30 27 f8 3b e7 ab 82 3b 24 54 ab 3b 5f 04 dc 3a
       0.007573031 0.0039877775 0.005228536 0.0016785971
000340 ae fe 44 3b 1c 8b 93 3b ff 26 85 3b c1 0d e3 3b
       0.0030059027 0.004502667 0.0040634866 0.00692913
000350 b4 df 37 3b 0d 39 ca 3b 0e 4d 8a 3e 0d cc 4a 3c
       0.0028056921 0.0061713518 0.27011913 0.012377751
000360 94 3c ae 3b c1 e4 89 3c 1c 5d 2b 3c eb 28 8e 3d
       0.00531728 0.016832711 0.010459211 0.06941398
000370 0a ef 1d 3c ea d3 ab 3b 37 16 2d 3e f6 93 6c 3c
       0.009639511 0.005243768 0.16903006 0.0144395735
000380 c1 52 3d 3c 1b 94 31 3b 44 3c 19 3c 0d 9f d7 3c
       0.011555375 0.0027096334 0.009352747 0.026320959
000390 f2 2b 12 3c ed 4a d5 3a 5e 14 f2 3b b2 03 06 3e
       0.00892161 0.001627294 0.007387682 0.13087347
0003a0 1f e2 41 3c ce 60 df 3a 39 b4 d1 3c bb 8a d6 3a
       0.011833697 0.00170424 0.025598632 0.0016368249
0003b0 dc 6a cb 3c 76 03 76 3c f6 1c 1a 3d f5 5a 62 3c
       0.024831228 0.015015474 0.037625276 0.013815631
0003c0 db b1 fa 3b 02 23 5f 3b 12 69 3e 3b 56 71 ba 3b
       0.0076505966 0.0034047966 0.0029054326 0.00568978
0003d0 bb 04 e3 3a 90 7b 23 3b fc 03 42 3b 0a e9 84 3b
       0.0017320135 0.0024945475 0.0029604426 0.0040561007
0003e0 89 c4 8a 3c 5e e5 5c 3b ef 62 2b 3d 28 8b b4 3c
       0.016939418 0.003370605 0.041842397 0.022039011
0003f0 56 6a 49 3c c7 14 fe 3a 93 2f a1 3a 32 91 cf 3c
       0.012293419 0.0019384854 0.0012297503 0.02533779

exp_avg f4 [2]
000000 a4 35 de 3a 96 35 de ba
       0.0016953242 -0.0016953226

exp_avg_sq f4 [2]
000000 49 80 e1 3c 49 80 e1 3c
       0.027526991 0.027526991
