TASK2/gender_classification_model/checkpoint_step_9000.pth (torch, 22979 bytes, 6 tensors)

weight f4 [2, 768]
00000000: 1dd8 e33c 554c a53b 2b3f 883c ec7f 663c
00000010: 41f7 debc 9cf6 163a 89f6 f9bb 71ec a7bc
00000020: a7e7 fabc aeb5 58bc 4587 2ebd 8f00 96bb
00000030: 3915 44bd 3965 ab3c a0dd cb3c 4096 44bc
00000040: dda7 073c 394f a2bc 596b 3ebb 4f93 cdbc
00000050: b14e cfbb 9ee6 ab3c 3f62 323d 82ec 2d3c
00000060: 8d5b 113d b6bb 4fbc c035 1f3c c249 3a3b
00000070: 4253 583d 3358 063b 317e 013d 5ab2 0d3d
00000080: 7fc6 a43c 197f 363b a799 1abc 020d 143d
00000090: 3a54 373c 87ab 89bd 0584 9e3c 3768 a7bd
000000a0: a25b ba3c a3a2 5c39 f728 07bd 9194 713c
000000b0: f13c b2bc 3a74 01bc 7007 043d 3395 353d
000000c0: 92be 233d fcce bebc f1ed 863c efc5 a03c
000000d0: 534b babb 4e1a 1ebd 30ec 09bc fa86 9bbc
000000e0: 44e0 f5ba 70fd 8cbb b6de 50bb 1596 983c
000000f0: 6a03 1b3c 63e6 ed3b daa9 2abd c96a 70bc
00000100: e4ae 7d3b 0ca5 84bc 18db 303d 1987 733d
00000110: c651 0cbd f880 f73c 4646 8a3b 1b3b 30ba
00000120: 7599 a5ba a450 0cbc 30dc c5bc eff8 05bd
00000130: 76a4 bdbb 8388 123c 35d3 b9bb 8251 5cbc
00000140: a839 ac3c 1f13 a1bc bc4a 82bd 6292 b03b
00000150: b731 1b3c f9f4 a93c 450c 8dbc 0344 37bd
00000160: 88bf 1c3d bf00 333c ea47 233d e842 12bd
00000170: 928f 0e3d 9852 9a3c 0c9d f03b 47c7 00bd
00000180: e547 34bb ddea 463d b973 48bc a064 fe3c
00000190: b318 0fbc a6d1 2c3c ea1b 3f3d 4d15 afbc
000001a0: f2b4 303c cc73 13bb 1cdf 8c3d 5124 4fbd
000001b0: 4cf4 3dbb 60e2 693d 287d 28bd 6218 91bc
000001c0: 0782 283c 6e4e aabb 8181 3d3b dd3a e23c
000001d0: 933a a33d 4e63 0abc 9180 83bc 7575 ae3c
000001e0: cfb6 863d 7016 803d 8c71 bbbb 593c e3bb
000001f0: 3603 a63b 979e 073c 7271 f0bc 066d dfbc
00000200: 1a6a 253b 2f47 9cbc e016 27bd 50e9 b73b
00000210: 17ed 483d 4cd0 4e3c 20fe 123d 529c f83b
00000220: 12d1 c6bc b188 e8bb 14b4 1e3d fe08 af3a
00000230: 0de5 1abd 85b6 4cbc c902 0ebb aa8c 573c
00000240: aeb2 d8bc 1a38 9a3b 850e 77ba e90a 1f39
00000250: f17e 89bc 0e06 e2bc c978 d23c 1805 38bd
00000260: e825 183d 33b6 373d 77eb b93c 217f 38bc
00000270: 6510 56bc dee5 16bd 8f2d a0bc 7d7c 6a3d
00000280: cd99 02bc acda 73bc 082b debc 7acc bb3c
00000290: 3e3f 5cbd db3b a73d 2b8a 61bc e911 f2bc
000002a0: cd3c 9fbc 8716 763c 6981 d63c a75d 0a3c
000002b0: cec0 fabc 0362 dc3c 3e77 66bc 42a0 dfbc
000002c0: 9968 a33c 7c59 073d 7c2b 5b3b d575 1e3d
000002d0: 543a d63c 4de3 b7bc b36a bb3b db8a 92bb
000002e0: f517 a9bc 129c 983d b783 cfbc 0c85 3abd
000002f0: e2c7 ddbb cbe2 593b 9565 1f3c 0159 0bbb
00000300: 19d0 c0bc a35d fa3c 6a38 12bd 5c2b 97bd
00000310: dc28 7ebd ad3f 32bd 250f 3a3d fe99 14bd
00000320: e4b6 4dbd 1a34 2dbb 7a6b 373d 1426 193b
00000330: e576 f03c a9b4 203d 8ccf 20bb 633e b1bc
00000340: 4d1c 673d 89c8 dc3b 82e3 3e3c 33ce 753b
00000350: 1013 9dbc ce8d 19bd e689 a8bc d0d5 f43c
00000360: 7fcf b4bc bf5f 15bd ab1e b3bc 6767 e23c
00000370: 2a30 30bd 9c1b 2f3c 5ace 093d 9f4d ddbc
00000380: ef2d af3b 0cce 3bbc 4bf6 2cbd 6f1e 813c
00000390: 0c40 e2bb e6d1 60bb aebe 8fbc 1891 1abc
000003a0: 9d25 a13c 5020 2c3d 57e7 073c b5ca 9b3d
000003b0: dac7 2abb b631 1dbd ba59 02bd b89e a83c
000003c0: e4f2 debc 49e9 82bc 1a86 0e3d 9d75 233d
000003d0: 22ba 053d d768 113d dc58 50bb bc53 b53b
000003e0: 05b8 02bc 0fc2 903c 488e 72bb fe57 263c
000003f0: 9441 163d cb56 9abc 7d29 633c 89ae 093d
0.027813012 0.0050445 0.016631683 0.014068585 -0.02721751 0.00057587936 -0.0076282662 -0.020498486
-0.030628039 -0.01322691 -0.04260947 -0.0045777033 -0.047871802 0.02092229 0.024885952 -0.011998713
0.008279768 -0.019813167 -0.0029055683 -0.025094656 -0.0063265194 0.02098399 0.043550726 0.01061547
0.0354877 -0.012679031 0.009717405 0.002842531 0.052813776 0.0020499348 0.031614486 0.034593917
0.020114182 0.0027846752 -0.009436048 0.036145218 0.011189515 -0.06722169 0.019350061 -0.08174174
0.022748772 0.00021041422 -0.03299805 0.014744894 -0.021757575 -0.007901246 0.032233655 0.04433174
0.039976664 -0.023292057 0.016470881 0.019625632 -0.005685249 -0.038599305 -0.008418128 -0.01898526
-0.0018758853 -0.004302673 -0.0031871027 0.018626252 0.009461263 0.0072601303 -0.04166589 -0.014673897
0.003870898 -0.016191982 0.043177694 0.05945501 -0.034257673 0.030212864 0.004219803 -0.00067226746
-0.0012634235 -0.008564148 -0.024152845 -0.032708105 -0.0057874275 0.00894368 -0.00567093 -0.013447167
0.021023586 -0.019662438 -0.06361911 0.005388544 0.009472302 0.020746695 -0.017217765 -0.044742595
0.038268596 0.010925471 0.039863504 -0.035708338 0.034804888 0.018838212 0.00734294 -0.031440046
-0.0027508673 0.048563827 -0.012234622 0.031053841 -0.008733916 0.010548031 0.04665748 -0.021372462
0.010785328 -0.002249944 0.06878492 -0.050571743 -0.0028984724 0.057100654 -0.041134983 -0.017711822
0.010284907 -0.005197338 0.0028916302 0.027615959 0.079701565 -0.008446528 -0.016052516 0.021296242
0.06577837 0.062542796 -0.005720323 -0.0069346842 0.0050663007 0.008277557 -0.02935097 -0.027273666
0.0025240243 -0.019076912 -0.0407933 0.00561253 0.04905423 0.012622904 0.035886884 0.007586994
-0.024269614 -0.007096373 0.038745955 0.001335412 -0.037816096 -0.012494688 -0.002166914 0.0131560955
-0.026452389 0.004706395 -0.0009424466 0.00015167486 -0.016784163 -0.027590778 0.02569236 -0.044926733
0.037145525 0.044851493 0.022695286 -0.011260779 -0.013065432 -0.036840312 -0.019552974 0.057247628
-0.007971239 -0.014883678 -0.027120128 0.02292465 -0.05377125 0.081657134 -0.013765852 -0.029549556
-0.019438172 0.015020019 0.026184754 0.00844518 -0.030609515 0.026902204 -0.0140665155 -0.027298097
0.019947337 0.033044323 0.0033442667 0.038686592 0.02615086 -0.022447253 0.0057195066 -0.0044721193
-0.020641306 0.07451643 -0.025331361 -0.04553704 -0.0067682127 0.0033246751 0.009728809 -0.0021262767
-0.023536729 0.030562228 -0.035698332 -0.07381317 -0.062050685 -0.043517757 0.0454246 -0.03627967
-0.050223246 -0.002642876 0.044780232 0.0023368644 0.029353568 0.03923479 -0.002453777 -0.021636194
0.056423474 0.006737773 0.011650922 0.0037506938 -0.019174129 -0.03748875 -0.020573568 0.02988711
-0.022071598 -0.036468264 -0.02186521 0.027637197 -0.043014683 0.010687735 0.033644058 -0.027014552
0.005346052 -0.0114627 -0.04222707 0.015761582 -0.0069046076 -0.0034304797 -0.017546978 -0.009434007
0.019671256 0.042023003 0.008294902 0.07607023 -0.0026059062 -0.038377486 -0.03182385 0.020583495
-0.027215429 -0.01598038 0.034795858 0.039907087 0.032648213 0.035500374 -0.0031791246 0.0055336636
-0.007978444 0.01767066 -0.0037011076 0.010152815 0.036683634 -0.018840214 0.013864872 0.033613715

bias f4 [2]
00000000: 3ecb c63c e0d5 9ebb
0.024266835 -0.004847273

exp_avg f4 [2, 768]
00000000: 79a4 953c 6ec6 94bc 2218 c1ba e0a7 013c
00000010: b019 3b3b be88 debb 7e72 953b 86bf 8ebb
00000020: 3058 2f3e 37d8 b93c feaf 1cbc 1ca3 c5bb
00000030: abcb 1cbc 2f8d 9bbc a7c4 1dbc 6095 acbc
00000040: 9aba 96bc 3f17 693b bb4e c23b a05f 1c3c
00000050: 05b1 fe3a 9226 07b8 8050 01bc 7aa8 0abc
00000060: 4744 14bd 157a 283b 8cf3 b9bc d04a 5ebc
00000070: 81a7 31bb 6e87 8f3c fc4b 2dba 32e1 5a3b
00000080: 7c3e 343c 1dc5 86bc 6bb2 e0bb 8ecd 85bb
00000090: ddb2 a3bc 3b83 8dbb 5160 95bd 18cd 1dbb
000000a0: e922 79bc 3201 56bc 1574 12b9 3041 423d
000000b0: 8709 843c 1829 0cbb b932 8fbb 2c3f 893b
000000c0: b758 5fbc 164b 82bb 695e 543c 7a73 a93b
000000d0: 0a02 5cbc e59b 813b 3d1e 1c3c 5246 5b3b
000000e0: f981 fcbb 81e2 b2bb 3f99 37bc 670f 64bc
000000f0: da6d b43c 9d53 a9bc 4134 26bb 08aa 56bc
00000100: ca2e 9d3b 585a 353c 0ef3 1cbb 479e 71ba
00000110: 5b89 ad3c ae0f 4d3b c121 febb 1cc4 e9bb
00000120: b1d1 483c 93c4 81bb aec1 07bb 9453 58bc
00000130: 6236 c13c 386f d33b 398c 403b 1af8 40bc
00000140: 41a0 b3bc 70c3 1dbc 7928 de39 b0e5 a6bb
00000150: 48e9 253c d4e3 2bbb 517b 653c 5392 8c3b
00000160: 7eb0 36bc 047e 3d3c 3f13 8d39 d771 e939
00000170: 41a1 3bbb dffc 953c 24e0 6b3c b815 c4ba
00000180: 05d0 033a e144 ee3c 8742 e53b abbb 88bb
00000190: f81f b63b 4f0c 0abb 3f59 acbc 8375 093c
000001a0: 11ef 633c 86ae 133c fff5 713c c0e4 00bc
000001b0: ea2c 91ba f75f 123c 4031 763b 0b2f 77bc
000001c0: ab56 84bb 1101 9fbc ce69 9fbb d3a4 77bb
000001d0: d510 b13a 849b bc3b 5b31 293c e962 ee3c
000001e0: 5c2d 5d3b eea8 9abc e750 773c 9e50 ed3b
000001f0: 6cf6 2b3b 0bf0 ac3c f11b a1bc 49dc 63bb
00000200: 4e0c 4f3b eef4 1bbc 7b5c 7f3b a802 79bc
00000210: 9660 b73b 6a2e ab3b 3af8 1d3c 19e8 723c
00000220: 8e51 b2b9 3c2c c5bb dec7 d43a c95e dd38
00000230: eae0 ea3b 25c6 e63c 3b0f 853c 8051 a23b
00000240: b560 063c 5cca 963b aa35 7fbc fae8 0ebd
00000250: 5163 31bc f116 1bbc 282e 94bc d379 c5bb
00000260: cfad 9a3b a73e 7c3c d341 b2bc 8c0a 2abc
00000270: 3261 c8ba 35de 81bc 149f 34bc c99f 54ba
00000280: ecd8 d83c 67b6 d8bb 6ec3 8eba fd59 5a3c
00000290: e2c0 5a39 26ab 5d3c df80 2cbc 018c a8bb
000002a0: 6ddf 413c ed5a ea3b 4896 be3c 3643 98bb
000002b0: d986 893c 319b 703c 8231 7cbc 6e0e 11bc
000002c0: f7dd a93c 158e c53b 555f ccb9 da8a f6bb
000002d0: 8020 29bb 4c67 a13c 3a4c fe3b 43fc 543b
000002e0: c580 c43c 5d58 0b3b 61f6 eaba 2ee9 2bbc
000002f0: 98cb e1bb 8402 033c 3ec6 0a3b 1c92 5a3b
00000300: 9363 123c 4587 dbbb 4829 5a3c 3918 843b
00000310: 0bbd 093c a7f8 883c 04e5 523a 85f8 b33b
00000320: e786 553c 1152 bc3b 8cfc 263b 59f1 303c
00000330: 0ed5 9dbb 579a ad3b f0b6 bdbc 085f 03bc
00000340: 97fd 00bc 2b1c 6b3c 4ea3 3f3c 1d21 a3bb
00000350: 1da0 16bc a688 b339 7aab e23c 98f1 5fbc
00000360: 11ec 013c 38dc 973b f974 c9ba db08 5ebb
00000370: 6b7f d23c f689 413b ebbd f53c 8128 da3a
00000380: 743f da3b a53d 0ebc 3ffc 3e3c 8ab6 9abb
00000390: b6cb a73b 1a38 4dbc 1633 6e3b 9f90 1d3c
000003a0: 6dcf 463a 2286 733c 5d27 f93b 842a c3bb
000003b0: 25a8 50bc 486f 60bc 3fd7 e7bb ba42 d83b
000003c0: eaca f63b 6328 193c 256e d53b 492c 78bb
000003d0: 9158 d13b dac1 62bb 48ce 343b e4cf 15bc
000003e0: fb92 973c 4e0b 2b39 add2 cc3b 8d4a be3c
000003f0: ea92 1a3c dfe5 c4bb 67b7 5e3b 8900 993c
0.018266903 -0.018161025 -0.0014731924 0.00791356 0.0028549246 -0.0067912033 0.0045607677 -0.0043563275
0.17123485 0.022686107 -0.009563444 -0.006031407 -0.009570043 -0.01898822 -0.009629405 -0.021067321
-0.018399525 0.0035566834 0.0059297956 0.009544283 0.0019431418 -3.222243e-05 -0.007892728 -0.0084630195
-0.036197927 0.0025707532 -0.02269914 -0.013567641 -0.0027107897 0.017520633 -0.0006610749 0.0033398387
0.011001226 -0.016451413 -0.0068572066 -0.004083342 -0.01998275 -0.0043186224 -0.072937615 -0.0024078544
-0.015206077 -0.013061808 -0.00013966889 0.04742545 0.016117824 -0.0021386798 -0.0043700603 0.004188439
-0.013631991 -0.003976236 0.012961962 0.0051712366 -0.0134282205 0.0039553517 0.009528694 0.0033458662
-0.0077059236 -0.0054591303 -0.01120597 -0.013919688 0.022025038 -0.020669753 -0.0025360736 -0.013102062
0.0047968375 0.011068903 -0.0023948583 -0.00092170056 0.02118366 0.0031289863 -0.0077554886 -0.0071339738
0.012257026 -0.003960201 -0.0020714807 -0.01320352 0.023585502 0.0064524673 0.0029380454 -0.011777902
-0.021927001 -0.009629115 0.00042373294 -0.005093299 0.010126419 -0.0026228325 0.014006452 0.004289904
-0.011150477 0.011565689 0.00026907955 0.0004452604 -0.002863005 0.018309055 0.014396701 -0.0014960086
0.0005028251 0.029085578 0.006996456 -0.0041727624 0.00555801 -0.0021064465 -0.02103865 0.008389833
0.013911978 0.009013778 0.014768123 -0.007867038 -0.0011076008 0.008934013 0.0037565976 -0.0150868995
-0.004038652 -0.019409688 -0.004864908 -0.0037787452 0.0013509045 0.0057558436 0.010326709 0.029099898
0.003374896 -0.01887938 0.015094972 0.0072422763 0.0026239408 0.021110555 -0.019666644 -0.0034768751
0.0031593028 -0.009518845 0.0038965035 -0.015198387 0.0055962307 0.005224039 0.009641701 0.014825844
-0.0003401157 -0.006017236 0.0016233881 0.00010555756 0.007167925 0.028170655 0.016242614 0.004953563
0.008201768 0.00460176 -0.015576759 -0.034890153 -0.0108269015 -0.009465919 -0.018088415 -0.0060264855
0.0047204266 0.015395797 -0.021759903 -0.010378491 -0.0015287756 -0.015853027 -0.011024255 -0.0008110968
0.026470624 -0.006613541 -0.0010891983 0.013327119 0.00020861955 0.0135295745 -0.010528772 -0.005143643
0.011833054 0.0071519525 0.023265019 -0.004646684 0.016787933 0.014685438 -0.015392663 -0.008853538
0.020735724 0.0060289004 -0.0003898094 -0.0075238766 -0.0025806725 0.019702576 0.0077605518 0.0032498993
0.023987183 0.0021262385 -0.001792621 -0.010492606 -0.0068907253 0.007996205 0.002117529 0.0033351248
0.008934873 -0.006699475 0.013315506 0.004031208 0.008406888 0.01672013 0.000804499 0.0054922723
0.0130326515 0.0057470878 0.002548012 0.010799729 -0.004816658 0.0052979398 -0.02315852 -0.008018263
-0.0078729605 0.0143499775 0.01169665 -0.0049783126 -0.009193447 0.00034243352 0.027669657 -0.01366844
0.007929818 0.0046344064 -0.0015369944 -0.003387979 0.025695523 0.0029531694 0.029997787 0.0016644151
0.0066603962 -0.008681689 0.01165682 -0.0047214674 0.00512072 -0.012525583 0.0036346368 0.009617
0.00075840094 0.014863523 0.0076035694 -0.005955996 -0.012735401 -0.0136984065 -0.00707522 0.0065997513
0.0075315135 0.009348008 0.0065133744 -0.0037868193 0.0063887318 -0.0034600408 0.0027588774 -0.009143803
0.018502703 0.00016312042 0.0062507004 0.023228908 0.009434441 -0.006008848 0.0033983828 0.018677013

exp_avg_sq f4 [2, 768]
00000000: 21d3 913b 12f4 e73a 8268 233b 6b03 cb3c
00000010: 0f1d 003d 0501 bc3a 5b48 a83d 0be4 2d3c
00000020: 0818 4641 9eb4 983d 82c5 0a3b cbf8 a33c
00000030: 5268 0e3c 120e 603d f619 823c b5d3 943b
00000040: 5e2f c73a 8d78 083c 7651 bb3b 42e2 503c
00000050: aa90 2f3c a667 3f3c e61d 053c 6cbf 873c
00000060: fc13 813d 6372 a23b 234a f03a bdf2 f43c
00000070: 55ca e93a a8ff 143b 0ddc 7b3d b4a0 3f3c
00000080: 465d 2a3c f2a9 4d3d 034c 113c e57f b23c
00000090: 31af 223d ad2d a63a 05d7 8f3f 7748 df3a
000000a0: 790b d73b 543f d03b 296f e83a 2a8e dd3e
000000b0: ab32 603d 7cbf 373b a3ab f33c aea5 393c
000000c0: 94bb d73a 20f2 793c 85de 163c 62cd 563c
000000d0: 1eab 073c 9fcd ca3a 7c87 a03c e80d aa3b
000000e0: c79e 873b 7f48 843c 348b 963c 938c 043c
000000f0: 79e5 993c bb47 be3c a1f3 103b 4820 d03d
00000100: bb07 f13a 60d9 713d 3ada 393c 7b1c 0f3b
00000110: c422 173d b2db 0d3d 8e81 8d3b 8d92 263c
00000120: 0266 1b3b 66d7 bb3b 614b 893b 3eeb 2f3c
00000130: 9ef3 0b3d e5f7 f93a 7ff0 9e3c b53b 873c
00000140: d542 0b3b c340 bb3b 389c 173b 68b8 bb3a
00000150: e7cd 203c 2847 a03b 5f91 d43d f53d 6c3b
00000160: 31ac c73c 9e6e 3c3b ce74 183c 6a84 8c3a
00000170: 9c31 fe3c 7c2f 6d3d aae5 383c 66f9 813b
00000180: dd8a 7c3b a145 e93b 0fd9 003c 8cca a63d
00000190: abaf b53b 7f97 063c d441 c63c 3bcc 3e3c
000001a0: c8a5 333e d15a 1d3b 5151 dd3a 615c 653b
000001b0: be98 cf3c 9d0e 843b fa71 263c 8c91 103c
000001c0: 55e3 a73b e92d 1b3c 9b09 a93b e610 a13a
000001d0: 67ca f83a f63c 223c 145e 093d a832 9e3c
000001e0: f0c1 363c b288 fe3a fb23 013b 362a 1c3d
000001f0: 55e0 0a3c e346 b83d 4295 cb3b beb7 1f3b
00000200: 7848 4b3c bb8b a33b 904c d23b 9f9c a03c
00000210: bcf7 ca3a 37b6 c23c 022e d23c 98e8 6b3c
00000220: a7a9 293c 4e2f 633b 79d5 4e3c 8b9c 133b
00000230: 04f6 c53c cf52 313c 62a7 ad3c c1d3 7a3c
00000240: 1360 063c 272a 063c 0f28 073b 9a40 703d
00000250: 8525 593b f5ef 2c3c ea6f ad3b 8bcd 0a3b
00000260: f762 0d3c fd0e e43c a1fc ed3c 53e4 543d
00000270: dc6f dd3a 1cb8 293d 7195 053c 0b49 183c
00000280: 30c7 933c 7686 c43c 7221 853b ca43 c43a
00000290: 6aca 243b 104c 063b 2415 d43b 3d16 2b3d
000002a0: 6d13 d83b b733 4e3b 98a5 893d 0148 153b
000002b0: d612 0a3b 7eb6 8f3b 4bd6 b73c 64bc 8b3d
000002c0: b476 0a3d 0e5f d43c fad5 4e3b b373 453c
000002d0: d359 123d 9e0f d73c bfac 3f3c e4ca c13a
000002e0: 7384 cd3c 58af 083b c61d 4b3c a3c8 d33a
000002f0: 7075 823b ae48 023d 3bf8 113d c281 b13b
00000300: 37de 113c 4ef1 153b 07df c43c 43e0 013b
00000310: 7ce2 343c 631f 0c3b 4aca 373c 604c 343b
00000320: ff2b c13b 35f7 643b 42e0 783c 44f1 0e3b
00000330: b490 fb3b 50df 8c3b 0403 ab3b 1098 db3a
00000340: 383a 503b 7514 903b f060 863b 4177 f03b
00000350: 74c2 4f3b ba70 dd3b 5639 943e 3850 5a3c
00000360: 82e5 b93b 3a2e 913c 03e8 313c b7ad 953d
00000370: 150d 213c 1045 af3b 35ce 383e 8bef 813c
00000380: 2119 483c 485a 323b 5d06 263c 2003 e63c
00000390: 74d0 163c 7c4e e13a 363a f53b 710a 103e
000003a0: 7cc6 4e3c c7fd e83a b6e4 de3c 8cb3 d43a
000003b0: aed4 d73c 6250 843c 19ce 223d acfd 763c
000003c0: 9f02 063c 7850 6c3b c874 4a3b be76 be3b
000003d0: a12b f43a 0a86 213b 6e9d 4c3b 8a5f 7a3b
000003e0: 3526 913c 9b74 5f3b 3903 3a3d 9b52 bf3c
000003f0: fce5 563c 8aeb f63a 8f20 a53a a732 d93c
0.0044502174 0.001769664 0.0024934118 0.024781903 0.031277712 0.0014343566 0.08216926 0.010613452
12.380867 0.07456325 0.0021174853 0.020016095 0.008691864 0.05470092 0.01588152 0.004541839
0.0015196612 0.008329523 0.005716498 0.012749257 0.010715643 0.011682427 0.008124804 0.01657077
0.0630264 0.0049574836 0.0018332641 0.029900903 0.0017836789 0.002273539 0.061489154 0.011696029
0.010398215 0.0502109 0.00886822 0.0217895 0.039717857 0.0012678407 1.1237494 0.0017035146
0.006562647 0.0063552056 0.0017733324 0.43272525 0.05473582 0.0028037718 0.029744929 0.011331005
0.0016459101 0.015255481 0.009208326 0.0131104905 0.008280544 0.0015472657 0.019595854 0.005189646
0.004138801 0.01614785 0.018376924 0.008090156 0.018786179 0.023227563 0.002211787 0.10162407
0.0018389145 0.059045196 0.011343533 0.0021837044 0.03689839 0.034633346 0.0043184226 0.010166776
0.0023711924 0.0057324646 0.004189894 0.010737238 0.03416788 0.0019071071 0.019401787 0.016507963
0.0021249552 0.0057145073 0.0023133885 0.0014321925 0.009814716 0.004891295 0.1037929 0.0036047671
0.0243741 0.0028752456 0.009305192 0.0010720615 0.031029515 0.057906613 0.011285225 0.003966498
0.0038534917 0.007118896 0.007864251 0.081441015 0.005544623 0.00821483 0.024201311 0.011645372
0.1754371 0.002401043 0.0016885196 0.003499769 0.025341388 0.0040300624 0.01015901 0.008823764
0.0051235356 0.009471395 0.0051586158 0.0012288361 0.0018981219 0.0099022295 0.033536986 0.019311264
0.011154637 0.00194194 0.0019705284 0.038126193 0.0084763365 0.089978956 0.0062128613 0.0024370993
0.012407415 0.0049910224 0.0064178184 0.019605933 0.0015485208 0.023768527 0.025656704 0.014398716
0.01035539 0.0034665647 0.012624138 0.0022523727 0.024165161 0.010822966 0.021197978 0.015309275
0.008201617 0.008188761 0.0020623242 0.05865536 0.0033133936 0.010555257 0.005292882 0.0021179642
0.008629552 0.027839178 0.029051127 0.05197556 0.0016894299 0.041435346 0.008153305 0.009294759
0.018039316 0.023989897 0.004062825 0.0014973816 0.0025145062 0.0020492114 0.0064722467 0.041769255
0.0065941126 0.003146393 0.067210376 0.0022778513 0.0021068356 0.0043857684 0.02244105 0.06823042
0.03380461 0.025924232 0.0031560645 0.012051511 0.035730194 0.026252564 0.011698901 0.0014785198
0.02508757 0.0020856466 0.012397235 0.0016157817 0.003981285 0.031807594 0.03563712 0.0054170797
0.008903078 0.0022879425 0.024032129 0.0019817508 0.011040326 0.0021381013 0.011217663 0.0027511343
0.0058951373 0.0034937386 0.015190186 0.0021811286 0.007677162 0.004299082 0.0052188653 0.0016753692
0.0031772982 0.00439697 0.0041009113 0.007338435 0.0031701596 0.006757823 0.28949994 0.01332479
0.0056731114 0.017722238 0.010858539 0.07308524 0.009829779 0.005348809 0.18047412 0.015861293
0.012213022 0.0027214456 0.010133353 0.028077662 0.009204973 0.0017189528 0.007483746 0.14066483
0.012620565 0.0017775827 0.027208667 0.0016227826 0.02634653 0.01615161 0.03974733 0.0150751285
0.008179336 0.0036058705 0.003089236 0.005812495 0.0018628725 0.0024646544 0.0031221765 0.0038203918
0.017718414 0.0034096602 0.04541323 0.023354819 0.013116356 0.0018838507 0.0012598204 0.02651341

exp_avg f4 [2]
00000000: bcdb 28bc bedb 283c
-0.010306295 0.010306297

exp_avg_sq f4 [2]
00000000: d783 f23c d783 f23c
0.029603882 0.029603882
