TASK2/gender_classification_model/checkpoint_step_9200.pth (torch, 22979 bytes, 6 tensors)

weight f4 [2, 768]
0	0x3ce6a592	0.028155122
1	0x3bdbbc9f	0.006705835
2	0x3c8e5981	0.017376663
3	0x3c6ba1d3	0.014381844
4	0xbcddb49c	-0.02706366
5	0xba7b946e	-0.0009597008
6	0xbbff9fc1	-0.0078010266
7	0xbca8ee64	-0.020621486
8	0xbcf9fc2f	-0.030515758
9	0xbc5be4d4	-0.013421256
10	0xbd328c8e	-0.043591075
11	0xbba74dad	-0.005105695
12	0xbd4686c0	-0.04846835
13	0x3caa6d87	0.02080418
14	0x3ccba569	0.024859147
15	0xbc3ee197	-0.0116504645
16	0x3be4892a	0.006974359
17	0xbc9e0265	-0.019288251
18	0xbb324b8f	-0.002720568
19	0xbccdb6f3	-0.025111651
20	0xbbbcac1f	-0.005757823
21	0x3ca6e0ca	0.02037086
22	0x3d30a6fe	0.043128006
23	0x3c290a1d	0.010317353
24	0x3d11eafc	0.03562449
25	0xbc5c5599	-0.013448142
26	0x3c435c40	0.01192385
27	0x3b3ba499	0.0028632043
28	0x3d5c4620	0.053777814
29	0x39ce4d54	0.00039348996
30	0x3d030107	0.0319834
31	0x3d0e0b32	0.034678645
32	0x3ca220f9	0.019791113
33	0x3b1ad6e5	0.0023626622
34	0xbc1eaf5f	-0.009685366
35	0x3d14b801	0.036308292
36	0x3c2fd992	0.010733025
37	0xbd876702	-0.06611444
38	0x3c9e80a6	0.019348454
39	0xbdac1907	-0.08403211
40	0x3cc62544	0.024187692
41	0x3a0026ba	0.0004888583
42	0xbd098039	-0.03356955
43	0x3c6c1652	0.014409618
44	0xbcb45a89	-0.022015827
45	0xbbf8ca57	-0.00759248
46	0x3d033160	0.03202951
47	0x3d36f1b5	0.044664104
48	0x3d265a28	0.040613323
49	0xbcbeab98	-0.023275182
50	0x3c7fea6a	0.0156198535
51	0x3ca32af4	0.019917943
52	0xbbada244	-0.0052988846
53	0xbd1bfa2e	-0.038080387
54	0xbc03f9bc	-0.008055147
55	0xbc9bb0bd	-0.019005174
56	0xbae70983	-0.0017626736
57	0xbba5757d	-0.005049406
58	0xbb3e5c85	-0.0029046845
59	0x3c9b1e21	0.018935265
60	0x3c23b7b8	0.009992532
61	0x3bd97216	0.0066359146
62	0xbd279f2a	-0.040923275
63	0xbc768255	-0.015045722
64	0x3ba00bc1	0.0048842137
65	0xbc82f233	-0.01598463
66	0x3d32414c	0.043519303
67	0x3d710b12	0.058848448
68	0xbd0d7ac4	-0.034540907
69	0x3cfa3328	0.030541971
70	0x3b8355e1	0.0040080403
71	0x3a4fab48	0.0007921946
72	0xba024a38	-0.0004970166
73	0xbbf120ea	-0.00735866
74	0xbcdd3d3f	-0.027006743
75	0xbd079abe	-0.033106558
76	0xbbb9b0d5	-0.005666832
77	0x3c3373cc	0.010952901
78	0xbba133ec	-0.0049195196
79	0xbc607524	-0.0136998035
80	0x3cb4893a	0.022038091
81	0xbc9a6620	-0.018847525
82	0xbd835ffd	-0.06414793
83	0x3b7f6014	0.003896718
84	0x3c215d37	0.009848884
85	0x3ca5d2d5	0.020242134
86	0xbc8c3c04	-0.017118461
87	0xbd388f69	-0.04505864
88	0x3d1ef949	0.038811956
89	0x3c26bdc5	0.0101770805
90	0x3d248c47	0.04017284
91	0xbd17cbda	-0.037059642
92	0x3d0ddeb4	0.034636214
93	0x3c9b4be6	0.01895709
94	0x3be2c461	0.006920383
95	0xbd03661c	-0.0320798
96	0xbaeb894c	-0.0017969995
97	0x3d44f80b	0.048088115
98	0xbc4edce0	-0.012625903
99	0x3cfd5e01	0.030928614
100	0xbc1a7fb5	-0.009429862
101	0x3c30bc42	0.010787072
102	0x3d3fa1af	0.046785053
103	0xbcb4953c	-0.022043817
104	0x3c331540	0.010930359
105	0xbac83136	-0.0015273455
106	0x3d8e2bbe	0.06941937
107	0xbd55c5f8	-0.05219075
108	0xbb425618	-0.0029653367
109	0x3d6e8a88	0.058237582
110	0xbd2a7ca2	-0.041622765
111	0xbc8e6e8b	-0.017386695
112	0x3c3e1f4b	0.0116041405
113	0xbbb2a7fb	-0.0054521537
114	0x3b768faf	0.0037622263
115	0x3ce885f8	0.028384194
116	0x3da37ed1	0.07983173
117	0xbc1757d7	-0.009237251
118	0xbc821f94	-0.015884198
119	0x3cb2f9fb	0.021847716
120	0x3d8a4dac	0.06753096
121	0x3d7dc562	0.061955817
122	0xbb80d567	-0.0039316895
123	0xbbe66a2e	-0.0070317006
124	0x3bb2fb18	0.0054620616
125	0x3c0652b6	0.008198431
126	0xbcecb4f5	-0.02889488
127	0xbcd81a66	-0.026379775
128	0x3b1b4f22	0.002369829
129	0xbc933832	-0.017971132
130	0xbd288c53	-0.04114945
131	0x3bb34ffb	0.005472181
132	0x3d4b63d1	0.04965574
133	0x3c41cd94	0.011828799
134	0x3d1301be	0.035890333
135	0x3c057648	0.008145876
136	0xbcc21502	-0.023691658
137	0xbbf1329e	-0.0073607704
138	0x3d1fc413	0.03900535
139	0xba8ebd15	-0.0010890091
140	0xbd19e858	-0.037575096
141	0xbc4ca496	-0.012490412
142	0xbb2b3b99	-0.0026128052
143	0x3c5544c4	0.013016883
144	0xbce036f2	-0.02736995
145	0x3b9c2085	0.004764619
146	0xba883fb9	-0.0010394967
147	0x377e453e	1.51557015e-05
148	0xbc90c96c	-0.01767417
149	0xbcdf30bc	-0.027244918
150	0x3cd6dd05	0.026228437
151	0xbd3555fb	-0.04427145
152	0x3d1aa4f1	0.037754957
153	0x3d37f6bd	0.044913042
154	0x3cb76ea9	0.022391634
155	0xbc37fb63	-0.011229369
156	0xbc52a6d2	-0.012857156
157	0xbd18b364	-0.037280455
158	0xbc9f1d2d	-0.019423092
159	0x3d7038dc	0.058647975
160	0xbbfffa88	-0.007811848
161	0xbc74c49d	-0.014939454
162	0xbcdd7d36	-0.027037244
163	0x3cb25aa2	0.021771733
164	0xbd5613ad	-0.052264858
165	0x3da659e3	0.08122613
166	0xbc6da650	-0.014504984
167	0xbcf83de0	-0.030302942
168	0xbca48425	-0.020082543
169	0x3c6f4bf1	0.014605508
170	0x3cd96546	0.026537549
171	0x3c2ebdec	0.010665398
172	0xbcf55265	-0.029946515
173	0x3cd467e9	0.025928454
174	0xbc584b99	-0.013201618
175	0xbce09c2d	-0.02741822
176	0x3ca21493	0.019785201
177	0x3d04964c	0.032369897
178	0x3b6040e8	0.0034218375
179	0x3d1df124	0.038560048
180	0x3cd5d876	0.026104193
181	0xbcb5d889	-0.022197979
182	0x3bc3ad01	0.0059715514
183	0xbbdc4350	-0.0067218915
184	0xbca6e209	-0.020371454
185	0x3d9a1dba	0.07525201
186	0xbcd3120b	-0.02576544
187	0xbd3b3cb7	-0.0457122
188	0xbbc6fd71	-0.006072693
189	0x3b6cf3fb	0.0036156166
190	0x3c2492d6	0.010044774
191	0xbb354d7d	-0.0027664595
192	0xbcc455cb	-0.02396669
193	0x3cfa0488	0.030519739
194	0xbd147cfe	-0.036252014
195	0xbd980123	-0.07422092
196	0xbd820010	-0.06347668
197	0xbd38df3e	-0.045134775
198	0x3d3bae22	0.045820363
199	0xbd17ddfe	-0.037076943
200	0xbd4f2e29	-0.05058113
201	0xbb889e2f	-0.0041692476
202	0x3d376157	0.044770565
203	0x3b6699bb	0.0035186845
204	0x3cf51020	0.029914916
205	0x3d23cb6d	0.039988924
206	0xbb05e8bd	-0.0020432912
207	0xbcb485d0	-0.022036463
208	0x3d655fc9	0.05599955
209	0x3bb83d92	0.005622574
210	0x3c445075	0.011982073
211	0x3b3b765a	0.0028604479
212	0xbca2341f	-0.019800244
213	0xbd1bd447	-0.03804424
214	0xbca972d6	-0.02068464
215	0x3cf8b42e	0.030359354
216	0xbcb22056	-0.021743935
217	0xbd13c85e	-0.036079757
218	0xbcad98a8	-0.021190956
219	0x3cddd0b3	0.027077055
220	0xbd2b82d0	-0.0418728
221	0x3c2fc9cb	0.010729264
222	0x3d0a51cf	0.033769425
223	0xbce04828	-0.027378157
224	0x3bb9b26d	0.005667022
225	0xbc2f7bb4	-0.0107106455
226	0xbd2c0eab	-0.042006176
227	0x3c7e7415	0.015530606
228	0xbbb15bd2	-0.005412557
229	0xbb8fbda8	-0.0043866225
230	0xbc96fac4	-0.018430121
231	0xbc156500	-0.009118319
232	0x3ca28f2d	0.019843662
233	0x3d2909d4	0.04126914
234	0x3c060264	0.008179281
235	0x3d9bd4de	0.076089606
236	0xbb1fb07a	-0.0024366663
237	0xbd1d9c9e	-0.03847944
238	0xbd05d54d	-0.032674123
239	0x3cac8ba1	0.021062674
240	0xbcddc525	-0.027071545
241	0xbc802a89	-0.015645282
242	0x3d1220ca	0.0356758
243	0x3d20bdc4	0.039243475
244	0x3cff3413	0.03115276
245	0x3d180c71	0.03712124
246	0xbb3bf487	-0.0028679685
247	0x3bc01065	0.0058613294
248	0xbbf9ea45	-0.007626804
249	0x3c9183ca	0.017763037
250	0xbb8d54b4	-0.004313076
251	0x3c1f77bd	0.009733138
252	0x3d191d81	0.037381653
253	0xbc98fa91	-0.018674167
254	0x3c844d05	0.016150007
255	0x3d0b655f	0.034032222

bias f4 [2]
0	0x3cc5b6dd	0.024135048
1	0xbb9aa4e2	-0.0047193626

exp_avg f4 [2, 768]
0	0x3bfb075f	0.007660791
1	0x3ba8c9b8	0.005151
2	0x3c54a84c	0.012979578
3	0x3caa5e99	0.02079706
4	0x3cbc7b6d	0.023008073
5	0x3be8da8a	0.00710613
6	0xbd7bda61	-0.06148756
7	0xbcc2feac	-0.023803078
8	0x3f029592	0.51009476
9	0x3d167730	0.03673476
10	0x3c2ab272	0.010418521
11	0xbc9d9d08	-0.019239917
12	0xbc40542d	-0.011738819
13	0xbce22bdf	-0.02760881
14	0xbc8f4435	-0.017488578
15	0xbab5e3ce	-0.0013877095
16	0x3c82a6e8	0.015948728
17	0xbcf1a9a5	-0.029499838
18	0xbc1414e7	-0.009038187
19	0x3c73b5ab	0.014874856
20	0x3cc2c40a	0.02377512
21	0xbba6fd9c	-0.0050961506
22	0x3bcbd86f	0.0062208693
23	0xbcaf26cf	-0.02138081
24	0xbced215b	-0.02894657
25	0xbbb3fc43	-0.0054927184
26	0xbc8f5f63	-0.017501539
27	0xbd014997	-0.03156432
28	0xbabb6bcb	-0.0014299093
29	0x3c5f908c	0.0136453025
30	0x3cae0acc	0.021245383
31	0x3cb6d40f	0.022317914
32	0x3af30c4a	0.0018543091
33	0xbcc3bb0a	-0.023892898
34	0xbc3d70f9	-0.011562579
35	0xbc2981bb	-0.010345872
36	0xbcc891cd	-0.024483586
37	0x3b7b3879	0.003833322
38	0xbddf86f7	-0.109144144
39	0x3c4583f8	0.01205539
40	0xbc0010d4	-0.007816512
41	0x3c4acbf5	0.012377729
42	0x3a8501df	0.0010147652
43	0x3da87e0d	0.08227167
44	0x3d42fb19	0.047602747
45	0x3c960d87	0.018316997
46	0xbd289952	-0.041161843
47	0xbc99277c	-0.018695585
48	0xbb2596d3	-0.00252669
49	0x3c890d26	0.016729902
50	0x3c7cd5d9	0.015431845
51	0x3cc2ea60	0.0237934
52	0x3cc7808b	0.024353286
53	0xbae67e83	-0.0017585311
54	0x3ca939eb	0.0206575
55	0x3c905422	0.017618243
56	0x3c927d3c	0.017881982
57	0xbc9fc851	-0.019504698
58	0xbca5c479	-0.020235287
59	0xbc5a381f	-0.013319044
60	0x3b862c3b	0.004094628
61	0xbcb22039	-0.02174388
62	0xbae60110	-0.0017547924
63	0xbd31f3ab	-0.04344527
64	0xbc0b3616	-0.008496782
65	0x3d3cca39	0.046091292
66	0xbc78a3b5	-0.01517575
67	0x3b3a33ab	0.0028412144
68	0x3cb7dfd6	0.0224456
69	0x3ba41b80	0.005008161
70	0xbca37a4b	-0.019955775
71	0xbc1792a5	-0.009251271
72	0xbc51d85b	-0.012807931
73	0x3c0f1358	0.008732639
74	0x3c8e29e8	0.017353967
75	0x3b29cf76	0.002591101
76	0x3ce6d3c2	0.028177146
77	0xbbe4ef4c	-0.006986534
78	0x3c75f40f	0.015011801
79	0xb9b5a12b	-0.0003464309
80	0xbc936364	-0.01799173
81	0xbc76cf75	-0.01506411
82	0xbc0caad2	-0.008585649
83	0x3b11cd15	0.0022247483
84	0xb9c6d711	-0.0003792574
85	0xbcf135c3	-0.02944458
86	0x3d218ef0	0.039442956
87	0x3a65fd3e	0.0008773393
88	0xbd15a904	-0.03653814
89	0x3b1a8796	0.002357935
90	0xbc62fb35	-0.013853838
91	0x3a486d4e	0.0007645682
92	0xbc6cfe8c	-0.014464986
93	0x3c97cf86	0.018531572
94	0x3c7c6a7b	0.015406246
95	0xbcc61b68	-0.02418299
96	0x3b68a44f	0.0035498326
97	0x3bcb2b51	0.006200232
98	0xbcd2597a	-0.025677431
99	0xbd35991b	-0.044335466
100	0x3c2b1ffd	0.010444638
101	0xbabb3b68	-0.0014284672
102	0xbc39fda1	-0.011351974
103	0x3c8f8b8e	0.0175226
104	0x3d8fce94	0.070218235
105	0xbbb0e35e	-0.005398198
106	0x3bf2926c	0.0074027088
107	0x3c263b96	0.010146042
108	0xbcaca8b3	-0.021076536
109	0xbacaeb45	-0.0015481493
110	0xbc86ebe7	-0.016469909
111	0xbd07cb0b	-0.03315262
112	0xbc397a0c	-0.011320602
113	0x3b126ab7	0.002234144
114	0xbc3e46fe	-0.011613606
115	0xbc712595	-0.014718433
116	0xbbb7838e	-0.0056003993
117	0x3acc3120	0.0015578605
118	0x3d0edc8f	0.03487831
119	0x3adfe7b8	0.0017082607
120	0x3d11c03c	0.03558372
121	0x3b895a6b	0.004191687
122	0xbbc0ac79	-0.0058799353
123	0xbd0d0ba9	-0.034434948
124	0x3c46a1a1	0.012123496
125	0x3cfacc36	0.030614953
126	0x3adf7ad5	0.0017050157
127	0x3bf9c25c	0.0076220464
128	0x3cc9dc94	0.024641313
129	0x3cb113d7	0.021615906
130	0x3bfddffc	0.0077476483
131	0xbd0c156f	-0.03420013
132	0xbc774905	-0.015093093
133	0xbc87122d	-0.01648816
134	0x3cce19f4	0.02515886
135	0x3bfe23d3	0.0077557354
136	0xbb0581e1	-0.0020371603
137	0xbc2e73c3	-0.010647717
138	0xbc5b3164	-0.013378475
139	0x3bcdc95e	0.0062801084
140	0x3cd5bb74	0.026090361
141	0x3b293764	0.002582037
142	0x3ccfd1d3	0.025368607
143	0x39172b65	0.00014416648
144	0x3c8ff135	0.017571071
145	0xbc8c7faa	-0.017150719
146	0x3ab45e97	0.00137611
147	0xbcfc0379	-0.030763375
148	0xbc779dc9	-0.0151133025
149	0xbca224a3	-0.01979286
150	0xbc16772b	-0.009183685
151	0xbbf63805	-0.0075140023
152	0xbcd7acb0	-0.026327461
153	0x3d079693	0.033102583
154	0xbbad4548	-0.0052878
155	0xbd180cc9	-0.037121568
156	0x3c4c7e6a	0.012481311
157	0xbcf1e881	-0.029529812
158	0xbc703e78	-0.014663331
159	0x3ba4bb28	0.0050271936
160	0x3d1afa78	0.037836522
161	0x3cd38ca1	0.025823893
162	0x3c7a4db3	0.015277314
163	0x3b3d3caf	0.0028875282
164	0xbbe587bd	-0.0070047067
165	0xbc135791	-0.008993045
166	0xbc63d106	-0.013904816
167	0xbcd5a2e3	-0.026078647
168	0x3c9454df	0.018106876
169	0xbbce1bc5	-0.0062899315
170	0x3d24f0c4	0.040268674
171	0xbbc3823d	-0.0059664533
172	0xba832f03	-0.0010008517
173	0x3ccd4c63	0.025060838
174	0xbcdb39b7	-0.026760919
175	0xbd18f935	-0.037347037
176	0x3c99aa4f	0.018757967
177	0x3cf8475d	0.030307466
178	0xbc1d70ad	-0.0096093835
179	0x3d019e5a	0.031645156
180	0xbca16edb	-0.01970618
181	0x3c962a8a	0.018330831
182	0x3c4a6c20	0.012354881
183	0xbc2ea3b1	-0.010659144
184	0x3c7a30fe	0.01527047
185	0x3b172cf8	0.0023067575
186	0xba67e2ae	-0.00088457286
187	0xbbb5538d	-0.0055336417
188	0x3c1ec3f9	0.009690278
189	0x3cf2ce0c	0.029639266
190	0x3d0a0d3b	0.033704024
191	0x3bb24b86	0.005441132
192	0xbc0ab078	-0.008464925
193	0x3c3b2bc5	0.01142401
194	0x3baa8183	0.0052034273
195	0x3937b445	0.00017519396
196	0x3c92095d	0.01782673
197	0xbc02f547	-0.007993049
198	0xbcad936a	-0.021188457
199	0xbb2dd04b	-0.0026521857
200	0x3ccf507a	0.025306929
201	0x3c90c33d	0.017671222
202	0x3c028960	0.007967323
203	0xbbd70a8c	-0.0065625366
204	0x3c0ae9ec	0.008478623
205	0x3b307d38	0.0026930105
206	0x3cac0023	0.020996159
207	0xbbae8975	-0.0053264447
208	0xbbd7f9c0	-0.006591052
209	0x3b521735	0.003205729
210	0xbbac973a	-0.005267051
211	0x3ce04d6f	0.027380673
212	0x3cba2862	0.022724334
213	0xbc9bba55	-0.019009748
214	0x3d9d51b6	0.07681601
215	0xbc933d6f	-0.01797363
216	0xbb7f183c	-0.0038924357
217	0x3d0e914d	0.03480654
218	0x3c730449	0.014832565
219	0xbcd1269d	-0.025531108
220	0x3c7416bc	0.014897998
221	0x3c407f79	0.011749142
222	0x3d5dd014	0.054153517
223	0x3b2fe802	0.0026841168
224	0x3b2d048e	0.002640042
225	0x3adc48a2	0.0016806314
226	0xbbe08184	-0.006851377
227	0xbc904871	-0.017612668
228	0x3c9f3ca2	0.019438092
229	0xbb581ff8	-0.003297804
230	0xbc24dd9b	-0.0100626005
231	0x3d28cc80	0.04121065
232	0xbc685fbc	-0.014182981
233	0xba925572	-0.0011164381
234	0xbcfb98bd	-0.03071248
235	0x3b8076d4	0.0039204154
236	0xbc1f0794	-0.009706397
237	0xbc90ac73	-0.017660355
238	0xbc710a7f	-0.014711975
239	0x3cabe257	0.02098195
240	0xbc7d2541	-0.015450777
241	0xbb11a24f	-0.0022221988
242	0x3bcb8305	0.006210687
243	0xbc1fb0f2	-0.009746777
244	0xbbb55888	-0.0055342354
245	0x3b560545	0.003265695
246	0x3abcc02c	0.0014400533
247	0xba04f830	-0.0005072383
248	0x3c4abd6b	0.012374262
249	0x3c3bc77a	0.011461133
250	0xbd464c20	-0.048412442
251	0x3ca1c9eb	0.019749602
252	0x3c3ec9fc	0.0116448365
253	0x3c0c8c0b	0.008578311
254	0x3c1d735c	0.009610023
255	0x3cafab24	0.02144391

exp_avg_sq f4 [2, 768]
0	0x3b93046e	0.004486612
1	0x3ae50ca3	0.001747508
2	0x3b236264	0.0024930472
3	0x3cca1f0d	0.02467301
4	0x3cfda69d	0.030963236
5	0x3aba4100	0.0014210045
6	0x3da7e932	0.08198775
7	0x3c2d5f64	0.010581825
8	0x4144e11e	12.30496
9	0x3d97a94b	0.07405337
10	0x3b0822a2	0.0020772596
11	0x3ca47f5b	0.02008026
12	0x3c0d5f62	0.008628698
13	0x3d5e36f5	0.05425163
14	0x3c80b2c8	0.01571025
15	0x3b92c700	0.004479289
16	0x3ac65547	0.0015131616
17	0x3c060a9a	0.008181239
18	0x3bbc036e	0.0057377135
19	0x3c4e6568	0.012597419
20	0x3c2e429f	0.010636001
21	0x3c4131e0	0.011791676
22	0x3c052af5	0.008127918
23	0x3c8657f7	0.016399367
24	0x3d81788e	0.06321822
25	0x3ba220c3	0.004947753
26	0x3aeb2157	0.0017939013
27	0x3cf41c66	0.029798698
28	0x3aecde88	0.001807169
29	0x3b143d44	0.0022619525
30	0x3d79f845	0.061027784
31	0x3c3dd564	0.011586521
32	0x3c24f8b7	0.010069064
33	0x3d4d00f4	0.050049737
34	0x3c100207	0.008789546
35	0x3cb1f43e	0.021722909
36	0x3d218972	0.03943772
37	0x3aa4622a	0.0012541462
38	0x3f8e7b46	1.113137
39	0x3ad960dd	0.0016584654
40	0x3bd6e4d0	0.0065580383
41	0x3bcbadef	0.006215803
42	0x3adf0e71	0.0017017854
43	0x3edacaab	0.42732748
44	0x3d5e904f	0.054336842
45	0x3b3ac622	0.0028499444
46	0x3cf0ea4f	0.029408602
47	0x3c366720	0.011132985
48	0x3ad652d1	0.0016351586
49	0x3c775990	0.015097037
50	0x3c14a382	0.009072186
51	0x3c54e1b8	0.012993269
52	0x3c07fcf9	0.0083000595
53	0x3ac907bd	0.0015337389
54	0x3ca1f2bb	0.019769063
55	0x3ba9b176	0.0051786257
56	0x3b885aee	0.0041612303
57	0x3c82f4b0	0.015985817
58	0x3c952120	0.018204272
59	0x3c032b4c	0.008005928
60	0x3c97b2db	0.018517902
61	0x3cbdcee6	0.023169946
62	0x3b13b025	0.002253541
63	0x3dcf7408	0.10129553
64	0x3aec5ffa	0.0018033974
65	0x3d701597	0.05861434
66	0x3c369285	0.011143331
67	0x3b0f003b	0.0021820206
68	0x3d166aed	0.036723066
69	0x3d0c035c	0.03418289
70	0x3b887911	0.004164823
71	0x3c244adc	0.0100276135
72	0x3b196180	0.0023404062
73	0x3bbc147b	0.005739746
74	0x3b89cece	0.0042055612
75	0x3c2eb04d	0.010662151
76	0x3d0a2c79	0.03373382
77	0x3af7e73a	0.0018913515
78	0x3ca0673d	0.019580478
79	0x3c856d4b	0.016287467
80	0x3b094a04	0.0020948658
81	0x3bbac1b7	0.005699362
82	0x3b14bd68	0.0022695903
83	0x3abd5cac	0.0014447174
84	0x3c1e57c2	0.009664478
85	0x3b9e37ec	0.0048284438
86	0x3dd337ab	0.10313352
87	0x3b6a4f20	0.0035752729
88	0x3cc61bad	0.024183119
89	0x3b3a1fe6	0.002840036
90	0x3c1b13ce	0.009465171
91	0x3a8d3692	0.001077371
92	0x3cfd46ac	0.030917488
93	0x3d6a5bf3	0.057216596
94	0x3c333dcc	0.0109400265
95	0x3b839dab	0.004016598
96	0x3b7c605f	0.003850959
97	0x3be3df37	0.0069540995
98	0x3c028813	0.007967013
99	0x3da6c43b	0.08142897
100	0x3bb2bcfa	0.0054546567
101	0x3c0400d9	0.008056843
102	0x3cc25c89	0.023725765
103	0x3c3daf86	0.011577493
104	0x3e32500b	0.17413346
105	0x3b19776d	0.002341713
106	0x3aded30d	0.0017000154
107	0x3b67bccc	0.0035360334
108	0x3ccfd248	0.025368825
109	0x3b8151e7	0.003946531
110	0x3c251e7b	0.010078068
111	0x3c0facc0	0.008769214
112	0x3ba72ec8	0.0051020123
113	0x3c16c7ce	0.009202911
114	0x3ba945a3	0.005165772
115	0x3aa2f616	0.0012432958
116	0x3af5d193	0.0018754475
117	0x3c1ef698	0.009702347
118	0x3d09de7d	0.033659447
119	0x3c9db196	0.019249719
120	0x3c3657a7	0.011129296
121	0x3afc67cb	0.0019257007
122	0x3aff01ac	0.0019455454
123	0x3d1b622c	0.03793542
124	0x3c06a8ca	0.008218953
125	0x3db6669b	0.08906289
126	0x3bc6b804	0.006064417
127	0x3b26788b	0.002540144
128	0x3c4d2ec5	0.012523358
129	0x3ba7297e	0.005101382
130	0x3bd11651	0.006380834
131	0x3c9fd063	0.019508546
132	0x3ad1f83e	0.0016019417
133	0x3cc1abe2	0.02364153
134	0x3cd2bb07	0.025723947
135	0x3c6c7ffd	0.014434812
136	0x3c26fec2	0.010192575
137	0x3b61978d	0.0034422607
138	0x3c4f3366	0.012646532
139	0x3b15c144	0.002285079
140	0x3cc677e8	0.024227098
141	0x3c2e62a2	0.010643633
142	0x3ca9cb2b	0.02072676
143	0x3c79de7d	0.015250799
144	0x3c015f73	0.007896292
145	0x3c07b510	0.008282915
146	0x3b0ac567	0.002117479
147	0x3d6c4936	0.057687007
148	0x3b59c6f7	0.0033230165
149	0x3c2f1b0b	0.0106876
150	0x3ba8c713	0.0051506846
151	0x3b056038	0.002035154
152	0x3c0c043e	0.008545933
153	0x3ce2fdc7	0.027708901
154	0x3cec6409	0.028856294
155	0x3d52eb5f	0.051494
156	0x3adae251	0.0016699528
157	0x3d291ac8	0.041285306
158	0x3c07fcaa	0.008299986
159	0x3c1b012d	0.00946073
160	0x3c90e172	0.017685626
161	0x3cc508e3	0.02405209
162	0x3b82b672	0.0039890343
163	0x3ac0a2fd	0.0014697012
164	0x3b24023b	0.0025025744
165	0x3b049b91	0.0020234326
166	0x3bd6e846	0.006558451
167	0x3d2bd7d7	0.041953888
168	0x3bd5fb43	0.006530197
169	0x3b4e5109	0.0031481406
170	0x3d880773	0.06642046
171	0x3b19374a	0.0023378902
172	0x3b0ad312	0.0021182937
173	0x3b9221fb	0.004459617
174	0x3cb6561c	0.022257857
175	0x3d8b47ed	0.06800828
176	0x3d0838fe	0.033257477
177	0x3cd35498	0.025797173
178	0x3b4d5871	0.0031333233
179	0x3c44a0af	0.012001201
180	0x3d125e56	0.035734497
181	0x3cd6f960	0.026241958
182	0x3c401980	0.01172483
183	0x3ac0c9a1	0.0014708528
184	0x3ccb3eb3	0.02481017
185	0x3b076fc4	0.0020665983
186	0x3c4a864b	0.0123611195
187	0x3ad8dc83	0.001654521
188	0x3b83fd7a	0.0040280195
189	0x3d01cb30	0.031687915
190	0x3d11b1b2	0.035569854
191	0x3bae1d9e	0.0053135892
192	0x3c0f45bb	0.008744652
193	0x3b110ca3	0.0022132776
194	0x3cc4503e	0.023964044
195	0x3b026cff	0.0019901393
196	0x3c33eeb1	0.010982201
197	0x3b0a8e2c	0.002114187
198	0x3c373493	0.011181968
199	0x3b3780e2	0.0028000404
200	0x3bbfd69d	0.0058544413
201	0x3b63e609	0.0034774563
202	0x3c74e321	0.01494673
203	0x3b0fa838	0.0021920335
204	0x3bfa2259	0.007633489
205	0x3b8c2dc2	0.0042779157
206	0x3bab6e72	0.005231672
207	0x3adc2e18	0.0016798405
208	0x3b4bfa49	0.0031124523
209	0x3b8e4925	0.0043422156
210	0x3b828d06	0.0039840965
211	0x3bf1c913	0.0073787062
212	0x3b4e4d2f	0.003147911
213	0x3bdb8947	0.0066997143
214	0x3e93623b	0.2878588
215	0x3c553478	0.013012998
216	0x3bbb51ff	0.005716562
217	0x3c90b7ed	0.017665828
218	0x3c324d6a	0.010882715
219	0x3d94d322	0.07266833
220	0x3c2044d7	0.009782038
221	0x3bac0aea	0.0052503245
222	0x3e37672a	0.17910448
223	0x3c7e38b9	0.015516453
224	0x3c457ecf	0.012054159
225	0x3b35c2d0	0.0027734526
226	0x3c23741e	0.009976415
227	0x3ce4d4ff	0.027933596
228	0x3c18e5b7	0.009332112
229	0x3ad8660a	0.0016509902
230	0x3bfbbb5e	0.007682248
231	0x3e0fc0d2	0.14038399
232	0x3c4f3751	0.012647466
233	0x3ae1973e	0.0017211211
234	0x3cde90c1	0.027168633
235	0x3acc07bc	0.001556627
236	0x3cd41196	0.025887292
237	0x3c8229a4	0.015888996
238	0x3d23038b	0.0397983
239	0x3c7251d0	0.014790013
240	0x3c03e796	0.00805082
241	0x3b74586a	0.0037284144
242	0x3b4516b5	0.003007335
243	0x3bc1d71e	0.0059155365
244	0x3ae8bff9	0.0017757408
245	0x3b230220	0.0024873093
246	0x3b4aa100	0.0030918717
247	0x3b79cc8c	0.0038116304
248	0x3c917526	0.017756056
249	0x3b62d7b7	0.003461344
250	0x3d39c137	0.04535028
251	0x3cbd63c3	0.02311886
252	0x3c5416e9	0.012944915
253	0x3af4d25f	0.0018678418
254	0x3aa48436	0.0012551609
255	0x3cd981d5	0.026551167

exp_avg f4 [2]
0	0xbcc52328	-0.024064615
1	0x3cc5232f	0.024064628

exp_avg_sq f4 [2]
0	0x3cf0e9a8	0.029408291
1	0x3cf0e9a8	0.029408291
