TASK2/gender_classification_model/checkpoint_step_13600.pth (torch, 22993 bytes, 6 tensors)

weight f4 [2, 768]
0	0x3cc46dde	0.02397817
1	0x3bf0bc75	0.0073466846
2	0x3d1c4372	0.03815026
3	0x3c88c443	0.016695147
4	0xbcd5514f	-0.026039748
5	0x3c3e7c1e	0.0116262715
6	0xbc08edad	-0.008357448
7	0xbd17ea4a	-0.03708867
8	0xbcfc1f80	-0.03077674
9	0xbc8bbc7d	-0.017057652
10	0xbd4c3b02	-0.04986096
11	0xbc267d97	-0.010161779
12	0xbd4f2c9b	-0.05057965
13	0x3cbe3949	0.023220675
14	0x3cc2c11e	0.023773726
15	0xbc1069c9	-0.008814284
16	0x3a24e040	0.00062895194
17	0xbc89761c	-0.016779952
18	0x3bad2a05	0.00528455
19	0xbccfa714	-0.025348224
20	0xbc5c0823	-0.013429674
21	0x3ca7afa4	0.020469494
22	0x3d39f639	0.04540083
23	0x3b189a11	0.002328519
24	0x3d19f3a9	0.037585888
25	0xbc5dca97	-0.013537071
26	0x3cee6835	0.029102424
27	0x3badae82	0.005300344
28	0x3d90e212	0.070743695
29	0x3a92e35d	0.0011206676
30	0x3cf63785	0.03005577
31	0x3d08b9b5	0.03338023
32	0x3c677002	0.014125826
33	0x3a23f588	0.00062545436
34	0xbc4da8a3	-0.012552413
35	0x3d1d1c19	0.038356874
36	0x3c2d68cf	0.01058407
37	0xbd91e913	-0.071245335
38	0x3c935d1f	0.01798874
39	0xbdc7fe0d	-0.09765253
40	0x3d02bd21	0.03191865
41	0x3b447e1c	0.0029982394
42	0xbd04f5d5	-0.032461006
43	0x3c5f54dd	0.013631073
44	0xbcba9ba3	-0.022779291
45	0xbb83c103	-0.0040208115
46	0x3d0d5b43	0.034510862
47	0x3d55cc5e	0.052196853
48	0x3d5f84ce	0.05457001
49	0xbcddfa29	-0.027096825
50	0x3c166197	0.009178541
51	0x3ca9dc56	0.020734947
52	0xbc44941c	-0.011998203
53	0xbd1ac1d0	-0.03778249
54	0xbb921800	-0.0044584274
55	0xbcc5b26d	-0.024132932
56	0xbbfc35e9	-0.0076968563
57	0xbc154ad6	-0.009112081
58	0xbb3cb705	-0.0028795612
59	0x3cd45285	0.025918255
60	0x3bee8822	0.007279412
61	0x3bb6cf1a	0.0055788876
62	0xbd5252bd	-0.051348437
63	0xbc84be5b	-0.01620405
64	0xbc59c980	-0.01329267
65	0xbc710413	-0.014710444
66	0x3d5097cd	0.05092602
67	0x3d917eba	0.07104249
68	0xbd22bf99	-0.039733503
69	0x3d0493b9	0.03236744
70	0xbb330325	-0.0027315107
71	0x3b7971c4	0.0038062194
72	0xbbca9d34	-0.006183291
73	0xbc9b1f6a	-0.018935878
74	0xbcadf674	-0.021235682
75	0xbd13f10f	-0.036118563
76	0xbbcd9c10	-0.0062747076
77	0x3cb310c5	0.021858582
78	0xbbb92d72	-0.0056511695
79	0xbc8de1bb	-0.01731955
80	0x3ce944c7	0.028475178
81	0xbcdf912b	-0.027290901
82	0xbda10401	-0.07862092
83	0x3b9a773f	0.0047139223
84	0x3c597dfb	0.013274665
85	0x3ca81f97	0.020522876
86	0xbc96dbb2	-0.018415306
87	0xbd55cc06	-0.052196525
88	0x3d368ddc	0.04456888
89	0x3c5bf43f	0.013424932
90	0x3d45cfc6	0.04829385
91	0xbd84044a	-0.064461306
92	0x3d1f61e6	0.038911723
93	0x3c9cc06c	0.019134723
94	0x3b81d15a	0.003961724
95	0xbd24d621	-0.04024327
96	0xba904145	-0.001100578
97	0x3d4da52f	0.05020636
98	0xbc223550	-0.009900406
99	0x3d0d35f1	0.03447527
100	0xbc65783b	-0.014005716
101	0x3c67dcf3	0.0141517995
102	0x3d506a75	0.050882775
103	0xbcaa48f4	-0.02078674
104	0x3c264809	0.01014901
105	0xbaaebc2e	-0.0013331228
106	0x3d91d74b	0.07121142
107	0xbd5039fe	-0.050836556
108	0xbbff978b	-0.0078000478
109	0x3d9afd60	0.07567859
110	0xbd2e2af3	-0.04252143
111	0xbc893ac6	-0.016751658
112	0x3c972426	0.018449854
113	0xbbe754c0	-0.0070596635
114	0x3ba20433	0.0049443482
115	0x3c9e70e2	0.019340936
116	0x3dc3caec	0.09560189
117	0xbc8f9818	-0.017528579
118	0xbc240d64	-0.010012958
119	0x3c8db8f4	0.017300107
120	0x3da0affa	0.07846065
121	0x3d895555	0.06705729
122	0xbc36543d	-0.011128482
123	0xbabd8142	-0.0014458077
124	0x3c64c9df	0.013964145
125	0x3bbf28d5	0.005833725
126	0xbd0c56f0	-0.034262598
127	0xbceea14a	-0.029129643
128	0x3a964ea3	0.0011467527
129	0xbcc9b1c3	-0.024620896
130	0xbd3b3763	-0.045707118
131	0x3b97d450	0.004633464
132	0x3d6e61cc	0.058198735
133	0x3c36759b	0.011136438
134	0x3d1ef020	0.03880322
135	0x3c625515	0.01381423
136	0xbcd72b51	-0.026265772
137	0xbbcdead2	-0.0062840963
138	0x3d2eb723	0.04265512
139	0xbc66838a	-0.014069447
140	0xbd3414f3	-0.04396529
141	0xbc8627c8	-0.016376391
142	0xbbbf9f4e	-0.005847848
143	0x3c4b5c5f	0.01241216
144	0xbcf0fcbd	-0.02941739
145	0x3b1d30f2	0.0023985473
146	0xbb85ce20	-0.00408341
147	0xb7445135	-1.1701418e-05
148	0xbc3028db	-0.010751928
149	0xbcb3cfcc	-0.021949671
150	0x3cdebfb3	0.027191019
151	0xbd58c101	-0.052918438
152	0x3d3787b5	0.044807155
153	0x3d4a11b0	0.049333274
154	0x3cdba900	0.026813984
155	0xbbf09795	-0.0073422887
156	0xbca36e11	-0.019949945
157	0xbd1ff939	-0.039056037
158	0xbc92401d	-0.017852837
159	0x3d854f0d	0.06509218
160	0xbbd1fb31	-0.006408118
161	0xbc889cd0	-0.016676337
162	0xbcbe2d2d	-0.0232149
163	0x3cca9808	0.024730697
164	0xbd4db999	-0.050225828
165	0x3db89f1b	0.09014722
166	0xbcb5abf1	-0.022176715
167	0xbcf14ade	-0.029454645
168	0xbcec37a3	-0.028835123
169	0x3c1d57dd	0.009603468
170	0x3ccd35b2	0.025050018
171	0x3c7ccdb5	0.015429904
172	0xbd09a76c	-0.03360693
173	0x3cd56acc	0.026051901
174	0xbc2074d5	-0.00979348
175	0xbce23180	-0.027611494
176	0x3ccaeae8	0.024770215
177	0x3d13298a	0.035928287
178	0x3c548ab9	0.012972527
179	0x3d25cf35	0.04048081
180	0x3cfddeea	0.030990083
181	0xbca17297	-0.019707961
182	0x3b5e7c08	0.003394844
183	0xbc388f4c	-0.011264633
184	0xbcca5720	-0.024699748
185	0x3dae65d4	0.08515516
186	0xbce4d4ef	-0.027933566
187	0xbd37b095	-0.044846136
188	0xbc470449	-0.012147018
189	0x3bad53a2	0.005289511
190	0x3c2ce70a	0.010553131
191	0xbb3554e9	-0.0027669019
192	0xbcaf410d	-0.021393323
193	0x3d1b089e	0.037850015
194	0xbd2996a6	-0.041403435
195	0xbdbe0f2a	-0.09280236
196	0xbd91467f	-0.07093524
197	0xbd5b633f	-0.053561445
198	0x3d543218	0.051805586
199	0xbd0b4c12	-0.034008093
200	0xbd828bfd	-0.06374357
201	0xbc10ca09	-0.008837231
202	0x3d473dcc	0.04864292
203	0x3ca82c55	0.020528952
204	0x3cde7fd4	0.027160563
205	0x3d36f948	0.044671327
206	0x3a953150	0.0011382494
207	0xbca7fb36	-0.020505529
208	0x3d78d50f	0.060750064
209	0x3bb08a52	0.005387583
210	0x3c87efee	0.0165939
211	0xbbab5ac4	-0.005229326
212	0xbc9d57e8	-0.019206956
213	0xbd20c775	-0.039252717
214	0xbcba8b87	-0.02277161
215	0x3d14f227	0.036363747
216	0xbcb65ddd	-0.022261554
217	0xbd0b2bc7	-0.033977296
218	0xbca282cd	-0.019837761
219	0x3cd14611	0.025546106
220	0xbd4d06a5	-0.050055165
221	0x3be05641	0.0068462198
222	0x3d09aac5	0.033610124
223	0xbd044313	-0.03229053
224	0x3c087ddf	0.008330791
225	0xbb979dc3	-0.004626961
226	0xbd3adc19	-0.045620058
227	0x3c6ee18a	0.01458014
228	0xbaba3a02	-0.0014207962
229	0xbc9a144f	-0.018808512
230	0xbc6c2afa	-0.014414543
231	0xbc23fb90	-0.010008708
232	0x3c99091a	0.018681098
233	0x3d41698c	0.047219798
234	0x3bc1c395	0.005913208
235	0x3dc5ae42	0.09652378
236	0xbb376112	-0.0027981442
237	0xbd349156	-0.044083916
238	0xbd17a0b6	-0.0370185
239	0x3cdcd702	0.026957992
240	0xbcfa0a71	-0.030522557
241	0xbca74ab0	-0.020421356
242	0x3d04529e	0.032305352
243	0x3d2fe026	0.042938374
244	0x3d3a4a6b	0.045481127
245	0x3d0e723a	0.034776904
246	0xbbe4e4b0	-0.0069852695
247	0x3b1ea195	0.0024205197
248	0xbb66391a	-0.003512925
249	0x3c60c7f9	0.013719552
250	0xbc43fa02	-0.011961462
251	0x3c19b961	0.009382577
252	0x3d232bee	0.039836816
253	0xbcc95601	-0.024577143
254	0x3ba1a772	0.004933291
255	0x3d185a6d	0.03719561

bias f4 [2]
0	0x3cc78d25	0.024359295
1	0xbba4c6bf	-0.005028575

exp_avg f4 [2, 768]
0	0x3c68d867	0.014211751
1	0x3c13c58b	0.009019266
2	0xbc0c6461	-0.008568854
3	0x3b98b60a	0.0046603726
4	0x3ce04df9	0.02738093
5	0xbb5f4a7b	-0.0034071493
6	0xbc2de8ad	-0.010614556
7	0xbca58009	-0.020202653
8	0x3e43ac35	0.1910866
9	0x3c8e60c2	0.017380122
10	0x3bb6466b	0.0055625937
11	0xba95af93	-0.0011420123
12	0x3c2daf06	0.010600811
13	0xbc03595f	-0.008016913
14	0xbc5a9cfe	-0.013343094
15	0x3b8e6388	0.004345361
16	0xbc33fbd4	-0.0109853335
17	0xbc6ffd8a	-0.014647851
18	0xbcedd7ef	-0.02903363
19	0xbc232e75	-0.009959807
20	0x3c9ce7eb	0.019153556
21	0xbc81aaff	-0.015828608
22	0x3c8dd66e	0.017314162
23	0xbbb37580	-0.0054766536
24	0xbba75355	-0.0051063695
25	0xbba876eb	-0.0051411293
26	0xbb6c3473	-0.0036042004
27	0x3b2ab933	0.0026050329
28	0xbc2f3568	-0.010693885
29	0xbc81c569	-0.015841203
30	0x3bb7793c	0.005599169
31	0x3c01d69a	0.0079247
32	0x3c1a1cc5	0.009406273
33	0xbbd6bfc8	-0.006553624
34	0xbc33115c	-0.010929432
35	0xbbff9718	-0.007799994
36	0xbb0c67f7	-0.0021424273
37	0x3b42f01a	0.0029745162
38	0xbc2d540b	-0.010579119
39	0xbb5d0a25	-0.003372797
40	0x3c2ca02f	0.010536238
41	0xbc4ecb86	-0.012621766
42	0x3c2824b2	0.010262655
43	0x3bbe01bc	0.0057985466
44	0x3ca32f10	0.019919902
45	0x3b8fe26d	0.0043910057
46	0xbc9e94c0	-0.019358039
47	0xbc4bd3d7	-0.012440643
48	0x3c08df18	0.008353971
49	0x3b6d0efc	0.0036172261
50	0x3b2d430f	0.0026437675
51	0x3c9dc224	0.019257613
52	0x3ca9f101	0.020744802
53	0xb9fcfc0d	-0.00048252978
54	0x3c5df466	0.013547039
55	0x3ccdc72a	0.025119383
56	0x3c03db00	0.008047819
57	0xbbd670bb	-0.0065442002
58	0xbb85cf9f	-0.0040835883
59	0x3bbfeddc	0.0058572125
60	0x3c5ddd10	0.013541475
61	0x3c0cfa62	0.008604618
62	0xba032151	-0.0005002218
63	0xbd0b57a6	-0.034019135
64	0xbae48847	-0.0017435633
65	0x3be14e51	0.006875791
66	0xbc4fcc9b	-0.012683059
67	0xbaa72bc5	-0.0012754133
68	0x3b80ac53	0.0039267926
69	0x3b696a28	0.0035616253
70	0xba920f59	-0.001114349
71	0xbbd8eb20	-0.006619826
72	0xbbdeb49d	-0.006796433
73	0x3c999a29	0.018750267
74	0xbb6404b2	-0.0034792838
75	0xbbae6ca3	-0.005323009
76	0xbb74c22c	-0.003734718
77	0xbabc5cc1	-0.0014370905
78	0x3c5375a0	0.012906462
79	0xbbc7c46f	-0.0060964148
80	0x3c708950	0.014681175
81	0xbc1935f7	-0.009351245
82	0x3cad176e	0.021129336
83	0xbc526f1f	-0.012843876
84	0xbc78abb1	-0.015177653
85	0xbcd9e52c	-0.026598535
86	0x3ca58e7b	0.020209542
87	0x3ba7a11a	0.0051156403
88	0xbc02f070	-0.007991895
89	0xbcac4e80	-0.021033525
90	0xbc336dc2	-0.010951461
91	0x3c917509	0.017756002
92	0xbab731a7	-0.001397659
93	0x3b5c49b9	0.0033613278
94	0x3c54b55d	0.0129826935
95	0xbc2da82b	-0.010599176
96	0x3c55fd9c	0.0130609535
97	0xbc353585	-0.011060123
98	0xbc314fe3	-0.010822269
99	0xbc219d3a	-0.009864146
100	0xbae962f5	-0.0017805981
101	0xb8e91724	-0.00011114616
102	0xbcc230f9	-0.023704993
103	0x3add7996	0.0016897197
104	0x3c87ce96	0.016578
105	0x3b6a0859	0.0035710542
106	0x3be467f5	0.0069704005
107	0xb946af60	-0.00018948084
108	0x3c1f44e6	0.0097210165
109	0x3c55c217	0.013046763
110	0xbc533ef6	-0.012893429
111	0xbcca7df0	-0.024718255
112	0x3c94f8a9	0.018184977
113	0xbc4ccd73	-0.012500155
114	0xbb4a9df8	-0.003091691
115	0xbbb674ea	-0.0055681365
116	0xbc208991	-0.009798423
117	0x3b1a7b57	0.0023572051
118	0xbb654755	-0.0034985144
119	0x39be0288	0.0003624151
120	0x3d237ceb	0.039914053
121	0xbb562bbc	-0.0032679876
122	0xbb35c8a4	-0.0027738
123	0xbc266808	-0.010156639
124	0x3b6bdb86	0.0035989
125	0x3be2d6ec	0.0069225933
126	0x3bccc4a6	0.0062490283
127	0x3cc2fe26	0.023802828
128	0x3c2bbd2c	0.010482114
129	0x3cf626ca	0.030047793
130	0xbb3fdbc7	-0.0029275285
131	0xbce3b9d7	-0.027798576
132	0xbc846e42	-0.016165856
133	0xbc9bd375	-0.019021729
134	0x3bb0eed9	0.0053995666
135	0x3c0fe7a5	0.008783256
136	0x3b0d045d	0.0021517493
137	0x3c8550f5	0.016273955
138	0x3b5437df	0.0032381935
139	0xbc9ff38a	-0.019525308
140	0x3ca72a52	0.020405922
141	0x3bf9cf11	0.007623561
142	0x3c433000	0.0119133
143	0xb946e9f4	-0.00018969906
144	0xbbc101be	-0.0058901003
145	0xbc0c5f49	-0.00856764
146	0xbb9d0264	-0.0047915448
147	0xbc7ecbcb	-0.015551518
148	0xba0857c2	-0.0005201065
149	0xba9a40c0	-0.0011768565
150	0x3b9bf380	0.004759252
151	0x3abf7c11	0.0014609118
152	0xbc76309b	-0.015026237
153	0xba951754	-0.001137475
154	0xbc19ed0d	-0.009394896
155	0xbad94dad	-0.0016578935
156	0x3c01deb0	0.007926628
157	0xbcbb19b1	-0.022839399
158	0x3bd8992e	0.0066100573
159	0x3b73fcc5	0.003722952
160	0x3c8a90d9	0.016914772
161	0x3c50dff9	0.012748712
162	0x3b069ee9	0.0020541495
163	0xbbc31db7	-0.00595447
164	0x3c3639bf	0.011122166
165	0xbc6c9c8e	-0.014441622
166	0x3b8fd7aa	0.004389723
167	0xbd0bb71a	-0.034110166
168	0x3ba9bc84	0.0051799435
169	0xbc5bdd2d	-0.013419432
170	0x3d0f5396	0.034991823
171	0x3b3e21a1	0.0029011744
172	0x3931f217	0.00016970221
173	0x398f4598	0.00027326937
174	0x3b7a751e	0.003821678
175	0xbc744b31	-0.014910505
176	0xbc362eec	-0.0111195855
177	0x3b89061c	0.0041816365
178	0xbbd436eb	-0.0064762733
179	0x3c0f507d	0.008747217
180	0xbcadd26a	-0.021218497
181	0x3b1780b3	0.0023117482
182	0xbb4dc19a	-0.0031395913
183	0xbc1a8550	-0.009431198
184	0x39dc5271	0.00042023094
185	0xbb5206da	-0.003204754
186	0xbb214f41	-0.002461389
187	0x3b439961	0.002984606
188	0xbba3d2e2	-0.0049995044
189	0x3bbb8366	0.005722451
190	0x3c99ca14	0.018773116
191	0xba9e0f2f	-0.0012058968
192	0xbbbc2227	-0.005741376
193	0xbbc69bc9	-0.0060610515
194	0x3c1e070a	0.009645233
195	0xbc90e5ff	-0.017687796
196	0x3c11469e	0.008866934
197	0x3a821031	0.0009923038
198	0x3bbbc17b	0.005729852
199	0x3c23189b	0.009954597
200	0x3baeb5f8	0.005331751
201	0x3c34b3d0	0.011029199
202	0x3a988be1	0.0011638367
203	0x3c6048ac	0.013689201
204	0x3bc2609a	0.005931926
205	0x3c5df1a7	0.013546384
206	0x3c9bbc3a	0.019010652
207	0xbc1c37a6	-0.009534752
208	0xbc85587a	-0.01627754
209	0xbbe39ec0	-0.0069464147
210	0x3b9cee70	0.004789166
211	0x3c905f70	0.017623633
212	0x3b7193e8	0.003686184
213	0xba9a4713	-0.0011770449
214	0x3d0730ed	0.033005644
215	0xba54ffc2	-0.0008125269
216	0xbc71bdc1	-0.0147547135
217	0xbab1829d	-0.0013542954
218	0x3c43aa2b	0.011942427
219	0xbcafd968	-0.021465972
220	0x3c3e9aa4	0.011633549
221	0xbc2ee002	-0.010673525
222	0x3c70a05f	0.014686673
223	0xbb00fc2a	-0.0019681551
224	0x3b168b69	0.0022971279
225	0x3aef03a5	0.0018235339
226	0x3b954e57	0.004556458
227	0xbc030461	-0.0079966495
228	0x3c055e28	0.008140124
229	0x3c0034ad	0.007825059
230	0xbc103c44	-0.008803431
231	0x3cefb9f3	0.029263472
232	0xbb45d071	-0.0030184055
233	0xbc8fa057	-0.01753251
234	0xbacca9b2	-0.0015614538
235	0x3c1cecba	0.009577924
236	0x3be2f955	0.0069266954
237	0xbcda8a83	-0.026677376
238	0xbaebe853	-0.0017998315
239	0x3bfc88ab	0.007706722
240	0x3ad6fcc9	0.001640224
241	0xbb4804a5	-0.0030520346
242	0x3c8bd3db	0.017068794
243	0xbbfc04bd	-0.0076909945
244	0xba1a1029	-0.0005877042
245	0xbb93f6d0	-0.0045155063
246	0x3c067caf	0.008208438
247	0xbb1a9c2f	-0.0023591628
248	0x3c8730cd	0.016502762
249	0x3c40cdb8	0.011767797
250	0xbca61773	-0.020274853
251	0xbbe75a0d	-0.0070602954
252	0x3cb6e051	0.02232376
253	0x3cb71ddb	0.022353103
254	0xbb43bf1c	-0.0029868549
255	0x3c89b740	0.016811013

exp_avg_sq f4 [2, 768]
0	0x3b8adf86	0.004238072
1	0x3ae7fb51	0.00176988
2	0x3b2122fd	0.0024587505
3	0x3cc25a93	0.02372483
4	0x3cf7284c	0.030170582
5	0x3ab871b7	0.0014071976
6	0x3da08b4b	0.07839068
7	0x3c2c8b63	0.010531279
8	0x413c544b	11.770579
9	0x3d8ecd55	0.06972758
10	0x3afc621d	0.0019255314
11	0x3c9c8009	0.01910402
12	0x3c07b620	0.008283168
13	0x3d5693ca	0.052387036
14	0x3c7580b2	0.014984297
15	0x3b886906	0.0041629104
16	0x3ac59e4f	0.0015077087
17	0x3bfa8201	0.007644892
18	0x3bb32cd9	0.0054679927
19	0x3c3e196b	0.01160274
20	0x3c24d3a8	0.010060228
21	0x3c39f355	0.011349519
22	0x3bf94bb8	0.0076079033
23	0x3c81a20e	0.015824344
24	0x3d77092b	0.060311478
25	0x3b9d86df	0.0048073377
26	0x3addd7bf	0.0016925259
27	0x3ce6d619	0.028178262
28	0x3ae08f7d	0.0017132607
29	0x3b140ac1	0.0022589418
30	0x3d7393ac	0.059467003
31	0x3c31ac2f	0.010844274
32	0x3c1cf5f2	0.009580122
33	0x3d4226dc	0.04740034
34	0x3c0a3ba8	0.008437075
35	0x3ca825fa	0.020525921
36	0x3d197e47	0.037473943
37	0x3aa61c89	0.0012673299
38	0x3f86d690	1.0534229
39	0x3add2f74	0.0016875104
40	0x3bcc5871	0.006236129
41	0x3bc87a66	0.0061181067
42	0x3ae1cc9b	0.0017227115
43	0x3eced6c5	0.4039823
44	0x3d57e69a	0.052710153
45	0x3b2d8909	0.0026479384
46	0x3cf07646	0.029353272
47	0x3c2eadae	0.010661526
48	0x3aca5904	0.0015437906
49	0x3c6ecea2	0.014575632
50	0x3c0c2eeb	0.008556108
51	0x3c4cb826	0.012495076
52	0x3c076d3b	0.008265789
53	0x3abc6a3a	0.001437492
54	0x3c9abb48	0.01888813
55	0x3bb07bba	0.005385843
56	0x3b85d957	0.004084747
57	0x3c803fea	0.015655477
58	0x3c8df1f5	0.017327288
59	0x3bfa6b92	0.007642218
60	0x3c960464	0.01831264
61	0x3cb40f4b	0.021979949
62	0x3b1733bd	0.002307161
63	0x3dc62f08	0.09676939
64	0x3aec9e9e	0.0018052643
65	0x3d62c1a4	0.05536045
66	0x3c2d266a	0.010568241
67	0x3b08ad1a	0.002085513
68	0x3d10a009	0.03530887
69	0x3d07061c	0.03296481
70	0x3b87f378	0.004148897
71	0x3c195def	0.009360774
72	0x3b0f684c	0.0021882234
73	0x3bbf6191	0.0058404882
74	0x3b860cbd	0.004090874
75	0x3c285f10	0.010276571
76	0x3d03b86a	0.032158293
77	0x3af2c3f4	0.0018521533
78	0x3c9c6eb6	0.01909576
79	0x3c7fcd97	0.015612981
80	0x3b0ac57a	0.0021174834
81	0x3bbbabe4	0.005727278
82	0x3b168e67	0.0022973062
83	0x3ab98c55	0.0014156202
84	0x3c165fc8	0.0091781095
85	0x3b9b8f69	0.0047473204
86	0x3dca6ec0	0.09884405
87	0x3b69af4d	0.0035657466
88	0x3cbde739	0.023181545
89	0x3b3a1dbf	0.0028399078
90	0x3c13a64d	0.009011817
91	0x3a8f224f	0.0010920259
92	0x3cf33f98	0.02969341
93	0x3d6100fd	0.054932583
94	0x3c2f04d7	0.010682306
95	0x3b7a5837	0.0038199553
96	0x3b7e25af	0.0038779785
97	0x3bd6eaa9	0.0065587354
98	0x3bfcc9e7	0.0077144983
99	0x3da06635	0.078319944
100	0x3ba0dc83	0.0049090995
101	0x3c00ae95	0.007854124
102	0x3cb83a5d	0.022488767
103	0x3c34d783	0.01103771
104	0x3e2ac7f7	0.16677843
105	0x3b198ad8	0.0023428705
106	0x3ad467c8	0.0016205246
107	0x3b691d33	0.0035570383
108	0x3cca508f	0.024696616
109	0x3b7cfe74	0.0038603814
110	0x3c1ee74e	0.009698702
111	0x3c0a1bae	0.008429451
112	0x3ba30751	0.0049752374
113	0x3c131d69	0.00897918
114	0x3ba016c4	0.0048855264
115	0x3a9e9e9e	0.0012101715
116	0x3af028b2	0.0018322675
117	0x3c18415f	0.009292929
118	0x3d02f03f	0.031967398
119	0x3c955f94	0.018234052
120	0x3c2ecef2	0.010669457
121	0x3af8a0f9	0.0018968872
122	0x3afd2e26	0.0019316121
123	0x3d15257d	0.036412705
124	0x3c000082	0.007812621
125	0x3dad120a	0.08450706
126	0x3bc393b6	0.0059685363
127	0x3b2161c2	0.0024624919
128	0x3c47a80e	0.012186063
129	0x3ba312e1	0.004976616
130	0x3bd135b1	0.0063845743
131	0x3c99d6e7	0.018779231
132	0x3ad1cd15	0.0016006554
133	0x3cbc0344	0.022950776
134	0x3cc89ac7	0.024487866
135	0x3c67ebd4	0.014155347
136	0x3c210cce	0.009829713
137	0x3b5c45db	0.0033610973
138	0x3c442897	0.011972568
139	0x3b13932b	0.002251814
140	0x3cc10ca1	0.023565592
141	0x3c26fb27	0.010191715
142	0x3ca31a33	0.019909954
143	0x3c6dbf74	0.014510978
144	0x3bfb5cc6	0.0076709716
145	0x3c044d0f	0.008075013
146	0x3b0a0cbe	0.0021064724
147	0x3d60ac52	0.054851837
148	0x3b417a54	0.0029522376
149	0x3c2957b8	0.010335855
150	0x3ba7636e	0.0051082885
151	0x3af6384f	0.0018785092
152	0x3c092cf7	0.008372537
153	0x3cde55dd	0.027140552
154	0x3ce08e7a	0.027411688
155	0x3d4c4d69	0.04987851
156	0x3ad51b93	0.0016258828
157	0x3d23e600	0.040014267
158	0x3c006714	0.007837076
159	0x3c12596f	0.008932455
160	0x3c8bfb0f	0.017087488
161	0x3cbf6511	0.023363622
162	0x3b861fdf	0.004093155
163	0x3ac323ba	0.0014887967
164	0x3b218cef	0.0024650653
165	0x3b06fe50	0.002059836
166	0x3bc936ec	0.0061405804
167	0x3d263bbb	0.040584307
168	0x3bd4282c	0.0064745154
169	0x3b50a2c2	0.0031835292
170	0x3d83e34f	0.0643984
171	0x3b16438f	0.0022928452
172	0x3b04f99b	0.0020290378
173	0x3b950faa	0.0045489864
174	0x3caff807	0.021480573
175	0x3d86568f	0.065594785
176	0x3d0461a7	0.03231969
177	0x3cc703b7	0.024293764
178	0x3b3ead74	0.0029095085
179	0x3c38da6d	0.0112825455
180	0x3d0f213d	0.034943808
181	0x3ccd5cd8	0.025068685
182	0x3c3b3345	0.011425798
183	0x3ac39e81	0.0014924557
184	0x3cc5d63c	0.024150006
185	0x3b08e584	0.0020888755
186	0x3c40663e	0.011743126
187	0x3ad8b6f3	0.0016534015
188	0x3b8748e1	0.004128561
189	0x3d0084bd	0.03137659
190	0x3d0c974f	0.034323987
191	0x3bac0053	0.005249062
192	0x3c0d74cd	0.0086338045
193	0x3b0f6538	0.00218804
194	0x3cc00dab	0.023444017
195	0x3b05aeb6	0.0020398325
196	0x3c3087de	0.010774581
197	0x3b04353d	0.0020173334
198	0x3c2bdb90	0.0104893595
199	0x3b352169	0.0027638322
200	0x3bbababe	0.005698531
201	0x3b5639b5	0.0032688205
202	0x3c671b36	0.014105609
203	0x3b0cd834	0.0021491172
204	0x3bf641b8	0.0075151585
205	0x3b895e71	0.0041921665
206	0x3bafd398	0.0053658
207	0x3ad8004d	0.0016479582
208	0x3b48a99d	0.0030618676
209	0x3b8770bd	0.0041333125
210	0x3b7c539c	0.0038501984
211	0x3bef2667	0.007298279
212	0x3b41017f	0.0029450355
213	0x3bcd904b	0.0062733046
214	0x3e8d29b3	0.27570876
215	0x3c483b4e	0.012221171
216	0x3bb68856	0.0055704517
217	0x3c8cd3c6	0.017190825
218	0x3c2e36c4	0.010633174
219	0x3d8f434e	0.06995259
220	0x3c1d4042	0.00959784
221	0x3ba7c430	0.005119823
222	0x3e2fbc6f	0.17161725
223	0x3c70d3f6	0.014698973
224	0x3c3d3b95	0.01154985
225	0x3b3a297b	0.0028406072
226	0x3c1aecde	0.009455888
227	0x3cd92eeb	0.02651163
228	0x3c12db1e	0.008963374
229	0x3ad39eaa	0.0016145308
230	0x3bf8deaf	0.0075949053
231	0x3e08acd9	0.13347186
232	0x3c44e159	0.012016618
233	0x3ad3486e	0.0016119608
234	0x3cd3fd56	0.025877636
235	0x3ad0156f	0.0015875528
236	0x3cce8705	0.025210867
237	0x3c7a120d	0.015263093
238	0x3d1b98b7	0.037987437
239	0x3c64e23d	0.013969955
240	0x3bfd6563	0.0077330335
241	0x3b6cf7cd	0.0036158443
242	0x3b42f3ab	0.0029747288
243	0x3bbe78e9	0.0058127535
244	0x3ad5ae35	0.0016302528
245	0x3b1a2f65	0.0023526784
246	0x3b3c46b8	0.0028728675
247	0x3b7c6c14	0.0038516568
248	0x3c8c603c	0.017135732
249	0x3b504837	0.0031781325
250	0x3d31d6ae	0.043417625
251	0x3cb33b74	0.021878935
252	0x3c48ad6a	0.012248376
253	0x3ae94512	0.0017797074
254	0x3a9b3137	0.0011840229
255	0x3cd50036	0.026001077

exp_avg f4 [2]
0	0xbc07b723	-0.008283409
1	0x3c07b732	0.008283423

exp_avg_sq f4 [2]
0	0x3ce6832e	0.028138723
1	0x3ce6832e	0.028138723
