TASK2/gender_classification_model/checkpoint_step_400.pth (torch, 22965 bytes, 6 tensors)

weight f4 [2, 768]
000000 7c 0c a9 3c 1b 4a 25 3c a1 cb f0 bc 4c c5 26 bb
       0.020635836 0.010088469 -0.029393973 -0.0025447188
000010 e4 ee f3 bc 2d bc 8c bc 21 8f ab bb 20 8d 2c 3c
       -0.029776998 -0.017179573 -0.005235568 0.010531694
000020 f7 78 f1 bc bb 71 d1 bb 21 9f 47 bb b5 95 49 3c
       -0.029476626 -0.0063917316 -0.0030459838 0.012303759
000030 66 3a 10 bd f9 2b 7b 3c 52 ea 91 3c af 4b 55 bb
       -0.035211943 0.015330308 0.017811928 -0.0032546332
000040 63 5e d0 3c 53 3f dd bc 43 eb 8b bc 7f c3 a9 bc
       0.025435632 -0.027007734 -0.017079955 -0.020723103
000050 13 e7 16 3b 3e 7f b8 3c 1e 5d de 3c 1e ca 02 3d
       0.0023025915 0.022521611 0.027144011 0.031931035
000060 58 a5 04 3d 5d 83 48 bc 31 68 3d bc 05 b7 87 ba
       0.032384247 -0.012238351 -0.011560486 -0.0010354227
000070 d9 2a 83 3c b8 70 b0 bb e5 af 17 3d 8b e6 11 3d
       0.016011642 -0.005384531 0.03703298 0.035620254
000080 f9 a6 05 3d fa 39 24 3c e6 2b e0 3a 13 bc e3 3c
       0.03262994 0.010023588 0.0017102927 0.027799642
000090 00 a4 83 3c 95 a7 12 bd d6 3c bd 3c 35 99 a1 bc
       0.016069412 -0.03580435 0.023100298 -0.019726375
0000a0 2e dd 6b 3c a1 de da bb 5d 47 e2 bc aa 04 9e 3c
       0.014395995 -0.0066793715 -0.02762192 0.019289333
0000b0 be 89 ab bc e2 8c 2e bc 58 07 cd 3c ab 55 d1 3c
       -0.020939704 -0.010653706 0.025027916 0.025553545
0000c0 09 d4 1a 3c 52 dd fb bb 58 a9 fe 3c ff 42 a2 3c
       0.009449967 -0.0076862955 0.031086609 0.019807337
0000d0 3c 25 8f 3a 5b c8 a9 3a 6e 42 40 bc 67 d3 a4 bc
       0.0010921131 0.0012953387 -0.011734588 -0.020120336
0000e0 24 5c 09 3c e7 ba 1d 39 8a f4 cc bb 1c 17 3d ba
       0.008383784 0.00015042313 -0.0062547373 -0.00072132214
0000f0 1f 86 38 3c 99 ed 9b 3c ea 87 b2 bb 92 a6 40 bc
       0.011262446 0.019034194 -0.005448331 -0.011758463
000100 d8 ab 88 3c 75 d3 ab bc bc 06 ed 3c 6c 01 01 3d
       0.016683504 -0.020974854 0.028933875 0.031495497
000110 cd 43 ad bc 44 a4 c1 3c c3 16 04 3d be fa c9 bc
       -0.021150494 0.023637898 0.03224827 -0.024655696
000120 57 78 7e bb f4 39 c7 3c 28 5e ca bc 11 2b cb bc
       -0.0038829052 0.024319626 -0.0247031 -0.02480081
000130 8a 06 64 bb 84 0a a3 bc 93 1c b1 ba d5 53 c1 bb
       -0.0034793937 -0.019902475 -0.0013512544 -0.005899886
000140 94 fc 8e b9 1d 3e 92 3b e9 ab ad bb 13 cb 56 3c
       -0.00027272536 0.004462971 -0.0053000343 0.01310994
000150 1a 31 c2 bb bd 54 61 bb 56 41 2f bc 40 25 fd bc
       -0.0059262635 -0.0034382783 -0.01069673 -0.030901551
000160 6e ce 87 3c af 5c 01 bc 5e 0a c3 3c db 1d d7 3b
       0.016577926 -0.007895633 0.023808654 0.0065648383
000170 e6 98 e7 3c 66 ea 55 3c b6 65 bc 3b 66 1c 26 bc
       0.02827115 0.013056373 0.0057494296 -0.010138607
000180 ef b6 13 3b c9 1e 04 3d 9b f7 20 bc 81 b3 c2 3c
       0.0022539457 0.03225592 -0.009824659 0.023767235
000190 25 6a 97 39 02 91 2c 39 1f 45 0e 3d d2 9e 3e bc
       0.00028880048 0.00016457218 0.034733888 -0.011634545
0001a0 e3 4a 6e 3c 34 ed b3 bc 36 44 07 3d 7f 8a dc bc
       0.014544222 -0.021963693 0.033024035 -0.026921509
0001b0 c6 9b 7b 3b 53 80 6d 3c 06 be dc bc 67 59 90 bc
       0.0038392409 0.014495927 -0.026946079 -0.017620755
0001c0 b8 be 28 b8 6a c2 a1 3b 8f b9 86 bb 0c 8b d8 3c
       -4.0231942e-05 0.004936506 -0.004111476 0.02643349
0001d0 cd 8e 23 3d 66 84 66 3c 85 69 e6 bc 55 1f 14 3d
       0.039931107 0.014069652 -0.028126488 0.036162693
0001e0 cf 1b 97 3c 0f 93 f3 3c dd 12 aa bc 1f 0e b0 bc
       0.018445877 0.029733209 -0.020760948 -0.021491108
0001f0 50 4d ad bc be 14 55 3c a2 44 eb bb 48 c7 c8 bc
       -0.02115503 0.013005434 -0.0071798125 -0.024509087
000200 ec 79 a5 3b 38 3b 48 ba 1e 25 ee bc c9 21 94 3b
       0.0050499346 -0.0007638219 -0.029070433 0.004520629
000210 4a 9d 06 3d c8 af f9 3b 04 91 d2 3c 65 c7 e3 bb
       0.032864846 0.0076198317 0.025703914 -0.00695126
000220 e2 8f b4 bc ee b2 57 bc 91 99 e5 3c e9 24 a1 3c
       -0.022041265 -0.013165219 0.028027328 0.01967092
000230 04 a0 b9 bc fb 3e 6b bc 0d 82 92 3c bd ee 92 3c
       -0.02265931 -0.014358277 0.017884279 0.017936105
000240 fb 47 c4 bc b3 7c 52 3c 42 44 c1 3c 2b 45 99 3b
       -0.023960104 0.012847113 0.023592118 0.004677435
000250 30 20 00 bd 18 f6 10 bd 32 8a 44 3c d1 fe ad bc
       -0.031280696 -0.035390943 0.011995839 -0.02123967
000260 40 6e 00 3c 4b 7e ef 3c ea ce 85 3c f8 a1 b9 bc
       0.007838786 0.029235026 0.016334016 -0.02266024
000270 05 8b 15 3c 0f 16 0c bd a5 53 05 bd 63 ba 22 3d
       0.009127383 -0.034200724 -0.032550473 0.039728533
000280 f6 f7 58 bc 1c 32 e0 bb 96 04 00 bd ef 8c 11 3c
       -0.013242712 -0.006841911 -0.031254373 0.008883699
000290 d7 7f 1f bd b5 dc 12 3d 73 6d ac 3c 35 3f 07 bd
       -0.038940277 0.035855014 0.021048283 -0.033019263
0002a0 e5 dc 46 bb 92 9b 8f 3c 2a 42 c6 3c 31 d7 ed 3a
       -0.0030344066 0.017530236 0.024201471 0.0018145797
0002b0 48 47 86 bc 57 c8 a6 3c 6e c1 ca bc ec 0d 08 bd
       -0.016391411 0.020359201 -0.024750438 -0.033216402
0002c0 ac 8d 4b 3c 4a fe f9 3c fe bd 22 bb 01 93 e1 3c
       0.012423914 0.030516762 -0.0024832482 0.027535917
0002d0 32 c5 20 3c 03 c7 e3 bc 35 4d 97 3c 0e 20 85 bc
       0.00981264 -0.027804857 0.018469432 -0.016250636
0002e0 7c 86 1b bc b5 77 1b 3d 6e 8a d4 bc 2f b2 0a bc
       -0.009492513 0.03795596 -0.025944915 -0.008465334
0002f0 ba af 24 bb 76 2e 4f 3a ea 8e aa 3b f4 1a cd 3b
       -0.0025129155 0.00079033466 0.005205025 0.0062593166
000300 af 8f 02 bc 50 f4 2e 3b 69 83 9c bc 5b 1f db bc
       -0.007968827 0.0026695915 -0.01910563 -0.02674835
000310 69 15 14 bd 89 86 8d 3c d2 35 d8 3c e9 5a 84 bc
       -0.03615323 0.017276065 0.026392851 -0.01615663
000320 f8 e1 f0 bc a0 7e 11 3b 53 2c 00 3d f3 9e b5 bc
       -0.029404625 0.0022200719 0.03129227 -0.02217052
000330 bb ca f4 3c 60 65 05 bc c9 73 82 bb 42 80 60 3c
       0.029881826 -0.008141845 -0.003981088 0.013702454
000340 8e cc d6 3c 00 66 9f bb 50 a3 be bb bc 1f c0 3c
       0.026220586 -0.0048644543 -0.005817808 0.023452632
000350 1e ea 0b 3a 26 ad cd bc 9c 20 84 bc 9f 2e 4c 3c
       0.00053373154 -0.025106978 -0.01612883 0.012462287
000360 5e 48 2e bc b8 80 18 bd 17 f2 00 bd 89 74 fb 3c
       -0.010637371 -0.03723213 -0.031480875 0.030695217
000370 e0 53 a8 bc 6e 6d 07 3c 02 04 ff 3c 14 ae 9b bc
       -0.020547807 0.008265836 0.03112984 -0.019003905
000380 3a fe 89 bb 60 aa cb bc a6 1f e8 bc f8 b3 a7 3c
       -0.0042112144 -0.024861515 -0.028335404 0.020471558
000390 0b 58 95 bc 97 10 eb 3c 06 7f 91 bc 3e e1 aa bb
       -0.018230459 0.028694434 -0.017760765 -0.0052148392
0003a0 7a 07 8f 3c 13 9c 90 3c 17 89 82 3c 8f 01 93 3c
       0.01745962 0.017652547 0.01593451 0.01794508
0003b0 d0 f9 45 bc 9f a2 c7 bc 80 82 5b bc f9 53 0f bb
       -0.012083486 -0.024369536 -0.013397813 -0.002187012
0003c0 95 2a 23 bc 8c 58 fc bb ef e8 f8 3c 40 be ef 3c
       -0.009958883 -0.0077009853 0.030384509 0.029265523
0003d0 bb 77 82 3c 94 63 bc 3c f8 bc 2c bc c1 3a eb 3c
       0.015926233 0.022996701 -0.010543101 0.02871454
0003e0 d5 3a 5c bc fa 61 63 3c 6a e9 01 3c 5e 7e 4e 3c
       -0.013441761 0.01387834 0.007929185 0.0126033705
0003f0 19 78 d0 3c 7c 59 5c bc 02 2f ff 3c 1d 2c de 3c
       0.025447892 -0.013449069 0.031150345 0.027120644

bias f4 [2]
000000 e0 e1 c0 3c 19 a8 81 bb
       0.023545206 -0.0039568064

exp_avg f4 [2, 768]
000000 64 57 69 3b 3c 58 1e 3c c9 fc 0a 3b 44 df 67 3c
       0.0035605067 0.009664591 0.00212078 0.014152352
000010 ee 78 bf 3c c5 84 b4 bb 09 35 f4 bc 14 37 e7 3a
       0.023373093 -0.0055089914 -0.029810445 0.0017640316
000020 9c d2 cc 3e 9b bc 07 3d be 69 72 3c aa 7b 99 bc
       0.40004432 0.033138853 0.014795719 -0.018735725
000030 5f df 10 bc de 1b 08 bd 88 88 ae bc c3 4a b1 3b
       -0.008842318 -0.0332297 -0.021305338 0.0054105236
000040 b4 e3 38 3b 2d ad ba bc 8b c5 90 3c 9d d2 a4 3c
       0.0028211894 -0.022787655 0.01767232 0.02011996
000050 6a 34 43 3c e7 8f 1c 3c 51 d9 05 3c 9e 2b 9b bb
       0.011914352 0.009555793 0.008169488 -0.004735424
000060 83 e1 01 bd ca e7 13 bc 60 a3 a3 bc ab 4c a9 bc
       -0.031709205 -0.009027431 -0.019975364 -0.020666441
000070 6a da 36 3c 0e 65 d6 bb fd 15 8a 3c 5e 27 cb 3b
       0.011160472 -0.0065428084 0.016856188 0.0061997613
000080 fa 6a 22 bc 84 a7 a9 bc fa a7 b4 bc f8 24 67 bc
       -0.0099132005 -0.02070976 -0.022052754 -0.014107935
000090 93 33 9b bc e1 51 41 ba 34 3f dd bd 4f 73 8f 3b
       -0.018945491 -0.00073745666 -0.10803071 0.0043777595
0000a0 6f fe 97 bb 8a 1c 48 bb 1d 15 d9 3a 11 e3 c5 3d
       -0.004638485 -0.0030534589 0.0016562078 0.0966245
0000b0 27 b8 ef 3c 99 e8 f2 bb 6f 83 b8 bc 1c 4d b5 bc
       0.029262615 -0.0074129817 -0.02252361 -0.022131495
0000c0 d4 a5 7a ba f2 5d b9 3c d2 d4 3f 3c bd 81 8b 3c
       -0.00095614535 0.022627804 0.011708455 0.017029637
0000d0 9a fa c9 ba 76 20 c3 bb 6c 59 4a 3c 9e 13 bf bb
       -0.0015409768 -0.0059547974 0.012350421 -0.005831196
0000e0 11 3c 2c 3c e8 85 aa bc 2b 9f 48 bc 19 c0 a8 bc
       0.010512368 -0.020815805 -0.01224498 -0.020599412
0000f0 6b 7c 4c bb 7e ab 94 bc eb ff 7a ba aa c8 59 bd
       -0.0031202089 -0.01814818 -0.0009574878 -0.053169884
000100 48 af 96 3c 2d 19 11 3d 60 c4 27 bc 7f 12 a9 bc
       0.018394127 0.0354244 -0.010239691 -0.020638702
000110 b2 ae 0b 3d 06 d3 15 3c f5 02 a1 bc 25 02 d4 bc
       0.03410215 0.00914455 -0.01965473 -0.025879929
000120 de 3d 76 bc 13 7b ea bb c2 fb 1d 3d 61 7f 8a bb
       -0.015029399 -0.007155785 0.038570173 -0.0042266105
000130 a8 46 4b 3c 16 c6 08 3c 42 14 ce 3c fe c7 36 bc
       0.0124069825 0.008348009 0.025156144 -0.01115608
000140 3e 20 5a bc 4b af a5 bb 08 63 95 bc dd 28 c1 bb
       -0.013313351 -0.005056297 -0.018235698 -0.005894764
000150 3e 20 0f 3c e5 fe 1b bc dd 48 13 3d 5e cd 03 3c
       0.0087357145 -0.009521221 0.03595816 0.008044569
000160 ab 00 bb bc 30 3a f1 bb 5e 6b fa ba b5 bd b1 3b
       -0.022827467 -0.007361673 -0.0019105484 0.005424226
000170 bc b6 42 bc db ca a8 3c 95 2b b0 3c 88 fb 8c bc
       -0.011884388 0.020604542 0.021505157 -0.017209783
000180 88 2f 84 3c 93 ca 38 3c 16 63 82 bc 8a 63 11 bd
       0.016135946 0.011278766 -0.015916388 -0.03549532
000190 8b 3b 79 3c 18 81 80 bc 36 45 bf bc d1 fd 2f 3d
       0.01521195 -0.015686557 -0.023348432 0.042966668
0001a0 a9 57 73 3d 9c 6d 65 3b 25 01 41 3c 45 41 dd ba
       0.05940977 0.003500796 0.011780058 -0.0016880414
0001b0 81 5a bd b9 ac 4a b1 3b d6 67 82 bc b3 8a 91 bc
       -0.0003611632 0.005410513 -0.015918653 -0.017766332
0001c0 11 dc ce ba d7 af 3e bb 40 1e 6a bc 9e ce ca bb
       -0.0015782138 -0.0029096508 -0.014289439 -0.0061891815
0001d0 3d 42 fe 3a 9c 7e 92 3c 95 95 05 3c f3 29 1d 3c
       0.0019398403 0.017882638 0.008153339 0.009592521
0001e0 0a d3 7c 3a 48 d6 cc ba 07 f5 8b bb 7e 69 fe bc
       0.00096444844 -0.0015627826 -0.004271153 -0.031056162
0001f0 8c d1 9e 3c 3d 03 3a 3d 2a c7 21 bc 56 76 93 bb
       0.01938703 0.045413245 -0.009874145 -0.0045001907
000200 e7 3f 84 ba 8a 9e 60 39 3c 8b 37 3c 2c 50 96 bc
       -0.0010089845 0.00021421365 0.01120263 -0.018348776
000210 e2 3c 37 bc 22 c1 d0 bb 8d 23 d0 3c 62 8e 98 bb
       -0.011183949 -0.0063706795 0.025407577 -0.004655645
000220 97 ef 71 3c 50 58 d7 3a 2a 60 9e bc 40 1f a6 3b
       0.014766595 0.0016429517 -0.019332964 0.0050696433
000230 00 29 62 3c ee fc 89 3c 1e 84 f8 3c f4 fc eb 3b
       0.0138037205 0.01684424 0.030336436 0.007201785
000240 ee e5 dd 3b e9 d9 cd bb 7b 0b 24 3c a6 a2 01 bd
       0.0067717945 -0.0062820804 0.010012503 -0.031649254
000250 6a b1 8c bb e2 82 9a bc 7b 55 b6 bc 0e 92 b1 ba
       -0.0042936103 -0.018861238 -0.022257557 -0.0013547556
000260 40 51 ab bb d3 22 ca 3b b5 e1 1a bb 5b a2 c7 bc
       -0.0052281916 0.006168702 -0.0023633067 -0.02436941
000270 13 0e 3c 3c c0 aa ac bc 69 31 2b bc 89 23 c9 ba
       0.011477965 -0.021077514 -0.010448792 -0.0015345673
000280 13 9e 05 3d 7c 5d 32 3c 30 67 99 3b 78 1e 7f 3b
       0.032621454 0.010886546 0.0046814904 0.0038928073
000290 28 ef 82 3c c9 bc 6d bb 69 9b a8 bc 26 b6 2c bd
       0.01598318 -0.0036275855 -0.020581918 -0.042165898
0002a0 61 82 25 3c fa f6 69 3b b1 c9 d6 3c c5 6b 23 3b
       0.010101886 0.0035700188 0.02621922 0.0024936062
0002b0 82 cd 9c bb 3b 58 10 bc 08 bd d2 bc 06 9b 19 bd
       -0.0047852406 -0.008810098 -0.025724903 -0.037501357
0002c0 2f ca 80 3c 0b f1 d3 3c df 9b 8c 3b 8d 2a 85 3c
       0.015721409 0.025871774 0.004291042 0.016255641
0002d0 0c fa fa bc 78 df 88 3c bc 68 72 3c b0 02 da bb
       -0.03063681 0.01670812 0.014795478 -0.0066531524
0002e0 8e 98 4e 3c 4d 0d 96 bb 0b 69 79 bc 15 d3 07 bb
       0.012609614 -0.0045792223 -0.015222798 -0.002072518
0002f0 f3 da b8 3b db e1 f6 3b c6 f1 02 3d ff 32 48 3c
       0.005641335 0.0075342483 0.031968854 0.01221919
000300 f1 4e 72 bc d4 8e 3e 3c 86 8b d7 3c 5c 28 1f 3c
       -0.014789329 0.011630733 0.026311647 0.009714212
000310 32 59 46 bb 2a 61 6b 3c 2d d5 2b bd 0e e5 4e bc
       -0.0030265567 0.014366427 -0.041951347 -0.012627853
000320 2e cc e7 3c eb 9f 72 3c cd 66 ad 3a 08 ec f2 3a
       0.028295603 0.014808635 0.001322949 0.0018533478
000330 ff ef 08 bc bb bf 55 3c a4 20 c6 3c b1 12 5b bc
       -0.008358001 0.0130462 0.024185486 -0.013371156
000340 78 49 94 bc f6 79 84 bc e4 f2 0c bc 1a 5d 29 3c
       -0.018101439 -0.016171437 -0.0086028315 0.010337139
000350 2c be 68 3c da d0 d5 bb e2 30 6c 3d e9 46 97 bc
       0.014205497 -0.006525141 0.057663806 -0.01846643
000360 d3 a6 14 3b 5c 06 2f 3b 93 68 15 bc 21 60 a0 bc
       0.0022682443 0.0026706671 -0.009119171 -0.019577088
000370 1e 1f 0c ba 4d 2d ae bb e3 e4 1c 3d f0 22 a1 3c
       -0.0005345213 -0.005315459 0.03830422 0.01966998
000380 aa e6 01 3c 29 ab 42 3c 7b 55 21 3c 9c 22 34 bb
       0.00792853 0.011881628 0.00984704 -0.002748645
000390 3b 56 01 3c bd 9c 74 3c 70 bf 85 bb 9a fd 4f 3d
       0.007894094 0.014929947 -0.004081659 0.050778963
0003a0 35 4d 22 bc 4a c1 39 bc 56 97 72 bc b0 32 14 3c
       -0.009906103 -0.011337588 -0.014806589 0.009045288
0003b0 ee 58 e0 bb 1a 52 76 bc c2 55 41 bc 4e 59 0b 3c
       -0.0068465387 -0.015034223 -0.011800231 0.008505179
0003c0 cd 63 8b bc 5d 80 b0 bc 75 c7 83 bb 80 03 09 bc
       -0.017015362 -0.021545583 -0.00402158 -0.008362651
0003d0 93 07 15 3c f5 50 f3 ba 23 5a 1e bc 78 a6 a9 bb
       0.009096044 -0.0018563556 -0.009665045 -0.0051773153
0003e0 ec 8e c0 3b 48 b9 4b 3c 13 be 1c bd 96 3b cc 3c
       0.0058764126 0.012434311 -0.038267206 0.024930757
0003f0 c2 a9 5d 3c 52 0c c3 ba b9 49 1e 3b fe 3f 74 3c
       0.013529243 -0.0014880991 0.002415283 0.014907835

exp_avg_sq f4 [2, 768]
000000 4b 40 e6 3a 23 85 2d 3a 86 4b 8a 3a 0b 51 22 3c
       0.0017566768 0.0006619265 0.0010551072 0.009907017
000010 8e 0d 40 3c 23 da 0a 3a bd 1e fe 3c e7 e3 8b 3b
       0.011721982 0.0005296787 0.031020517 0.0042691114
000020 c1 4f 97 40 3c 9a e9 3c 0a 51 44 3a e8 2b 01 3c
       4.7284856 0.028515927 0.00074888824 0.007884003
000030 20 c6 57 3b da f5 aa 3c 80 ce c4 3b b7 84 f6 3a
       0.0032924488 0.020869184 0.006006062 0.0018807863
000040 d1 8f 13 3a 25 ed 38 3b 4b 9f 04 3b f7 07 9b 3b
       0.00056290353 0.002821752 0.0020236548 0.004731174
000050 84 40 87 3b a0 6d 8c 3b a2 62 47 3b 5a bf cd 3b
       0.004127564 0.0042855293 0.003042378 0.0062789144
000060 7b 9f c9 3c 60 79 03 3b c3 a2 2f 3a e2 e2 3c 3c
       0.024612179 0.0020061359 0.00066999736 0.011528702
000070 cc e6 1b 3a ea c2 5d 3a 6f 17 c5 3c 5f 28 92 3b
       0.0005947172 0.00084595254 0.024059026 0.004460379
000080 0b 58 73 3b 58 a8 a2 3c b4 df 5b 3b 75 06 02 3c
       0.0037131335 0.019855663 0.0033550085 0.00793611
000090 ca 05 79 3c 58 03 f5 39 56 09 db 3e 37 87 32 3a
       0.015199134 0.00046732533 0.4278056 0.000681031
0000a0 cb 0c 26 3b 9a c0 21 3b 6a da 38 3a 28 37 26 3e
       0.0025337215 0.002468145 0.0007051589 0.16231978
0000b0 7d fd aa 3c 73 e4 83 3a 76 65 3c 3c 6e ee 8a 3b
       0.020872826 0.001006259 0.0114988 0.004239849
0000c0 c4 06 10 3a 1e c2 c4 3b 90 1e 63 3b 00 c3 a1 3b
       0.0005494172 0.006004586 0.0034655668 0.004936576
0000d0 87 07 54 3b 8b 3f 1a 3a 15 2f f2 3b ac df 0a 3b
       0.003235312 0.00058841024 0.0073908665 0.0021190448
0000e0 90 44 d8 3a ff d4 ca 3b 03 0c df 3b a4 5d 44 3b
       0.0016499925 0.006189942 0.006806852 0.002996304
0000f0 52 35 f9 3b 8b 27 0f 3c 45 74 5b 3a 6d 25 20 3d
       0.007605233 0.008737455 0.00083715125 0.039098192
000100 c2 5b 48 3a a6 6c b1 3c 2c 0f 83 3b ea 66 7e 3a
       0.00076430675 0.021658253 0.0039996114 0.00097046664
000110 9f c8 65 3c 03 fb 5e 3c fe b9 fb 3a d3 f3 7f 3b
       0.014024883 0.013609651 0.001920521 0.0039055243
000120 99 87 52 3a 3a cd 19 3b e9 72 ce 3a c0 89 90 3b
       0.000803107 0.0023468272 0.0015750799 0.0044109523
000130 d8 70 53 3c d4 d2 36 3a 8e ba ec 3b b9 75 d0 3b
       0.012905322 0.0006974165 0.0072243875 0.00636169
000140 9a 20 27 3a 8d 2b 05 3b 96 28 6b 3a 1e c7 2b 3a
       0.00063754024 0.0020320148 0.00089705864 0.0006552803
000150 9b c0 7b 3b fb 9b ea 3a fb 80 21 3d 46 7b b4 3a
       0.0038414362 0.0017899269 0.039429646 0.0013769649
000160 e1 82 19 3c 70 02 79 3a 01 e7 80 3b ac ef d6 39
       0.009369583 0.00094989594 0.003933788 0.0004099583
000170 8f b5 47 3c 6e d0 b7 3c c7 a7 83 3b 2b c0 bf 3a
       0.012189283 0.022438254 0.0040178034 0.0014629414
000180 c1 49 ce 3a 01 ed 28 3b 54 c2 46 3b a3 24 01 3d
       0.0015738533 0.002577603 0.003032823 0.03152908
000190 69 09 06 3b e6 f8 54 3b e3 07 19 3c 35 61 8c 3b
       0.0020452386 0.0032496988 0.009340259 0.004284049
0001a0 04 bc 86 3d 94 2c 6f 3a b2 5b 23 3a f3 13 b9 3a
       0.0657883 0.0009123769 0.000623162 0.0014120325
0001b0 98 1b 18 3c 55 ab cc 3a 97 52 79 3b e1 c1 62 3b
       0.009283923 0.0015615026 0.0038043612 0.0034600424
0001c0 05 5f 00 3b 26 ce 70 3b 5f 35 e9 3a a7 87 e9 39
       0.0019587886 0.0036743968 0.0017792395 0.00044542292
0001d0 e8 5a 3c 3a c0 c2 76 3b 33 51 51 3c 3f 30 fb 3b
       0.0007185177 0.00376527 0.012775707 0.0076656635
0001e0 f0 83 9b 3b 97 aa 4c 3a c3 52 4a 3a 7c 52 64 3c
       0.004745953 0.0007807402 0.0007718021 0.013935681
0001f0 68 a1 4b 3b 43 a7 0e 3d 10 b3 21 3b 7b f4 79 3a
       0.0031071547 0.034827482 0.002467338 0.00095350266
000200 3d d3 9f 3b 15 45 e2 3a 5e 04 2a 3b a8 9c f8 3b
       0.0048774765 0.001726302 0.0025942544 0.0075870343
000210 f4 4a 18 3a 59 e7 0f 3c 0a 96 17 3c cc 10 b8 3b
       0.0005809509 0.008783185 0.009252081 0.0056172367
000220 94 f0 77 3b 07 dd c2 3a 22 ac 9a 3b b6 07 7a 3a
       0.0037832605 0.0014866897 0.004720227 0.0009537892
000230 4b 7b 21 3c 3d 2e 85 3b e5 54 09 3c f4 7c b8 3b
       0.0098560555 0.00406435 0.008382057 0.00563013
000240 48 53 45 3b 0c 7f 56 3b 9a 11 59 3a 91 c3 b7 3c
       0.0030109454 0.0032729534 0.0008280516 0.02243212
000250 74 a7 a6 3a 38 2a 8b 3b b6 6e 08 3b b6 78 4e 3a
       0.00127147 0.004246976 0.0020817942 0.00078762637
000260 54 d3 55 3b b6 bb 2a 3c 66 5d 39 3c 37 82 a5 3c
       0.0032627182 0.01042073 0.011313772 0.020203693
000270 10 94 22 3a 87 cd 83 3c 27 03 52 3b d7 96 72 3b
       0.00062018726 0.016089214 0.0032045336 0.0037016177
000280 fa a0 f0 3b a1 64 0f 3c e9 d1 c6 3a fe 3d 19 3a
       0.0073434087 0.008752019 0.0015168759 0.00058457244
000290 d0 9a 6f 3a 6b e2 5f 3a de e9 2f 3b 26 3a 85 3c
       0.00091401953 0.0008540514 0.0026842277 0.016263079
0002a0 59 71 25 3b dd 60 96 3a be ab d3 3c c3 8f 80 3a
       0.0025244562 0.0011472959 0.025838729 0.0009808469
0002b0 20 49 57 3a 04 10 d5 3a d3 f4 02 3c 2b 3a d8 3c
       0.00082124956 0.0016255383 0.007992941 0.026394924
0002c0 c2 f7 55 3c f1 83 14 3c bc 6e 98 3a 73 98 8f 3b
       0.013059558 0.00906466 0.0011629681 0.004382187
0002d0 9b 44 6a 3c ea ff 2d 3c f4 eb 97 3b b8 35 1d 3a
       0.014298583 0.010620097 0.004636282 0.00059970794
0002e0 97 9d 21 3c 8a 85 68 3a 51 a6 91 3b 2b 9b 22 3a
       0.0098642325 0.00088699965 0.0044448753 0.00062029314
0002f0 ad f2 cf 3a 4e 6e 45 3c 68 76 5b 3c 68 d0 15 3b
       0.001586517 0.0120502245 0.0133949295 0.0022859816
000300 56 e7 71 3b 82 bb 5b 3a 63 6a 14 3c d7 b5 3d 3a
       0.0036911569 0.0008382128 0.009058568 0.0007236874
000310 69 77 80 3b 98 0d 6a 3a 6f e8 83 3b 19 d9 91 3a
       0.003920485 0.0008928417 0.004025511 0.0011127322
000320 3a 7b 26 3b c8 84 a5 3a b9 b9 c0 3b 7a 94 6e 3a
       0.0025403039 0.0012628073 0.005881515 0.0009101104
000330 c0 eb 3a 3b 91 41 e4 3a 18 e9 05 3b 0c 5c 35 3a
       0.0028521866 0.001741456 0.0020433124 0.0006918318
000340 c5 37 a7 3a 5a 74 ee 3a 10 1f e2 3a 2e a3 33 3b
       0.001275771 0.0018192634 0.0017251689 0.0027410495
000350 ae 8d 99 3a 6e ab 2f 3b ed 41 e2 3d 0e 9b a3 3b
       0.0011715197 0.002680506 0.110477306 0.004992849
000360 3b 97 10 3b e3 14 d4 3b b5 d9 81 3b ef 5c eb 3c
       0.0022062797 0.0064722165 0.0039627203 0.028730838
000370 22 8d 82 3b ac 80 06 3b 4f ea 8f 3d 6f 24 bf 3b
       0.0039841095 0.0020523472 0.07027113 0.0058332006
000380 d1 06 9e 3b f0 50 91 3a 99 cf 6f 3b 73 c5 2e 3c
       0.00482259 0.0011086743 0.0036592244 0.010667193
000390 47 13 6d 3b 2e 88 38 3a ef c4 4b 3b a0 c8 5e 3d
       0.003617482 0.00070393353 0.0031092723 0.05439055
0003a0 fe e0 9c 3b 3f c7 2c 3a 5d af 25 3c 90 70 24 3a
       0.0047875633 0.0006590969 0.010112611 0.00062728766
0003b0 eb af 21 3c a5 87 cb 3b 1a 1f 7f 3c 4c 5a c4 3b
       0.009868602 0.0062112384 0.01557138 0.0059922095
0003c0 56 11 50 3b a6 3a bc 3a df c9 91 3a 15 83 18 3b
       0.0031748614 0.001436074 0.0011122784 0.002327149
0003d0 ac 3a 2b 3a 5e c3 8a 3a ab ed 90 3a 56 31 cd 3a
       0.0006531875 0.0010586788 0.0011057159 0.0015654962
0003e0 84 50 da 3b c0 ec a8 3a 09 50 8a 3c cf 0e 11 3c
       0.0066624302 0.001288794 0.016883867 0.008853628
0003f0 35 08 ab 3b 2d 72 36 3a 52 18 d2 39 66 09 29 3c
       0.005219484 0.00069597625 0.0004007244 0.010317182

exp_avg f4 [2]
000000 92 27 b7 bc 91 27 b7 3c
       -0.022357736 0.022357734

exp_avg_sq f4 [2]
000000 37 78 39 3c 37 78 39 3c
       0.011320165 0.011320165
