TASK2/gender_classification_model/checkpoint_step_6600.pth (torch, 22979 bytes, 6 tensors)

weight f4 [2, 768]
000000 8b ad e4 3c 5c 91 f9 3b ad 1c 21 3c 53 d9 3c 3c
       0.027914783 0.007616205 0.009833497 0.0115264235
000010 82 ca dd bc b2 b4 b7 bb ff 89 d6 bb d7 08 51 bc
       -0.027074102 -0.0056062574 -0.006547212 -0.012758455
000020 37 c1 fb bc 72 6f 40 bc c0 db 2d bd 8d 11 b0 ba
       -0.03073178 -0.011745321 -0.042445898 -0.0013432965
000030 1f 74 38 bd 03 3e a3 3c 80 2f cc 3c 5d 13 29 bc
       -0.045032617 0.01992703 0.024924994 -0.010319558
000040 12 13 09 3c 29 79 ba bc 1a 8f a4 bb 73 e9 bb bc
       0.008366363 -0.022762852 -0.005021942 -0.022938466
000050 20 12 3c bb 8f 0e a9 3c 3a 8a 2e 3d b5 b2 87 3c
       -0.0028697327 0.020636825 0.042612292 0.016564706
000060 bf 3d 0c 3d a6 60 33 bc 2a 69 cf 3b ef 72 12 3b
       0.034238573 -0.010948336 0.006329675 0.0022346338
000070 3e eb 29 3d 14 09 a2 3b 60 b6 0a 3d 76 21 0e 3d
       0.04148411 0.00494493 0.033865333 0.03469988
000080 2c 95 d5 3c d1 12 9d 3b 69 32 e0 bb d4 4f 0f 3d
       0.026072107 0.004793503 -0.006841947 0.03498824
000090 28 bc 36 3c 1c fd 83 bd 9d 8a a7 3c fb 48 96 bd
       0.011153258 -0.06444761 0.020451838 -0.07338139
0000a0 e1 6c 95 3c 42 6c 4c ba 00 63 20 bd c6 cd 6a 3c
       0.018240394 -0.0007798114 -0.039156914 0.014331287
0000b0 cd c6 b1 bc 80 a4 9f bb 83 89 f8 3c 09 25 2c 3d
       -0.02170124 -0.004871905 0.030339008 0.042027507
0000c0 9a c8 04 3d 2a 13 a6 bc 90 c8 a4 3c 4a 7b 90 3c
       0.03241787 -0.02027281 0.020115167 0.017636914
0000d0 24 97 88 bb 7e af ed bc 75 80 f4 bb bc b9 8f bc
       -0.004168408 -0.029014345 -0.0074616023 -0.01754462
0000e0 8b d2 4c 3a 3b d2 10 bb e3 05 44 bb 3d 65 53 3c
       0.0007813356 -0.0022097963 -0.0029910735 0.012902555
0000f0 e3 af 2a 3c 76 ba 09 3c 64 4e fc bc 14 f1 5e bc
       0.010417911 0.008406272 -0.030799098 -0.013607282
000100 13 f1 47 3c 70 5d 94 bc 0b 6a 2f 3d c8 80 45 3d
       0.012203473 -0.01811096 0.04282574 0.04821852
000110 b2 40 08 bd f8 e7 ff 3c b5 0d e5 3b 83 06 a5 bb
       -0.033264823 0.031238541 0.0069901594 -0.0050361766
000120 3f 11 3b 3b 4c 47 5e bb 7b 99 e0 bc 2e da fb bc
       0.0028544215 -0.0033917008 -0.027416935 -0.030743685
000130 f7 e9 b5 bb c2 7a a4 3b 55 3c 94 bb 7a 49 0e bc
       -0.0055515724 0.0050195167 -0.0045237937 -0.00868451
000140 dd a6 57 3c 66 b9 6d bc 37 86 5a bd 66 4c f8 3b
       0.013162342 -0.014509534 -0.053350653 0.007577467
000150 06 14 fb 3b 43 a9 9c 3c 7b 40 84 bc ad c1 2f bd
       0.007662299 0.019123679 -0.016144028 -0.042909313
000160 66 90 0b 3d fe 63 06 3c d8 7d 09 3d 2f 83 bb bc
       0.034073256 0.008202551 0.03356728 -0.022889702
000170 0d de 09 3d 8e d1 8d 3c e0 b4 90 3b 13 ce df bc
       0.03365903 0.017311838 0.004416093 -0.027319944
000180 1a af 95 bb 8b a9 42 3d a3 97 64 bc ee 99 ed 3c
       -0.004567993 0.04752497 -0.013952169 0.029004063
000190 cb 35 de bb 0e 84 eb 3b 1f 82 33 3d 1f 6a a6 bc
       -0.006781315 0.007187373 0.043825265 -0.020314274
0001a0 30 34 33 3c f8 8d b1 b9 8e 19 79 3d 3b 16 46 bd
       0.010937735 -0.00033865846 0.060815386 -0.048361044
0001b0 ae 15 1b ba 3a 28 4c 3d 62 c2 29 bd 3b 28 8d bc
       -0.0005916011 0.04984305 -0.041445144 -0.017231097
0001c0 3f 6a 1e 3c 70 d0 05 bb c8 92 a6 ba 82 4b de 3c
       0.009668886 -0.0020418428 -0.0012708539 0.027135614
0001d0 01 a9 95 3d b5 be 9f bb d6 ef 96 bc 7f 12 d9 3c
       0.073076256 -0.004875029 -0.01842491 0.026498077
0001e0 5a f7 6a 3d 1d ac 5b 3d 85 7b 61 bb b8 91 24 bc
       0.0573648 0.053630937 -0.0034405899 -0.010044508
0001f0 f6 33 8b ba 6d 36 19 3c 48 f0 a8 bc b1 f9 db bc
       -0.0010620344 0.009351355 -0.020622388 -0.02685246
000200 e3 a5 28 3b ed 7f 71 bc 40 89 18 bd a8 d7 d9 3b
       0.0025733642 -0.014739973 -0.037240267 0.0066480227
000210 16 8a 41 3d c9 1f 36 3c 78 0d 0e 3d ef e1 88 3b
       0.04725083 0.011115977 0.034680814 0.004177324
000220 b7 67 b6 bc 71 ba 46 bc 75 f4 17 3d 98 e2 d7 3a
       -0.022266252 -0.012129412 0.037098367 0.0016470728
000230 ee 38 10 bd 2f 8c 5e bc f3 e0 03 3b 85 28 61 3c
       -0.035210542 -0.013583227 0.0020123094 0.013742571
000240 bb d6 cf bc ff 0c da 3b 6e 9e 70 ba 00 43 8b 3a
       -0.025370946 0.0066543813 -0.00091788813 0.0010624826
000250 3c b7 c6 bc c6 c2 ec bc df 70 bf 3c fd a8 21 bd
       -0.024257295 -0.028901469 0.02336925 -0.0394678
000260 e2 77 06 3d b4 0c 2a 3d 86 1f 97 3c 5a 88 44 bc
       0.032829173 0.04151602 0.018447649 -0.011995399
000270 57 5d 44 bc 0d 1d 12 bd 64 3d af bc 71 22 6f 3d
       -0.011985145 -0.035672236 -0.021391578 0.058382455
000280 bc 1c 1b bc 7a e3 6a bc 14 59 e1 bc 7d f4 b2 3c
       -0.0094673 -0.014336461 -0.027508296 0.021845097
000290 c5 1f 74 bd aa 28 91 3d d4 32 f0 bb f0 44 01 bd
       -0.05960061 0.07087834 -0.007330278 -0.031559885
0002a0 17 8a 48 bc a9 70 92 3c e2 72 cd 3c 2a 50 50 3c
       -0.012239954 0.017875986 0.025079194 0.012714425
0002b0 79 22 e2 bc e9 6f c1 3c b5 a1 6c bc ad 36 e0 bc
       -0.027604328 0.023612933 -0.014442851 -0.027369821
0002c0 1a d5 8d 3c 4a f7 fe 3c 14 47 e3 3a 95 e1 0e 3d
       0.017313529 0.031123776 0.0017339909 0.0348831
0002d0 de 7e b5 3c 73 a6 b1 bc 7c 9c 02 3c fa 4d 57 bb
       0.022155222 -0.021685814 0.007971879 -0.0032852874
0002e0 e6 96 87 bc 6f cd 87 3d 33 f8 c9 bc 59 4d 19 bd
       -0.016551446 0.0663098 -0.024654483 -0.03742728
0002f0 a5 07 da bb d6 fd 8d 3b 5f ad fe 3b 31 aa 04 ba
       -0.0066537433 0.004333238 0.0077721323 -0.0005060761
000300 05 61 a9 bc 5b 3a b8 3c 24 85 05 bd 8a 04 82 bd
       -0.020676145 0.022488764 -0.032597676 -0.06348522
000310 4f 2c 67 bd 9f 64 0f bd 07 95 30 3d 5d 6c 04 bd
       -0.05643874 -0.03500807 0.043110874 -0.032329906
000320 7b 05 40 bd 18 c2 02 bb df 57 2f 3d 36 33 04 bb
       -0.046880227 -0.0019952115 0.04280841 -0.0020172126
000330 b9 8d e9 3c fe 4a 08 3d bb 61 e5 bb 8c 85 a3 bc
       0.028509961 0.033274643 -0.007000176 -0.019961141
000340 d1 4c 4d 3d b7 40 9e b9 24 cf 12 3c b2 08 20 3c
       0.050122086 -0.00030184325 0.008960519 0.009767698
000350 81 31 8b bc 38 6f 0d bd 88 4b 9c bc 03 ae d2 3c
       -0.016991379 -0.034529895 -0.019078985 0.02571774
000360 9c 03 a6 bc 36 83 1a bd 55 e5 ba bc 3d b9 ee 3c
       -0.020265393 -0.03772279 -0.022814432 0.029141063
000370 5a 0c 0e bd 62 97 50 3c 9f d9 09 3d b4 e9 c0 bc
       -0.034679748 0.012731405 0.033654805 -0.023548938
000380 d6 83 10 3b 91 c6 1f bc 09 d8 24 bd 20 ae 86 3c
       0.0022051237 -0.009751932 -0.04024509 0.016440451
000390 81 2b ef bb fd 6c 91 3a f7 df b4 bc 49 d7 11 bc
       -0.0072988872 0.0011095103 -0.022079451 -0.008901426
0003a0 97 4e a2 3c fc 26 0f 3d bf 16 19 3c 33 cd 6e 3d
       0.019812865 0.034949288 0.009343802 0.058301162
0003b0 11 13 53 bb f0 8a 0c bd 1c 88 db bc 94 3a 7d 3c
       -0.003220741 -0.03431219 -0.0267983 0.015455861
0003c0 91 ac b5 bc 14 d1 78 bc ff 67 0a 3d 0d cc 17 3d
       -0.022177013 -0.015186567 0.033790585 0.037059832
0003d0 39 5b d8 3c 33 eb 06 3d 57 c9 df bb c3 19 16 3c
       0.026410686 0.032939147 -0.0068294215 0.0091614155
0003e0 55 a0 17 bc fd 0e 5d 3c e9 03 61 3a ed 52 1d 3c
       -0.009254535 0.013492343 0.00085836515 0.009602291
0003f0 93 7f 0f 3d 3f fa 7b bc 14 79 95 3c 62 a6 00 3d
       0.035033774 -0.015379488 0.018246211 0.031408675

bias f4 [2]
000000 75 b7 c6 3c 61 ff 9c bb
       0.024257401 -0.0047911857

exp_avg f4 [2, 768]
000000 10 0e 64 3c 4d b9 f8 38 cc 86 ea 3b 60 cc 8f 3c
       0.013919368 0.000118600765 0.0071571823 0.017553508
000010 9d 19 ea 3c 42 2a 1a 3c 5e 3c 67 bd 47 b5 57 bc
       0.028576666 0.009409489 -0.056454055 -0.0131657785
000020 ba 38 25 3f 3d 7e 82 3d 32 1d b4 bb 61 b7 ce bc
       0.6453968 0.06371734 -0.0054966444 -0.025233926
000030 aa a8 a3 bb 40 8a 59 bd c3 e7 b8 bc c2 0c ac bc
       -0.0049944716 -0.05311036 -0.02257145 -0.021002177
000040 12 7e 27 3c 1a cd 20 bc 73 79 d1 ba 8f 01 04 3d
       0.010222929 -0.009814525 -0.0015981629 0.03222805
000050 3e f7 6d 3c 1d e2 68 3c 0b 7f c2 bc 9f 16 b2 bc
       0.014524279 0.014214066 -0.02374222 -0.021739302
000060 94 50 3f bd 73 f2 3f bc b5 7d 84 b8 42 70 02 bd
       -0.046707705 -0.011715519 -6.317665e-05 -0.03184534
000070 10 17 60 bc 37 7f ac bb 0c 81 52 3d 1b 75 d3 3c
       -0.0136773735 -0.0052641886 0.0513926 0.025812676
000080 9c c2 d0 bc 60 69 40 bd 5e a4 c2 3a ed db 97 bc
       -0.025483422 -0.046975493 0.0014850011 -0.018537486
000090 c1 65 14 bd fa fa 47 3c 31 2f 57 be 9f 46 82 bc
       -0.036229853 0.012205834 -0.21014096 -0.015902815
0000a0 67 2f 3f bc bf 6a b1 3c 54 9b af bb 37 49 c6 3d
       -0.011669016 0.021657346 -0.0053590927 0.096819334
0000b0 4a 68 13 3d 83 e5 88 3c d9 06 25 bd f7 7f e6 bc
       0.03598813 0.016711002 -0.040289734 -0.02813719
0000c0 24 3b 62 bb d1 d8 b3 3c 97 e0 99 3c 53 86 82 3c
       -0.0034520114 0.021953972 0.01878385 0.015933191
0000d0 89 03 8a 3c 77 27 6f bc a8 f1 a4 3c fe 03 45 3c
       0.016847389 -0.0145968115 0.020134762 0.012024878
0000e0 bc 12 b9 3c 76 b6 ea bc b3 15 6e bc f2 11 a2 3a
       0.022591941 -0.028651457 -0.014531541 0.0012364967
0000f0 34 6e ee 3c 1c 70 c3 bc d2 a1 0d bc 47 3c 31 bd
       0.029105283 -0.023857169 -0.008644538 -0.043270376
000100 d8 98 f1 3a 1f 9e 3b 3d aa 01 87 bc 94 3c f1 3b
       0.0018432392 0.045805093 -0.016480286 0.007361958
000110 60 83 83 3c c7 bc 1d 3d 3e c3 96 bb 68 9b ba bc
       0.016053855 0.03851011 -0.0046009114 -0.022779182
000120 ea 63 1d 3c 6d 37 9a 3c ad 34 16 bc 46 55 ab bb
       0.009606341 0.018825257 -0.009167832 -0.0052286712
000130 38 5e 4a 3d 2b b9 86 bc 55 9e 0a 3d cf 30 a2 bc
       0.04940626 -0.016445717 0.033842403 -0.019798664
000140 35 2d 5b 3c 9c 21 26 bc f9 3d a6 ba 81 5f 06 3c
       0.013377477 -0.010139849 -0.0012683264 0.008201481
000150 4d f9 a4 3c 66 ef 16 bc 47 77 74 3d 81 cc f1 3b
       0.020138407 -0.0092123505 0.059684064 0.007379115
000160 89 1a c7 bc d0 e5 95 b9 26 cf 88 bc fa bc 96 3c
       -0.024304645 -0.00028590718 -0.016700339 0.018400658
000170 9e 7d 0e bd 41 20 54 3d 5f 20 a3 3c e6 d2 31 bc
       -0.034787767 0.051788572 0.019912897 -0.010853505
000180 e4 f3 a6 bb e4 e4 8a 3c 88 3d e3 bc 0d 0e 6d bd
       -0.005094992 0.016954847 -0.027739301 -0.057874728
000190 02 3f 7f 3c e2 a8 6e bb d5 f4 07 bd 88 d4 81 3c
       0.015578987 -0.003641658 -0.033192474 0.015848413
0001a0 8c 27 aa 3d 95 e7 a5 3a 86 45 25 3b 57 f9 10 ba
       0.08308324 0.0012657518 0.002521844 -0.00055303186
0001b0 7c 85 1a bd 0d a6 af 3b 7f 66 09 bd f6 1d bb bc
       -0.037724957 0.005360371 -0.033545014 -0.022841435
0001c0 63 49 a7 bc 5c c2 12 bc 6d dd 93 ba b6 a7 1f 3c
       -0.020420736 -0.008957472 -0.00112812 0.009744575
0001d0 69 0e 05 bc 7e 79 ec 3c 41 7f da 3c 27 36 96 3c
       -0.008121111 0.028866526 0.026672008 0.018336369
0001e0 37 10 ca 3c 2e c3 7c 3b 02 fa bf 3a b0 26 38 bd
       0.024665935 0.0038568485 0.0014646652 -0.04495877
0001f0 0b af cd 3c 8f 42 96 3d b4 e6 7a bc cd 1f 21 3c
       0.025107881 0.07336914 -0.015313793 0.009834242
000200 15 8b b1 3c 15 bc d9 3c 9d 4f b1 ba f6 82 82 bc
       0.021672765 0.026578942 -0.0013527755 -0.015931588
000210 cf 87 a5 3c 42 10 19 bd 9d 0e bd 3c 11 c4 01 3d
       0.02020636 -0.03736902 0.023078257 0.031681124
000220 27 33 6b 3c 99 3d ea bb b3 74 d6 bc a8 f8 47 3c
       0.014355457 -0.0071484563 -0.026178693 0.01220528
000230 d8 7e b3 3c fe cd 81 3c f6 6f ec 3c 13 cd ee 3c
       0.02191107 0.015845295 0.02886198 0.029150521
000240 25 57 19 3c 8d 79 33 bc b1 55 13 bc 13 e6 5e bd
       0.009359156 -0.010954273 -0.008992598 -0.054418635
000250 31 19 1d bc 2e 4c 83 bc 3d b0 34 bc f0 8b d2 bb
       -0.009588526 -0.016027536 -0.011028347 -0.0064253733
000260 7d ff 8d bc e5 91 ec 3c 60 27 1b bd 22 f6 2d bd
       -0.01733374 0.028878162 -0.037879348 -0.04247106
000270 e4 f0 0d bb eb a9 02 bd 5f ff 82 bc 01 a0 ee 3c
       -0.0021658475 -0.031900328 -0.015990911 0.02912903
000280 94 b9 50 3c 20 39 db 3c e8 c2 1b 39 50 d3 c5 ba
       0.012739558 0.026760638 0.0001485456 -0.0015092883
000290 89 c0 f2 bb 23 1b a7 bb 06 4c 0c 3c 44 51 10 bd
       -0.007408206 -0.0050996705 0.008563047 -0.03523375
0002a0 26 ce 8a 3c 30 00 a9 bc 76 55 54 3d 49 87 18 bc
       0.016944002 -0.020629972 0.051839314 -0.009309598
0002b0 14 3e 04 3b 37 5c 2e 3c a8 18 4a bc 12 85 26 bd
       0.0020178603 0.010642103 -0.01233498 -0.04065425
0002c0 c9 c1 25 3d 3d de a2 3c cb d5 86 bc 75 b7 c3 3b
       0.04046801 0.019881362 -0.016459366 0.0059727975
0002d0 6e e4 1b bd a2 31 80 3c 14 5c 08 3c 02 e4 94 3a
       -0.038059644 0.015648667 0.008322734 0.0011359456
0002e0 31 18 30 3d 94 4e 3d 3c 75 18 53 bc 35 ec ae bc
       0.04299182 0.011554379 -0.012884249 -0.021352867
0002f0 66 78 12 bc be 9e 10 3d 77 67 fb 3c 75 cb 05 3c
       -0.008939838 0.03530764 0.030688984 0.008166184
000300 64 80 e6 bc b5 f8 06 bc f9 9b 16 3d 53 a1 e6 bb
       -0.028137393 -0.008238007 0.03676984 -0.0070382743
000310 e6 12 15 3d b5 38 15 bc 00 68 88 bc 0f 8b 94 3b
       0.036394976 -0.009107758 -0.016651154 0.0045331786
000320 42 1e 38 3c 4b f2 77 3c 51 16 cc 3c af 9a 2e 3c
       0.011237683 0.015133451 0.024912985 0.010656997
000330 8a 2e 75 3c 24 c9 69 3c e7 d1 c1 bb 96 3f 5e bc
       0.014964709 0.014269147 -0.005914915 -0.013564965
000340 33 b7 ca 3a 0d 43 34 bb c0 d4 fe 3b d8 ab 60 3c
       0.0015465975 -0.0027505786 0.0077768266 0.013712846
000350 82 e8 56 3c 4f 27 b3 bc 9d 01 b3 3d 36 15 02 bd
       0.013116958 -0.02186933 0.08740542 -0.03175851
000360 47 4c 00 bc c7 e4 d7 3c 37 49 ee 3c ac c0 56 bd
       -0.007830686 0.026354207 0.029087646 -0.05242984
000370 e2 cb 3a 3d 8a 71 f1 3c 84 9a 9f 3d 28 b0 a1 3c
       0.045604594 0.029473085 0.077931434 0.019737318
000380 34 11 04 3c 29 68 1f 3c f1 97 07 3d 1e 86 0d bd
       0.008060742 0.009729424 0.033103887 -0.034551732
000390 ee 26 8d 3c f2 65 86 bb e9 54 a1 bc 7e 41 b4 3d
       0.017230477 -0.0041015083 -0.019693809 0.08801554
0003a0 df 0d 88 bc e7 fc 77 bb ad 94 fb bc b6 6b 16 bc
       -0.016608177 -0.003783995 -0.030710543 -0.009180954
0003b0 bf 5b 07 bd 1f 70 a1 bc bb c5 07 bd 0b b5 ab 3c
       -0.03304648 -0.019706784 -0.033147555 0.020960351
0003c0 e3 0c ac bc 19 8b 38 bb 9e bc 38 bc b3 45 70 3b
       -0.021002239 -0.002815908 -0.011275439 0.0036662638
0003d0 56 6c 31 bc 30 d2 81 3c 76 42 d3 bb 00 bc c9 ba
       -0.010829052 0.015847296 -0.0064471317 -0.0015391111
0003e0 96 6e b8 3c 42 13 86 3c 62 4e 02 bd f8 23 f1 3c
       0.022513669 0.016366605 -0.031813033 0.029436097
0003f0 d9 2f ec 3c 9c 9f 3b 3c 69 d5 d5 bb 50 10 3a 3c
       0.02883141 0.011451628 -0.0065256846 0.011356428

exp_avg_sq f4 [2, 768]
000000 23 48 8d 3b 68 e4 f4 3a db bf 22 3b 86 40 cb 3c
       0.004311578 0.0018683793 0.0024833593 0.02481104
000010 e7 e6 f8 3c fe e0 bd 3a ce 02 a2 3d 14 79 31 3c
       0.03038354 0.0014486609 0.07910691 0.01083209
000020 a5 47 3f 41 19 01 92 3d 89 a3 fd 3a bf 5e a2 3c
       11.954991 0.071291156 0.0019351105 0.01982057
000030 b8 c9 08 3c 05 d8 57 3d a7 74 79 3c d6 ca 93 3b
       0.008348875 0.052696247 0.015225566 0.004510264
000040 70 8a be 3a 4e fb fa 3b 53 6a b2 3b 4f 4c 47 3c
       0.0014537107 0.0076593524 0.0054448037 0.0121641895
000050 5c 2b 23 3c 32 91 3e 3c 65 41 02 3c 27 4b 83 3c
       0.009959068 0.011631297 0.007950162 0.016027046
000060 af 2b 7b 3d bb b4 99 3b 1e 47 ef 3a 22 e7 ea 3c
       0.061320957 0.004690734 0.0018255448 0.028674666
000070 7a eb e4 3a 19 c1 12 3b f4 69 74 3d cd 05 2e 3c
       0.0017465197 0.0022392927 0.059671357 0.0106215
000080 2f 6c 1f 3c ce 1d 48 3d 54 76 0f 3c f2 9d aa 3c
       0.009730383 0.04885655 0.008756239 0.020827267
000090 fd 9f 1d 3d c5 dd b1 3a b1 36 8b 3f 46 83 df 3a
       0.038482655 0.0013570121 1.0876065 0.0017052672
0000a0 67 17 d7 3b d6 f9 ca 3b 34 01 e2 3a e0 79 d6 3e
       0.006564069 0.0061943335 0.001724279 0.41889858
0000b0 70 9c 57 3d 75 ba 31 3b b0 a8 eb 3c 1e 01 31 3c
       0.052639425 0.0027119194 0.02876696 0.010803489
0000c0 93 15 d3 3a 88 18 75 3c f5 d6 12 3c 97 c4 4e 3c
       0.0016104452 0.014959462 0.008962383 0.012620113
0000d0 74 4b 08 3c 09 f8 cd 3a 94 24 98 3c 46 52 b4 3b
       0.008318771 0.0015714179 0.01857213 0.005502972
0000e0 46 65 8c 3b 91 3c 7b 3c af 74 8f 3c 72 83 02 3c
       0.0042845337 0.015334264 0.017511694 0.007965909
0000f0 eb 0d 96 3c e9 cd bb 3c 17 95 17 3b 48 02 c7 3d
       0.018317183 0.022925334 0.0023129636 0.09717232
000100 17 cc ea 3a 8f 7f 64 3d 24 01 2a 3c 60 cf 14 3b
       0.0017913607 0.05578571 0.0103762485 0.0022706613
000110 37 84 10 3d d4 20 0c 3d 80 45 84 3b fc 63 21 3c
       0.03528234 0.034210995 0.0040366054 0.009850498
000120 cf 96 14 3b 39 ff ba 3b d6 24 87 3b 42 6d 31 3c
       0.0022672897 0.0057066944 0.004124264 0.010829272
000130 17 d9 07 3d 87 96 fa 3a 21 ed 9a 3c a0 3d 81 3c
       0.033166017 0.0019118347 0.0189119 0.015776455
000140 72 45 07 3b c1 f3 b7 3b d1 1d 1f 3b 0f ff b7 3a
       0.0020640758 0.0056137745 0.0024279247 0.0014037805
000150 2a 8f 1d 3c aa 83 a1 3b e5 90 ce 3d 15 53 6f 3b
       0.0096166525 0.0049290257 0.1008623 0.0036518027
000160 41 36 bf 3c bc 58 3c 3b ce f7 17 3c 4c ed 90 3a
       0.0233413 0.0028739413 0.00927539 0.0011057048
000170 b3 4d fc 3c e8 5b 6a 3d 20 96 32 3c e1 8e 7c 3b
       0.030798769 0.057216555 0.01090005 0.003853731
000180 7c 9f 78 3b c8 ff e3 3b 85 57 fd 3b 8f 2c a1 3d
       0.0037936857 0.0069579817 0.0077313804 0.07869827
000190 d9 2b aa 3b 33 ed 00 3c 71 ba ba 3c 1d a5 30 3c
       0.0051932153 0.007869053 0.02279398 0.010781554
0001a0 9e 93 2c 3e a1 8c 17 3b 2c 2a e3 3a 72 32 74 3b
       0.16853186 0.0023124593 0.0017331294 0.0037261513
0001b0 0b 86 cd 3c 44 f7 85 3b 7c 01 1f 3c 9a a9 0f 3c
       0.02508833 0.0040883143 0.009704944 0.0087684635
0001c0 2f e3 ad 3b 37 1d 19 3c 6b 74 a4 3b 2a 31 ae 3a
       0.0053066234 0.009345344 0.005018761 0.0013289799
0001d0 66 7f ee 3a 90 43 1b 3c 58 9b 02 3d a0 67 99 3c
       0.0018195927 0.009476557 0.03188643 0.01872617
0001e0 87 78 30 3c 48 ee fb 3a db 84 01 3b a0 b3 12 3d
       0.010770923 0.0019220794 0.0019763026 0.035815835
0001f0 f6 37 08 3c f0 9e af 3d a9 75 cb 3b 39 68 1c 3b
       0.008314123 0.08575237 0.0062090945 0.0023865832
000200 86 8f 45 3c f5 c0 98 3b 0c 24 dc 3b 58 ea 96 3c
       0.012058144 0.004661674 0.0067181643 0.01842229
000210 52 84 ca 3a 96 76 bc 3c 1f 09 c7 3c 5a 73 6e 3c
       0.0015450811 0.023005765 0.024296341 0.014553869
000220 c5 f4 25 3c be c1 68 3b b8 7d 46 3c 85 56 13 3b
       0.010129158 0.003551587 0.012114935 0.002248199
000230 7c c3 c0 3c 0e d6 2b 3c 16 61 a8 3c d8 3c 76 3c
       0.023530714 0.010488046 0.020554107 0.015029155
000240 d8 81 03 3c cc a3 08 3c 16 d3 0b 3b 48 6e 6a 3d
       0.008026563 0.0083398335 0.0021335534 0.05723408
000250 b2 52 46 3b be 53 2b 3c d4 0a ad 3b 3b c3 ff 3a
       0.0030261693 0.010456977 0.005280832 0.0019513139
000260 05 bf 07 3c 28 17 df 3c 73 b2 ea 3c 48 32 4f 3d
       0.008285289 0.027232721 0.028649544 0.05058506
000270 92 a2 d9 3a ce 7c 23 3d 49 5c 05 3c a4 86 16 3c
       0.0016604236 0.039913945 0.008139678 0.009187374
000280 68 2e 8d 3c 17 7e bf 3c c6 45 89 3b 6d 7e c1 3a
       0.017234042 0.023375554 0.004189226 0.0014762409
000290 f3 1f 2c 3b 4a 73 10 3b e6 09 d2 3b 00 68 23 3d
       0.002626416 0.0022041374 0.0064098714 0.039894104
0002a0 f5 f8 dc 3b 2d c6 47 3b 5d 80 85 3d 97 d9 24 3b
       0.006743545 0.0030483112 0.06518624 0.0025154108
0002b0 83 10 0c 3b 25 25 9e 3b 3f 55 b0 3c ed d8 85 3d
       0.0021372146 0.0048262053 0.021525024 0.06535516
0002c0 60 53 07 3d db ff c6 3c 66 a7 4a 3b c8 b4 3b 3c
       0.033038497 0.024291923 0.003092253 0.011456676
0002d0 da fa 0c 3d ae 3a d3 3c d1 8d 38 3c f8 c4 c6 3a
       0.03441892 0.025784817 0.01126428 0.0015164902
0002e0 a6 5b c7 3c e0 cc 08 3b 8b a4 43 3c fd 89 e6 3a
       0.024335694 0.0020874068 0.011941086 0.0017588731
0002f0 d6 50 88 3b 37 ee ff 3c 37 2d 0c 3d 27 9a b2 3b
       0.004160027 0.03124152 0.034222808 0.0054505053
000300 10 71 0d 3c 84 2b 15 3b d5 d1 c0 3c f0 42 01 3b
       0.008632913 0.0022761533 0.023537556 0.0019723736
000310 36 98 30 3c 0e d0 0a 3b b5 ef 28 3c 25 83 39 3b
       0.010778477 0.002118114 0.010311057 0.0028306928
000320 88 cc b8 3b 8f af 5f 3b e9 73 73 3c 5a a3 13 3b
       0.0056396164 0.003413174 0.014859178 0.0022527785
000330 d9 44 f8 3b 48 04 8b 3b 79 67 b4 3b d2 01 da 3a
       0.0075765667 0.0042424537 0.005505499 0.0016632623
000340 ba 03 4c 3b 34 67 8b 3b 6b 9a 85 3b a4 18 ee 3b
       0.003113015 0.004254246 0.004077246 0.007266121
000350 05 f6 47 3b 04 d8 d5 3b ed 83 8f 3e 36 9b 55 3c
       0.003051163 0.006525995 0.2803034 0.013037493
000360 d4 7b b9 3b 21 9b 8e 3c 53 e1 2a 3c 44 3b 92 3d
       0.0056605134 0.017407956 0.010429698 0.0714021
000370 17 e5 19 3c ca eb ac 3b 6f 5f 34 3e 44 bf 78 3c
       0.009392998 0.0052771317 0.1761453 0.01518232
000380 f9 55 42 3c 51 4a 2c 3b 40 ab 21 3c 28 5a e2 3c
       0.011861318 0.0026289413 0.009867489 0.02763088
000390 19 cd 0e 3c 32 f8 e1 3a 41 8b f1 3b 30 07 0b 3e
       0.008715891 0.0017240106 0.0073713367 0.1357696
0003a0 02 66 4b 3c 9a a8 dc 3a 63 c4 d5 3c 1c 9a d8 3a
       0.012414457 0.0016834915 0.026094621 0.001652542
0003b0 5b 45 d1 3c dd 56 7f 3c f3 dd 20 3d f0 57 69 3c
       0.025545767 0.015584675 0.039274167 0.014242157
0003c0 b9 b3 00 3c c2 e2 65 3b d6 87 42 3b 8d aa bf 3b
       0.007855349 0.0035077785 0.0029683015 0.0058491887
0003d0 77 76 f0 3a 50 96 21 3b 82 1e 45 3b 66 dc 84 3b
       0.0018345852 0.0024656244 0.0030077999 0.004054594
0003e0 59 68 8d 3c 71 ab 5a 3b a7 cb 31 3d 6a d0 bc 3c
       0.01726167 0.0033366347 0.04340711 0.023048598
0003f0 46 55 4f 3c f2 2c 03 3b 83 5f a8 3a 84 20 d3 3c
       0.012654608 0.0020015803 0.0012845848 0.02577234

exp_avg f4 [2]
000000 63 64 f9 bc 67 64 f9 3c
       -0.030443376 0.030443383

exp_avg_sq f4 [2]
000000 dd 11 ea 3c df 11 ea 3c
       0.028572971 0.028572975
