TASK2/gender_classification_model/checkpoint_step_12800.pth (torch, 22993 bytes, 6 tensors)

weight f4 [2, 768]
000000 d1 3b cf 3c 18 b2 9e 3b 24 65 09 3d af f4 76 3c
       0.025297077 0.004843008 0.03354372 0.015072986
000010 63 dd d8 bc 37 87 16 3c ca e2 0b bc 92 7c 04 bd
       -0.026472753 0.009187511 -0.008537957 -0.032345362
000020 db cf fc bc 25 09 85 bc fa ec 46 bd 4c 7b 06 bc
       -0.030860832 -0.016239712 -0.048565842 -0.008208107
000030 73 93 4c bd 11 b4 b7 3c de 30 d0 3c b2 fb 0a bc
       -0.049945306 0.02242473 0.025413927 -0.00848286
000040 40 8e ab 3b d2 a3 8b bc 62 17 dd 3b 60 2f ca bc
       0.0052354634 -0.017045889 0.006747172 -0.024680793
000050 f2 8a 4f bc fa 88 a4 3c 06 69 40 3d 61 c9 6b 3b
       -0.0126674045 0.020084847 0.04697516 0.0035978185
000060 d8 6b 16 3d 58 e5 55 bc d2 f3 e4 3c 33 c2 9d 3b
       0.03672394 -0.013055168 0.027948294 0.00481441
000070 9d 3b 92 3d 8c 19 f3 ba c0 31 f2 3c e1 43 05 3d
       0.071402766 -0.0018547042 0.029564738 0.032535437
000080 2a 86 6a 3c 64 5d cd 3a e8 7a 43 bc 8b d9 17 3d
       0.014314214 0.0015668091 -0.011931159 0.0370727
000090 83 8b 2d 3c 3e 98 8e bd 73 32 95 3c 20 e4 bf bd
       0.010592344 -0.06962632 0.018212533 -0.09369683
0000a0 4e 30 f6 3c 80 ac 84 39 7f 45 02 bd 23 fd 6a 3c
       0.03005233 0.00025305524 -0.031804558 0.014342579
0000b0 0b 98 ba bc 92 34 4b bb 75 40 0c 3d 49 73 55 3d
       -0.022777578 -0.0031006676 0.03424116 0.052111898
0000c0 a8 d9 53 3d 13 98 df bc 12 ef 3c 3c ee 9f b1 3c
       0.051721245 -0.027294194 0.011531608 0.021682706
0000d0 c1 75 48 bc 34 12 17 bd 95 8d 8e bb ef d2 d2 bc
       -0.012235106 -0.036882594 -0.004350374 -0.025735347
0000e0 e0 a1 d5 bb f2 db 04 bc 19 59 32 bb d6 02 bf 3c
       -0.006519541 -0.00810908 -0.002721375 0.023316782
0000f0 38 43 f3 3b 08 a7 c7 3b 25 6f 55 bd 45 da 83 bc
       0.0074237846 0.0060929097 -0.05210795 -0.01609529
000100 0f 0a 4a bc 1e d3 74 bc 7c bb 49 3d c3 a7 8c 3d
       -0.0123315 -0.014942912 0.049251065 0.068679355
000110 42 a1 1d bd 75 71 ff 3c 86 5a e7 b9 dc ef f1 3a
       -0.038483866 0.03118203 -0.000441272 0.0018458324
000120 db 22 18 bc b7 89 88 bc ce 34 9d bc ff 25 0f bd
       -0.009285654 -0.01666723 -0.019190218 -0.034948345
000130 bb 53 d7 bb 1b 47 97 3c f9 95 aa bb c3 7b 95 bc
       -0.0065712607 0.018466523 -0.0052058664 -0.01824749
000140 79 d1 d5 3c a8 7d e4 bc ed 2c 9a bd ed 99 a2 3b
       0.02610086 -0.027891949 -0.075281 0.004962197
000150 7d 76 58 3c 61 0d b1 3c 92 6b 96 bc 6b d2 51 bd
       0.013211844 0.021612825 -0.01836184 -0.05122606
000160 14 bf 2e 3d 51 a9 3b 3c fb 36 3e 3d 33 cf 71 bd
       0.042662695 0.011453942 0.046439152 -0.05903549
000170 01 48 22 3d c3 12 9c 3c c5 a9 88 3b 0a 14 23 bd
       0.03961945 0.019051915 0.0041706287 -0.039814033
000180 bd 5f 93 ba e3 ab 4e 3d d3 75 28 bc 8d c7 0c 3d
       -0.0011243742 0.050456893 -0.010281998 0.034369994
000190 2a dd 59 bc 10 e1 49 3c 31 11 4d 3d 4e b4 a5 bc
       -0.0132973585 0.0123217255 0.050065223 -0.020227578
0001a0 3f 9b 2c 3c 74 e0 db bb 05 ca 95 3d 06 40 4a bd
       0.01053506 -0.0067101065 0.07313923 -0.049377464
0001b0 b3 0e fd bb 26 b9 99 3d c3 14 26 bd fb 46 8a bc
       -0.0077226995 0.075060174 -0.040547144 -0.01687955
0001c0 cd ec 83 3c c5 cd cf bb 0e bc 13 3b 01 06 9c 3c
       0.016104126 -0.0063416683 0.002254251 0.019045832
0001d0 f6 a4 bc 3d 53 98 87 bc ec bf 26 bc 2f 2e 91 3c
       0.09211151 -0.016552126 -0.010177594 0.017722217
0001e0 de ee 9a 3d 47 94 88 3d 0a 7d 02 bc d7 5c 0c bb
       0.075650916 0.06668907 -0.007964382 -0.0021417642
0001f0 4f fb 52 3c 18 29 d8 3b 8e 54 09 bd 8c 0f f7 bc
       0.012877299 0.0065966956 -0.033527903 -0.03015878
000200 04 8a 09 3b 2a d9 c4 bc 10 ec 3e bd ba ab a8 3b
       0.0020986805 -0.024029333 -0.046611845 0.0051474245
000210 8b 38 66 3d b2 1b 51 3c 7f 9c 23 3d e3 01 4d 3c
       0.056206267 0.012762951 0.03994417 0.012512657
000220 8e 3d d3 bc bb ec d9 bb 07 62 26 3d 29 90 21 bc
       -0.025786187 -0.006650535 0.04062083 -0.009861031
000230 eb 71 2e bd c2 9e 88 bc 3b ef a2 bb 5a 40 3b 3c
       -0.04258911 -0.016677264 -0.004972366 0.011428917
000240 b6 71 f7 bc d0 4e 53 3b a2 cc dd ba 60 91 12 b8
       -0.030205589 0.003224302 -0.0016921947 -3.4944504e-05
000250 c2 0f 55 bc d8 11 c3 bc 74 3c ef 3c d0 6f 4b bd
       -0.013004245 -0.02381222 0.029203631 -0.04966718
000260 cc 7a 35 3d 39 d2 49 3d 52 7a dc 3c 9e 4b fe bb
       0.04430656 0.04927275 0.026913796 -0.007760479
000270 28 2b 9e bc a7 61 1c bd b8 0a a2 bc fa 74 82 3d
       -0.019307688 -0.038179066 -0.019780502 0.06369968
000280 ef eb e0 bb f5 c6 88 bc e6 49 c9 bc f2 ec c7 3c
       -0.006864063 -0.016696433 -0.02457137 0.024404977
000290 4a 8d 55 bd c1 f5 ba 3d 5c 20 a9 bc 98 97 f7 bc
       -0.052136697 0.09128905 -0.020645313 -0.030223653
0002a0 85 d1 dd bc ad 8f 3a 3c e9 8f cd 3c a5 92 74 3c
       -0.027077446 0.011386794 0.025093036 0.014927541
0002b0 a8 59 0f bd fc 77 e0 3c 8e 95 3b bc 8f 52 e2 bc
       -0.034997612 0.027400963 -0.011449231 -0.027627258
0002c0 07 87 c3 3c 55 1c 14 3d 66 e3 30 3c d7 50 25 3d
       0.023868097 0.036159832 0.0107964035 0.040360298
0002d0 c9 cf f9 3c b9 26 a5 bc 5c db 92 3b cb ba f5 bb
       0.030494587 -0.020160066 0.004481716 -0.007499074
0002e0 b9 64 c4 bc 36 8d ab 3d 6f 2e e4 bc c4 5d 37 bd
       -0.02397381 0.08376543 -0.027854173 -0.044767156
0002f0 60 8a 33 bc 9d 3a a2 3b 98 17 2c 3c c9 5b 9c bb
       -0.010958284 0.004950835 0.010503672 -0.004771684
000300 a1 9a a8 bc 7a ca 21 3d c6 ae 26 bd f8 57 b4 bd
       -0.020581545 0.039499737 -0.04069402 -0.08805841
000310 84 7d 91 bd c3 e7 4a bd 41 61 4d 3d 24 9f 11 bd
       -0.07104018 -0.04953743 0.050141577 -0.03555216
000320 b9 ee 79 bd 2a b5 ba bb b8 2f 40 3d 13 c7 65 3c
       -0.06101868 -0.005697866 0.04692051 0.014024514
000330 4b 41 d8 3c 4f c0 32 3d c6 16 02 39 f1 b6 98 bc
       0.026398322 0.04364043 0.0001240625 -0.01864192
000340 a3 47 73 3d b0 6d f5 3b 60 97 51 3c ae 48 7e bb
       0.05939449 0.0074898824 0.012792438 -0.0038800645
000350 69 e4 9d bc 82 24 21 bd 19 b1 b8 bc 9c e6 0f 3d
       -0.019273954 -0.039341457 -0.022545384 0.035132036
000360 aa 11 b9 bc f8 cb 0a bd 21 e7 99 bc fa b3 d4 3c
       -0.02259143 -0.033885926 -0.018786969 0.025964726
000370 be 67 4a bd 2e 80 f4 3b cf d2 08 3d b8 f2 f2 bc
       -0.049415343 0.0074615693 0.033404168 -0.029656753
000380 fb 89 00 3c 30 a7 d5 bb 99 23 3f bd 7c 03 84 3c
       0.007845397 -0.0065201744 -0.046664808 0.016114943
000390 4a 88 24 bb 3e 61 73 bc a3 ef 76 bc 42 b0 26 bc
       -0.0025105649 -0.014854727 -0.015071782 -0.010173859
0003a0 dc 18 9b 3c b4 21 44 3d f2 0e d4 3b f8 de c1 3d
       0.018932752 0.047883704 0.006471508 0.09466356
0003b0 70 9b 31 bb 2d 32 33 bd 0e ce 11 bd ca 6f d0 3c
       -0.0027100705 -0.043749023 -0.0355969 0.02544393
0003c0 ea 4e ff bc f4 1f b2 bc a5 82 05 3d aa 18 2e 3d
       -0.031165559 -0.021743752 0.032595295 0.04250399
0003d0 dc 2b 33 3d 48 5b 0f 3d 95 a4 fa bb 9c 50 89 3b
       0.043743 0.034999162 -0.0076490142 0.0041905176
0003e0 85 3c 8a bb c6 d6 67 3c 95 9a 34 bc 75 54 2c 3c
       -0.0042186403 0.014150327 -0.011023183 0.010518183
0003f0 d1 b4 22 3d ad 96 c1 bc d3 1b 94 3b 7b 30 14 3d
       0.03972322 -0.023631418 0.0045199185 0.036179047

bias f4 [2]
000000 e7 5b c8 3c 90 80 a7 bb
       0.024457885 -0.0051117614

exp_avg f4 [2, 768]
000000 2d 3d af 3c c3 ae 62 3c f4 74 84 3c 29 58 27 3c
       0.021391476 0.013835612 0.016169049 0.01021389
000010 d7 10 d6 bb 0b 1d eb 3b eb 81 61 3a b2 6d 69 bc
       -0.006532769 0.007175093 0.0008602428 -0.014247345
000020 a2 14 64 be a5 04 19 3c 4c d5 10 bb 44 00 30 3c
       -0.22273496 0.009339486 -0.002209979 0.010742251
000030 ed bc 65 3c 2a fc a9 bb 1a 60 da 3b fb 55 4b 3c
       0.014022094 -0.005187531 0.006664288 0.012410636
000040 d4 af e8 bb 24 9e 8e 3b aa 4e 8d bb 93 c7 ff 39
       -0.0071010385 0.004352348 -0.004312356 0.00048786085
000050 c4 75 36 3b 6a 33 8f 3b 5b e5 1c 3d f4 c3 13 3c
       0.002784119 0.0043701427 0.038304668 0.009018887
000060 7f e6 69 3c 6c 1e 6e bc ce 72 bb bb bd 9b 45 3c
       0.014276146 -0.01453362 -0.005720473 0.012061057
000070 89 13 94 3c 7e 56 04 3b 51 c2 86 bc e9 1a f9 3b
       0.018075721 0.0020193155 -0.01645008 0.007602085
000080 13 eb 85 3c 3a cd cc 3c 7a b8 cd ba f3 0b ab b8
       0.016347444 0.025000203 -0.0015695237 -8.156141e-05
000090 1e b6 9f 3c 78 c2 07 3c cf 50 07 3e 75 e8 93 bb
       0.01949602 0.008286111 0.1321442 -0.004513795
0000a0 18 fd 37 bc 8b ca 01 3c 38 94 44 bc 5f 9c c3 bd
       -0.011229776 0.007921825 -0.011998229 -0.0955131
0000b0 0b 60 5d bb 45 a9 02 bc 12 e4 55 3c 29 6c dc 3c
       -0.003377917 -0.007974927 0.0130548645 0.026907044
0000c0 3b 34 9c 3b a1 d9 1f 3a ff 3c c6 bb fc 43 a3 bc
       0.0047669685 0.0006097798 -0.006049752 -0.019929878
0000d0 1a 48 e6 38 58 b0 85 bb a1 05 ce bc d2 09 39 3c
       0.000109806846 -0.0040798597 -0.025149168 0.011293845
0000e0 e6 7b ce 3a 2c 0e 81 bb ce 66 3b 3a 4e 70 a8 3a
       0.0015753477 -0.003938457 0.0007148803 0.0012850852
0000f0 3a d3 bc bc 03 87 05 bc e7 88 b5 3c 5b 30 d4 3b
       -0.02304994 -0.008149865 0.022160007 0.006475491
000100 c9 22 29 3c 28 ea a0 bc c2 40 0f 3c cd 98 11 3b
       0.010323235 -0.019642904 0.008743467 0.002221632
000110 39 34 c3 ba 0e ae ce bc 70 ab 6f bc 93 46 6b 39
       -0.0014892883 -0.02522948 -0.014628276 0.00022437637
000120 2b 96 49 3c 13 dd 86 bc 29 59 a0 bc d2 41 e3 3a
       0.012303869 -0.016462838 -0.019573765 0.0017338342
000130 ef e7 38 bc 69 a9 c4 3c 3a f9 83 bc d5 fe 3e bb
       -0.011285766 0.024006562 -0.016110051 -0.002914359
000140 3d 80 a5 bc d7 d8 be 3c d6 c7 d9 bb cf 64 af bb
       -0.02020275 0.023296757 -0.0066461368 -0.0053525935
000150 58 9a 18 3c fe 42 31 bc 27 7e 6c bc 18 0c 7d bb
       0.009314142 -0.010819195 -0.014434374 -0.0038611945
000160 b0 a5 30 bc 8d b5 3d 3c 83 31 ec 3a 3a 95 36 bc
       -0.0107816905 0.01157893 0.0018020127 -0.011143977
000170 33 36 8f 3c 00 de 82 bc 37 ce 35 bc 25 51 c6 3a
       0.017481899 -0.015974998 -0.011096529 0.0015130384
000180 0c ca ae 3b d9 43 08 bc 0d bb 5c bc 3a 93 7a 3c
       0.0053341445 -0.008316957 -0.013472331 0.015293891
000190 89 04 79 b8 39 c7 3a 3c 76 89 8e 3c 87 b6 21 bc
       -5.937045e-05 0.011400037 0.01739953 -0.009870178
0001a0 c9 60 6b bc cd eb 84 3c 87 4d 0e 3c 6b 66 8e 3b
       -0.014366337 0.01622572 0.008685476 0.0043457053
0001b0 41 1d 91 3c 2f 47 de bb 0b ca 92 3c 0e d0 03 bc
       0.017714145 -0.006783388 0.017918607 -0.00804521
0001c0 04 3c eb 3c f5 1d 34 3c 83 3a 3a 3b 99 86 a7 bb
       0.028715141 0.01099347 0.0028416223 -0.005112481
0001d0 0f d3 51 3c 8d 9d 2e bb 9e 25 c4 bc ff 1d 76 3a
       0.012806668 -0.00266442 -0.023943719 0.0009388625
0001e0 9f bc 36 3b 70 4d 4d 3b 52 6d b7 bb 1b 12 95 3c
       0.0027883423 0.0031326674 -0.005597749 0.01819711
0001f0 b4 77 3a bc c8 17 cc bc 72 26 ae 3c da 4b 26 3c
       -0.0113810785 -0.024913684 0.021258567 0.01014992
000200 42 5c 6b bc 3e 5e 27 bc 0c 28 be 3c b5 4f 24 bc
       -0.014365258 -0.01021534 0.023212455 -0.010028769
000210 27 e7 b8 bb 31 d7 28 3c ed 80 a4 bc 5d bf 9c 3b
       -0.00564279 0.010305212 -0.020081008 0.0047835545
000220 75 0e c3 bb a3 10 3b bb d0 c5 04 39 c0 e0 75 3c
       -0.005952651 -0.0028543852 0.00012662192 0.015007198
000230 a1 01 13 ba 1f dc a7 39 1d 60 58 bc 1f e2 b5 bc
       -0.00056078477 0.00032016725 -0.013206509 -0.02220255
000240 f0 56 09 bc 4a e6 a8 3b 8c 09 51 3c 27 1b 26 3d
       -0.008382544 0.0051544057 0.012758624 0.04055324
000250 1f 33 0f bc ea 72 c7 3a 97 67 8c 3b 28 91 07 bc
       -0.008740216 0.0015216742 0.00428481 -0.008274354
000260 af 54 c1 3c 2d ee b0 bc 9e 06 ed 3b aa e2 c7 3c
       0.02359995 -0.021597946 0.007233455 0.024400074
000270 e1 51 f8 3b 99 da a8 3c 53 6b 3e 3b 95 5a e9 3a
       0.00757812 0.020612048 0.002905567 0.0017803485
000280 bb be 06 3c 2e da 0a bc 9e 6d 6a bc fc bc fe bb
       0.008224185 -0.00847487 -0.014308361 -0.0077739935
000290 b5 e7 c8 3a 2c d2 19 3c 38 55 b3 bc 59 41 b0 3c
       0.0015327843 0.009388488 -0.021891221 0.021515535
0002a0 5a 2a af bb 61 68 31 3c 7c e6 1f bc 14 4a 8a ba
       -0.005345625 0.0108281085 -0.009759542 -0.0010550641
0002b0 53 20 b7 3c d0 80 03 bd af e1 94 3c 69 82 c2 3b
       0.02235428 -0.032105267 0.01817402 0.0059359563
0002c0 25 ce 98 bc af 77 5d bc cf e6 82 3c 3f f0 bc 3c
       -0.018652985 -0.013517304 0.015979199 0.023063777
0002d0 0e d4 6b 3b 0f 94 d3 3c 78 73 6a 3c f9 f2 82 bc
       0.0035984549 0.025827436 0.014309756 -0.015984999
0002e0 0d 11 ab bb d5 44 c7 bc ef a6 5e 3a 10 bb d5 ba
       -0.0052205385 -0.024324814 0.0008493503 -0.0016306359
0002f0 33 8e 7e 3c cc 09 c0 bb 2c 7a 48 3c 22 a3 e8 ba
       0.015536833 -0.005860543 0.012236159 -0.0017748813
000300 40 44 47 3b 03 34 28 bb 10 5d 66 3b ab 72 26 bb
       0.003040567 -0.0025665767 0.0035150684 -0.0025397937
000310 1e 37 49 bc 8d 98 69 3c 61 17 00 bb d6 ab 61 bc
       -0.012281207 0.014257562 -0.0019545185 -0.013773879
000320 28 a3 bf 3c ad 27 00 bc 26 1e a8 bc 19 21 60 3c
       0.023393229 -0.007821959 -0.020522188 0.013679766
000330 8f 27 54 bc f4 bd 87 3b d1 04 24 3b 5c ae 4c 3b
       -0.012948885 0.004142517 0.0025027285 0.0031231856
000340 1f 73 55 bb e2 54 14 bd 9b 4b f5 bb 17 13 96 bb
       -0.0032569838 -0.036213763 -0.0074858195 -0.0045799124
000350 1c 8e 75 3c 0c d6 3e bc ad 55 00 bd 94 52 0b bc
       0.014987495 -0.011647712 -0.031331707 -0.008503575
000360 f6 82 7a 3b ea bd a6 bc ba bf 38 bc 0f 55 ce 3c
       0.0038225031 -0.02035423 -0.01127618 0.025187043
000370 ff 8a 72 3c f7 b5 7c bc 4e e7 ed bb 86 75 54 3a
       0.014803647 -0.015424243 -0.0072602397 0.00081046706
000380 94 5b 06 3c 01 80 88 3c c8 8c c2 3b e7 d5 6f 3a
       0.008200545 0.0166626 0.0059371926 0.00091490004
000390 2a 44 41 bb 1e 9a 8e 3b 2b 7c 55 bb fc 6b 40 bc
       -0.0029490092 0.0043518683 -0.003257523 -0.0117444955
0003a0 24 80 de 3b 67 ee d5 bb 15 67 84 3c 2d 3b 10 3c
       0.006790178 -0.006528664 0.016162435 0.008803171
0003b0 34 78 ef 3c ba a3 52 3c 31 8e fd 39 2e 7e 74 bc
       0.029232122 0.012856418 0.0004836186 -0.014922662
0003c0 38 4b 88 3b bb 40 82 bb 67 63 3d bc c0 0b b8 ba
       0.0041593574 -0.0039750016 -0.011559344 -0.0014041588
0003d0 31 33 2b 3c aa b7 6e 3c e2 2e 1b 3c 00 82 9d 3b
       0.010449217 0.014570156 0.009471627 0.004806757
0003e0 77 25 fa 3b da cd 99 ba b7 7b 28 3c 25 ee 20 bc
       0.0076338607 -0.0011734322 0.010283402 -0.009822403
0003f0 d5 4b 3a bc 49 e4 60 bc 01 ee db bb d6 d5 ec 3b
       -0.011370619 -0.013726302 -0.006711722 0.0072276397

exp_avg_sq f4 [2, 768]
000000 4b 2c 8d 3b 75 4e eb 3a d5 25 1e 3b 0f 01 c4 3c
       0.0043082586 0.0017952459 0.0024131436 0.023926286
000010 b0 c7 f3 3c c9 c2 b6 3a 8a c1 9d 3d 78 55 28 3c
       0.029758304 0.0013943549 0.0770293 0.010274284
000020 e5 1d 3a 41 f7 30 8d 3d 37 36 00 3b de 09 9d 3c
       11.632298 0.06894105 0.0019563565 0.019169744
000030 3a 30 05 3c fc aa 52 3d 51 b7 6f 3c 87 3b 8f 3b
       0.008129174 0.051432595 0.014631108 0.00437111
000040 e7 88 c7 3a d3 43 00 3c e5 ea b1 3b 06 bc 40 3c
       0.0015223295 0.007828671 0.005429613 0.011763578
000050 8e 3e 21 3c 4c 88 31 3c 94 4c f3 3b c9 6c 7c 3c
       0.009841574 0.010835718 0.0074249003 0.015406796
000060 e7 19 72 3d f4 5d 98 3b 54 bb df 3a f2 50 e5 3c
       0.059106734 0.004649872 0.0017069378 0.0279927
000070 58 d0 df 3a 74 70 10 3b 29 1d 6f 3d 18 83 2f 3c
       0.0017075641 0.0022039684 0.05837742 0.0107124075
000080 51 f0 1f 3c 3b 4a 40 3d 9f b8 0d 3c 71 8e a7 3c
       0.009761886 0.04694579 0.008649974 0.020453664
000090 34 0a 18 3d 9c f5 a6 3a 85 6d 86 3f 1a 98 d6 3a
       0.037119105 0.0012737992 1.0502173 0.0016372234
0000a0 63 cb c8 3b 8d d6 c2 3b 98 d8 e4 3a 9f e6 ce 3e
       0.006127761 0.0059459866 0.001745957 0.40410325
0000b0 40 8a 53 3d 88 80 2a 3b 13 5a e8 3c 75 f0 30 3c
       0.051645517 0.0026016552 0.028363263 0.010799517
0000c0 1c 4b c9 3a f0 4b 6e 3c f0 6d 0d 3c ac b6 4b 3c
       0.0015357467 0.014544472 0.008632168 0.012433689
0000d0 ad b5 07 3c ba 95 c0 3a cc 45 98 3c 9a 7e ab 3b
       0.008283061 0.001469306 0.01858797 0.005233598
0000e0 c6 d8 85 3b be 2d 7a 3c d2 5a 8d 3c 3f 44 fb 3b
       0.0040846793 0.015269695 0.01725522 0.0076680477
0000f0 3b 31 93 3c 4f 53 b6 3c 48 3b 16 3b be 60 c3 3d
       0.01796781 0.022256522 0.0022923518 0.095399365
000100 e3 ee f1 3a c1 44 60 3d 4e 05 2b 3c e0 67 10 3b
       0.0018458035 0.05475307 0.010438276 0.002203457
000110 78 dc 0c 3d f0 b5 07 3d 3c 66 87 3b 31 96 19 3c
       0.034389943 0.033132493 0.0041320603 0.009374187
000120 2a 6b 0e 3b 68 6e b5 3b 8b e1 86 3b 19 35 27 3c
       0.0021731355 0.005536843 0.0041162423 0.010205531
000130 04 e9 02 3d cf de f6 3a 85 9f 99 3c 73 be 7f 3c
       0.031960502 0.0018834713 0.018752823 0.0156093715
000140 a4 3a 06 3b c9 95 bd 3b 53 81 10 3b 4d 0d c2 3a
       0.002048173 0.005785678 0.002204974 0.0014804989
000150 9b b2 17 3c a8 26 9e 3b 86 fd c6 3d c6 c4 67 3b
       0.009258891 0.0048263855 0.097163245 0.003536509
000160 6e 06 b9 3c ac 2b 33 3b 5e 8d 15 3c a6 93 92 3a
       0.022586074 0.0027339263 0.009127943 0.0011182919
000170 c0 01 ee 3c e7 7c 60 3d 32 78 2d 3c a0 96 7e 3b
       0.029053569 0.054806616 0.010587739 0.0038847104
000180 80 4f 7a 3b 55 e1 da 3b 8d 98 f9 3b e2 e4 9c 3d
       0.0038194358 0.0066796937 0.0076170624 0.076608434
000190 11 5c 9f 3b e5 91 fe 3b 37 4c b7 3c d4 ba 30 3c
       0.00486327 0.007768857 0.02237521 0.010786731
0001a0 87 43 28 3e ee f6 1c 3b c6 cc db 3a a9 55 68 3b
       0.1643201 0.0023950893 0.0016769401 0.0035451448
0001b0 c6 2f c5 3c 92 c5 7e 3b cd d0 1d 3c cf 62 0b 3c
       0.024070632 0.0038875085 0.0096323015 0.0085074445
0001c0 3e 75 a3 3b 69 fb 14 3c 98 30 a1 3b 97 de a3 3a
       0.0049883416 0.009093144 0.004919123 0.001250225
0001d0 31 a2 f3 3a 1d 31 16 3c 11 72 00 3d 00 6a 94 3c
       0.0018587766 0.009166983 0.031358782 0.018116951
0001e0 b0 bd 33 3c 0c 97 f5 3a e0 d9 f3 3a 2f a6 12 3d
       0.010970518 0.0018737032 0.001860436 0.035803016
0001f0 aa 54 03 3c 69 80 ac 3d 00 a8 bf 3b 45 c9 26 3b
       0.008015791 0.0842293 0.0058488846 0.0025449556
000200 12 85 42 3c fb 96 9e 3b d2 cc cb 3b 9b 9c 93 3c
       0.011872547 0.0048397756 0.006219485 0.018019011
000210 66 b7 ca 3a 3b e2 b7 3c 1c e7 c5 3c a0 d6 65 3c
       0.0015466034 0.022446742 0.024158053 0.014028221
000220 54 21 21 3c b2 14 5d 3b 11 48 41 3c af 9e 13 3b
       0.009834606 0.003373426 0.011796967 0.0022525003
000230 df ba bd 3c c1 25 29 3c 0a 93 a0 3c 08 24 6d 3c
       0.023160396 0.010323943 0.019601364 0.014473923
000240 e6 f0 01 3c c2 17 04 3c 0a 1d 10 3b fd 7f 62 3d
       0.00793097 0.008062305 0.0021989965 0.05529784
000250 61 3a 41 3b cf 78 2a 3c 4d 54 a6 3b 68 00 02 3b
       0.002948426 0.01040478 0.0050759674 0.0019836668
000260 35 bf 06 3c 71 e7 d6 3c 87 1f e2 3c 83 56 48 3d
       0.008224298 0.026233407 0.027602924 0.04891063
000270 8e d1 d3 3a a4 97 1d 3d e2 b7 fc 3b d0 93 10 3c
       0.0016160475 0.038474694 0.00771235 0.008824304
000280 5d 09 8c 3c f9 d1 b8 3c 03 69 85 3b 03 18 c0 3a
       0.017094309 0.02256106 0.0040713563 0.0014655594
000290 83 99 24 3b 45 2f 04 3b ca cf c9 3b 47 a1 24 3d
       0.0025115914 0.0020169776 0.0061588036 0.04019287
0002a0 71 bf cf 3b 28 99 49 3b 94 e9 81 3d 04 19 18 3b
       0.0063399603 0.0030761454 0.063433796 0.002320827
0002b0 1f 26 09 3b 80 3f 9e 3b 82 8d aa 3c 50 ed 82 3d
       0.0020927263 0.004829347 0.02081943 0.0639292
0002c0 35 cb 01 3d 1e 3f c4 3c 42 3c 3f 3b 16 87 36 3c
       0.031687934 0.023955878 0.0029180204 0.011140605
0002d0 19 75 0a 3d 36 db cb 3c 6d c6 36 3c 82 34 bc 3a
       0.03380308 0.024884801 0.011155707 0.001435891
0002e0 c3 71 c1 3c ad 3e 06 3b e7 84 3b 3c 67 3f df 3a
       0.023613816 0.0020484135 0.011445261 0.0017032445
0002f0 0d 9c 88 3b 7f 62 fd 3c bd cc 0a 3d 3a 55 a8 3b
       0.0041689933 0.030930756 0.03388666 0.005137113
000300 ee b9 0d 3c 5b 3f 0e 3b aa 47 ba 3c d5 94 f7 3a
       0.008650286 0.0021705243 0.02273925 0.001888896
000310 d9 2e 2d 3c 02 00 06 3b 29 e2 26 3c 1a 50 32 3b
       0.010570251 0.0020446782 0.010185757 0.0027208389
000320 ed 9e ba 3b b8 95 59 3b 65 9f 6c 3c 28 6f 0d 3b
       0.005695215 0.0033200812 0.0144422995 0.0021581147
000330 20 3a f3 3b 4f 6e 86 3b 57 50 a9 3b 5d 8f e2 3a
       0.0074227005 0.0041025053 0.005167048 0.0017285157
000340 47 45 43 3b 9d 2a 8d 3b bf 80 82 3b 53 12 e6 3b
       0.0029795931 0.0043080584 0.003982633 0.0070212274
000350 4f ab 3a 3b 8a 46 cd 3b da aa 8b 3e 48 21 4a 3c
       0.0028483456 0.0062645124 0.27278787 0.012337036
000360 6d 46 b4 3b f4 24 8a 3c 54 ea 2a 3c 70 a2 8e 3d
       0.0055015595 0.016863324 0.010431845 0.06964576
000370 8a 2d 1e 3c 0b 0f ad 3b 84 e5 2d 3e 92 b6 6c 3c
       0.009654412 0.0052813343 0.16982085 0.014447825
000380 1d 6f 3e 3c 4f e2 2f 3b 2e e0 19 3c c1 f6 d7 3c
       0.011623171 0.0026837771 0.0093918275 0.026362779
000390 4b a4 11 3c 57 39 d4 3a c9 f6 f5 3b 39 c1 06 3e
       0.008889268 0.0016191405 0.0075062257 0.13159646
0003a0 c8 2f 43 3c 80 b2 da 3a 9a 52 d0 3c 7f 50 dc 3a
       0.011913247 0.0016685277 0.025430012 0.0016808658
0003b0 46 f2 c8 3c c2 7d 78 3c b9 a3 1b 3d 7f e8 63 3c
       0.024529587 0.015166702 0.037997935 0.013910412
0003c0 d5 2c fa 3b ac 03 6d 3b 30 92 42 3b c8 72 c0 3b
       0.007634739 0.0036165519 0.0029689185 0.005873058
0003d0 d5 d5 e7 3a 43 45 1e 3b 4a 51 40 3b 8b 6f 84 3b
       0.0017687628 0.002415017 0.0029345327 0.0040416173
0003e0 a7 76 8d 3c c8 21 5e 3b 12 ac 2e 3d 34 e4 b1 3c
       0.017268492 0.0033894647 0.042644568 0.021715261
0003f0 59 37 46 3c 67 11 ec 3a 62 01 a0 3a cc 6f d0 3c
       0.012098157 0.0018010557 0.0012207443 0.025443934

exp_avg f4 [2]
000000 89 0c e3 3b 76 0c e3 bb
       0.0069289845 -0.0069289757

exp_avg_sq f4 [2]
000000 7b fe e3 3c 7a fe e3 3c
       0.027831307 0.027831305
