TASK2/gender_classification_model/checkpoint_step_3600.pth (torch, 22979 bytes, 6 tensors)

weight f4 [2, 768]
0	0x3ce24cc2	0.027624492
1	0x3c24263e	0.010018883
2	0xbbfc1123	-0.0076924725
3	0x3bc25564	0.0059305895
4	0xbcdf65ce	-0.027270224
5	0xbc743290	-0.014904633
6	0xbbae4c6c	-0.005319169
7	0xba0eabb4	-0.0005442456
8	0xbcf948db	-0.030430248
9	0xbc19b16c	-0.00938068
10	0xbce729af	-0.028218118
11	0x3b5512f1	0.003251251
12	0xbd2f4212	-0.04278762
13	0x3c97b0f7	0.018517
14	0x3cc00e1c	0.023444228
15	0xbc187ed7	-0.009307585
16	0x3c4f4599	0.012650871
17	0xbcc3a452	-0.023882065
18	0xbc286140	-0.010277092
19	0xbcb48684	-0.022036798
20	0x3a318b93	0.00067728123
21	0x3ca312ca	0.01990642
22	0x3d1d0a87	0.038340118
23	0x3cb53c94	0.022123612
24	0x3d088566	0.033330344
25	0xbc3bb413	-0.011456507
26	0xbbd7c3c4	-0.0065846164
27	0x3a2f0fef	0.00066780945
28	0x3ce1ea8f	0.027577667
29	0x3b5e5e90	0.0033930875
30	0x3d11287e	0.035439007
31	0x3d0e4cd3	0.034741234
32	0x3cf2d750	0.029643685
33	0x3bda0af6	0.0066541387
34	0xbb9ac7a9	-0.0047235084
35	0x3d03574c	0.032065675
36	0x3c600736	0.013673594
37	0xbd5f72f2	-0.05455298
38	0x3cb09312	0.021554504
39	0xbd5999ab	-0.053125065
40	0x3c9a5056	0.018837135
41	0xbb4d98d7	-0.0031371617
42	0xbd1df474	-0.038563207
43	0x3c80619f	0.01567155
44	0xbcafbcd6	-0.021452349
45	0xbbee319a	-0.0072690966
46	0x3ce0e496	0.027452748
47	0x3d0c8393	0.034305166
48	0x3caa9919	0.020824956
49	0xbc7bf86e	-0.0153790545
50	0x3cbd7f38	0.023131952
51	0x3c8b656c	0.017016135
52	0xbaacb1d8	-0.001317556
53	0xbca155f2	-0.019694302
54	0xbc42b178	-0.011883132
55	0xbc97d276	-0.018532973
56	0x3ba9786d	0.0051718266
57	0x39cf954d	0.00039593354
58	0xbb7a8baf	-0.003823023
59	0x3c01fe22	0.007934125
60	0x3c454d88	0.012042411
61	0x3c3ba17d	0.011452076
62	0xbca08c98	-0.01959829
63	0xbc5474c5	-0.012967293
64	0x3c9475ba	0.018122543
65	0xbca0286a	-0.01955052
66	0x3d14b0db	0.036301475
67	0x3d194752	0.037421532
68	0xbce8d0eb	-0.028419932
69	0x3cf15217	0.029458089
70	0x3c7defa2	0.015499027
71	0xbc30810c	-0.010772955
72	0x3b8c6b56	0.0042852564
73	0x3bbcfa04	0.005767109
74	0xbcdc264d	-0.026873732
75	0xbcf3d374	-0.029763915
76	0xbb9c9f35	-0.004779721
77	0xbbb1a230	-0.0054209456
78	0xbb4abe70	-0.0030936264
79	0xbbfb050c	-0.0076605137
80	0x3b52e243	0.003217832
81	0xbbc73fcc	-0.006080603
82	0xbd08a015	-0.03335579
83	0x3c20b436	0.009808591
84	0x3b706892	0.0036683423
85	0x3c1e4592	0.009660142
86	0xbc6733c2	-0.014111461
87	0xbd14055e	-0.03613793
88	0x3cde55dd	0.027140552
89	0xbab1e4b0	-0.0013572183
90	0x3cdabb81	0.026700737
91	0xbc14e335	-0.0090873735
92	0x3cf4d7b1	0.029888006
93	0x3c809d2e	0.01569995
94	0x3bbf45b6	0.0058371676
95	0xbca58c0b	-0.02020838
96	0xba622e94	-0.00086281565
97	0x3d34295c	0.043984756
98	0xbc634013	-0.013870257
99	0x3cdc19b1	0.02686772
100	0xbb2b0f5d	-0.0026101687
101	0x3b8fedfb	0.004392383
102	0x3d21f8f9	0.03954408
103	0xbca8515a	-0.020546604
104	0x3c4816f0	0.0122125
105	0xbba2535c	-0.004953785
106	0x3d5d0ba8	0.053966194
107	0xbd3beafa	-0.045878388
108	0x3b2e1a66	0.0026566028
109	0x3d144604	0.036199585
110	0xbd1c635a	-0.038180687
111	0xbc8c711c	-0.017143779
112	0x3bb9f985	0.005675497
113	0x3b1677a0	0.0022959486
114	0xbac664a8	-0.0015136199
115	0x3cec8c7a	0.028875578
116	0x3d83ff6e	0.06445204
117	0x3a93ba6e	0.001127077
118	0xbcbd3b65	-0.02309961
119	0x3d06c269	0.032900248
120	0x3d311145	0.04322936
121	0x3d37f6ed	0.04491322
122	0xbbc2cabc	-0.005944578
123	0xbc669721	-0.014074118
124	0xbc1d4668	-0.009599306
125	0x3c2ff0ed	0.0107385935
126	0xbc6b07e0	-0.014345139
127	0xbcbe86de	-0.023257669
128	0x3b926301	0.0044673686
129	0xbbddd354	-0.006769577
130	0xbd003a63	-0.031305682
131	0x3ba1399a	0.0049201967
132	0x3d23e561	0.040013675
133	0x3c2d0b7c	0.01056182
134	0x3cfc5c9e	0.030805882
135	0xb97341cf	-0.00023198802
136	0xbcbbd4d3	-0.022928631
137	0xbc944692	-0.018100057
138	0x3d101257	0.03517374
139	0x3bbc10be	0.0057393005
140	0xbcf782b7	-0.030213697
141	0xbc42c0a2	-0.011886748
142	0x3c123299	0.008923196
143	0x3c76f665	0.0150733935
144	0xbcd98788	-0.026553884
145	0x3c048b45	0.008089845
146	0x3bd7e39d	0.006588413
147	0x3b182ffe	0.0023221965
148	0xbd01b513	-0.031666826
149	0xbd085f14	-0.0332938
150	0x3c92cc46	0.01791967
151	0xbd01f8da	-0.031731464
152	0x3cb9dcec	0.022688352
153	0x3d183901	0.03716374
154	0x3c78d15d	0.015186635
155	0xbc81d596	-0.015848916
156	0xbbb1f212	-0.0054304684
157	0xbd116531	-0.035496894
158	0xbcd237cd	-0.025661374
159	0x3d53fba6	0.051753663
160	0xbc2460ed	-0.0100328745
161	0xbc4bccd4	-0.012438972
162	0xbcf8171c	-0.030284457
163	0x3c906de5	0.017630527
164	0xbd6341ca	-0.055482663
165	0x3d730157	0.05932745
166	0x3b60c8e8	0.0034299437
167	0xbd07f64f	-0.033193883
168	0xbbd176af	-0.006392322
169	0x3cab2fa7	0.020896746
170	0x3ccde9b4	0.025135852
171	0x3bf4e6c8	0.0074738003
172	0xbcad7118	-0.021172091
173	0x3c8a89b1	0.01691136
174	0xbca219bf	-0.019787667
175	0xbcec83b9	-0.028871404
176	0x3c5f9f18	0.013648771
177	0x3cef732b	0.029229721
178	0xbb17e17d	-0.0023175173
179	0x3cf56cae	0.02995905
180	0x3c8efd71	0.017454835
181	0xbcc46be5	-0.02397723
182	0x3c37a917	0.011209748
183	0xbb99cf17	-0.0046938765
184	0xbc6ea2c5	-0.0145651745
185	0x3d766428	0.06015411
186	0xbccbac16	-0.02486233
187	0xbcbbc711	-0.02292207
188	0xbaf64522	-0.0018788914
189	0x3b3a2825	0.0028405276
190	0x3be3e9ac	0.006955346
191	0x3ba4f083	0.005033554
192	0xbc8d46c9	-0.017245667
193	0x3c4be120	0.012443811
194	0xbccabec8	-0.024749175
195	0xbd48db20	-0.0490371
196	0xbd429e05	-0.04751398
197	0xbca239fd	-0.019803042
198	0x3d1aaccc	0.03776245
199	0xbce8ffad	-0.028442228
200	0xbd1e8888	-0.038704425
201	0xba4c17bb	-0.00077855185
202	0x3d1a96c2	0.03774143
203	0xbc575140	-0.01314193
204	0x3ceeb58e	0.029139306
205	0x3ca0a855	0.019611517
206	0xbc18e253	-0.009331304
207	0xbc30000d	-0.0107422
208	0x3d28bd4c	0.041196153
209	0xbb24507c	-0.0025072386
210	0x3bc2dcfa	0.0059467526
211	0x3c78d804	0.015188221
212	0xbc2ccd9f	-0.010547071
213	0xbd02bf71	-0.031920854
214	0xbc92b184	-0.017906912
215	0x3caa9eca	0.02082767
216	0xbc8364bf	-0.01603925
217	0xbd219494	-0.039448336
218	0xbcd5320d	-0.026024843
219	0x3cf5be47	0.029997958
220	0xbcd80d28	-0.02637346
221	0x3c596a9f	0.013270049
222	0x3d06033a	0.03271792
223	0xbca8779a	-0.020564843
224	0x38950e58	7.1075454e-05
225	0xbc7af966	-0.01531825
226	0xbd115fa9	-0.03549162
227	0x3c8d9371	0.01728222
228	0xbc472ba6	-0.012156403
229	0x3c29796e	0.0103438925
230	0xbcb086db	-0.02154868
231	0xbbfa8f3b	-0.007646469
232	0x3c9c790d	0.01910069
233	0x3cc5e25d	0.02415579
234	0x3c5287ac	0.0128497295
235	0x3d2a2330	0.041537464
236	0xbba7a55a	-0.005116147
237	0xbcf2ea3f	-0.029652713
238	0xbcacdf1f	-0.021102486
239	0x3c00816e	0.007843358
240	0xbc93bb5a	-0.018033672
241	0xbc21420f	-0.00984241
242	0x3d0e0278	0.034670323
243	0x3d033a54	0.032038048
244	0x3c8015fe	0.015635487
245	0x3d004da9	0.031324062
246	0xbc16e8ec	-0.009210806
247	0x3c594b5e	0.013262598
248	0xbc28e811	-0.010309235
249	0x3c81f7cb	0.015865227
250	0x3bb4889b	0.0055094487
251	0x3c275958	0.010214172
252	0x3d01434a	0.031558312
253	0xbc61eb23	-0.013788971
254	0x3cc4ffcd	0.024047757
255	0x3cfcbe1f	0.030852376

bias f4 [2]
0	0x3cc4c5f7	0.024020178
1	0xbb934d22	-0.004495279

exp_avg f4 [2, 768]
0	0xbb7137f4	-0.0036807032
1	0x3b89945e	0.004198595
2	0xba457109	-0.0007531797
3	0xbc214897	-0.009843967
4	0xbc479a4f	-0.012182786
5	0xbbe3e830	-0.006955169
6	0x3c99d32d	0.018777454
7	0x3c21500b	0.009845744
8	0xbec5d1bc	-0.38636577
9	0xbcf06863	-0.02934665
10	0xbc4fec0d	-0.012690556
11	0x3cdb2241	0.026749732
12	0x3c01c00b	0.007919322
13	0x3cf378ce	0.02972069
14	0x3ca53f91	0.020171912
15	0x3baadabd	0.005214064
16	0x3ad192d4	0.0015989193
17	0x3b031f40	0.002000764
18	0xbb64a529	-0.0034888482
19	0xbc840e8a	-0.016120214
20	0xbc022840	-0.007944167
21	0xbc152ad1	-0.0091044465
22	0x3c9b96ba	0.01899277
23	0x3cbe92f8	0.02326344
24	0x3d0ca937	0.034341063
25	0x3c69ed79	0.014277809
26	0x3b1e0d4b	0.002411681
27	0x3c83af00	0.016074657
28	0xbb4ccecf	-0.0031251197
29	0x3d0c2962	0.034219153
30	0xbcc02de7	-0.023459388
31	0xbc871bba	-0.016492713
32	0x3ce350f4	0.027748562
33	0x3ce0fb03	0.027463442
34	0x3c4ca0e5	0.012489532
35	0x3c1e6178	0.009666793
36	0x3d18f203	0.037340175
37	0x3b6a7e37	0.0035780796
38	0x3e1b0481	0.15138437
39	0xbb728d49	-0.0037010482
40	0x3b0b60f9	0.0021267517
41	0xbc81236f	-0.015763966
42	0xbb9dc67d	-0.0048149214
43	0xbdaf8c8d	-0.0857173
44	0xbc957ecc	-0.018248938
45	0xbb94b708	-0.0045384206
46	0x3ca58555	0.02020518
47	0x3bfe0605	0.0077521824
48	0xbc9ca18c	-0.01912
49	0x3b2db995	0.002650832
50	0x3bdf9bb8	0.006823983
51	0xbbfd674f	-0.0077332626
52	0xbca0d44a	-0.019632477
53	0x3a04f4b1	0.0005071862
54	0xbcce1717	-0.025157494
55	0xba512876	-0.00079787464
56	0xbba92f7b	-0.005163131
57	0x3ba4a75d	0.005024834
58	0x3cf4a45e	0.029863533
59	0x3a1acd8e	0.0005905264
60	0xbc74c881	-0.014940382
61	0x3cdffcf7	0.027342303
62	0xbbc81ab6	-0.0061067
63	0x3d09bdac	0.03362815
64	0x3a857a79	0.0010183594
65	0xbd1ca55b	-0.038243633
66	0x3bc770c0	0.006086439
67	0xbbc9bbdb	-0.0061564273
68	0xbcbb85de	-0.022890981
69	0xbca74548	-0.020418778
70	0x3c22b8d3	0.009931761
71	0x3c6d7cc8	0.014495082
72	0x3c0670c8	0.0082056
73	0x3bd5d242	0.006525309
74	0xbc5bb17e	-0.013409017
75	0x3c690c61	0.014224143
76	0xbce64e13	-0.0281134
77	0xbb4ec877	-0.0031552592
78	0xbca495a7	-0.020090891
79	0x3c876e45	0.016532073
80	0xbc4e76c6	-0.01260156
81	0x3b90b66b	0.004416277
82	0xba3e7e9d	-0.00072667917
83	0xbc650868	-0.013979055
84	0xbc14890c	-0.009065878
85	0xbbac81bf	-0.0052644904
86	0xbd2ae52e	-0.04172247
87	0xbc38431c	-0.011246469
88	0x3c6ba308	0.014382131
89	0x3cb0ce77	0.021582825
90	0x3c0b1769	0.008489468
91	0x39d152c0	0.0003992524
92	0x3c3747c8	0.011186548
93	0xbcc0e828	-0.0235482
94	0xbc529165	-0.012852048
95	0x3cb6296b	0.022236547
96	0xbaa026ee	-0.0012218633
97	0xbc8b252a	-0.016985495
98	0x3b9461f6	0.0045282794
99	0x3cbcebbf	0.023061631
100	0xbc515447	-0.012776441
101	0x3c19ce86	0.009387618
102	0x3cd704a8	0.026247337
103	0xbc1c9382	-0.009556653
104	0xbd40f961	-0.047112826
105	0x3b0f138f	0.0021831726
106	0xbc2255f6	-0.00990819
107	0x3c907560	0.017634094
108	0x3c00e82b	0.007867853
109	0xbc9b795c	-0.018978767
110	0x3c6fd5a7	0.014638341
111	0x3b0c5f80	0.0021419227
112	0x3c1ed4c2	0.00969428
113	0x3c0d35eb	0.008618812
114	0x3c1d72aa	0.009609858
115	0xbc0d91e3	-0.008640739
116	0xbcab1024	-0.02088172
117	0xbb816f2d	-0.0039500208
118	0xbc949a46	-0.01813997
119	0xbb9e2215	-0.0048258402
120	0xbcbac63e	-0.022799607
121	0xbacd0a18	-0.0015643267
122	0x3c3043ad	0.010758323
123	0x3c51c743	0.012803855
124	0xbc5e6f7a	-0.013576383
125	0xbd19a213	-0.03750808
126	0x3cbc72ef	0.023004023
127	0x3afbbbd4	0.0019205757
128	0xbc72db63	-0.014822814
129	0xbafc758e	-0.0019261108
130	0xbb40a818	-0.0029397067
131	0x3cb244e4	0.021761365
132	0xbb4e911a	-0.0031519593
133	0x3baeef77	0.005338605
134	0xbcdc90f1	-0.026924582
135	0xbcb63d46	-0.022246014
136	0xbc74f56c	-0.014951091
137	0x3b47f97d	0.0030513697
138	0x3c51c2d1	0.0128027955
139	0xbb97fec4	-0.0046385247
140	0xba76bdd7	-0.00094124436
141	0xbc2a4024	-0.010391269
142	0xbbfb093e	-0.007661014
143	0xbc8b01d1	-0.01696864
144	0xbc1c3fa0	-0.009536654
145	0x3a80bc5b	0.0009821759
146	0x398708e1	0.00025755822
147	0x3ce678cd	0.028133774
148	0x3c93ce81	0.018042805
149	0x3c03a879	0.0080357725
150	0xbb3b205b	-0.002855322
151	0x3c547c90	0.012969151
152	0x3a3ac7ca	0.0007125108
153	0xbc0d3eb5	-0.008620908
154	0x3cbd29a5	0.023091147
155	0x3c99b282	0.018761877
156	0xba92c969	-0.0011198941
157	0x3cc7d0e9	0.024391608
158	0x3c207a6b	0.009794812
159	0xbc301690	-0.010747567
160	0xbab2ad1e	-0.0013631915
161	0xbc64dd12	-0.013968723
162	0xbc2d735d	-0.010586587
163	0xbcbedc3c	-0.023298375
164	0x3bb3d75e	0.0054883203
165	0xbbdd378a	-0.0067510055
166	0x3c00e5af	0.007867261
167	0x3d0e1011	0.03468329
168	0xbb76b9cf	-0.0037647372
169	0x3b7ebac6	0.003886865
170	0xbcd3d0d6	-0.025856417
171	0x3c4f2f29	0.012645521
172	0x3b64d98f	0.0034919714
173	0x3c874a52	0.01651493
174	0x3be04fcb	0.0068454496
175	0x3c879407	0.016550077
176	0xbc91231b	-0.017716935
177	0xbcc1654f	-0.023607878
178	0xba0bed5e	-0.00053377997
179	0xbc8b164b	-0.016978404
180	0x3cbf26e0	0.023333967
181	0xbcbcf6ba	-0.023066867
182	0x3b46f62f	0.003035914
183	0xbb9a778e	-0.004713959
184	0xba7ef9d3	-0.0009726558
185	0xbcbba471	-0.02290556
186	0x3cd5dbd6	0.026105803
187	0x3ace29b7	0.0015728985
188	0x3c239ebc	0.009986576
189	0xbc9804f7	-0.018557055
190	0xbcc907ac	-0.024539791
191	0xbb68674d	-0.0035461963
192	0x3c0af5da	0.008481467
193	0xbc3d4302	-0.01155162
194	0xbd6519c5	-0.05593278
195	0xbba98eef	-0.0051745097
196	0xbb8db611	-0.0043246825
197	0x3ca1fc30	0.019773573
198	0x3c95fca0	0.018308938
199	0xbbd29a14	-0.006427059
200	0x3c7d6ca7	0.015467799
201	0x3b415920	0.0029502586
202	0xbbfffd18	-0.0078121535
203	0xbbb7bad3	-0.005606988
204	0xbc05577f	-0.0081385365
205	0xbcd6a203	-0.0262003
206	0xbc7d57b8	-0.015462808
207	0x3be841a5	0.0070879036
208	0x3bdde262	0.0067713717
209	0xbc185cac	-0.009299438
210	0xb77c1718	-1.5025747e-05
211	0xbc1dd0e6	-0.009632325
212	0xbc4b7fd9	-0.012420618
213	0x3c62dcf6	0.0138466265
214	0xbd869eb7	-0.06573241
215	0x3c89f260	0.016839206
216	0x3cb06e3a	0.021536935
217	0xbc246e15	-0.010036011
218	0xbc319470	-0.010838613
219	0x3c4e2dad	0.012584132
220	0xbc5f7268	-0.013638116
221	0xbc73ff90	-0.014892474
222	0xbd16c456	-0.036808334
223	0xbcac9253	-0.021065867
224	0xbc3f61d4	-0.011681039
225	0xbc8e7cdb	-0.01739352
226	0xbce908cb	-0.028446576
227	0x3cdd6912	0.02702764
228	0xbc809a22	-0.015698496
229	0xb93f2e09	-0.00018232329
230	0xbbc54102	-0.0060197124
231	0xbd228ce3	-0.03968514
232	0x3c08c950	0.008348778
233	0x3c6a154c	0.014287304
234	0x3ca26ecc	0.019828223
235	0x3bb13a88	0.005408589
236	0x3bf41ff1	0.007450097
237	0x3c213a10	0.009840503
238	0x3c0b294a	0.008493731
239	0xbc985862	-0.018596832
240	0x3b72bd13	0.0037038967
241	0xbba4a77b	-0.005024848
242	0x3c7524e5	0.01496241
243	0x3be70516	0.007050167
244	0x3b948104	0.0045319814
245	0x3cb93c03	0.022611624
246	0x3b5b112b	0.003342698
247	0xbbeec59e	-0.0072867414
248	0xbcaae5e4	-0.020861574
249	0x3b7f46c9	0.0038952103
250	0x3cc8ae04	0.02449704
251	0xbc9ff21d	-0.019524628
252	0xbd104e37	-0.03523084
253	0xbc1b07e4	-0.0094623305
254	0xbb449def	-0.0030001362
255	0xbc7c41ab	-0.015396516

exp_avg_sq f4 [2, 768]
0	0x3b908ab6	0.004411067
1	0x3af26d0a	0.0018495631
2	0x3b24fef9	0.002517639
3	0x3cc631b2	0.024193618
4	0x3cfb2e3d	0.030661697
5	0x3ab538a8	0.0013826089
6	0x3da5850b	0.080820166
7	0x3c27448f	0.010209217
8	0x4142590f	12.146743
9	0x3d93beb5	0.07214109
10	0x3b08e8a7	0.0020890625
11	0x3ca3d04d	0.019996786
12	0x3c0dbaed	0.008650524
13	0x3d5b29f6	0.053506814
14	0x3c811229	0.01575573
15	0x3b970b7b	0.004609523
16	0x3ac51f22	0.0015039186
17	0x3c045474	0.008076776
18	0x3bba4985	0.0056850337
19	0x3c43c4a7	0.011948741
20	0x3c2cdb6b	0.01055036
21	0x3c426480	0.011864781
22	0x3c062eae	0.00818984
23	0x3c85af13	0.016318833
24	0x3d7e77c5	0.06212594
25	0x3ba20ba3	0.004945235
26	0x3ae8d3bb	0.0017763296
27	0x3cec59e0	0.02885145
28	0x3aeaf0e4	0.0017924574
29	0x3b1c72ad	0.0023872063
30	0x3d78e81d	0.060768235
31	0x3c3823b7	0.011238984
32	0x3c260665	0.0101333605
33	0x3d482656	0.048864685
34	0x3c121d89	0.008918175
35	0x3cad3fb2	0.021148536
36	0x3d2066ed	0.039160658
37	0x3aadfc99	0.0013274133
38	0x3f8cf5db	1.1012529
39	0x3ae20516	0.0017243947
40	0x3bd335e4	0.0064456332
41	0x3bc58937	0.00602832
42	0x3adc5ac7	0.0016811722
43	0x3ed91cda	0.42404824
44	0x3d5ba4d8	0.053624004
45	0x3b2f812a	0.0026779869
46	0x3cef71c0	0.029229045
47	0x3c361d46	0.011115378
48	0x3ace08d2	0.0015719181
49	0x3c76eec7	0.015071577
50	0x3c10b5e4	0.008832429
51	0x3c51b983	0.012800577
52	0x3c08ba2a	0.008345166
53	0x3ac8a568	0.0015308084
54	0x3c9d4d65	0.019201944
55	0x3bb481a7	0.00550862
56	0x3b89a7e9	0.0042009247
57	0x3c81b71e	0.015834387
58	0x3c94678d	0.018115783
59	0x3c079cd2	0.008277135
60	0x3c9f2eaf	0.01943144
61	0x3cbc369a	0.022975255
62	0x3b16ebb3	0.0023028671
63	0x3dcb634b	0.09931048
64	0x3af8a3f9	0.0018969766
65	0x3d69cef5	0.057082135
66	0x3c2dc505	0.010606055
67	0x3b11383d	0.0022158765
68	0x3d167b88	0.036738902
69	0x3d0c7829	0.03429428
70	0x3b893a3b	0.00418785
71	0x3c219f95	0.0098647075
72	0x3b0f9195	0.0021906842
73	0x3bc008a8	0.005860407
74	0x3b90c7e0	0.004418358
75	0x3c326d5c	0.010890331
76	0x3d0900e7	0.033448126
77	0x3af83396	0.0018936272
78	0x3ca35ad8	0.019940779
79	0x3c84c0f5	0.01620529
80	0x3b0c801c	0.0021438664
81	0x3bbba1e9	0.0057260883
82	0x3b2006fe	0.002441823
83	0x3aba10d4	0.0014195689
84	0x3c1d7fc0	0.0096129775
85	0x3ba36d02	0.00498736
86	0x3dd0b94c	0.101915926
87	0x3b724dfb	0.003697275
88	0x3cc8bc32	0.024503801
89	0x3b37b107	0.00280291
90	0x3c1af9b4	0.009458948
91	0x3a976356	0.001154999
92	0x3d00973a	0.03139422
93	0x3d69942a	0.057026066
94	0x3c3425f9	0.0109953815
95	0x3b843c09	0.004035477
96	0x3b82cbb8	0.0039915703
97	0x3bde600b	0.0067863516
98	0x3c009546	0.00784809
99	0x3da42c8b	0.080163084
100	0x3ba98b54	0.00517408
101	0x3c0428de	0.008066384
102	0x3cc0ce86	0.023535978
103	0x3c391f37	0.011298946
104	0x3e2f875b	0.17141478
105	0x3b1ec9cb	0.0024229165
106	0x3ae49842	0.0017440396
107	0x3b72ccc6	0.0037048324
108	0x3cd3402a	0.025787432
109	0x3b7ce15e	0.0038586478
110	0x3c22a1f6	0.00992631
111	0x3c0d7019	0.008632683
112	0x3baf0f07	0.0053423676
113	0x3c15712b	0.00912122
114	0x3ba2ab91	0.0049643
115	0x3aaf9374	0.0013395385
116	0x3af72c38	0.0018857783
117	0x3c1d8b62	0.009615751
118	0x3d07266d	0.03299563
119	0x3c9d6933	0.019215202
120	0x3c302d50	0.010752991
121	0x3b02e07c	0.001997023
122	0x3b056208	0.002035262
123	0x3d188c3b	0.03724311
124	0x3c047e65	0.008086775
125	0x3db45f1b	0.088072024
126	0x3bd3f4ae	0.006468377
127	0x3b27f19b	0.0025626186
128	0x3c4b854f	0.01242192
129	0x3ba71327	0.0050987187
130	0x3bd8272a	0.0065964656
131	0x3c9e22b0	0.01930365
132	0x3ad80966	0.0016482293
133	0x3cbe1ba0	0.023206532
134	0x3cce7e5d	0.02520674
135	0x3c70d6b1	0.014699624
136	0x3c292926	0.010324752
137	0x3b68ace4	0.0035503441
138	0x3c4825df	0.01221606
139	0x3b195600	0.0023397207
140	0x3cc2bfb3	0.02377305
141	0x3c2b93b7	0.01047223
142	0x3ca9c928	0.020725802
143	0x3c7e379d	0.015516189
144	0x3c01ec51	0.007929877
145	0x3c075058	0.008258902
146	0x3b135ee7	0.0022486986
147	0x3d6b6076	0.05746504
148	0x3b4867f4	0.003057954
149	0x3c2dcc53	0.010607797
150	0x3bb0c784	0.005394878
151	0x3afb7318	0.0019184081
152	0x3c10ed92	0.008845704
153	0x3ce170c2	0.027519587
154	0x3cede339	0.029039012
155	0x3d520446	0.051273607
156	0x3ad4e213	0.0016241692
157	0x3d26f488	0.040760547
158	0x3c03b110	0.00803782
159	0x3c1a826f	0.009430512
160	0x3c8d1914	0.017223872
161	0x3cc270c2	0.023735408
162	0x3b89a955	0.004201094
163	0x3ac9c931	0.0015395043
164	0x3b2a6a5d	0.002600334
165	0x3b0c1fab	0.002138118
166	0x3bcc9280	0.00624305
167	0x3d27b638	0.04094526
168	0x3bda86bf	0.006668895
169	0x3b528ee8	0.0032128636
170	0x3d8722fb	0.06598469
171	0x3b1dbefb	0.0024070132
172	0x3b0c739a	0.0021431209
173	0x3b998e3b	0.0046861446
174	0x3cba87a4	0.022769757
175	0x3d8a4d00	0.06752968
176	0x3d07c7b7	0.033149447
177	0x3ccda130	0.025101274
178	0x3b4adb03	0.0030953295
179	0x3c3b4736	0.011430552
180	0x3d118fc9	0.035537515
181	0x3cd3c699	0.025851535
182	0x3c3e1b47	0.011603183
183	0x3acf2fd7	0.0015807104
184	0x3cc80984	0.0244186
185	0x3b09af17	0.0021008903
186	0x3c49a0eb	0.012306432
187	0x3ae3dccc	0.0017384528
188	0x3b8e72f6	0.0043472005
189	0x3d011c36	0.031521045
190	0x3d0e62e8	0.034762293
191	0x3bb17886	0.005415979
192	0x3c1337c1	0.008985461
193	0x3b112a43	0.0022150434
194	0x3cc68d85	0.024237404
195	0x3b0a261b	0.0021079842
196	0x3c32f8e2	0.010923596
197	0x3b06288b	0.0020470943
198	0x3c2e2409	0.010628709
199	0x3b31eb26	0.0027148216
200	0x3bb9ff25	0.0056761676
201	0x3b5ff0b5	0.0034170572
202	0x3c76c225	0.015060936
203	0x3b12ddcc	0.0022410033
204	0x3bfa7766	0.007643628
205	0x3b8b9218	0.004259359
206	0x3bb2bb04	0.005454423
207	0x3ae59d7c	0.0017518247
208	0x3b4d2f37	0.003130866
209	0x3b970761	0.004609034
210	0x3b894e14	0.004190216
211	0x3be7d015	0.007074366
212	0x3b4a5170	0.0030871294
213	0x3bd5e079	0.0065270034
214	0x3e9102a3	0.28322324
215	0x3c5da17a	0.013527269
216	0x3bb3ef83	0.0054911985
217	0x3c917a7e	0.017758604
218	0x3c331837	0.010931066
219	0x3d93d4ac	0.07218298
220	0x3c2874d6	0.010281762
221	0x3bb3bb37	0.0054849642
222	0x3e3615b7	0.17781721
223	0x3c7baa6a	0.015360454
224	0x3c45f4b7	0.01208227
225	0x3b42c46b	0.0029719125
226	0x3c24e07d	0.010063288
227	0x3ce36a05	0.027760515
228	0x3c13281f	0.008981734
229	0x3ae8efb9	0.0017771638
230	0x3bfa1209	0.0076315445
231	0x3e0c77cd	0.13717575
232	0x3c495e8e	0.01229061
233	0x3ae8abda	0.0017751411
234	0x3cdb3ee9	0.026763396
235	0x3ada6e5a	0.0016664967
236	0x3ccfdf46	0.02537502
237	0x3c7f0483	0.0155650405
238	0x3d20b402	0.03923417
239	0x3c6c2a43	0.014414373
240	0x3c035e5e	0.008018104
241	0x3b6c46c0	0.0036052912
242	0x3b49d49a	0.0030796886
243	0x3bc1721a	0.0059034945
244	0x3ae41fa4	0.0017404449
245	0x3b33dcc0	0.002744481
246	0x3b4c6038	0.003118528
247	0x3b872797	0.0041245925
248	0x3c933e02	0.017973904
249	0x3b5e61fe	0.003393292
250	0x3d34443e	0.044010393
251	0x3cb9e23c	0.022690885
252	0x3c4fe7d0	0.012689546
253	0x3af9de44	0.0019063433
254	0x3a9e9812	0.0012099764
255	0x3cd93c5c	0.02651804

exp_avg f4 [2]
0	0x3c97c8d0	0.018528372
1	0xbc97c8ce	-0.018528368

exp_avg_sq f4 [2]
0	0x3ced6634	0.028979398
1	0x3ced6633	0.028979396
