TASK2/gender_classification_model/checkpoint_step_6400.pth (torch, 22979 bytes, 6 tensors)

weight f4 [2, 768]
0.027790612 0.007186382 0.006726913 0.010500456 -0.026233455 -0.005480757 -0.0062118466 -0.0114663625
-0.030704927 -0.011750126 -0.039243158 -0.0006999564 -0.044838753 0.019934768 0.024943937 -0.009273624
0.007974233 -0.024136536 -0.004479784 -0.021707445 -0.0023678718 0.019164126 0.04212037 0.01706633
0.03382274 -0.011313545 0.0072369683 0.0025306125 0.04098409 0.0055499477 0.03395035 0.03486173
0.025533604 0.0049690213 -0.0065532974 0.035042297 0.011405767 -0.06338082 0.020465776 -0.071821176
0.018719519 -0.0017328387 -0.03767055 0.01460595 -0.021886036 -0.0058400645 0.029927716 0.041836318
0.03516939 -0.019797979 0.020361362 0.018927924 -0.004188046 -0.028987661 -0.0069854157 -0.018217107
0.0021719716 -0.0021633653 -0.0029848889 0.01250845 0.010418196 0.008530528 -0.028664995 -0.013549304
0.012915925 -0.018165201 0.041545473 0.049445707 -0.032740396 0.031240813 0.008107412 -0.005955241
0.00265959 -0.0034726853 -0.0261752 -0.029643046 -0.0056034494 0.003509864 -0.00425681 -0.0085457675
0.014587385 -0.014855143 -0.052201208 0.009662325 0.006876173 0.018302456 -0.016028207 -0.040013615
0.033333294 0.0032704507 0.03346997 -0.019528355 0.033803098 0.017284188 0.005427426 -0.02828787
-0.0059802667 0.04639949 -0.014170466 0.02876558 -0.0066931145 0.006158396 0.043020703 -0.01930833
0.011402531 -0.0007388993 0.06354262 -0.0474184 0.00012858048 0.048627537 -0.04220951 -0.017454531
0.008086511 -0.0021652349 -0.0022214497 0.025544064 0.07089115 -0.0044717058 -0.018762507 0.02586353
0.05744382 0.05298116 -0.0072456477 -0.010908367 -0.0011604691 0.009520325 -0.021279475 -0.02537747
0.003226659 -0.013270805 -0.03627935 0.0064845765 0.04762863 0.010956476 0.035087287 0.0033531764
-0.021958131 -0.011456303 0.036601737 0.0026059432 -0.03529275 -0.0145960115 0.0030995454 0.013361544
-0.02561988 0.007186523 -5.5519322e-05 0.0011614258 -0.024204765 -0.029118864 0.023793487 -0.038421765
0.032252774 0.041282896 0.018405916 -0.012174392 -0.010867358 -0.036081962 -0.022107381 0.05755238
-0.010385448 -0.013834308 -0.027395187 0.02290026 -0.060490977 0.06933862 -0.0062091937 -0.032360215
-0.012743815 0.016071875 0.024950331 0.010773463 -0.028718738 0.02182184 -0.015293567 -0.027376678
0.017239058 0.031534042 0.002089203 0.034345455 0.021979542 -0.022533152 0.007957818 -0.005591849
-0.016971296 0.06741587 -0.024004905 -0.035263542 -0.005474838 0.0043703215 0.0081309425 0.0005184332
-0.021038113 0.022951975 -0.031866454 -0.06313676 -0.055256817 -0.03429228 0.042231742 -0.030195272
-0.0464232 -0.00015413281 0.041584115 -0.001849649 0.028227782 0.032667138 -0.0063534435 -0.019965861
0.05026019 -0.00015499136 0.009574846 0.010006348 -0.016751673 -0.033312958 -0.019031348 0.025293548
-0.01972504 -0.038292583 -0.02212954 0.029485563 -0.034132566 0.012691756 0.033349257 -0.022788797
0.001694517 -0.009223647 -0.040885504 0.016087074 -0.007525427 0.0029945024 -0.020867512 -0.0083873235
0.019672683 0.034367878 0.009344425 0.05760398 -0.003012043 -0.03485543 -0.025928717 0.015241286
-0.022392271 -0.01529045 0.03353124 0.03752099 0.026795465 0.031569906 -0.007538903 0.009555125
-0.00906379 0.013503001 0.0010105706 0.009429472 0.03566412 -0.014535882 0.019718084 0.031674773
00000000: 23a9 e33c be7b eb3b 706d dc3b 1b0a 2c3c
00000010: 8be7 d6bc ec97 b3bb bf8c cbbb 69dd 3bbc
00000020: e688 fbbc 9a83 40bc 6fbd 20bd 477d 37ba
00000030: d7a8 37bd 3d4e a33c 3a57 cc3c 66f0 17bc
00000040: 5ba6 023c fcb9 c5bc 27cb 92bb d0d3 b1bc
00000050: 4c2e 1bbb 16fe 9c3c 6986 2c3d b0ce 8b3c
00000060: b789 0a3d 725c 39bc 1724 ed3b a2d8 253b
00000070: efde 273d 56dc b53b 860f 0b3d 2ccb 0e3d
00000080: d92b d13c 2cd3 a23b 0bbd d6bb 8388 0f3d
00000090: 41df 3a3c cecd 81bd d8a7 a73c fb16 93bd
000000a0: ad59 993c 6b20 e3ba 6f4c 1abd cb4d 6f3c
000000b0: 584a b3bc 035e bfbb f82a f53c 8f5c 2b3d
000000c0: c70d 103d 5f2f a2bc dfcc a63c bc0e 9b3c
000000d0: e03b 89bb 8877 edbc eae5 e4bb 0b3c 95bc
000000e0: a357 0e3b 3fc7 0dbb 209e 43bb 3ef0 4c3c
000000f0: 15b1 2a3c a1c3 0b3c dad2 eabc e6fd 5dbc
00000100: 519d 533c 30cf 94bc 962b 2a3d 9587 4a3d
00000110: cb1a 06bd bcec ff3c f3d4 043c 2f24 c3bb
00000120: 844c 2e3b fe95 63bb 5f6d d6bc f9d5 f2bc
00000130: 249d b7bb bf05 663b b67c 8bbb 8c03 0cbc
00000140: edff 6e3c fc62 73bc efd0 55bd ba4e 1e3c
00000150: 8551 e13b 08ef 953c 964d 83bc 51e5 23bd
00000160: 7e88 083d 0f55 563b cf17 093d eef9 9fbc
00000170: 1e75 0a3d 9297 8d3c 8dd8 b13b f7bb e7bc
00000180: 1df6 c3bb 640d 3e3d 3e2b 68bc cba5 eb3c
00000190: ea51 dbbb 5fcc c93b 7a36 303d 812c 9ebc
000001a0: aed1 3a3c b1b2 41ba a222 823d cc39 42bd
000001b0: 8fd3 0639 ab2d 473d e1e3 2cbd cefc 8ebc
000001c0: 497d 043c 9de6 0dbb be95 11bb c941 d13c
000001d0: 612f 913d 6387 92bb d4b3 99bc c1df d33c
000001e0: 364a 6b3d c602 593d e66c edbb 02b9 32bc
000001f0: e21a 98ba 23fb 1b3c 4b52 aebc 69e4 cfbc
00000200: 5b76 533b ca6d 59bc a899 14bd 927c d43b
00000210: 3d16 433d cb82 333c b0b7 0f3d f7c0 5b3b
00000220: 8ae1 b3bc 38b3 3bbc b4eb 153d 79c8 2a3b
00000230: 218f 10bd 1c24 6fbc be21 4b3b 61ea 5a3c
00000240: c8e0 d1bc ed7c eb3b 6bdd 68b8 fc3a 983a
00000250: 1249 c6bc af8a eebc 8fea c23c 2460 1dbd
00000260: 7c1b 043d 4118 293d 01c8 963c 1a77 47bc
00000270: 010d 32bc aeca 13bd 8a1a b5bc 0bbc 6b3d
00000280: ba27 2abc 4ba9 62bc df6b e0bc 5399 bb3c
00000290: 63c5 77bd 6801 8e3d 7e76 cbbb 258c 04bd
000002a0: 6fcb 50bc 2aa9 833c a364 cc3c 2e83 303c
000002b0: 8f43 ebbc b7c3 b23c df91 7abc 0e45 e0bc
000002c0: ed38 8d3c d729 013d 03eb 083b d2ad 0c3d
000002d0: 710e b43c 7297 b8bc 8261 023c d43b b7bb
000002e0: 6307 8bbc 5511 8a3d efa5 c4bc 8170 10bd
000002f0: 4566 b3bb ea34 8f3b a537 053c 77e7 073a
00000300: 1f58 acbc c805 bc3c 6686 02bd d84d 81bd
00000310: f954 62bd 1076 0cbd 31fb 2c3d 135c f7bc
00000320: 4126 3ebd b69e 21b9 1b54 2a3d ec6f f2ba
00000330: f33d e73c facd 053d 8c30 d0bb 728f a3bc
00000340: a1dd 4d3d 2d85 22b9 d1df 1c3c aaf1 233c
00000350: ce3a 89bc 2b73 08bd a1e7 9bbc 6a34 cf3c
00000360: 6896 a1bc afd8 1cbd 0249 b5bc b58b f13c
00000370: 97ce 0bbd 15f1 4f3c 3b99 083d 92af babc
00000380: 8e1a de3a c81e 17bc 8f77 27bd 0ac9 833c
00000390: db97 f6bb 6a3f 443b 58f2 aabc fc6a 09bc
000003a0: 9b28 a13c 55c5 0c3d 5c19 193c 27f2 6b3d
000003b0: b265 45bb 91c4 0ebd 7668 d4bc 96b6 793c
000003c0: ff6f b7bc cc84 7abc 0e58 093d 9caf 193d
000003d0: 2a82 db3c 724f 013d e708 f7bb 198d 1c3c
000003e0: 4a80 14bc b13b 5d3c 1f75 843a 127e 1a3c
000003f0: 8a14 123d e827 6ebc d287 a13c 68bd 013d

bias f4 [2]
0.024210103 -0.0047399965
00000000: 4454 c63c f951 9bbb

exp_avg f4 [2, 768]
-0.01857006 0.0011131429 -0.0024038092 -0.0021731646 -0.01765616 -0.0057005174 0.028725276 -0.00037587635
-0.35565934 -0.033514764 0.003677193 0.026935846 -0.0006357158 0.022789542 0.019884897 0.013959634
0.009347344 0.019836236 -0.002233118 -0.01142446 -0.020751897 0.004878578 -0.0033827042 0.016638326
0.020392485 0.006223347 0.0014192499 0.022648329 0.0098663615 -0.0051228185 -0.01942378 -0.014827993
0.023112725 0.033964 0.0049292613 0.0026978482 0.020646045 -0.011702485 0.109628 -0.0061932406
0.0044479324 0.0084756585 -0.0049205115 -0.047887962 -0.016329188 -0.012972224 0.007956371 0.023631018
0.003940747 -0.023231834 -0.0063930717 -0.017567359 -0.009130982 0.0108054895 -0.016003018 -0.008389909
-0.0030744078 0.02817777 0.004004943 0.006986921 -0.023349259 0.035150453 0.0042591556 0.03606678
-0.00046361974 -0.021620648 -0.005319809 0.009164578 -0.015458487 -0.022646474 0.016809924 0.013635017
-0.017923778 0.004063889 0.012380937 0.011570227 -0.024471452 0.0030923437 -0.010376762 0.014381492
-0.010932545 -0.0057850173 0.01147582 -0.002135981 -0.005828074 0.0094391275 -0.047819834 -0.011231442
0.010772846 0.02067666 0.0054266006 -0.015250481 0.0027961147 -0.027908294 -0.019430129 0.010105709
0.00022873221 -0.00949324 0.0105850035 0.015300585 -0.008607477 -0.002591729 0.01874272 -0.016575677
-0.049775604 -0.018583776 -0.018198853 0.00791198 -0.0019625064 -0.013101864 0.01702066 0.00980668
-0.0032628071 0.01230052 -0.003759099 -0.006366723 -0.012130433 -0.007834626 -0.0194699 -0.016138855
-0.05089735 0.008955835 0.012384713 0.028179403 -0.019027634 -0.046549615 0.008864087 -0.006553933
-0.0009577253 -0.021957245 -0.008719493 0.010690749 -7.2699324e-05 0.018764975 -0.014414128 -0.019028673
-0.016125003 0.008293541 0.010827659 0.010464955 -0.016685003 -0.014625498 -0.019834539 -0.009950727
-0.0016451811 -0.010855613 0.0087998845 0.0245731 0.0131804785 0.013575811 0.00762135 0.011194778
0.004158782 -0.020491427 0.01609738 0.0075592087 -0.007160601 0.02706753 0.0030334124 -0.0153621035
-0.0073439013 -0.027119284 -0.0032838811 -0.016292984 0.0014270375 0.0098061105 0.00808062 0.032983597
-0.020789092 0.0027124304 -0.04623122 0.0081763165 -0.0085677635 0.008751154 0.0158472 0.011430262
-0.022875426 -0.017401911 -0.00017307138 0.008625615 0.022128183 -0.012636862 -0.00068087515 0.011716801
-0.019731663 -0.013500446 0.0004091327 0.012260721 -0.0044099567 -0.024746714 -0.0121228285 -0.008049263
0.005561729 -0.0109152375 0.00066147785 0.013674501 0.0005455124 0.005837964 0.0031522883 -0.0037082026
-0.008198769 -0.0026440918 0.0035065066 -0.013555353 -0.005670253 -0.015127413 0.011950072 -0.0012116384
0.005535957 0.0023191296 -0.0020030574 0.003609911 -0.005964985 -0.00046845505 -0.046964273 0.02265639
0.0023072418 0.0059888028 -0.015064112 0.019286163 -0.033883452 -0.008221885 -0.051473763 -0.016900964
-0.0083021065 -0.024045033 -0.012964587 0.015052689 -0.014359847 0.008326683 0.011560917 -0.029739112
-0.0018736228 0.017228378 0.026656397 0.0038302206 0.0117918765 0.0134939 0.022698056 -0.019040702
0.015445031 -0.009450598 0.0029983416 0.005107147 -0.004181327 -0.016539516 -0.0026380406 0.004760196
-0.016963338 -0.003895099 0.018608844 -0.021818904 -0.014449444 -0.0033116082 0.006266637 -0.0211395
00000000: 3d20 98bc e1e6 913a 3a89 1dbb a76b 0ebb
00000010: a7a3 90bc 68cb babb 4551 eb3c 4511 c5b9
00000020: fb18 b6be c746 09bd 10fd 703b 90a8 dc3c
00000030: 2aa6 26ba 22b1 ba3c a7e5 a23c f3b6 643c
00000040: 9a25 193c 9a7f a23c 8159 12bb a92d 3bbc
00000050: e2ff a9bc 7adc 9f3b 5cb0 5dbb 194d 883c
00000060: 240e a73c 38ed cb3b 2006 ba3a fd88 b93c
00000070: 85a6 213c 51dd a7bb 9e1e 9fbc 1cf1 72bc
00000080: e656 bd3c d61d 0b3d a485 a13b 62ce 303b
00000090: e521 a93c c8bb 3fbc a584 e03d abf0 cabb
000000a0: f6bf 913b 7ddd 0a3c 3e3c a1bb 2b26 44bd
000000b0: cac4 85bc 7389 54bc 705b 023c d695 c13c
000000c0: 6221 813b b050 bebc f97c d1bb 6ce9 8fbc
000000d0: 1d9a 15bc 8209 313c c318 83bc d475 09bc
000000e0: 017c 49bb 11d5 e63c e63b 833b 8bf2 e43b
000000f0: f246 bfbc ecf9 0f3d 6390 8b3b c3ba 133d
00000100: fd11 f3b9 c91d b1bc cb51 aebb 0727 163c
00000110: 9845 7dbc 1985 b9bc f7b4 893c 6865 5f3c
00000120: e3d4 92bc 5f2a 853b 6ad9 4a3c 0d91 3d3c
00000130: 5b78 c8bc eba8 4a3b 4b03 2abc 59a0 6b3c
00000140: 6b1e 33bc 3e90 bdbb 1405 3c3c d1fb 0bbb
00000150: 6ef9 bebb 92a6 1a3c bbde 43bd 1504 38bc
00000160: 9780 303c 1962 a93c a0d1 b13b 27dd 79bc
00000170: 053f 373b ef9f e4bc ef2b 9fbc 6a92 253c
00000180: d6d7 6f39 8989 1bbc b96c 2d3c 4eaf 7a3c
00000190: 6006 0dbc ffd9 29bb 558a 993c b7c9 87bc
000001a0: 81e1 4bbd 013d 98bc c315 95bc 40a1 013c
000001b0: 659d 00bb 33a9 56bc e96e 8b3c 32ac 203c
000001c0: d2d4 55bb 1f88 493c 375b 76bb f29f d0bb
000001d0: b9be 46bc ce5c 00bc 577f 9fbc a235 84bc
000001e0: bd79 50bd 7fbb 123c 40e9 4a3c 7ed8 e63c
000001f0: d7df 9bbc cfaa 3ebd ad3a 113c 60c2 d6bb
00000200: db0f 7bba aedf b3bc 34dc 0ebc 4028 2f3c
00000210: 2776 98b8 01b9 993c 3c29 6cbc 05e2 9bbc
00000220: 9518 84bc a2e1 073c 7e66 313c 3475 2b3c
00000230: fdae 88bc c99f 6fbc 0b7c a2bc 6008 23bc
00000240: 1ea3 d7ba bedb 31bc 642d 103c 874d c93c
00000250: eff2 573c 146d 5e3c 85bc f93b 4d6a 373c
00000260: 6446 883b a3dd a7bc a7de 833c 3db3 f73b
00000270: 7aa3 eabb babc dd3c 37cc 463b 55b1 7bbc
00000280: 1ca5 f0bb 4329 debc 6236 57bb dd78 85bc
00000290: 6f0b bb3a cfa9 203c 9464 043c cf19 073d
000002a0: e34d aabc 08c3 313b f35c 3dbd f5f5 053c
000002b0: ce5f 0cbc 0061 0f3c fdd1 813c fe45 3b3c
000002c0: 3f65 bbbc 748e 8ebc 7f7a 35b9 7452 0d3c
000002d0: 2a46 b53c d70a 4fbc c27c 32ba d3f7 3f3c
000002e0: 4ca4 a1bc fa30 5dbc dd80 d639 31e1 483c
000002f0: 6681 90bb 9fb9 cabc d49e 46bc 0ee1 03bc
00000300: 2a3f b63b d3d5 32bc 0767 2d3a 040b 603c
00000310: b800 0f3a 644c bf3b 9f96 4e3b 5105 73bb
00000320: 2154 06bc 8048 2dbb 6bcd 653b 4517 5ebc
00000330: 88cd b9bb f8d8 77bc 3cca 433c d7cf 9eba
00000340: f966 b53b 8afc 173b ba45 03bb 4294 6c3b
00000350: ec75 c3bb f99a f5b9 9c5d 40bd e599 b93c
00000360: 1835 173b b83d c43b 77cf 76bc 04fe 9d3c
00000370: 60c9 0abd 16b5 06bc 27d6 52bd e473 8abc
00000380: 8f05 08bc 17fa c4bc 6b69 54bc 8e9f 763c
00000390: 9045 6bbc a46c 083c 006a 3d3c 709f f3bc
000003a0: 5994 f5ba 8722 8d3c 845e da3c 7004 7b3b
000003b0: b732 413c 8515 5d3c 46f1 b93c 3ffb 9bbc
000003c0: 280d 7d3c aed6 1abc d37f 443b db59 a73b
000003d0: 8303 89bb e17d 87bc fae2 2cbb 6bfb 9b3b
000003e0: b3f6 8abc eb44 7fbb 9371 983c 8fbd b2bc
000003f0: 5cbd 6cbc 9107 59bb 5c58 cd3b bf2c adbc

exp_avg_sq f4 [2, 768]
0.00424704 0.0018555789 0.002470614 0.024673142 0.030329559 0.0014377603 0.07879601 0.0106457835
11.8014965 0.070504695 0.0019827117 0.019620743 0.008291811 0.05217198 0.014901378 0.004481209
0.0014494536 0.0078020953 0.0054848883 0.012193771 0.010054159 0.011627164 0.007910422 0.0158493
0.060147177 0.0046311896 0.0018665978 0.02835859 0.0017511919 0.0022758616 0.059152678 0.01066264
0.009579831 0.047949858 0.008606854 0.020666445 0.038324423 0.001360958 1.0695728 0.0017370951
0.006469658 0.0061106426 0.0016950936 0.41165096 0.052179135 0.0027620397 0.028301967 0.010670439
0.0015800409 0.014731985 0.008690227 0.012597657 0.008387695 0.0015442651 0.018392457 0.0054251202
0.004217275 0.015270858 0.017471984 0.007925676 0.018156707 0.022706434 0.00230952 0.09659595
0.001823623 0.05547896 0.010357875 0.0023259162 0.03508726 0.03380774 0.004029106 0.0099053215
0.0022756893 0.005526159 0.0041067568 0.0106660575 0.032783747 0.0019435935 0.018742891 0.015293319
0.0020992958 0.0056009465 0.0024011733 0.0013915984 0.009434318 0.0048967698 0.09938293 0.0036895857
0.023136636 0.0028215346 0.009265102 0.0010894754 0.030455424 0.05614553 0.010796408 0.0038621589
0.0037587618 0.0068046907 0.007785209 0.07822401 0.005166403 0.007780098 0.022743454 0.010865527
0.16655245 0.0023449385 0.001736652 0.003662744 0.024650142 0.0040305355 0.009862533 0.00864982
0.0052406234 0.009166141 0.0050251763 0.0013461873 0.0017828894 0.009235721 0.03154969 0.018585198
0.010884178 0.0019350658 0.0020230615 0.035453822 0.008189726 0.08456663 0.0061536967 0.0024634078
0.012015599 0.004654508 0.0066140722 0.018357571 0.0015683604 0.022543056 0.023925116 0.014220891
0.009868612 0.0035932057 0.012114481 0.002237016 0.023383906 0.010311038 0.020419247 0.014696056
0.007915358 0.008227032 0.002109901 0.055973925 0.0030058133 0.010307558 0.005183248 0.0019284674
0.008197494 0.026926164 0.028301775 0.05042288 0.0016479044 0.039588965 0.008098913 0.009176735
0.016905077 0.023128608 0.004126087 0.0015534831 0.0025484094 0.0021749404 0.006424225 0.03954028
0.006739923 0.0030512058 0.06375804 0.0024815802 0.0021289971 0.0046714116 0.0214898 0.06457335
0.032486863 0.024554493 0.0030823182 0.011435172 0.033944868 0.025855232 0.010963651 0.0015656283
0.02403433 0.0020745934 0.011802373 0.001796813 0.0040989267 0.03081823 0.03397297 0.005443551
0.008638944 0.0023226303 0.02357886 0.0019557588 0.01068879 0.0021408198 0.010249738 0.0027849134
0.0057901116 0.0034654918 0.014705474 0.0022744655 0.007594885 0.004192552 0.005325914 0.0016678984
0.0030564996 0.004320069 0.004122443 0.0072891405 0.0030095738 0.0064453296 0.2773564 0.012989294
0.0056183226 0.017079506 0.010426449 0.06960256 0.009665962 0.005295774 0.17413032 0.01517233
0.011877585 0.0026394592 0.009649356 0.027359597 0.008658143 0.0017260689 0.0072236867 0.13400641
0.012352735 0.0017133354 0.025933363 0.0016380611 0.02524687 0.015412245 0.038338624 0.014236919
0.00784824 0.003583331 0.0030063977 0.0059030587 0.0017955605 0.0025408429 0.0029259955 0.0039507514
0.017313346 0.0032928633 0.042854022 0.022534514 0.01262414 0.0019593074 0.0012822156 0.025841722
00000000: c12a 8b3b e536 f33a 06ea 213b 541f ca3c
00000010: b275 f83c 3b73 bc3a cd5f a13d a76b 2e3c
00000020: eed2 3c41 c464 903d 62f0 013b aebb a03c
00000030: 60da 073c 49b2 553d e924 743c 1bd7 923b
00000040: 98fb bd3a b8a8 ff3b 94ba b33b 62c8 473c
00000050: 33ba 243c dc7f 3e3c b79a 013c 64d6 813c
00000060: e35c 763d 3cc1 973b a1a8 f43a 4650 e83c
00000070: 4088 e53a 9f26 153b 144a 723d 5bb2 2e3c
00000080: b9f4 1c3c 1267 443d c303 0d3c ad4c a93c
00000090: 12fa 1c3d 2c62 b23a c3e7 883f 3daf e33a
000000a0: 6dff d33b c93b c83b e72d de3a eac3 d23e
000000b0: cab9 553d 5603 353b 87d9 e73c 11d3 2e3c
000000c0: 6019 cf3a 6c5e 713c 7461 0e3c 6766 4e3c
000000d0: 8b6c 093c f068 ca3a c7ab 963c 35c5 b13b
000000e0: 1131 8a3b 9f32 7a3c 6821 8f3c b2da 013c
000000f0: 60bd 943c d802 ba3c 515b 173b 19d4 c53d
00000100: a206 ef3a e83d 633d 14b4 293c 666e 183b
00000110: a9b7 0f3d fc79 0a3d 9706 843b ee49 223c
00000120: bb23 153b c814 b53b f991 863b b0c0 2e3c
00000130: 4048 063d 2dc0 fe3a b18a 993c d490 7a3c
00000140: 5794 093b 2588 b73b 015d 1d3b 4b66 b63a
00000150: 6692 1a3c 1575 a03b 4789 cb3d facc 713b
00000160: 0b89 bd3c 7fe9 383b a8cc 173c bacc 8e3a
00000170: a77d f93c dbf8 653d 6be3 303c 461c 7d3b
00000180: 8f55 763b e2f9 de3b 111b ff3b e933 a03d
00000190: ee4a a93b 31f0 fe3b 7b50 ba3c 5305 323c
000001a0: ba8c 2a3e 8aad 193b 5fa0 e33a a60a 703b
000001b0: 18ef c93c 9512 843b 7696 213c fab7 0d3c
000001c0: 89b9 ab3b 952d 163c 3caa a43b 8d72 b03a
000001d0: d7af e93a 6c51 173c 3f3a 013d fc3f 983c
000001e0: 8d53 323c 09a2 fd3a 5795 043b 0738 113d
000001f0: 332e 063c 4531 ad3d f3a4 c93b 2071 213b
00000200: 13dd 443c d884 983b dcba d83b 9e62 963c
00000210: 7191 cd3a 37ac b83c 9bfe c33c bdfe 683c
00000220: f5af 213c fd7b 6b3b d17b 463c e79a 123b
00000230: 9b8f bf3c a1ef 283c 4446 a73c bac7 703c
00000240: 6baf 013c acca 063c 4446 0a3b ea44 653d
00000250: 2efd 443b 08e1 283c 3cd8 a93b a1c4 fc3a
00000260: c84e 063c 4294 dc3c 20d9 e73c 3988 4e3d
00000270: 7ffe d73a 0a28 223d 4eb1 043c 045a 163c
00000280: 847c 8a3c 3578 bd3c 2034 873b 3e9e cb3a
00000290: 3703 273b 7289 0e3b 4e82 d23b fdf4 213d
000002a0: 92da dc3b bdf6 473b 9393 823d 02a2 223b
000002b0: a586 0b3b a412 993b 610b b03c 083f 843d
000002c0: f210 053d 8126 c93c b800 4a3b 965a 3b3c
000002d0: c609 0b3d 5ace d33c e3a0 333c c535 cd3a
000002e0: a5e3 c43c e7f5 073b be5e 413c 0a83 eb3a
000002f0: 4a50 863b 8376 fc3c 3e27 0b3d d15f b23b
00000300: 5b8a 0d3c 4537 183b 7428 c13c 302c 003b
00000310: 0920 2f3c ff4c 0c3b 84ee 273c 1883 363b
00000320: faba bd3b 4e1d 633b 3aef 703c 330f 153b
00000330: 83de f83b ad61 893b 0185 ae3b 629d da3a
00000340: 8e4f 483b 5e8f 8d3b 8f15 873b bed9 ee3b
00000350: 453c 453b 5833 d33b a801 8e3e 0cd1 543c
00000360: e819 b83b 52ea 8b3c b2d3 2a3c c98b 8e3d
00000370: fc5d 1e3c 2c88 ad3b 384f 323e 5d95 783c
00000380: 349a 423c c7fa 2c3b 5518 1e3c 3c21 e03c
00000390: e2da 0d3c 433d e23a adb4 ec3b fa38 093e
000003a0: 2063 4a3c ff91 e03a 3472 d43c 36b4 d63a
000003b0: 86d2 ce3c a483 7c3c f608 1d3d f741 693c
000003c0: e895 003c 51d6 6a3b fc06 453b 726e c13b
000003d0: 0359 eb3a 4584 263b 0fc2 3f3b 4e75 813b
000003e0: b8d4 8d3c 14cd 573b b387 2f3d 4d9a b83c
000003f0: 7bd5 4e3c b967 003b 0410 a83a 05b2 d33c

exp_avg f4 [2]
0.017830683 -0.017830675
00000000: a711 923c a311 92bc

exp_avg_sq f4 [2]
0.028250514 0.028250517
00000000: 9f6d e73c a16d e73c
