TASK2/gender_classification_model/checkpoint_step_7000.pth (torch, 22979 bytes, 6 tensors)

weight f4 [2, 768]
0.02961675 0.00721543 0.010163733 0.011746675 -0.026419224 -0.002597414 -0.0070094694 -0.014373352
-0.030261807 -0.011726705 -0.040915225 -0.00094259076 -0.044310667 0.0194526 0.024932684 -0.008914898
0.0097993435 -0.022990316 -0.0037894635 -0.021440554 -0.0021540355 0.020580856 0.041325208 0.015672326
0.033793736 -0.011469437 0.008293688 0.0018049518 0.0438115 0.0026474062 0.03386718 0.033574354
0.024489677 0.003874411 -0.007611007 0.03442278 0.0112145785 -0.06276165 0.019842552 -0.07318488
0.019855 -0.00019458265 -0.034504797 0.0149054285 -0.021363743 -0.0052246614 0.03030488 0.041981068
0.034305096 -0.020428104 0.019114975 0.019511336 -0.005022768 -0.025850942 -0.0067017223 -0.017608335
0.0013992458 -0.0028597328 -0.0035713078 0.0131796645 0.010098667 0.008163721 -0.031325128 -0.014456463
0.0074762315 -0.017262695 0.041795906 0.049579486 -0.033186324 0.031468272 0.007046263 -0.0042366716
0.00012594338 -0.0054358426 -0.026455669 -0.031249303 -0.006113287 0.006337369 -0.0041304566 -0.010555473
0.015934234 -0.017445212 -0.05424907 0.0062223785 0.0077124326 0.016986812 -0.015955685 -0.042239036
0.033400893 0.008079081 0.03249651 -0.023679042 0.033972643 0.018213969 0.0063624964 -0.027953453
-0.0023122667 0.046393003 -0.012991475 0.028718017 -0.005039898 0.0073691695 0.04425942 -0.020104008
0.0115230065 0.001883212 0.063525274 -0.049625423 -0.0007563541 0.051356044 -0.04174519 -0.019000005
0.009989205 -0.0035637657 -0.0004551994 0.024953509 0.07644362 -0.006130858 -0.017160803 0.026645172
0.060730625 0.05551013 -0.0062894905 -0.010041771 5.3658773e-06 0.009243805 -0.023429971 -0.025592187
0.0033369863 -0.0156157 -0.036624487 0.0063892193 0.04595869 0.011592052 0.035328977 0.005070877
-0.022299657 -0.012149829 0.036260825 5.882484e-05 -0.034621045 -0.013965562 0.0026081842 0.013010797
-0.026379457 0.006558317 -0.0003302086 0.0008504214 -0.022971023 -0.029795738 0.022977997 -0.04130602
0.03240531 0.042581208 0.018962195 -0.012098345 -0.006098473 -0.036852155 -0.023283938 0.058811713
-0.008896745 -0.0145072425 -0.027005676 0.021820994 -0.057154734 0.07280414 -0.008499742 -0.032587692
-0.0134115 0.015166671 0.02584958 0.010670103 -0.029667921 0.023383157 -0.015156009 -0.027864847
0.017572513 0.032468237 0.0011181099 0.03569878 0.02193817 -0.021074452 0.008081108 -0.005089152
-0.016733717 0.070364594 -0.025948124 -0.036459684 -0.006202901 0.0052485336 0.0089910915 8.810678e-05
-0.02072318 0.028531061 -0.03234339 -0.06604634 -0.05724915 -0.034448482 0.042637732 -0.03343958
-0.047134537 8.151565e-05 0.043101583 -0.001943135 0.029076185 0.03387025 -0.0048693 -0.019304756
0.05033438 0.0010298134 0.008555625 0.009421833 -0.016673606 -0.035658002 -0.018800195 0.02653025
-0.022206167 -0.037055504 -0.022199526 0.028544145 -0.03645508 0.013526406 0.03354928 -0.023572301
0.0028568166 -0.011011123 -0.041388832 0.01576525 -0.0065695667 0.0012713897 -0.02141988 -0.008018069
0.01925729 0.034272037 0.008473939 0.06400016 -0.0029576865 -0.036256477 -0.0281183 0.017043594
-0.02429214 -0.017195122 0.03290122 0.036280204 0.027563585 0.032570127 -0.0058706608 0.009658974
-0.008547503 0.014754771 -0.00036884673 0.009841617 0.036282245 -0.01387206 0.016916946 0.032408297
00000000: d49e f23c 6a6f ec3b c985 263c 2075 403c
00000010: 216d d8bc 6039 2abb b1af e5bb 357e 6bbc
00000020: 9ce7 f7bc 5e21 40bc b996 27bd 3218 77ba
00000030: 1a7f 35bd 0f5b 9f3c a13f cc3c cb0f 12bc
00000040: 6d8d 203c 3056 bcbc a658 78bb 1aa4 afbc
00000050: b82a 0dbb 2f99 a83c 9f44 293d 4063 803c
00000060: 4d6b 0a3d 4eea 3bbc 40e2 073c 2294 ec3a
00000070: b073 333d 1b80 2d3b 50b8 0a3d 4385 093d
00000080: 939e c83c d5e9 7d3b c165 f9bb e7fe 0c3d
00000090: 5abd 373c 2e89 80bd d98c a23c f4e1 95bd
000000a0: f4a6 a23c e208 4cb9 e754 0dbd e635 743c
000000b0: 0403 afbc a333 abbb f141 f83c 57f4 2b3d
000000c0: 8083 0c3d d758 a7bc 0297 9c3c 3dd6 9f3c
000000d0: 0896 a4bb 5bc5 d3bc 1f9a dbbb 5b3f 90bc
000000e0: e666 b73a 5b6a 3bbb 9a0c 6abb 85ef 573c
000000f0: e174 253c 21c1 053c c74e 00bd cdda 6cbc
00000100: 2dfb f43b 7f6a 8dbc 2f32 2b3d dc13 4b3d
00000110: 62ee 07bd e0e4 003d 57e4 e63b c7d3 8abb
00000120: ab0f 0439 271f b2bb 8fb9 d8bc 8afe ffbc
00000130: f851 c8bb b4a9 cf3b c858 87bb ddf0 2cbc
00000140: 8388 823c 43e9 8ebc 4634 5ebd 18e5 cb3b
00000150: 93b8 fc3b ed27 8b3c 7fb5 82bc d702 2dbd
00000160: 60cf 083d 1f5e 043c 0f1b 053d 8dfa c1bc
00000170: e626 0b3d 7635 953c 7d7c d03b a4fe e4bc
00000180: 6689 17bb 9706 3e3d 32da 54bc 0c42 eb3c
00000190: bb25 a5bb 1379 f13b 5e49 353d 29b1 a4bc
000001a0: feca 3c3c 1cd6 f63a 8a19 823d 0744 4bbd
000001b0: 1046 46ba b75a 523d 01fd 2abd e6a5 9bbc
000001c0: c3a9 233c 118e 69bb d4a7 eeb9 4d6b cc3c
000001d0: 798e 9c3d 5de5 c8bb d094 8cbc fa46 da3c
000001e0: adc0 783d 975e 633d 1218 cebb 3e86 24bc
000001f0: 890c b436 5473 173c 36f0 bfbc b5a6 d1bc
00000200: 57b1 5a3b fed8 7fbc 8f03 16bd a85c d13b
00000210: 2e3f 3c3d 97ec 3d3c 1eb5 103d 9929 a63b
00000220: c5ad b6bc 1410 47bc 3b86 143d b1ba 7638
00000230: ccce 0dbd d0cf 64bc 12ee 2a3b 3d2b 553c
00000240: bb19 d8bc 27e7 d63b d91f adb9 d0ee 5e3a
00000250: ba2d bcbc 3116 f4bc 5a3c bc3c 8030 29bd
00000260: 6ebb 043d a269 2e3d 9b56 9b3c 2338 46bc
00000270: b3d5 c7bb 49f2 16bd f5bd bebc 8de4 703d
00000280: a7c3 11bc c9af 6dbc 023b ddbc f1c1 b23c
00000290: 151b 6abd 561a 953d 8042 0bbc ac7a 05bd
000002a0: e8bb 5bbc a17d 783c 80c2 d33c a8d1 2e3c
000002b0: 240a f3bc 098e bf3c e950 78bc d244 e4bc
000002c0: 3bf4 8f3c 6afd 043d 8b8d 923a e238 123d
000002d0: adb7 b33c 54a4 acbc a066 043c e7c2 a6bb
000002e0: 2615 89bc 501b 903d 2991 d4bc c056 15bd
000002f0: b441 cbbb e4fb ab3b 5f4f 133c f8c5 b838
00000300: a9c3 a9bc f9b9 e93c 817a 04bd 4e43 87bd
00000310: 167e 6abd da19 0dbd e7a4 2e3d f1f7 08bd
00000320: 2510 41bd 62f3 aa38 498b 303d cbb0 feba
00000330: 2e31 ee3c 88bb 0a3d a68e 9fbb 0225 9ebc
00000340: 6c2b 4e3d cefa 863a e42c 0c3c 085e 1a3c
00000350: 1697 88bc 200e 12bd de02 9abc f855 d93c
00000360: b5e9 b5bc 83c7 17bd c8db b5bc 69d5 e93c
00000370: ec51 15bd dc9d 5d3c f86a 093d b31a c1bc
00000380: 6e39 3b3b ff67 34bc 5687 29bd 2026 813c
00000390: 8545 d7bb c2a4 a63a bf78 afbc 385e 03bc
000003a0: 77c1 9d3c d660 0c3d 47d6 0a3c 8412 833d
000003b0: bfd5 41bb ac81 14bd 5958 e6bc 029f 8b3c
000003c0: 4f00 c7bc c9dc 8cbc 6ec3 063d 8d9a 143d
000003d0: 07cd e13c 4168 053d ac5e c0bb ac40 1e3c
000003e0: d30a 0cbc ffbd 713c c561 c1b9 bc3e 213c
000003f0: b19c 143d a347 63bc 6895 8a3c 90be 043d

bias f4 [2]
0.02371585 -0.00425742
00000000: be47 c23c d481 8bbb

exp_avg f4 [2, 768]
-0.0029306184 0.008895914 -0.017183978 -0.00018201544 -0.010690626 -0.01112842 0.0021138375 -0.017742941
0.07030594 -0.016692061 -0.00051065075 0.0050069587 0.008639637 0.0036970838 0.007979905 -0.018081825
0.0076871584 0.016543938 0.0076827975 -0.009962795 -0.005882492 0.004333823 -0.0011890742 0.00096998154
0.0004820713 -0.006719359 0.01794632 -0.006077593 0.0009411586 0.02412643 0.0026972461 -0.0051109134
0.011561885 -0.002100725 0.002294309 -0.008525314 0.0010653009 0.0059778313 -0.04214898 -0.013702394
0.0052410266 -0.009137957 0.010431373 0.043214247 -0.0003131741 0.0068855123 0.008055209 -0.003931928
-0.003812912 -0.0009382302 0.00073393964 0.006381598 -0.002471571 -0.0071273027 0.01620533 0.0059545534
0.0014396409 0.0048612026 -0.0049086697 -0.013640928 -0.018398615 -0.005113846 -0.017287804 0.0034803003
0.0014145868 -0.0087723015 -0.022538008 0.002548771 0.004272031 -0.007898312 0.014749016 0.008655641
-0.0064901332 0.027541175 0.008143079 -0.009730216 -0.010035083 -0.01860264 -0.011323224 -0.006261162
0.0017534096 -0.022816049 0.0036928602 0.012282212 -0.0035090346 0.007312132 0.009297081 -0.023362273
0.02088326 0.0044145556 0.0041459464 -0.009644532 -0.008086789 0.021041624 0.004178613 0.013217613
0.012137514 -0.0027771986 0.005990232 -0.013846017 -0.007953781 -0.013813762 -0.021386085 -0.0005464511
0.007713746 -0.012999269 -0.014081138 -0.020633545 -0.010255001 -0.006215253 -0.0038958539 0.01737943
-0.016527915 -0.009835208 -0.0057219737 0.0071138125 -0.0051557096 0.0025071667 0.00054185337 0.007114429
-0.005238714 -0.0029594083 -0.005040513 0.009823361 -0.0050044814 -0.0016487634 0.004937499 -0.015862202
0.0060905875 -0.007584375 -0.007285365 0.002668407 -0.0025254618 -0.023784932 0.0062322114 -0.002196764
0.008274261 -0.0014901035 -0.000803101 -0.0054585356 0.00070744986 0.0020496107 0.0177846 -0.0034194826
0.004617437 -0.02730496 -0.0077282866 -0.0020860636 -0.01323075 -0.0042873737 0.0041143033 0.0020631314
-0.00011425964 0.015619307 -0.006700119 -0.0022098762 0.003867125 0.00440799 0.006863962 -0.0023444032
0.01121569 0.015101044 0.0031149879 0.00079200644 0.008002676 -0.003249799 0.007929955 -0.018229138
0.0009167177 0.001318166 -0.0094379205 0.0019845415 0.012868989 0.015598521 -0.029855588 0.0012467363
-0.0008036376 -0.00036293894 -0.012720358 -0.009756383 0.0011755091 -0.021549031 0.009182541 0.007843853
0.00472473 -0.010832755 -0.0037264656 -0.0025300202 -0.012236237 -0.014505345 -0.012066012 -0.003960105
-0.0043113623 -0.007820335 0.0003042769 -0.0046850774 0.013075938 0.0035523307 -0.014053249 -0.00088624796
-0.004702775 -0.0009209189 0.007076579 -0.009516475 0.010908918 -0.013247582 -0.0023694858 -0.0007171473
-0.005063669 0.017589983 -0.015168558 0.0029012319 -0.012336173 0.009432145 0.02100831 0.0030271907
-0.0051393816 -0.01662263 0.0076151504 -0.0037321886 -9.391566e-05 -0.021565294 -0.0040119933 0.0068280953
0.006714337 -0.0084746 0.0023801625 -0.005329437 -0.0039208476 0.00045467177 0.005954547 0.005569218
0.003142815 0.016645228 6.1434675e-06 -0.004888641 -0.010571568 -0.010866521 -0.0054983823 -0.0006031744
5.9662056e-05 -0.005423083 -0.0051826886 -0.004198126 0.0065765386 -0.0058934786 -0.011367006 0.0017362831
-0.012976482 0.0038749473 0.01902672 -0.0039228606 -0.0029155859 0.0050725797 0.0066680866 -0.002261396
00000000: 9e0f 40bb 2bc0 113c 6ac5 8cbc 66db 3eb9
00000010: bc27 2fbc fa53 36bc 4f88 0a3b a559 91bc
00000020: 90fc 8f3d cabd 88bc 31dd 05ba 6a11 a43b
00000030: 448d 0d3c c64a 723b 26be 023c 5620 94bc
00000040: 8fe4 fb3b 2787 873c fabf fb3b fe3a 23bc
00000050: ebc1 c0bb be02 8e3b b6da 9bba 5c46 7e3a
00000060: 84be fc39 122e dcbb 2904 933c 8c26 c7bb
00000070: 16b8 763a caa4 c53c 48c4 303b 7379 a7bb
00000080: 0f6e 3d3c 51ac 09bb 1e5c 163b c2ad 0bbc
00000090: 91a1 8b3a afe1 c33b 69a4 2cbd 0280 60bc
000000a0: ebbc ab3b 5fb7 15bc 59e8 2a3c 6c01 313d
000000b0: 8431 a4b9 dd9f e13b fff9 033c 67d7 80bb
000000c0: 0ce2 79bb 90f3 75ba db65 403a b91c d13b
000000d0: 15fa 21bb 268c e9bb 0ac1 843c 6a1e c33b
000000e0: 55b2 bc3a b94a 9f3b e8d8 a0bb 337e 5fbc
000000f0: b1b8 96bc 0d92 a7bb 279f 8dbc c015 643b
00000100: a869 b93a b3b9 0fbc a1a1 b8bc 4809 273b
00000110: 65fc 8b3b ec67 01bc dba5 713c 64d0 0d3c
00000120: 2fab d4bb 089e e13c 8c6a 053c 7c6b 1fbc
00000130: 306a 24bc 9064 98bc 0b85 39bc 6f2a cdbb
00000140: aad2 e53a b9e8 babc ea03 723b 553b 493c
00000150: d5f7 65bb 9c9a ef3b c952 183c 3d62 bfbc
00000160: 5f13 ab3c faa7 903b b8da 873b 1904 1ebc
00000170: 747e 04bc 7c5f ac3c bfec 883b b08e 583c
00000180: 6cdc 463c a901 36bb b549 c43b 68da 62bc
00000190: 9350 02bc 1e53 62bc df31 afbc b63f 0fba
000001a0: 97c3 fc3b e3fa 54bc 93b4 66bc ae07 a9bc
000001b0: 9704 28bc 52a9 cbbb 9551 7fbb 4e5f 8e3c
000001c0: 8d65 87bc da23 21bc 657f bbbb fc1a e93b
000001d0: 3af1 a8bb 474f 243b 2a0b 0e3a 2820 e93b
000001e0: 85a9 abbb a2f2 41bb e32a a5bb 2af2 203c
000001f0: a2fc a3bb 521b d8ba beca a13b 73f1 81bc
00000200: 8d93 c73b 5986 f8bb 12ba eebb 71e0 2e3b
00000210: 3882 25bb 9ed8 c2bc 9437 cc3b 96f7 0fbb
00000220: c490 073c 944f c3ba 3287 52ba 84dd b2bb
00000230: 2874 393a c352 063b 02b1 913c 6619 60bb
00000240: de4d 973b a7ae dfbc 913d fdbb 57b6 08bb
00000250: cac5 58bc 197d 8cbb 47d1 863b 9a35 073b
00000260: ad9e efb8 1fe8 7f3c ac8c dbbb 92d3 10bb
00000270: 976f 7d3b e670 903b 16eb e03b 8fa4 19bb
00000280: 03c2 373c 5f6a 773c d324 4c3b a79e 4f3a
00000290: a81d 033c 94fa 54bb a4ec 013c 4655 95bc
000002a0: e24f 703a 50c6 ac3a 82a1 1abc 150f 023b
000002b0: 74d8 523c f090 7f3c b593 f4bc 8769 a33a
000002c0: 35ab 52ba d748 beb9 0c69 50bc 3cd9 1fbc
000002d0: 8a13 9a3a 9887 b0bc 5e72 163c 8183 003c
000002e0: e8d1 9a3b de7b 31bc b837 74bb b2ce 25bb
000002f0: 7f7a 48bc d4a7 6dbc 86b0 45bc c5c3 81bb
00000300: 5446 8dbb dd20 00bc 5b87 9f39 4785 99bb
00000310: 763c 563c 38ce 683b 993f 66bc 1853 68ba
00000320: bc19 9abb d269 71ba a6e2 e73b fdea 1bbc
00000330: 52bb 323c 630c 59bc 6049 1bbb f1fe 3bba
00000340: 22ed a5bb de18 903c 8b85 78bc 9822 3e3b
00000350: a91d 4abc 4989 1a3c 9f19 ac3c d563 463b
00000360: 4268 a8bb 2f2c 88bc 8388 f93b bc97 74bb
00000370: 96f4 c4b8 b3a9 b0bc 0a77 83bb 37be df3b
00000380: f103 dc3b 0cd9 0abc 80fc 1b3b 8fa2 aebb
00000390: 747a 80bb 0361 ee39 5c1e c33b fd7d b63b
000003a0: b0f7 4d3b 935b 883c fc23 ce36 e530 a0bb
000003b0: 5f34 2dbc 7e09 32bc c62b b4bb 591e 1eba
000003c0: a53d 7a38 1eb4 b1bb 8bd3 a9bb 6f90 89bb
000003d0: 0180 d73b 151e c1bb ae3c 3abc fe93 e33a
000003e0: 4f9b 54bc d4f2 7d3b eddd 9b3c 578b 80bb
000003f0: 6a13 3fbb e237 a63b f77f da3b ee33 14bb

exp_avg_sq f4 [2, 768]
0.004195223 0.001825399 0.0024254434 0.024101187 0.030556679 0.0014295364 0.07887968 0.010752173
11.897085 0.07092049 0.0019104766 0.019776532 0.008064572 0.052809775 0.015153043 0.0047409907
0.0014233011 0.007931767 0.0052127545 0.0121674575 0.010032217 0.011546286 0.008115276 0.015768144
0.06084783 0.0047270125 0.0018546592 0.028334111 0.0017675421 0.0021457092 0.059597097 0.010711391
0.009966827 0.04873829 0.008642197 0.020982709 0.037686776 0.0013234206 1.0865219 0.0016857473
0.0062493915 0.0061293235 0.0018214707 0.41963264 0.052404333 0.0027865865 0.028866626 0.01100953
0.0016673934 0.014870586 0.008799956 0.012748244 0.008094233 0.0015660899 0.018308397 0.0054560844
0.0043344586 0.015355182 0.017556885 0.0077638426 0.018367032 0.02260835 0.0022934447 0.096090786
0.001878175 0.055757407 0.010657762 0.00224961 0.035210133 0.033994347 0.0039942195 0.009738294
0.002257193 0.0057478626 0.0042717056 0.010817023 0.032985047 0.0019112332 0.018745674 0.015953638
0.0021682275 0.005661818 0.0023645042 0.0014204021 0.009464613 0.0048831333 0.10022216 0.0037979234
0.023509765 0.0027908783 0.009269906 0.001135344 0.03088544 0.056590125 0.011083533 0.0037986236
0.0039215814 0.006850312 0.0076545263 0.07881756 0.005106963 0.007963817 0.023094257 0.010850117
0.16851804 0.0023805753 0.0017376279 0.0036716785 0.024806455 0.003984127 0.009777888 0.0085888645
0.005291764 0.009345058 0.0049006864 0.0013320182 0.0018479901 0.009484531 0.031819887 0.018548915
0.010749712 0.0019442199 0.0020357035 0.036112078 0.008397068 0.08592109 0.0061730156 0.0024811157
0.012368877 0.0047666444 0.0064272988 0.018582748 0.0015450144 0.023226762 0.02411952 0.014221633
0.010033296 0.0035408998 0.012007046 0.0022276198 0.023140961 0.01040157 0.020706013 0.0151389865
0.007887949 0.00834365 0.0022846952 0.057251018 0.003071972 0.010230597 0.005163295 0.0020622269
0.00853251 0.027053827 0.028433723 0.050140955 0.0016971966 0.040259812 0.007899501 0.008996848
0.016871672 0.023295397 0.0041308342 0.0014765582 0.0025543754 0.0021175898 0.0061924267 0.040118027
0.006526543 0.0031170007 0.06465165 0.0024047669 0.0020994216 0.0045278147 0.021337967 0.06508056
0.03287924 0.024696216 0.0031744444 0.011402855 0.033984985 0.025274498 0.011154258 0.0015529667
0.023998484 0.0021966298 0.011898225 0.0017605374 0.0040496797 0.0309189 0.033613317 0.005348351
0.00875027 0.0024019 0.023680635 0.0020195385 0.010832602 0.0020635442 0.010398488 0.0027740228
0.0055776336 0.003392856 0.014842426 0.0022476986 0.007820385 0.004179342 0.005282608 0.0016197297
0.0030363763 0.0043601086 0.0041441047 0.0071011167 0.0031030884 0.006427838 0.2768811 0.0131497355
0.0055083144 0.017067784 0.010651489 0.07066028 0.009512272 0.005422297 0.17357174 0.015062103
0.011830397 0.0027043202 0.009716873 0.027892582 0.008675001 0.0017150125 0.007151624 0.13518582
0.01219858 0.0016496662 0.02594506 0.0016627384 0.025395641 0.015415803 0.038546916 0.01428933
0.00781146 0.0035332995 0.003007356 0.005847136 0.0017872743 0.0025393602 0.0029995716 0.0039911545
0.017387783 0.0034075552 0.043087274 0.022716604 0.012439121 0.001994716 0.0012856278 0.025709385
00000000: 1578 893b 3a42 ef3a 30f4 1e3b da6f c53c
00000010: 0052 fa3c 485f bb3a ab8b a13d e229 303c
00000020: 765a 3e41 c33e 913d f568 fa3a 6502 a23c
00000030: 4421 043c 104f 583d 7844 783c 505a 9b3b
00000040: 0f8e ba3a 3ef4 013c c1cf aa3b 045a 473c
00000050: 2b5e 243c a22c 3d3c eff5 043c 322c 813c
00000060: 933b 793d 0ee5 9a3b 0918 f33a f01c e83c
00000070: dfac e73a 079f 0c3b 161c 743d d57e 2f3c
00000080: e74b 233c cda1 473d 0098 0d3c eee3 ab3c
00000090: 735d 1a3d a076 ad3a 2613 8b3f 4bf4 dc3a
000000a0: b2c7 cc3b 7ed8 c83b 6abe ee3a 17da d63e
000000b0: eda5 563d 2a9f 363b b479 ec3c 5161 343c
000000c0: 708c da3a c2a3 733c b12d 103c 03de 503c
000000d0: ad9d 043c 4245 cd3a 7efb 953c f4c8 b23b
000000e0: 1308 8e3b 4d94 7b3c 75d3 8f3c d567 fe3b
000000f0: 7576 963c 2535 b93c 9e4d 163b 3fcb c43d
00000100: 182d f63a e161 643d e59d 2e3c 316e 133b
00000110: 8038 103d a83d 0b3d f1e1 823b 5e8d 1f3c
00000120: 6aed 133b 9158 bc3b aaf9 8b3b e239 313c
00000130: 541b 073d 5882 fa3a 8790 993c 34b1 823c
00000140: d218 0e3b c686 b93b ccf5 1a3b c92c ba3a
00000150: 7711 1b3c b102 a03b 4741 cd3d 95e6 783b
00000160: 8d97 c03c 2be7 363b cee0 173c d3cf 943a
00000170: 7603 fd3c 0ccb 673d b597 353c 54f2 783b
00000180: 9c80 803b 9578 e03b d2d2 fa3b 1a6b a13d
00000190: 5058 a73b ab7a 023c 2b30 bd3c b0c4 313c
000001a0: fe8f 2c3e 6d03 1c3b 1ec1 e33a 8ba0 703b
000001b0: e836 cb3c 488d 823b 6f33 203c 4fb8 0c3c
000001c0: 8966 ad3b 041c 193c f095 a03b 1d97 ae3a
000001d0: 4238 f23a 0265 1b3c 9255 023d e5f3 973c
000001e0: 8f1f 303c 32d5 fe3a 7069 053b 42ea 133d
000001f0: db93 093c 65f7 af3d 0247 ca3b 379a 223b
00000200: d5a6 4a3c 8331 9c3b 179c d23b d93a 983c
00000210: 1582 ca3a 0d46 be3c 4d96 c53c da01 693c
00000220: b262 243c 710e 683b 33b9 443c 42fd 113b
00000230: 1d92 bd3c 596b 2a3c a89f a93c 8309 783c
00000240: 753c 013c ceb3 083c d3ba 153b 0b80 6a3d
00000250: 2353 493b 3c9e 273c dc30 a93b 6d26 073b
00000260: f1cb 0b3c fd9f dd3c d7ed e83c 9a60 4d3d
00000270: 7874 de3a 79e7 243d e96c 013c 8467 133c
00000280: 7636 8a3c fdd5 be3c f35b 873b 1289 c13a
00000290: 4f67 273b 43c7 0a3b d7e9 ca3b cd52 243d
000002a0: 9cdc d53b 9846 4c3b 1668 843d 4b99 1d3b
000002b0: 7396 093b 105e 943b f6cc ae3c f548 853d
000002c0: 62ac 063d b84f ca3c 570a 503b 0ad3 3a3c
000002d0: d733 0b3d 770c cf3c 59c0 363c ea8c cb3a
000002e0: 7898 c43c 55f5 0f3b c6f0 423c d5c1 e63a
000002f0: 2db3 843b a249 fd3c 1eae 093d 3841 af3b
00000300: 4b5d 0f3c 3269 1d3b e4fd c13c 3c5a 043b
00000310: 3a7b 313c 873c 073b 6b5e 2a3c 61cc 353b
00000320: 95c4 b63b ae5a 5e3b a62d 733c 204e 133b
00000330: 1221 003c ddf2 883b ba19 ad3b 1c4d d43a
00000340: f1fd 463b 3edf 8e3b 45cb 873b 7cb0 e83b
00000350: 2f5d 4b3b 9da0 d23b 5cc3 8d3e fd71 573c
00000360: 177f b43b bdd1 8b3c 9583 2e3c 56b6 903d
00000370: 5cd9 1b3c 86ad b13b cabc 313e 0ac7 763c
00000380: 48d4 413c f73a 313b 8533 1f3c fc7e e43c
00000390: 9721 0e3c 45ca e03a 2c58 ea3b 276e 0a3e
000003a0: 8edc 473c 9d39 d83a bc8a d43c 3ef0 d93a
000003b0: 850a d03c 9092 7c3c 5fe3 1d3d cb1d 6a3c
000003c0: 47f7 ff3b ee8e 673b 1017 453b 5599 bf3b
000003d0: f942 ea3a 656b 263b 7694 443b 3bc8 823b
000003e0: d370 8e3c 4a51 5f3b 487c 303d 2c18 ba3c
000003f0: 74cd 4b3c c8b9 023b 8382 a83a 7d9c d23c

exp_avg f4 [2]
-0.0017241457 0.001724157
00000000: bbfc e1ba 1cfd e13a

exp_avg_sq f4 [2]
0.028370501 0.028370505
00000000: 4169 e83c 4369 e83c
