TASK2/gender_classification_model/checkpoint_step_4600.pth (torch, 22979 bytes, 6 tensors)

weight f4 [2, 768]
0.027402662 0.0076522743 0.0011562962 0.007723051 -0.027291266 -0.01229995 -0.0057109343 -0.0050460603
-0.030693376 -0.011073232 -0.03169372 0.0018046491 -0.042927984 0.019677468 0.024450233 -0.008782434
0.012434563 -0.023239262 -0.008644858 -0.022383787 -0.0006345655 0.020298194 0.040739927 0.02089746
0.03407067 -0.010272413 -0.0068089045 0.0026196153 0.03060365 0.0022918708 0.033919185 0.03482975
0.026212325 0.006795207 -0.0074981344 0.03357817 0.013411802 -0.058296014 0.020958956 -0.06188179
0.017833069 -0.0034782817 -0.03810702 0.015887039 -0.021485656 -0.007897077 0.027711814 0.036275733
0.025800565 -0.01663282 0.021204937 0.016787808 -0.0056787985 -0.020583438 -0.010818992 -0.017476337
0.0052098925 0.00060091045 -0.0038834163 0.010145661 0.008257068 0.011433837 -0.023219816 -0.012685576
0.014611258 -0.019033492 0.03945957 0.042756002 -0.031586785 0.029706642 0.012245759 -0.008921356
0.003365555 0.0009365418 -0.024286062 -0.02974803 -0.0057903663 -0.0030826575 -0.0043561677 -0.0073943427
0.006360593 -0.011205309 -0.036242183 0.008341228 0.005037508 0.0163731 -0.015385876 -0.035465196
0.03011987 0.0012013598 0.029581275 -0.015119122 0.030437516 0.015737085 0.0053925915 -0.019149916
-0.00030198088 0.046169993 -0.014028295 0.028184747 -0.0024601645 0.004881468 0.041008424 -0.019259313
0.011094753 -0.0009599137 0.054284774 -0.047730893 0.0017396841 0.042322688 -0.039176412 -0.01709878
0.00885994 0.00022272584 -0.0007399094 0.024651967 0.065910056 -0.0011588461 -0.021578684 0.029817741
0.048858993 0.052952256 -0.0067676036 -0.012311308 -0.0060195066 0.009665364 -0.015055122 -0.029693782
0.0027016262 -0.008072797 -0.03642662 0.0075040455 0.0439064 0.01129955 0.03176928 -7.962578e-05
-0.021329464 -0.016325653 0.03640082 0.0008703553 -0.032695178 -0.011332624 0.0059212893 0.014024994
-0.028019574 0.005610892 0.0034808367 0.0012659505 -0.02847817 -0.032085504 0.018425537 -0.03311878
0.02616388 0.03796872 0.016513059 -0.013950572 -0.0068342574 -0.0357591 -0.024565909 0.05133159
-0.011169633 -0.013746881 -0.027997226 0.019632418 -0.05594821 0.06359143 -4.514983e-05 -0.032106556
-0.009333607 0.023029821 0.024242867 0.010900736 -0.024474248 0.015357704 -0.018508902 -0.027842868
0.015345082 0.029336957 -0.0044215545 0.032070886 0.018503617 -0.023717314 0.009223615 -0.0007877175
-0.0163392 0.06529614 -0.026021652 -0.025926014 -0.0035904604 0.003146996 0.0069689145 0.0042800135
-0.017426252 0.017599028 -0.02618565 -0.052802354 -0.049671605 -0.023447 0.038516317 -0.0277158
-0.04268094 -0.00053394155 0.0402234 -0.0091825975 0.030082295 0.021762269 -0.005683884 -0.016122963
0.042235583 -0.0027665312 0.006351055 0.011522387 -0.01423976 -0.03194419 -0.018575134 0.022761753
-0.016203057 -0.039092712 -0.025352806 0.030328853 -0.0333385 0.0128456885 0.03254632 -0.021167811
0.0007723395 -0.015052987 -0.03789355 0.01672465 -0.010091444 0.009372191 -0.021475805 -0.008858785
0.018753257 0.023785232 0.011174597 0.050984755 -0.003976782 -0.031115713 -0.023258977 0.009448695
-0.020526325 -0.010471062 0.035442397 0.03303379 0.02136479 0.028150078 -0.010330503 0.01085003
-0.010326435 0.014068093 0.0039415467 0.008475845 0.030355016 -0.011814208 0.021630839 0.029263346
00000000: 8c7b e03c eebf fa3b dd8e 973a a611 fd3b
00000010: ef91 dfbc bb85 49bc ca22 bbbb 6c59 a5bb
00000020: ad70 fbbc 806c 35bc 46d1 01bd fa89 ec3a
00000030: 41d5 2fbd a432 a13c db4b c83c 33e4 0fbc
00000040: 56ba 4b3c 4460 bebc 2aa3 0dbc 345e b7bc
00000050: f858 26ba 6648 a63c e9de 263d 2631 ab3c
00000060: b08d 0b3d 9f4d 28bc 3b1d dfbb daad 2b3b
00000070: 81b4 fa3c 3633 163b d8ee 0a3d a4a9 0e3d
00000080: 3bbb d63c 54aa de3b e9b2 f5bb 4389 093d
00000090: 2dbd 5b3c cdc7 6ebd 1eb2 ab3c c377 7dbd
000000a0: a816 923c e2f3 63bb 1b16 1cbd 8925 823c
000000b0: b002 b0bc be62 01bc e303 e33c dd95 143d
000000c0: b55b d33c 8d41 88bc fab5 ad3c 9686 893c
000000d0: 3715 babb 999e a8bc 2442 31bc 892a 8fbc
000000e0: bfb7 aa3b 6b86 1d3a ea80 7ebb fd39 263c
000000f0: a748 073c fd54 3b3c 7c37 bebc 2ad7 4fbc
00000100: 0f64 6f3c 20ec 9bbc 5ca0 213d eb20 2f3d
00000110: 2561 01bd 585b f33c 70a2 483c e12a 12bc
00000120: a590 5c3b 4282 753a 90f3 c6bc 24b2 f3bc
00000130: 1dbd bdbb 6906 4abb 2fbe 8ebb 3e4c f2bb
00000140: 856c d03b 7996 37bc af72 14bd a5a9 083c
00000150: ae11 a53b e120 863c 0b15 7cbc f443 11bd
00000160: f2bd f63c f276 9d3a 6e54 f23c 32b6 77bc
00000170: 1958 f93c 0feb 803c 56b4 b03b 49e0 9cbc
00000180: 3053 9eb9 bf1c 3d3d efd6 65bc b3e3 e63c
00000190: b63a 21bb b9f4 9f3b 73f8 273d b5c5 9dbc
000001a0: c4c6 353c b8a2 7bba b659 5e3d 7881 43bd
000001b0: 1d06 e43a 8e5a 2d3d 7277 20bd be12 8cbc
000001c0: 4829 113c 838b 6939 7bf6 41ba ecf2 c93c
000001d0: dafb 863d 6ce4 97ba c8c5 b0bc 5644 f43c
000001e0: 5e20 483d 77e4 583d c6c2 ddbb 5eb5 49bc
000001f0: 483f c5bb 7a5b 1e3c c2a9 76bc 6040 f3bc
00000200: c40d 313b c443 04bc 1434 15bd 7fe4 f53b
00000210: 33d7 333d bf21 393c 8120 023d c4fc a6b8
00000220: 21bb aebc 60bd 85bc 0719 153d 8e28 643a
00000230: 61eb 05bd 78ac 39bc 6007 c23b 17c9 653c
00000240: 4e89 e5bc 93db b73b c01e 643b 40ee a53a
00000250: 0d4b e9bc 176c 03bd 27f1 963c 8fa7 07bd
00000260: a255 d63c 1785 1b3d 6546 873c f190 64bc
00000270: e8f1 dfbb 2278 12bd 723e c9bc 1341 523d
00000280: d600 37bc 993a 61bc 705a e5bc 2ad4 a03c
00000290: f329 65bd 393c 823d 435f 3db8 2a82 03bd
000002a0: fceb 18bc 09a9 bc3c fa98 c63c 0099 323c
000002b0: 387e c8bc e19e 7b3c fb9f 97bc ba16 e4bc
000002c0: f069 7b3c 0f54 f03c b0e2 90bb c35c 033d
000002d0: e694 973c d04a c2bc a51e 173c d47e 4eba
000002e0: c9d9 85bc fcb9 853d 5c2b d5bc cb62 d4bc
000002f0: ee4d 6bbb d53d 4e3b 7e5b e43b 5b3f 8c3b
00000300: 80c1 8ebc d62b 903c 4a83 d6bc 4847 58bd
00000310: 7474 4bbd ec13 c0bc 49c3 1d3d 3f0c e3bc
00000320: 36d2 2ebd 36f8 0bba 4bc1 243d 9b72 16bc
00000330: 256f f63c c946 b23c e03f babb 4e14 84bc
00000340: 38ff 2c3d b14e 35bb 831c d03b 65c8 3c3c
00000350: e24d 69bc e9d7 02bd e12a 98bc db76 ba3c
00000360: 46bc 84bc ae1f 20bd b0b0 cfbc 3774 f83c
00000370: f38d 08bd b976 523c 4a4f 053d 1e68 adbc
00000380: d476 4a3a cea0 76bc 4436 1bbd 2202 893c
00000390: 9556 25bc d18d 193c 07ee afbc 7024 11bc
000003a0: 6ea0 993c 3fd9 c23c a815 373c 64d5 503d
000003b0: aa4f 82bb 61e6 febc 9c89 bebc b3ce 1a3c
000003c0: d326 a8bc d18e 2bbc 0c2c 113d 704e 073d
000003d0: 3605 af3c fe9a e63c 4541 29bc 53c4 313c
000003e0: 3530 29bc dc7d 663c 1728 813b 45de 0a3c
000003f0: 15ab f83c 6190 41bc 2833 b13c afb9 ef3c

bias f4 [2]
0.024350094 -0.00484482
00000000: d979 c73c 4cc1 9ebb

exp_avg f4 [2, 768]
0.006739435 -0.000683778 -0.014465652 -0.012580699 0.0023464228 -0.0068004318 0.004721058 -0.011145352
0.102961995 0.012159667 0.010188225 0.001264737 0.017856026 -0.009857241 -0.018695151 -0.006776748
-0.007907434 -0.009377994 0.00045051708 -0.000120367695 0.0022997418 -0.01807585 -0.016127095 0.004323216
-0.007500298 -0.014723011 -0.0048595304 0.011453468 -0.001469616 -0.0018558798 0.0009864769 0.003069363
-0.008432005 -0.008191375 -0.0076825363 0.00032262524 0.00739736 0.012080798 -0.04745725 0.006484458
0.007382371 -0.011888222 0.008219441 0.06089031 -0.0013280557 -0.009857713 -0.0065204073 -0.001549252
-0.0027675594 0.012760553 0.009403119 0.0035055978 -0.000808122 -0.010467765 -0.009964964 0.0054844595
-0.00046405607 -0.004436986 -0.00040772857 -0.0037494316 0.009561673 -0.0022011993 -0.0009579848 -0.006658386
0.0022291203 0.012806138 -0.015324466 -0.011578288 0.025494356 -0.00076031213 0.0076957466 -0.0019984033
0.0041652643 0.007520476 0.036939014 -0.013833479 0.02184088 0.0028838173 0.0037826884 -0.0045254785
-0.003190315 0.0017040804 -0.0012979569 0.005613211 -0.0127383685 -0.008168223 0.012663601 0.006830153
-0.0018833607 0.0050985687 0.006155583 -0.00094588246 -0.011029992 -0.008502619 0.013904051 -0.0073918463
0.0056577907 0.0056278356 0.0065655364 -0.00866028 0.0060478407 -0.007147893 -0.0027739415 0.012840822
0.014794328 -0.003004392 -0.011557375 0.012038147 0.0039722384 -0.008548149 0.00526295 0.004546164
-0.008135349 0.010574793 0.002565348 -0.00305108 -0.008109213 0.0055686673 -1.6439342e-05 -0.0033307346
-0.012748867 0.0067331586 -0.003391121 -0.0028092111 6.493583e-05 0.023099156 -0.0075458144 0.007679117
0.017822245 0.00794638 -0.01602099 -0.010297469 0.0045146155 -0.004183564 0.011574604 -0.017600514
-0.004927248 -0.002644185 0.0018493485 -0.016590627 -0.0004121427 0.004177878 0.013217854 0.0030836016
-0.0032857216 -0.007393849 -0.005310595 -0.0048798514 0.000482892 -0.0029248116 0.0055688033 -0.009383708
-0.021643719 -0.0057702763 -0.00012478007 -0.001487712 0.0016255967 -0.016047426 0.0061147655 0.009301181
0.0031660732 -0.00617871 -0.011309672 -0.013361346 0.0064368546 -0.012080806 0.0061604045 -0.017277539
0.0041029765 -0.0103567075 0.0028448731 -0.0154144 0.003337778 0.0025968335 0.0035087029 -0.012586511
0.003724945 0.0006426342 0.0012511939 -0.0048348173 -0.0062723593 -0.020521015 0.00032469237 -0.01755116
-0.004948618 0.0031727557 0.0042921593 0.0075882254 0.0032555473 -0.0027035202 0.002256092 0.0046415436
-0.0015955551 0.0005432479 0.0017970484 0.0017048143 0.0063894894 -0.0026484353 -0.013392861 0.007008894
-0.0026948368 0.0026023174 -0.0021640167 0.0030623362 0.012626395 -0.00936667 0.010678577 -0.0072290804
-0.006920666 0.012665939 0.011062309 -0.0014704741 0.004206691 -0.0049654837 0.013356864 -0.013030565
0.011239373 -0.01678333 0.0048347027 -0.0077922414 0.00040575617 -0.013841646 -0.0010151118 0.004480389
-0.0017424206 0.0052540125 0.0144134015 -0.012826712 -0.011277466 0.006764965 0.021896966 0.027203238
0.008216478 -0.0044434676 0.010735794 -0.003638 -0.008024133 0.0005172281 0.013933588 -0.01201636
-0.022942036 -0.0071021 -0.0055595804 -0.0037338394 0.006597889 -0.00045995842 -0.0034874997 0.0069615683
-0.01553657 0.006704208 -0.006512821 0.007282842 0.0044493945 -0.004804588 -0.0029048915 0.00876387
00000000: 7ad6 dc3b 913f 33ba 5801 6dbc 471f 4ebc
00000010: 71c6 193b 28d6 debb 1bb3 9a3b ff9a 36bc
00000020: bddd d23d 5739 473c 83ec 263c 88c5 a53a
00000030: cd46 923c 4480 21bc 9326 99bc 7c0f debb
00000040: 2f8e 01bc 28a6 19bc 6133 ec39 ea6d fcb8
00000050: 44b7 163b ce13 94bc f81c 84bc c4a9 8d3b
00000060: 0fc5 f5bb c938 71bc b23c 9fbb 54a7 3b3c
00000070: 21a0 c0ba fe40 f3ba ac4c 813a 5e27 493b
00000080: 6426 0abc 1e35 06bc c9bd fbbb 0726 a939
00000090: 8e65 f23b 8aee 453c 8962 42bd 947b d43b
000000a0: d1e7 f13b d1c6 42bc d6aa 063c 1e68 793d
000000b0: 2812 aeba 3f82 21bc 24a9 d5bb 4510 cbba
000000c0: f15f 35bb a311 513c 8a0f 1a3c 2cbe 653b
000000d0: 26d8 53ba fd80 2bbc 1744 23bc fbb6 b33b
000000e0: 8d4c f3b9 2364 91bb 67c4 d5b9 06b9 75bb
000000f0: 90a8 1c3c ff41 10bb 4621 7bba 972e dabb
00000100: 6f16 123b d6d0 513c 7813 7bbc dcb2 3dbc
00000110: 8ad9 d03c af4f 47ba 9a2c fc3b a5f7 02bb
00000120: c57c 883b 536e f63b 5d4d 173d d1a5 62bc
00000130: a5eb b23c 6dfe 3c3b fbe6 773b 774a 94bb
00000140: 9b14 51bb 735b df3a 3520 aaba 07ef b73b
00000150: 97b4 50bc 03d4 05bc fe7a 4f3c 7acf df3b
00000160: 19db f6ba e511 a73b c6b4 c93b 19f5 77ba
00000170: 24b7 34bc 924e 0bbc d1cd 633c 4d37 f2bb
00000180: fd64 b93b b569 b83b b623 d73b d9e3 0dbc
00000190: f72c c63b df38 eabb 04cb 35bb 5062 523c
000001a0: e963 723c 55e5 44bb 255b 3dbc a63b 453c
000001b0: 8d29 823b 890d 0cbc d374 ac3b fdf7 943b
000001c0: 204a 05bc e641 2d3c 661f 283b a1f4 47bb
000001d0: 81dc 04bc 5e79 b63b 38e7 89b7 7448 5abb
000001e0: a0e0 50bc d4a1 dc3b 923d 5ebb be1a 38bb
000001f0: 292e 8838 713a bd3c e142 f7bb 1aa1 fb3b
00000200: f5ff 913c 8931 023c 743e 83bc b7b6 28bc
00000210: 57ef 933b 4716 89bb 68a3 3d3c f42e 90bc
00000220: c174 a1bb 104a 2dbb d765 f23a 11e9 87bc
00000230: db14 d8b9 95e6 883b b38f 583c 4016 4a3b
00000240: 4355 57bb 1a48 f2bb 8004 aebb 29e7 9fbb
00000250: ab2c fd39 32ae 3fbb 827a b63b 20be 19bc
00000260: 2b4e b1bc 9614 bdbb 65d7 02b9 55ff c2ba
00000270: f911 d53a e475 83bc 5f5e c83b fb63 183c
00000280: e57d 4f3b c776 cabb 344c 39bc 8ce9 5abc
00000290: 40ec d23b 93ee 45bc 38dd c93b a089 8dbc
000002a0: 4372 863b 2eaf 29bc 0d71 3a3b ae8c 7cbc
000002b0: 9fbe 5a3b a32f 2a3b 44f2 653b a737 4ebc
000002c0: 351e 743b 7376 283a 1aff a33a 636d 9ebb
000002d0: 5d88 cdbb b01b a8bc 793b aa39 73c7 8fbc
000002e0: 0428 a2bb 02ee 4f3b 3ea5 8c3b a6a6 f83b
000002f0: 055b 553b 8b2d 31bb f1da 133b 1718 983b
00000300: f221 d1ba c068 0e3a f08a eb3a 1374 df3a
00000310: ec5e d13b 5f91 2dbb bb6d 5bbc ddaa e53b
00000320: dc9b 30bb a48b 2a3b 2dd2 0dbb 7ab1 483b
00000330: f0de 4e3c a976 19bc 33f5 2e3c ece1 ecbb
00000340: c1c6 e2bb cc84 4f3c b03e 353c ecbc c0ba
00000350: 48d8 893b 7fb5 a2bb c0d6 5a3c 277e 55bc
00000360: 5925 383c 327d 89bc 6d6c 9e3b 0f56 ffbb
00000370: acbb d439 12c8 62bc 800d 85ba 3ad0 923b
00000380: ef61 e4ba da29 ac3b 3026 6c3c 2127 52bc
00000390: 1fc5 38bc a4ac dd3b 4461 b33c 53d9 de3c
000003a0: 689e 063c 829a 91bb 2fe5 2f3c 836b 6ebb
000003b0: a777 03bc 9796 073a b449 643c 44e0 44bc
000003c0: f0f0 bbbc bcb8 e8bb 242d b6bb 6eb3 74bb
000003d0: 1b33 d83b 9326 f1b9 898e 64bb de1d e43b
000003e0: 198d 7ebc f9ae db3b 8169 d5bb e8a4 ee3b
000003f0: 3acc 913b ce6f 9dbb fe5f 3ebb 5696 0f3c

exp_avg_sq f4 [2, 768]
0.004538529 0.0018874462 0.0024853281 0.024593629 0.031176673 0.0015086094 0.0809188 0.010451673
12.271726 0.073235504 0.0020464503 0.020052023 0.008911737 0.053898647 0.015619124 0.004639362
0.0015146615 0.008103288 0.0059967684 0.012544185 0.010627078 0.011443354 0.00828611 0.016537666
0.062948875 0.0049579344 0.0017421119 0.029558301 0.0018318627 0.0023051237 0.06130887 0.011235696
0.0103870025 0.049365006 0.009046464 0.021352563 0.039538596 0.0012618657 1.1131742 0.001748971
0.0064552883 0.006213206 0.0017683809 0.42763966 0.054179408 0.0028934341 0.029471295 0.011063682
0.0015760303 0.014995061 0.009221135 0.013142643 0.008399621 0.0016052225 0.019322192 0.0053396136
0.004178269 0.015918529 0.018183295 0.008300286 0.018800221 0.023789188 0.0022568486 0.1005023
0.001937471 0.05780332 0.0110224495 0.0021289017 0.03648535 0.034481343 0.0041268184 0.010079655
0.00215428 0.0058831433 0.004187402 0.01099703 0.034036994 0.0018935913 0.019817347 0.016355384
0.0021198962 0.0057118833 0.002416846 0.0014389034 0.009680444 0.0050505497 0.103257366 0.003673581
0.024591343 0.0027648017 0.009440361 0.0010938722 0.031163005 0.05779489 0.0111034 0.00402008
0.0039343825 0.007115043 0.007828844 0.08150264 0.0050910786 0.008169451 0.023834653 0.011426433
0.1734809 0.002351779 0.001711511 0.0037983602 0.02582081 0.003958571 0.01019248 0.008782076
0.0051762653 0.009495835 0.005061134 0.0013197606 0.0018627766 0.009690124 0.033473097 0.019374423
0.011321678 0.0020249875 0.0019784889 0.037468567 0.0084270025 0.08922849 0.0062980307 0.0025424277
0.012589048 0.004947316 0.006697153 0.019441737 0.0016702517 0.023482205 0.025310583 0.015016326
0.010185401 0.0034403757 0.012206444 0.0023462928 0.023981841 0.01053181 0.021175422 0.015496794
0.0080609685 0.008265234 0.0022636908 0.057880647 0.003155488 0.010725503 0.0053250864 0.0019994457
0.008743371 0.027658574 0.029256953 0.05234408 0.0016603648 0.041401956 0.008147759 0.009459851
0.01745579 0.024191622 0.004272342 0.0015825563 0.0026668767 0.0021931988 0.0064019524 0.04169978
0.006758491 0.0030968164 0.067687325 0.002399576 0.0021456713 0.004783353 0.022448512 0.0673985
0.03393292 0.025809811 0.0030875255 0.011577064 0.035262212 0.026046544 0.011753986 0.0015499884
0.025073685 0.002083967 0.012121824 0.0016531654 0.004174053 0.03248985 0.035128523 0.00539063
0.008627021 0.0022377386 0.023692818 0.0021029236 0.010688447 0.0021777581 0.010951746 0.0027070942
0.0058384263 0.0036795286 0.014831185 0.0022706082 0.0078147 0.0042048236 0.005345278 0.0017037089
0.0030595365 0.0045305635 0.0042448435 0.0074747833 0.0030891935 0.0065560387 0.28653458 0.013558319
0.0055978955 0.01810519 0.011022007 0.073030435 0.010269387 0.005523122 0.18030988 0.015451908
0.012350126 0.002875558 0.010287814 0.028117549 0.009235934 0.0017726119 0.007665031 0.13907672
0.012424789 0.0017814005 0.02714225 0.0016524582 0.02605563 0.015985362 0.040223464 0.014481851
0.007970892 0.0034942017 0.0030106888 0.006177862 0.0018117944 0.0026456537 0.0031674572 0.004123923
0.01820361 0.0033721693 0.044014074 0.02336592 0.012809178 0.0018588647 0.0012166165 0.026562266
00000000: f1b7 943b 2f64 f73a e3e0 223b 9478 c93c
00000010: 3966 ff3c 88bc c53a c1b8 a53d 7e3d 2b3c
00000020: fd58 4441 7ffc 953d bd1d 063b 2444 a43c
00000030: 8902 123c d4c4 5c3d 5be7 7f3c ca05 983b
00000040: 9b87 c63a a7c3 043c 8a80 c43b 2086 4d3c
00000050: 321d 2e3c e87c 3b3c 77c2 073c 007a 873c
00000060: 57eb 803d 2b76 a23b 9357 e43a 4024 f23c
00000070: 1d1b f03a 8f11 173b 021f 7b3d ed15 383c
00000080: 3f2e 2a3c f632 4a3d 9f37 143c 92eb ae3c
00000090: 39f3 213d 3065 a53a 7e7c 8e3f ba3d e53a
000000a0: e286 d33b 2698 cb3b 04c9 e73a 96f3 da3e
000000b0: 3aeb 5d3d c59f 3d3b c96d f13c 7244 353c
000000c0: cd92 ce3a d8ad 753c 3e14 173c 3d54 573c
000000d0: 909e 093c 5466 d23a 9349 9e3c edf7 ae3b
000000e0: dce9 883b 9367 823c 22f5 943c ecfd 073c
000000f0: ec02 9a3c 8be1 c23c a3e7 133b 26d4 cd3d
00000100: bdf2 fd3a 2dc3 6c3d 8197 343c 0b85 0b3b
00000110: aa71 153d 4f3c 0d3d 433a 873b 2325 253c
00000120: d22e 0d3b 62c7 c03b 7936 893b e32c 343c
00000130: 606a 0b3d 6132 f83a fd57 a23c bafb 853c
00000140: f5ed 0a3b c02a bb3b f363 1e3b 9699 bc3a
00000150: ba9a 1e3c 157f a53b 9978 d33d 76c0 703b
00000160: c973 c93c ad31 353b beab 1a3c 4360 8f3a
00000170: 8f49 ff3c 56ba 6c3d 09eb 353c e0ba 833b
00000180: feeb 803b 4e25 e93b 8d44 003c dbea a63d
00000190: 10d3 a63b 29d9 053c e440 c33c ef35 3b3c
000001a0: faa4 313e 4e20 1a3b c854 e03a e9ed 783b
000001b0: 2a86 d33c e6b6 813b 5cfe 263c b2e2 0f3c
000001c0: a99d a93b 6b94 1b3c dfd7 a53b d1fb ac3a
000001d0: 6928 f43a 53c3 1e3c 161b 093d 1cb7 9e3c
000001e0: 8f7e 393c a7b5 043b 89a9 013b a478 193d
000001f0: 6911 0a3c 6dbd b63d b65f ce3b dc9e 263b
00000200: 4b42 4e3c 181d a23b cb73 db3b 4744 9f3c
00000210: 59ec da3a c15d c03c 2458 cf3c 0907 763c
00000220: abe0 263c ed77 613b 89fd 473c 43c4 193b
00000230: 9175 c43c 9d8d 2c3c 1478 ad3c 44e6 7d3c
00000240: 2712 043c e76a 073c 6e5a 143b 4214 6d3d
00000250: 4ecc 4e3b 05ba 2f3c 107e ae3b 2209 033b
00000260: 5b40 0f3c 3c94 e23c 47ac ef3c bf66 563d
00000270: 99a0 d93a 1995 293d 2e7e 053c 7efd 1a3c
00000280: 72ff 8e3c 822d c63c 01ff 8b3b c76d cf3a
00000290: c4c6 2e3b c5bb 0f3b 78c7 d13b 63cd 2a3d
000002a0: 5576 dd3b f5f3 4a3b a79f 8a3d 3442 1d3b
000002b0: 649e 0c3b acbd 9c3b f1e5 b73c 3a08 8a3d
000002c0: 3ffd 0a3d 196f d33c 1558 4a3b baad 3d3c
000002d0: 1c6f 103d 905f d53c ca93 403c fb28 cb3a
000002e0: 5467 cd3c 2a93 083b 9d9a 463c 07af d83a
000002f0: 7fc6 883b 1414 053d ede2 0f3d e2a3 b03b
00000300: 5958 0d3c 06a7 123b 7117 c23c 34d1 093b
00000310: 991e 2f3c b8b8 0e3b f46e 333c 8169 313b
00000320: 4550 bf3b 3f24 713b 80fe 723c 7cce 143b
00000330: 3a09 003c 9ec8 893b 7127 af3b fc4e df3a
00000340: 8182 483b 1f75 943b 5418 8b3b 07ef f43b
00000350: 1174 4a3b 0ad4 d63b a9b4 923e b623 5e3c
00000360: 8d6e b73b 5651 943c a695 343c fb90 953d
00000370: ee40 283c 4efb b43b 27a3 383e 002a 7d3c
00000380: 2f58 4a3c dc73 3c3b 388e 283c c656 e63c
00000390: 5152 173c fc56 e83a f12a fb3b 216a 0e3e
000003a0: 5891 4b3c e27d e93a 6d59 de3c 4c97 d83a
000003b0: 9e72 d53c bcf3 823c 5cc1 243d 4945 6d3c
000003c0: 5898 023c fafe 643b fa4e 453b aa6f ca3b
000003d0: bb79 ed3a b462 2d3b 1d95 4f3b f921 873b
000003e0: bd1f 953c 9dff 5c3b 1a48 343d e369 bf3c
000003f0: 96dd 513c 26a5 f33a e076 9f3a 1c99 d93c

exp_avg f4 [2]
-0.0032229112 0.003222919
00000000: 7a37 53bb 9c37 533b

exp_avg_sq f4 [2]
0.029340604 0.029340604
00000000: b55b f03c b55b f03c
