TASK2/gender_classification_model/checkpoint_step_1200.pth (torch, 22979 bytes, 6 tensors)

weight f4 [2, 768]
000000 4e 1c bd 3c 40 9b 6a 3c 00 41 c0 bc 92 a6 2b ba
       0.023084786 0.014319241 -0.023468494 -0.0006547953
000010 5a 40 ef bc b4 52 88 bc 9d cc a0 bb cb 2b 1c 3c
       -0.02920549 -0.016640998 -0.0049072043 0.009531925
000020 80 25 f6 bc 02 6b fb bb 40 d5 46 bc de 80 1e 3c
       -0.030047178 -0.0076726684 -0.012135804 0.009674279
000030 8a 77 1c bd 40 cc 87 3c b6 28 a2 3c 12 21 e7 bb
       -0.03819994 0.016576886 0.019794803 -0.007053503
000040 c8 f4 6a 3c c2 e2 c8 bc c2 8a 8b bc 4e 20 b4 bc
       0.014340587 -0.024522189 -0.017033938 -0.02198806
000050 fd 7b b2 3a 7c 30 b9 3c 99 49 01 3d 77 d5 f6 3c
       0.0013617274 0.022606127 0.03156433 0.030131085
000060 3c 64 03 3d 57 3d 38 bc 84 24 08 bc 53 f9 ee b9
       0.032078013 -0.011245093 -0.008309487 -0.00045580658
000070 8e bd 86 3c f9 6b 04 bb 15 98 15 3d 4a b1 09 3d
       0.016447809 -0.0020205958 0.03652199 0.03361634
000080 ac 7d 05 3d 01 85 18 3c 55 9c a1 39 11 58 f1 3c
       0.032590553 0.009309054 0.0003082479 0.029460939
000090 e0 af 77 3c 46 54 2a bd 3b c4 b9 3c 70 51 16 bd
       0.015117615 -0.041584276 0.022676578 -0.03669876
0000a0 fa eb 80 3c 4f 57 b3 bb 11 a4 ff bc d9 25 94 3c
       0.015737522 -0.0054730545 -0.031206163 0.018084453
0000b0 10 c6 b2 bc a2 4d 00 bc 52 23 d6 3c ef 00 ed 3c
       -0.02182296 -0.007831009 0.026139889 0.02893111
0000c0 16 86 11 3c ef ad 0d bc 85 3b e4 3c 64 6d 99 3c
       0.008882066 -0.008647426 0.027860412 0.01872892
0000d0 2f b9 c0 ba f2 80 ee bb d5 27 4f bc 14 2e a9 bc
       -0.0014703627 -0.007278555 -0.012643774 -0.020651855
0000e0 a8 52 06 3c 66 19 d9 b9 3d ca 8c bb 0b f5 26 3b
       0.008198418 -0.0004140839 -0.0042965696 0.0025475647
0000f0 eb fe 3b 3c 50 8a 8b 3c 7c f9 32 bc 5d cc 44 bc
       0.011474351 0.017033726 -0.0109237395 -0.012011615
000100 8e 8e b4 3c 33 ef af bc 7f 07 02 3d 58 28 e2 3c
       0.022040632 -0.021476364 0.03174543 0.027607128
000110 7e 9f c5 bc 9f 87 d9 3c f2 00 e1 3c db b5 96 bc
       -0.024123903 0.026553927 0.027466271 -0.018397262
000120 a3 3c 2c 3a f9 6b 9c 3c 20 ff d4 bc 52 49 e8 bc
       0.0006570315 0.019094454 -0.02600056 -0.028355274
000130 88 95 71 bb a0 df 7d bc 06 79 3a bb 76 21 b1 bb
       -0.003686281 -0.015495211 -0.0028453483 -0.0054056
000140 30 73 eb 39 70 da 83 3a 82 4e 57 bc ee c3 47 3c
       0.00044908514 0.0010059606 -0.013141276 0.012192709
000150 12 45 61 bb c8 63 8e ba d9 29 40 bc ee a0 0c bd
       -0.0034373445 -0.0010863477 -0.011728727 -0.034333162
000160 43 78 a9 3c ae 25 78 bb 96 a0 bd 3c a8 18 82 3b
       0.020687228 -0.0037864256 0.023147862 0.0039702244
000170 72 4e ea 3c ff a2 64 3c 3c 25 a7 3b 11 52 68 bc
       0.028601859 0.013954877 0.005100874 -0.014179722
000180 02 ad de b9 2d 2a 16 3d da d4 27 bc 02 ae ca 3c
       -0.0004247204 0.036661316 -0.010243619 0.024741177
000190 1a e8 e5 b9 06 bd cb 3a 91 ba 11 3d 09 d8 77 bc
       -0.00043851213 0.0015544004 0.035578314 -0.01512719
0001a0 f5 79 61 3c 4c a5 51 bc d7 ff 33 3d 7c cb 07 bd
       0.013761987 -0.0127957575 0.04394516 -0.033153042
0001b0 2e 93 47 3b be 6e a3 3c 95 d5 f8 bc 96 2b 89 bc
       0.0030452716 0.019950267 -0.030375281 -0.016744416
0001c0 04 00 2e 3b c3 7f 98 3b 0c b4 8a ba 33 26 d0 3c
       0.0026550302 0.0046539023 -0.0010582223 0.02540884
0001d0 fb 4d 44 3d a9 0d 13 3c b2 6b db bc 82 3d 15 3d
       0.04792593 0.008975425 -0.026784752 0.03643561
0001e0 49 0a ce 3c 16 1e ff 3c 10 4a 7c bc ab 80 97 bc
       0.025151389 0.031142276 -0.015398517 -0.01849397
0001f0 f2 5b 9c bc de 4c 46 3c 3a be e9 bb ea d9 d0 bc
       -0.019086812 0.0121032875 -0.0071332725 -0.025494535
000200 d8 e9 a8 3b b9 d7 0a bb ae 85 f6 bc 69 8b 93 3b
       0.0051548295 -0.002118571 -0.03009304 0.004502703
000210 0b 83 0b 3d 68 5a 01 3c e0 65 d7 3c 79 56 ab bb
       0.03406052 0.00789509 0.026293695 -0.005228814
000220 46 4f bc bc 0d be 93 bc 7f e1 f4 3c 90 ed 4f 3c
       -0.02298702 -0.01803496 0.029892681 0.012690917
000230 e2 ca ca bc 13 8a 44 bc 27 85 7f 3c 9b 0c 96 3c
       -0.024754945 -0.01199581 0.015595711 0.018316558
000240 d4 d5 d3 bc b9 3e 3f 3c c4 aa 68 3c ee 03 5d 3b
       -0.025858797 0.011672669 0.01420087 0.0033724266
000250 cb db fe bc 47 f3 14 bd fd 56 70 3c f9 f9 c9 bc
       -0.031110665 -0.03636482 0.014669177 -0.024655329
000260 d5 4a 40 3c 25 3e 02 3d 61 8e 7f 3c 7b 19 a2 bc
       0.011736591 0.031797547 0.015597911 -0.01978754
000270 25 25 fe 3a 33 49 0f bd 1a fa e8 bc f7 1f 3a 3d
       0.0019389732 -0.034981918 -0.02843957 0.04544064
000280 e3 78 47 bc ad a5 24 bc f1 9c 04 bd cb 9f 12 3c
       -0.012174818 -0.010049266 -0.032376233 0.00894923
000290 1f 37 3a bd da bf 2f 3d 8a bb 86 3c 28 4a 08 bd
       -0.045462724 0.042907573 0.016446847 -0.033273846
0002a0 9b d2 03 bb 30 a2 a1 3c 73 dc c9 3c ab 84 dd 3b
       -0.0020114544 0.019730657 0.024641251 0.0067602
0002b0 c1 fa 87 bc d1 f7 95 3c 5a 4d bb bc 34 07 00 bd
       -0.016599061 0.018306645 -0.022864033 -0.03125687
0002c0 81 0a 42 3c 48 0b e8 3c 7f a9 53 bb 57 06 cc 3c
       0.011843325 0.028325692 -0.0032297072 0.024905367
0002d0 40 2c 51 3c 7d ec dc bc 23 f1 7d 3c 15 8b bf bb
       0.012766898 -0.026968235 0.015499386 -0.0058454373
0002e0 a3 ee 34 bc 4c 3b 3e 3d fe 66 ca bc fd 0d 5d bc
       -0.011043224 0.04644327 -0.024707314 -0.013492105
0002f0 7b 58 9e ba 7b 2d a1 39 d1 ce 84 3b 93 6e ad 3b
       -0.0012080813 0.000307422 0.0040529747 0.0052927225
000300 6b 2d 2f bc 7b 55 04 3b 69 4b b5 bc 21 5d 0e bd
       -0.010691981 0.0020192552 -0.022130685 -0.034756783
000310 bf 14 20 bd 5a 5f 2f 3b 23 10 00 3d 39 cd 95 bc
       -0.039082285 0.0026759715 0.03126539 -0.018286334
000320 ba da 05 bd c9 35 e1 39 a4 20 0b 3d 0a 00 80 bc
       -0.032679297 0.00042955417 0.033966675 -0.015625019
000330 df 16 ec 3c 6b 47 69 39 bc 4a 21 bc a7 79 fd 3b
       0.0288195 0.00022247217 -0.009844478 0.0077354494
000340 ec 0a f5 3c 74 57 63 bb 3c f2 f8 ba db c6 9e 3c
       0.029912435 -0.0034689577 -0.001899309 0.019381931
000350 b4 4a 09 bc d9 df d6 bc da 8f 8a bc c9 ae 79 3c
       -0.008379627 -0.026229786 -0.016914297 0.015239426
000360 ce a5 49 bc a4 b9 1c bd 46 96 f0 bc 0f 82 fb 3c
       -0.012307597 -0.03826298 -0.029368531 0.030701665
000370 ea b2 a2 bc c0 ba 2c 3c 2d 29 02 3d be ae 9f bc
       -0.019860703 0.010542572 0.03177755 -0.019492503
000380 99 dc 59 bb 90 ba 9e bc dc 5b 01 bd 84 ff a6 3c
       -0.0033243059 -0.01937607 -0.031581745 0.020385511
000390 26 fb 6c bc be 1c b0 3c 92 2e a6 bc 2f 00 e5 bb
       -0.014464175 0.02149808 -0.020285878 -0.0069885473
0003a0 14 16 93 3c 7c bd ad 3c c2 9f 86 3c 30 2d a1 3c
       0.017954864 0.021208517 0.0164336 0.019674867
0003b0 b5 8b 2c bc eb 7f c8 bc 6e 17 75 bc 83 82 91 39
       -0.010531356 -0.024475059 -0.014959199 0.00027753794
0003c0 5d 36 3f bc 46 31 ef bb 01 d3 0d 3d 2c 25 f5 3c
       -0.011670676 -0.007299575 0.034625057 0.029924951
0003d0 f3 52 92 3c db fd b2 3c 9e 50 2d bc 47 fd bb 3c
       0.017861819 0.021849563 -0.010578303 0.02294792
0003e0 3e 29 50 bc 6d 17 5e 3c 61 51 f9 3b ab c1 41 3c
       -0.012705145 0.01355539 0.007608578 0.011825959
0003f0 48 71 dc 3c f2 da 38 bc 86 11 f3 3c 56 fd e7 3c
       0.026909485 -0.011282669 0.029671442 0.028319042

bias f4 [2]
000000 61 f9 c3 3c 08 8c 8e bb
       0.023922624 -0.004350189

exp_avg f4 [2, 768]
000000 ed 7c fe 3b 8a e6 d6 ba a4 ab 56 3b e0 ee f2 3c
       0.007766357 -0.001639561 0.0032756114 0.02965492
000010 bf 32 fa 3c 43 bb 6d 3a 2e 91 62 bd 0c 0a e7 bc
       0.030541776 0.00090687367 -0.055314235 -0.028203033
000020 e1 92 45 3f 94 d8 85 3d d2 4e 88 3c e5 0b d8 bc
       0.77177244 0.065354496 0.016639147 -0.02637286
000030 c6 41 f9 bb 1c b5 63 bd 72 ba d2 bc 97 fc 7b bc
       -0.0076067178 -0.05559264 -0.02572367 -0.015380046
000040 0b f3 4a bc a0 fc c2 bb 1c 91 dd 3c e7 22 00 3d
       -0.0123870475 -0.0059505254 0.027046733 0.031283285
000050 2b e9 8b 3c 28 62 03 3d 96 f8 f7 bb 25 f8 4b bc
       0.017078957 0.03207603 -0.0075674755 -0.012449299
000060 12 ce 9c bd 05 16 19 bc e7 01 1e 3c 60 e5 32 bd
       -0.07656492 -0.009343629 0.009644008 -0.04367578
000070 cf ed 9a bb 62 5a 00 b8 35 af 8d 3d 69 5c 94 3c
       -0.004728056 -3.0601754e-05 0.06918184 0.01811047
000080 03 01 e2 bc 84 1a 47 bd c6 0a 4d bc 8f 5d 23 bd
       -0.027588373 -0.04860927 -0.012514776 -0.039884146
000090 79 2c 24 bd 52 11 cb ba aa 80 7c be 63 f4 a9 3b
       -0.040081475 -0.0015492833 -0.24658456 0.005186604
0000a0 c1 a8 ce bc 55 2a d3 3c e3 44 97 3b 56 03 19 3e
       -0.025226953 0.025777021 0.0046163662 0.14942679
0000b0 7e 4f 1a 3d 9e 06 b1 ba d9 96 fe bc b6 16 d1 bc
       0.037673466 -0.0013506 -0.03107779 -0.025523525
0000c0 5b b4 f7 bb 29 ab bd 3c f4 77 e4 3c 41 a9 fd 3c
       -0.007559342 0.023152905 0.02788923 0.030964496
0000d0 bf 99 d9 39 b1 32 97 3a ed 42 2d 3d 35 53 d2 3b
       0.00041504015 0.0011535493 0.042300154 0.0064186105
0000e0 73 1c fd 3b 74 01 03 bd b3 de 58 bc 0f 24 7e bc
       0.0077243387 -0.031983808 -0.013236689 -0.015511527
0000f0 98 71 e3 3c 87 d9 ef bc e0 29 ef 3b e6 70 93 bd
       0.027764127 -0.02927853 0.007298693 -0.07199268
000100 15 d7 ab 3b 70 9b 27 3d d3 ff f0 bc f8 16 b9 bc
       0.0052441456 0.04091972 -0.029418861 -0.02259396
000110 be b8 1e 3d 66 75 18 3d 59 9d 4f bc 83 ee fb bc
       0.038750403 0.037221335 -0.012671792 -0.03075338
000120 2a c3 1c bc df 8d 7a 3b 3a 9b 47 bc f5 70 c8 bc
       -0.009568015 0.0038231534 -0.012183005 -0.024467925
000130 5b ca b3 3c 8e 7d d2 bb bd f9 0d 3d f5 94 12 bd
       0.021947077 -0.0064236587 0.034661997 -0.035786588
000140 23 db f5 3a f6 e9 09 ba 3c fc 0a 3c d4 c9 c0 ba
       0.0018757324 -0.0005260998 0.008482989 -0.0014708587
000150 fa 3d 04 3d 54 f3 bb bb 76 92 8a 3d f8 da 15 3c
       0.032285668 -0.005735794 0.067662165 0.0091464445
000160 f2 08 c2 bc 67 9b d8 bb 8f 01 8f bc c3 ae 80 3c
       -0.023685906 -0.0066103223 -0.017456798 0.015708333
000170 4d 72 3e bd a3 c3 77 3d f4 19 bf 3c 80 b6 be bc
       -0.046495724 0.060489308 0.023327805 -0.023280382
000180 a0 26 27 3c 3d 31 a0 3c b2 57 6c bc 4f 25 87 bd
       0.01020208 0.019554729 -0.014425205 -0.06598913
000190 ea 28 cc 3c 5f 0f bf bc 85 3f 46 bd e3 7b cd 3c
       0.024921853 -0.02332276 -0.04840042 0.025083488
0001a0 ef 7c c0 3d c8 ef 8f 3c 85 23 c3 3b ff 40 a2 bb
       0.09398829 0.017570391 0.005955162 -0.004951596
0001b0 af 01 c3 bc 1d 2f 39 3c 86 96 3f bc d6 d2 ab bc
       -0.023804514 0.011302737 -0.011693602 -0.020974558
0001c0 53 a9 b4 bc 2d 78 92 bc 58 0a ac bb 5b 26 cc 3b
       -0.022053396 -0.01787957 -0.0052502565 0.0062301583
0001d0 ca 92 ef 3a ce 29 e2 3c 7b dc d5 3c de 87 38 3d
       0.0018278 0.027607825 0.02610611 0.045051448
0001e0 fa db 83 3c ed 15 20 bc cc 1f 13 bb ae 4e 2c bd
       0.016096104 -0.0097708525 -0.0022449372 -0.042067222
0001f0 ea 33 16 3c ac 31 a6 3d 68 c7 3d bc 29 5d 79 bb
       0.009167651 0.08114943 -0.011583187 -0.0038049913
000200 31 3a 4b 3c d5 b3 32 bb 7b 20 df 3c cb 30 17 bd
       0.012404011 -0.0027267833 0.027237168 -0.036911767
000210 70 60 e7 bb cd 5e be bc 83 4a d4 3c 27 13 a6 3c
       -0.007061057 -0.023238564 0.025914436 0.020272804
000220 5f 3c c6 3c ab 52 49 bc 2b e4 2e bd 2c 13 d8 3b
       0.024198709 -0.012287776 -0.042698067 0.0065940823
000230 8f 26 25 3d 92 68 a1 3c 4d 82 00 3d d8 05 e3 3c
       0.040319975 0.019703183 0.031374265 0.027712747
000240 39 56 a3 3c 1a 8e 56 bc d3 82 41 bc 2e 7c 75 bd
       0.019938575 -0.013095403 -0.011810976 -0.05993288
000250 df 23 fb bb 15 7a 9a bc 17 73 0a bd 5d 8d c3 ba
       -0.0076641883 -0.018857041 -0.033801164 -0.0014919449
000260 02 ac 3d bc 7c 4d 78 3c 09 f4 0b bd f3 43 4d bd
       -0.011576654 0.015155192 -0.034168277 -0.05011363
000270 2d 19 89 ba 09 12 a6 bc 92 0e b2 bc ac c3 51 3c
       -0.0010459773 -0.020272272 -0.021735463 0.0128029995
000280 70 0d ee 3c 4f f9 c5 3c a1 51 23 3c 57 82 a5 3b
       0.029059142 0.024166731 0.009968192 0.005050938
000290 43 c0 09 3d 50 e2 05 3c fc 7d 89 bc 0a e7 4b bd
       0.03363062 0.008171633 -0.016783707 -0.049780883
0002a0 ba 94 42 3c 08 d4 33 ba e1 20 84 3d 66 38 81 3c
       0.0118762795 -0.0006859903 0.06451584 0.015773963
0002b0 1c 28 04 3c f2 d5 b8 3b 4a a2 d0 bc 93 c4 98 bd
       0.008066203 0.0056407386 -0.02546801 -0.074593686
0002c0 47 c2 27 3d 92 ac 8c 3c 5a cd 89 bc 04 e5 a3 3b
       0.04095676 0.017172132 -0.016821552 0.005001666
0002d0 3e 25 63 bd 38 65 1d 3d 14 14 0f 3d 9c 87 76 3b
       -0.05545544 0.038426608 0.034931257 0.003761745
0002e0 fd 14 fc 3c f5 c4 2b b9 ba d4 d2 bc 23 f9 da 3a
       0.030771727 -0.00016381203 -0.025736202 0.0016706329
0002f0 0b 71 d1 bb aa 75 c3 3c 81 99 46 3d 1c 02 a2 3c
       -0.0063916496 0.023859818 0.048486236 0.019776396
000300 7a 11 67 bc 8a 5b c2 3a 68 1c 3d 3d f7 8c 1b 3c
       -0.014103288 0.0014828306 0.04616967 0.009494058
000310 5f 36 85 3c a2 fc bf 3c 25 3e d2 bc 22 6e 8c bc
       0.016261278 0.023435894 -0.025664398 -0.01714236
000320 78 60 e0 3c f1 c3 14 3c db 79 d3 3c 1b c0 72 3b
       0.02738975 0.009079919 0.025814941 0.0037040773
000330 96 ab 4c 3c d9 90 12 3c b1 51 03 bb 92 1b 07 3c
       0.012492081 0.008945667 -0.0020037706 0.008246319
000340 70 76 9f bc f1 c9 d7 3a b2 0d d7 3c 92 0a 9e 3c
       -0.019465655 0.0016463381 0.026251648 0.01929215
000350 da 97 5c 3c df 0b 86 bc e5 5c e3 3d d9 84 b0 bb
       0.013463939 -0.016363082 0.111017026 -0.0053869304
000360 5d 8d c9 bc 48 53 15 3d 5d 02 58 3c be b8 70 bd
       -0.02460354 0.036456376 0.013184157 -0.058769934
000370 35 35 d2 3c 9e 77 d4 3b a7 6f ae 3d 53 58 8e 3c
       0.025660137 0.006483986 0.0851739 0.0173761
000380 0e 91 f1 3c 33 67 88 bb 78 18 c0 3c 0f db 00 bd
       0.029488113 -0.004162693 0.023449168 -0.03145891
000390 98 06 cc 3c bb 49 cf 3b 2f 2a 69 bc db 6d 95 3d
       0.024905488 0.006325928 -0.014231249 0.07296344
0003a0 c5 75 a0 bc 12 54 72 bb 6d 1e e8 bc d2 f5 ba 3a
       -0.019587407 -0.003697638 -0.02833482 0.0014263934
0003b0 a3 97 2d bd 5b a9 f8 bc da e3 37 bd 2d 97 df 3c
       -0.04238094 -0.030354192 -0.04489503 0.027293766
0003c0 75 70 cb bc 98 07 22 bc 41 fb 71 bc 24 5b 78 bb
       -0.024833897 -0.009889506 -0.014769376 -0.003789612
0003d0 c1 e8 8e 3c 50 d2 a6 3b 98 10 94 bb 77 b2 0a bc
       0.01744497 0.005090989 -0.0045185797 -0.008465401
0003e0 09 8b 6b 3c 5b 5f ae 3c ec 72 05 bd 85 24 1e 3d
       0.01437641 0.021285703 -0.0325803 0.038609046
0003f0 a1 da 08 3d c9 ef 20 3a 5f 25 95 bc 53 65 ba 3c
       0.033411626 0.00061392464 -0.018206296 0.022753393

exp_avg_sq f4 [2, 768]
000000 ce 18 5c 3b dd ea b2 3a d9 74 01 3b 52 c3 97 3c
       0.003358412 0.0013650317 0.0019753485 0.018525753
000010 41 65 b7 3c 94 c5 8e 3a 06 85 6f 3d bb 4b 02 3c
       0.022387149 0.0010892623 0.05847647 0.007952626
000020 10 b1 0d 41 ab a5 57 3d 94 e0 cc 3a b1 36 6c 3c
       8.855728 0.052648228 0.0015630894 0.014417336
000030 0c 34 c7 3b 82 84 1f 3d 7d 98 34 3c 94 4c 69 3b
       0.0060792025 0.03894473 0.011022684 0.0035598623
000040 e3 d4 97 3a 82 67 bb 3b f1 22 8c 3b d6 b8 0f 3c
       0.0011583831 0.005719126 0.0042766263 0.008772096
000050 cf a0 fd 3b 1e 45 0c 3c fd b6 c3 3b b0 64 43 3c
       0.007740117 0.008561401 0.0059727416 0.011925861
000060 ff c2 3b 3d 93 b9 6b 3b 09 a3 b2 3a 47 84 b1 3c
       0.04584026 0.0035968765 0.001362891 0.02166952
000070 f6 2e a3 3a 02 9f d6 3a bb eb 39 3d a5 ae 07 3c
       0.0012449909 0.0016374292 0.045390826 0.008281385
000080 4b 7e ef 3b 8b d0 13 3d d7 9c d7 3b b6 cf 7c 3c
       0.0073087565 0.036087554 0.006579976 0.0154303815
000090 cf 27 e8 3c 8c 25 88 3a a7 42 4d 3f 2b c9 bf 3a
       0.028339295 0.0010387166 0.8017983 0.0014632096
0000a0 b7 e3 a0 3b a2 1c 99 3b a4 0c b1 3a 0d 57 9c 3e
       0.004909958 0.0046726028 0.0013507796 0.30535164
0000b0 6f 54 21 3d b6 8f 06 3b d2 8c ad 3c 8b 88 01 3c
       0.039387163 0.0020532436 0.021185312 0.00790609
0000c0 20 65 9f 3a e9 78 34 3c 05 35 da 3b b3 e8 1a 3c
       0.0012160875 0.011015155 0.0066591525 0.009454894
0000d0 25 88 ce 3b e4 36 a2 3a 0f d8 6d 3c de e7 82 3b
       0.006302851 0.0012375978 0.014516844 0.003994926
0000e0 86 ed 4f 3b 75 91 3c 3c 13 01 59 3c 7c dd be 3b
       0.0031727268 0.011509289 0.013244885 0.005824743
0000f0 c0 bc 5e 3c e0 b5 8c 3c 84 16 e8 3a 35 81 94 3d
       0.013594806 0.017176569 0.0017706905 0.07251207
000100 29 3d bf 3a 08 8a 27 3d 7a ea fe 3b 16 39 e6 3a
       0.0014590371 0.04090312 0.0077794166 0.001756462
000110 a9 fa d6 3c a7 05 cf 3c d6 8b 57 3b 0a e2 eb 3b
       0.026242571 0.02527125 0.0032889745 0.007198577
000120 96 26 eb 3a 25 b3 92 3b 8e 8d 57 3b 84 d6 09 3c
       0.0017940577 0.004476922 0.003289077 0.008412961
000130 bb 56 c5 3c b9 5f be 3a 6e b0 60 3c 1b 40 41 3c
       0.024089208 0.0014524377 0.013713939 0.011795069
000140 d5 46 bd 3a e5 46 85 3b a4 65 e2 3a 00 cf 90 3a
       0.0014440665 0.004067289 0.0017272723 0.0011048019
000150 ab d6 f4 3b 61 be 74 3b 7d 56 97 3d b8 97 35 3b
       0.0074718795 0.003734492 0.07389543 0.002770884
000160 ff d5 90 3c b1 f7 06 3b ea ba eb 3b c3 b7 62 3a
       0.017680166 0.0020594413 0.0071939128 0.00086485985
000170 60 8d bb 3c 4d a8 2c 3d 07 0a 02 3c 65 db 3e 3b
       0.022894561 0.04215269 0.007936961 0.0029122469
000180 33 e0 43 3b e8 6a a5 3b ac fc be 3b 71 93 71 3d
       0.0029888272 0.0050481446 0.0058284607 0.0589785
000190 72 c8 78 3b 42 b6 cc 3b 4d 8c 8c 3c de fd 02 3c
       0.0037961272 0.0062473128 0.017156744 0.007995097
0001a0 2e 70 00 3e 30 f1 f3 3a e9 4a a5 3a ea 1c 3e 3b
       0.12542793 0.0018611308 0.0012610826 0.0029008933
0001b0 85 66 97 3c 05 fe 3b 3b 4d cd f3 3b 52 cb d5 3b
       0.018481502 0.0028685343 0.0074402452 0.006524482
0001c0 a6 bb 72 3b a0 d2 dc 3b 34 d9 68 3b 77 d8 7f 3a
       0.0037038117 0.0067389756 0.0035529854 0.0009759734
0001d0 21 b5 b6 3a 4c ba e5 3b 51 b8 c4 3c bd f0 6b 3c
       0.0013939479 0.0070107337 0.02401367 0.014400658
0001e0 79 3c 0c 3c 99 ad c4 3a fb 59 d0 3a 37 2b da 3c
       0.00855934 0.0015005349 0.0015895957 0.026631935
0001f0 85 31 c4 3b bb 20 85 3d af 07 95 3b d8 5c f4 3a
       0.0059873485 0.065003835 0.004548035 0.0018643392
000200 5b 93 17 3c ba f4 69 3b da a8 a3 3b 30 ef 66 3c
       0.009251441 0.0035698847 0.004994494 0.014095113
000210 52 97 a0 3a 99 ca 87 3c 39 fb 92 3c 5e 77 35 3c
       0.0012252128 0.016576098 0.017942058 0.011075823
000220 9d f0 f7 3b c2 4d 34 3b c0 80 17 3c c3 d1 f9 3a
       0.007566525 0.0027512168 0.009247005 0.0019059706
000230 a1 5b 94 3c be b6 00 3c 58 ea 78 3c fd c5 33 3c
       0.018110098 0.007856069 0.015192591 0.010972497
000240 b0 22 bf 3b 4e dd cd 3b 12 61 e6 3a f4 3d 2c 3d
       0.0058329925 0.006282485 0.0017576537 0.04205127
000250 4b 06 1d 3b e0 73 03 3c 9c af 8a 3b d1 95 cc 3a
       0.002396005 0.008023232 0.00423236 0.0015608614
000260 ff d2 c5 3b 89 2a a2 3c 2d eb ae 3c 8b 3a 1a 3d
       0.0060371156 0.019795673 0.021352375 0.037653487
000270 3f a4 a9 3a 8f 33 f2 3c 5d b1 cc 3b 7c 46 ea 3b
       0.0012942626 0.0295656 0.0062467293 0.0071495157
000280 28 d1 5a 3c a0 6d 8b 3c 61 fd 43 3b 6c 33 93 3a
       0.013355531 0.017020047 0.0029905664 0.0011230535
000290 20 64 f7 3a 71 37 d7 3a 04 13 a1 3b 8a e6 f9 3c
       0.0018874444 0.0016419721 0.004915597 0.030505437
0002a0 2e 86 9c 3b 4f 9f 08 3b 75 4a 46 3d 66 98 fc 3a
       0.0047767377 0.0020846908 0.04841085 0.0019271492
0002b0 e0 68 cd 3a 0a 2b 5e 3b 3b 4b 81 3c d4 f9 47 3d
       0.0015671514 0.0033900165 0.015782943 0.04882224
0002c0 f2 64 c4 3c aa 1e 93 3c 56 39 18 3b 85 7c 08 3c
       0.023973916 0.017958958 0.0023227534 0.008330469
0002d0 3a 17 d4 3c 22 a3 9d 3c 01 44 0f 3c 3f 82 a9 3a
       0.025889982 0.019242827 0.008744241 0.0012932493
0002e0 13 41 98 3c 6d 4a f2 3a 7e 68 10 3c 40 7a b3 3a
       0.018585717 0.0018485315 0.008813975 0.001369305
0002f0 0e 21 47 3b d7 23 bd 3c e1 4f ce 3c d4 c3 86 3b
       0.0030384692 0.023088379 0.025184574 0.0041127
000300 bd 53 d2 3b f5 eb cf 3a 64 da 8d 3c c3 bb c2 3a
       0.006418674 0.0015863167 0.01731605 0.0014856983
000310 39 97 ff 3b 4c 2c de 3a 7c 6c 01 3c 4d 1d 0d 3b
       0.0078000096 0.0016950457 0.0078994 0.0021532357
000320 c5 84 92 3b d6 dc 1f 3b 58 5d 35 3c 6b 64 dd 3a
       0.004471394 0.0024393103 0.011069618 0.0016890889
000330 c7 9e b3 3b 9b 6a 51 3b 68 ef 8c 3b a0 6d b9 3a
       0.005481574 0.003195441 0.0043010004 0.0014147051
000340 de 63 1a 3b 70 2d 66 3b 6e d4 4e 3b c8 bd b2 3b
       0.002355806 0.0035122298 0.0031559723 0.0054547526
000350 fd 0d 14 3b 2a 65 a4 3b 68 f5 55 3e 17 ef 1b 3c
       0.0022591345 0.0050169425 0.20894396 0.009517453
000360 c8 59 87 3b 86 67 53 3c f5 ef 01 3c 2e a0 58 3d
       0.004130576 0.0129031 0.007930745 0.052887134
000370 4f 68 ee 3b 3e 8b 87 3b ad 3a 06 3e 75 6a 3a 3c
       0.007275618 0.004136472 0.1310832 0.01137792
000380 44 2d 15 3c 35 bd 07 3b e1 df f2 3b 42 2a a2 3c
       0.00910503 0.0020712141 0.0074119424 0.01979554
000390 e2 dc df 3b 50 e5 a1 3a c3 52 c0 3b 15 e0 cc 3d
       0.006831751 0.0012351666 0.005869241 0.10003678
0003a0 9f 41 13 3c 7b 39 9b 3a 4e 89 9f 3c 8a 4f ac 3a
       0.008987813 0.0011842692 0.019474652 0.0013146263
0003b0 25 fb 99 3c 5e 21 38 3c a9 65 ef 3c b5 ed 2e 3c
       0.018796513 0.011238424 0.02922328 0.010676791
0003c0 05 04 be 3b b7 f2 36 3b 87 bc 18 3b 60 62 90 3b
       0.005798819 0.0027915665 0.002330573 0.0044062585
0003d0 ad 3d b0 3a ce 6a fe 3a c2 51 0d 3b dd c8 4e 3b
       0.0013446115 0.0019410492 0.0021563624 0.003155283
0003e0 a2 90 4e 3c 16 cf 25 3b c9 df 00 3d 9c 60 8b 3c
       0.012607725 0.0025300435 0.03146342 0.01701384
0003f0 09 0f 1a 3c 4e c0 ad 3a 91 3f 73 3a 2b cc 9b 3c
       0.009402999 0.0013256164 0.00092791865 0.019018253

exp_avg f4 [2]
000000 5a c9 1a bd 58 c9 1a 3d
       -0.03778968 0.037789673

exp_avg_sq f4 [2]
000000 5f 9a ad 3c 60 9a ad 3c
       0.021191774 0.021191776
