TASK2/gender_classification_model/checkpoint_step_8400.pth (torch, 22979 bytes, 6 tensors)

weight f4 [2, 768]
0.027964432 0.0057433434 0.01752169 0.012606006 -0.026488077 -0.0010877114 -0.007559436 -0.018479193
-0.030588388 -0.012904988 -0.043350283 -0.004279629 -0.046627145 0.02060503 0.025058167 -0.010731113
0.008757841 -0.019572191 -0.0014639955 -0.024840958 -0.0051066894 0.022000203 0.042696852 0.01259043
0.03502336 -0.013063187 0.009816577 0.0023701263 0.04688668 0.0026538963 0.03236064 0.03482845
0.022317763 0.0030182253 -0.009834042 0.035570942 0.0112402765 -0.064419515 0.019495897 -0.07921111
0.022674652 -0.0013801645 -0.03339256 0.014712279 -0.0220118 -0.0066815615 0.031900033 0.04364915
0.038119733 -0.022589562 0.016516248 0.018500013 -0.005704684 -0.032949306 -0.008715569 -0.019740814
-0.0013015837 -0.004103151 -0.0028636928 0.01693841 0.010444579 0.00830692 -0.037026677 -0.014638388
0.0021314104 -0.016509628 0.04289495 0.057264667 -0.034023993 0.029954113 0.0032537975 -0.001938995
-0.002317514 -0.0068747485 -0.027286274 -0.031939227 -0.005678455 0.009014285 -0.004992967 -0.012376849
0.018424088 -0.01875391 -0.059862573 0.004878318 0.009196212 0.020002943 -0.017034398 -0.043745812
0.037205897 0.008558246 0.03811506 -0.034078278 0.03415294 0.018343428 0.005877804 -0.029779632
-0.0013027615 0.048042256 -0.012685575 0.030545639 -0.0072379266 0.009113183 0.045927804 -0.021170363
0.010858236 0.00033231775 0.06646239 -0.051622488 -0.002139028 0.055949762 -0.040851634 -0.017361265
0.009488933 -0.0042262315 0.0019229164 0.02622179 0.080541134 -0.008849694 -0.016287735 0.023272157
0.06379959 0.061594993 -0.0042537474 -0.0072627044 0.003228613 0.008263995 -0.026478278 -0.026851786
0.0029505338 -0.018252105 -0.038874824 0.005638213 0.04816653 0.012410997 0.03640019 0.0071288846
-0.024722526 -0.011207007 0.038705904 -0.00034321917 -0.036628235 -0.0138581935 -0.0012122208 0.012583956
-0.026164457 0.004971908 -0.00075945613 0.0007121336 -0.018643877 -0.029113835 0.025624523 -0.04310614
0.034263115 0.04449174 0.021757739 -0.011274855 -0.011665404 -0.03706606 -0.021342263 0.05765911
-0.008539756 -0.014704146 -0.027237738 0.020779332 -0.05486451 0.07846937 -0.011738353 -0.030859122
-0.017305313 0.017098108 0.02597381 0.0109289745 -0.03062083 0.025958028 -0.0149414595 -0.027464116
0.018551694 0.032888852 0.002757163 0.036903646 0.024807954 -0.021494485 0.006842786 -0.003075031
-0.02017169 0.0744723 -0.025384054 -0.040507857 -0.005707467 0.0037873138 0.009607903 -0.0009718159
-0.022564495 0.031640403 -0.034529675 -0.07121235 -0.06059303 -0.041358914 0.04472432 -0.035626844
-0.049521413 -0.0021234225 0.043776233 0.0018070623 0.029725855 0.03638767 -0.0034951342 -0.018981956
0.055097554 0.00544549 0.010958772 0.0051723 -0.016050568 -0.037138667 -0.020315694 0.029489307
-0.021791996 -0.036340665 -0.022077203 0.0279439 -0.040454585 0.010890483 0.033541065 -0.02760267
0.004222195 -0.010135586 -0.04203854 0.015787968 -0.00594056 -0.0029016484 -0.019156897 -0.00941599
0.01915411 0.038810957 0.008228827 0.07469921 -0.0029960044 -0.038824048 -0.03054752 0.018985162
-0.02584335 -0.01600443 0.03524996 0.038235683 0.029940967 0.034372333 -0.00393571 0.006686756
-0.008251189 0.017920133 -0.0029998145 0.009721473 0.035856653 -0.01854032 0.014923448 0.03378871
00000000: aa15 e53c a832 bc3b a689 8f3c 6c89 4e3c
00000010: 86fd d8bc 8a91 8eba 25b5 f7bb ad61 97bc
00000020: 8094 fabc 716f 53bc 1190 31bd 213c 8cbb
00000030: 1bfc 3ebd e1cb a83c c946 cd3c 8dd1 2fbc
00000040: 0c7d 0f3c dc55 a0bc 8ae3 bfba 447f cbbc
00000050: 0456 a7bb c539 b43c e5e2 2e3d 1748 4e3c
00000060: a874 0f3d fa06 56bc b5d5 203c 1f54 1b3b
00000070: 3f0c 403d feec 2d3b 978c 043d 47a8 0e3d
00000080: bed3 b63c 6bcd 453b f61e 21bc d6b2 113d
00000090: 2329 383c 61ee 83bd dcb5 9f3c 6f39 a2bd
000000a0: 31c0 b93c a3e6 b4ba a3c6 08bd c50b 713c
000000b0: 1752 b4bc 00f1 dabb 9ca9 023d 73c9 323d
000000c0: 7023 1c3d bf0d b9bc 154d 873c 578d 973c
000000d0: 5cee babb daf5 06bd bfcb 0ebc 7db7 a1bc
000000e0: e799 aaba ba73 86bb cbac 3bbb 6cc2 8a3c
000000f0: bd1f 2b3c bf19 083c 49a9 17bd d9d5 6fbc
00000100: 22af 0b3b 333f 87bc 9db2 2f3d 5b8e 6a3d
00000110: be5c 0bbd 5462 f53c aa3d 553b e025 feba
00000120: 6fe1 17bb 9245 e1bb 7787 dfbc b5d2 02bd
00000130: 5512 babb a7b0 133c 0b9c a3bb 44c8 4abc
00000140: 1dee 963c cda1 99bc 7532 75bd 4cda 9f3b
00000150: b5ab 163c 36dd a33c b98b 8bbc cf2e 33bd
00000160: 3665 183d e337 0c3c 8a1e 1c3d aa95 0bbd
00000170: f4e3 0b3d f544 963c 989a c03b 6af4 f3bc
00000180: 6cc1 aaba f5c7 443d 28d7 4fbc d93a fa3c
00000190: 212c edbb 764f 153c cb1e 3c3d 786d adbc
000001a0: bee6 313c ef3a ae39 6f1d 883d 1a72 53bd
000001b0: ef2e 0cbb 942b 653d 0b54 27bd 3639 8ebc
000001c0: 7877 1b3c 337c 8abb 5e0a fc3a 14cf d63c
000001d0: c0f2 a43d 4ffe 10bc db6d 85bc 40a5 be3c
000001e0: 5ca9 823d 084b 7c3d 0563 8bbb fbfb edbb
000001f0: 2397 533b b565 073c f9e8 d8bc 47f8 dbbc
00000200: be5d 413b 7085 95bc 353b 1fbd c2c0 b83b
00000210: 444a 453d 7f57 4b3c 5e18 153d 6b99 e93b
00000220: e586 cabc 989d 37bc 158a 1e3d 19f2 b3b9
00000230: 7d07 16bd 7a0d 63bc 61e3 9eba f02c 4e3c
00000240: d856 d6bc 63eb a23b 3d16 47ba 7aae 3a3a
00000250: 0bbb 98bc 2380 eebc 85ea d13c 1090 30bd
00000260: 7b57 0c3d f93c 363d 493d b23c 2bba 38bc
00000270: 4020 3fbc 95d2 17bd f8d5 aebc f52b 6c3d
00000280: 55ea 0bbc a9e9 70bc ad21 dfbc 6b39 aa3c
00000290: 9cb9 60bd 8db4 a03d 3952 40bc 45cc fcbc
000002a0: dfc3 8dbc 5511 8c3c 07c7 d43c 710f 333c
000002b0: 89d8 fabc eea5 d43c 06cd 74bc 6dfc e0bc
000002c0: b9f9 973c 76b6 063d 85b1 343b 4728 173d
000002d0: 0d3a cb3c 3415 b0bc 7339 e03b 7686 49bb
000002e0: 1a3f a5bc ef84 983d 38f2 cfbc 91eb 25bd
000002f0: b405 bbbb 9534 783b 776a 1d3c 76c1 7eba
00000300: 2dd9 b8bc 5e99 013d fd6e 0dbd c8d7 91bd
00000310: 6630 78bd f767 29bd d930 373d 74ed 11bd
00000320: f7d6 4abd 1e29 0bbb b54e 333d f3da ec3a
00000330: a383 f33c 3d0b 153d 9f0e 65bb 0c80 9bbc
00000340: f9ad 613d 1570 b23b 6c8c 333c 667c a93b
00000350: 7b7c 83bc b71e 18bd 196d a6bc 8f93 f13c
00000360: 2185 b2bc f3d9 14bd 40db b4bc 9bea e43c
00000370: b5b3 25bd ff6d 323c 5b62 093d ff1e e2bc
00000380: 575a 8a3b bb0f 26bc 9b30 2cbd c555 813c
00000390: 07a9 c2bb 9529 3ebb edee 9cbc 8645 1abc
000003a0: 15e9 9c3c 3df8 1e3d 34d2 063c e6fb 983d
000003b0: 9d58 44bb f705 1fbd cb3e fabc c586 9b3c
000003c0: 6fb5 d3bc b91b 83bc 4362 103d 059d 1c3d
000003d0: c246 f53c 01ca 0c3d 21f7 80bb 931c db3b
000003e0: ff2f 07bc 3ecd 923c 8998 44bb d046 1f3c
000003f0: 6dde 123d dfe1 97bc 7a81 743c 0866 0a3d

bias f4 [2]
0.024226693 -0.004795467
00000000: 0f77 c63c 4b23 9dbb

exp_avg f4 [2, 768]
-0.0028447078 -0.0072730603 0.0065357815 -0.0012634767 -0.0029241007 -0.0036750128 0.0076284097 0.014637205
0.007504899 0.002026937 0.0036737958 -0.0004862788 -0.00087720115 0.0030373195 -0.0053150635 0.0054924046
0.008725734 -0.0021363269 -0.0012049732 0.009175801 0.005552484 -0.013125163 0.005395383 0.0055730864
0.0016190957 0.002632991 -0.004638756 0.0065368544 -0.0021065555 -0.0033721162 -0.0010249639 0.0085658915
0.015061961 0.00838942 0.0028387925 0.004232996 -0.002091137 0.006774627 0.007188789 0.002701653
0.002709636 0.0002763755 0.0026037502 0.01188123 0.0016022717 -0.014260435 -0.0035289612 -0.013348268
0.008381273 0.00043503224 0.0031960083 -0.0016808572 0.0034302115 0.011616683 0.006859156 0.010389809
-0.010566801 0.0017219466 0.00027319175 -0.00868532 -0.0031536627 0.0017658304 0.0040757917 -0.011490885
0.007130705 -0.0024189362 -0.0006337128 9.670919e-06 0.0025264076 0.0014920463 0.00013805591 -0.0055664494
-0.0037030939 -0.0029810697 0.008475468 0.014333599 -0.0066249142 0.0001776508 0.0008179984 0.0057485374
-0.008715443 0.00044234857 -0.008652437 0.0031339703 -0.0027302185 -0.014205594 -0.0026673311 -0.0005136435
-0.008861988 0.009395485 -0.0047536297 0.003229976 0.0062777447 0.00012869242 0.004447394 0.0034380907
0.00033705885 -0.009804554 0.006181786 -0.0050949827 -0.00011767617 -0.0062914747 -0.026768066 0.0010799607
-0.006002137 -0.0019361887 0.0013019517 -0.0021542504 -0.0009051441 -0.00409948 0.0059955544 -0.025740895
0.0096976515 0.0044141896 0.00042660517 0.00086077856 0.0030045414 0.010575245 -0.019182255 0.008901425
-0.03427639 -0.006906196 -0.0015663296 -0.0025349357 0.00069960655 0.0025437197 0.003196687 3.970816e-05
-0.014831128 -0.0068726265 0.008775495 0.00795588 -0.005338684 0.013785231 0.00478798 0.0028268318
-0.011977574 -0.0008311762 -0.0017737162 0.021804277 -0.002885913 0.0038254533 0.014680491 -0.013591382
0.007649567 0.0058093145 0.0088397395 -0.01264116 -0.0028220655 0.010565286 -0.0138852475 -0.0026351314
-0.002007199 -0.018674495 -0.01822523 0.0031328243 -0.003136398 0.014495471 0.0012151203 -0.009172686
0.016276363 0.004038704 0.004069839 -0.006516134 0.0072745057 0.0056569483 0.00047207624 -0.0026671868
-0.009660509 -0.0019203633 -0.006216357 0.0040503745 -0.000669172 -0.010003272 0.0010320594 -0.0010872458
-0.005308726 0.0048063216 0.0061525838 0.0033651274 -0.00017234082 0.0015181467 -0.0002917003 -0.0011882109
0.0064951573 -0.020731587 0.017827101 0.0065232655 -0.008744862 0.011556498 0.01179609 -0.008070259
0.0009188421 0.008769962 0.0048685516 -7.572601e-05 0.005759577 0.0057464936 0.0048450204 0.0017469451
0.011993215 -0.0024724973 0.01221682 0.00018775421 0.0012306444 -0.008198542 0.013001166 -0.011514704
-0.007494425 -0.0016349434 -0.0002178749 0.009711754 0.004015237 0.0033893632 0.00020516531 0.008892308
-0.0065443455 0.006311002 -0.017819028 0.0037093626 0.012376153 -0.011242868 0.0025157668 0.006074667
-0.0019949805 -0.008197758 0.00034259024 -0.007876819 -0.008761875 0.0052498044 0.00021313255 0.016074812
0.020569768 -0.0066919154 0.007337254 -0.007463598 0.010239621 0.0015653552 0.01196332 0.008049347
-0.0011299073 -0.007252787 -0.0012606538 0.0030390765 4.518189e-06 -0.004939451 -0.0066116145 0.01751371
-0.0015228887 -0.0020524808 0.008646596 -0.008775444 0.00014047496 -0.009314253 -0.0011850458 -0.0032475074
00000000: 476e 3abb da52 eebb 1c2a d63b 3e9b a5ba
00000010: 45a2 3fbb 7cd8 70bb bdf7 f93b e3d0 6f3c
00000020: a8eb f53b 5cd6 043b 11c4 703b 3cf3 feb9
00000030: f9f3 65ba c40d 473b fc29 aebb a1f9 b33b
00000040: 62f6 0e3c 9e01 0cbb 31f0 9dba 1956 163c
00000050: 9df1 b53b ec0a 57bc c1cb b03b 709e b63b
00000060: d637 d43a 428e 2c3b b500 98bb 1c33 d63b
00000070: 230e 0abb b9fe 5cbb 1558 86ba f457 0c3c
00000080: 71c6 763c c773 093c 090b 3a3b f2b4 8a3b
00000090: 750b 09bb b1fd dd3b ef8f eb3b 370e 313b
000000a0: 2694 313b 7ee6 9039 aea3 2a3b 7ea9 423c
000000b0: 5103 d23a 99a4 69bc 2546 67bb b2b2 5abc
000000c0: 9b51 093c 0a15 e439 1f74 513b 3550 dcba
000000d0: 66cd 603b e653 3e3c c5c2 e03b 043a 2a3c
000000e0: 6020 2dbc f1b2 e13a 2d3b 8f39 df4c 0ebc
000000f0: aead 4ebb 7073 e73a 388e 853b 4444 3cbc
00000100: b0a8 e93b 0487 1ebb bf1f 26ba 4840 2237
00000110: 1692 253b c490 c33a 1ac3 1039 c366 b6bb
00000120: 9baf 72bb 0d5e 43bb b0dc 0a3c 79d7 6a3c
00000130: cf15 d9bb c647 3a39 f26e 563a 3a5e bc3b
00000140: 38cb 0ebc 05eb e739 f3c2 0dbc 4c63 4d3b
00000150: 77ed 32bb 94be 68bc 64ce 2ebb 08a6 06ba
00000160: df31 11bc 85ef 193c 56c4 9bbb 01ae 533b
00000170: 8ab5 cd3b 9cf1 0639 72bb 913b 9751 613b
00000180: 46b7 b039 48a3 20bc 9490 ca3b d0f3 a6bb
00000190: eac8 f6b8 b728 cebb b448 dbbc 788d 8d3a
000001a0: 93ad c4bb b6c7 fdba 40a6 aa3a 532e 0dbb
000001b0: 3147 6dba ee54 86bb 5b76 c43b 92de d2bc
000001c0: e6e2 1e3c e8a4 903b faa9 df39 dfa5 613a
000001d0: d7e7 443b cb43 2d3c 1b24 9dbc 48d7 113c
000001e0: 6665 0cbd 5f4d e2bb 4d4d cdba 2a21 26bb
000001f0: cd65 373a 89b4 263b 827f 513b 508c 2638
00000200: 42fe 72bc c533 e1bb 18c7 0f3c 6159 023c
00000210: 21f0 aebb 73db 613c 7de4 9c3b 5e42 393b
00000220: 963d 44bc 4ae3 59ba 0a7c e8ba e29e b23c
00000230: 9621 3dbb 75b4 7a3b 7186 703c 63ae 5ebc
00000240: 38a9 fa3b 105c be3b 8ed4 103c de1c 4fbc
00000250: 67f2 38bb 051a 2d3c f37e 63bc 2bb2 2cbb
00000260: 368b 03bb 41fb 98bc 144d 95bc 1250 4d3b
00000270: 078c 4dbb 697e 6d3c ac44 9f3a 0949 16bc
00000280: 0256 853c 1b57 843b 495c 853b 4b85 d5bb
00000290: fa5e ee3b ec5d b93b 0081 f739 f8cb 2ebb
000002a0: 1d47 1ebc b3b4 fbba 95b2 cbbb 01b9 843b
000002b0: 5f6b 2fba c4e4 23bc 2b46 873a ea81 8eba
000002c0: d2f4 adbb 597e 9d3b 9d9b c93b 7889 5c3b
000002d0: 63b6 34b9 8dfc c63a 5aef 98b9 bebd 9bba
000002e0: 54d5 d43b 4ad5 a9bc 240a 923c 1ec1 d53b
000002f0: 9c46 0fbc 7757 3d3c 6344 413c 1f39 04bc
00000300: 73de 703a e3af 0f3c 5f88 9f3b 18cf 9eb8
00000310: d5ba bc3b 154d bc3b fac2 9e3b c0f9 e43a
00000320: 317f 443c 9f09 22bb 0f29 483c e3df 4439
00000330: 934d a13a 2d53 06bc d802 553c 2ba8 3cbc
00000340: cb93 f5bb 994b d6ba 5975 64b9 0c1e 1f3c
00000350: 4092 833b 1420 5e3b a521 5739 0bb1 113c
00000360: f371 d6bb 86cc ce3b 36f9 91bc c718 733b
00000370: 59c5 4a3c 0234 38bc 90df 243b 000e c73b
00000380: 38be 02bb e44f 06bc af9d b339 c60d 01bc
00000390: f88d 0fbc 8d06 ac3b 557c 5f39 53af 833c
000003a0: ee81 a83c db47 dbbb 596d f03b 3391 f4bb
000003b0: 15c4 273c 9b2c cd3a cd01 443c 69e1 033c
000003c0: 6619 94ba c9a8 edbb 863c a5ba 3e2b 473b
000003d0: f39a 9736 1edb a1bb 3ea6 d8bb e978 8f3c
000003e0: aa9b c7ba ea82 06bb 74aa 0d3c e1c6 0fbc
000003f0: 764c 1339 cf9a 18bc 8a53 9bba 22d4 54bb

exp_avg_sq f4 [2, 768]
0.004370167 0.0018079714 0.002483553 0.024416616 0.030405452 0.0014060605 0.08035114 0.0103830695
12.0775 0.07263058 0.0021513323 0.019866649 0.008349021 0.05310246 0.015328401 0.004661614
0.0014784596 0.008070914 0.005610911 0.012320244 0.010260114 0.01154315 0.007863001 0.016341224
0.06110184 0.0047913855 0.0018453199 0.028984692 0.0016882172 0.0021304165 0.059685398 0.011600742
0.009940853 0.048800685 0.008746591 0.021269685 0.03883248 0.0012869418 1.0980334 0.001588688
0.0064600743 0.0061507626 0.0017263605 0.42211205 0.05355985 0.002719805 0.029196667 0.011079331
0.0016381061 0.015086367 0.008985 0.012762111 0.008258505 0.0014768123 0.018624159 0.0051739444
0.004149696 0.015641615 0.018058594 0.007877328 0.018173851 0.022745738 0.0021527463 0.09902683
0.001796373 0.056912992 0.01129761 0.002213899 0.03550435 0.03401955 0.0041700746 0.009665875
0.002293671 0.005780238 0.0042019323 0.010723982 0.033241905 0.0019292544 0.018817123 0.015962867
0.002050729 0.005598969 0.0023658362 0.0014348399 0.009649423 0.0048967684 0.101619415 0.0036186257
0.023649482 0.0028951853 0.009269552 0.001064078 0.030712776 0.056895435 0.011102015 0.003982038
0.0038905817 0.0069579515 0.007934161 0.079565175 0.005299897 0.007980072 0.02358732 0.011185419
0.17180733 0.0023180924 0.0016401304 0.003534883 0.02465136 0.004047533 0.009983015 0.008646882
0.004977675 0.009337237 0.0050816056 0.0012466834 0.0019145382 0.009706913 0.032598034 0.01896151
0.01075615 0.0019263738 0.0019240623 0.036411177 0.008442899 0.08684391 0.0061952234 0.0023669077
0.012109667 0.004747107 0.006487223 0.019069957 0.0016282484 0.023338389 0.02463467 0.0142790135
0.010031555 0.0035389308 0.012151631 0.0021746508 0.023590807 0.010504551 0.020597339 0.014916506
0.008054082 0.008209624 0.0020670476 0.05746769 0.0031443744 0.010464723 0.005118017 0.002079671
0.008377527 0.02767279 0.028780758 0.050683357 0.0016922911 0.0400599 0.0078067086 0.009107034
0.017400663 0.023235612 0.0039373375 0.0014528447 0.0026157284 0.0021388188 0.006371628 0.04066338
0.006575059 0.00305681 0.065405175 0.0022588181 0.0020238205 0.0044449423 0.021849409 0.066207804
0.033183247 0.024915727 0.0031285614 0.011813369 0.034639012 0.025482206 0.011226001 0.0015365952
0.024330368 0.0021826813 0.01218887 0.0015945262 0.003990807 0.03127173 0.034759272 0.0054556136
0.008892063 0.002233032 0.023441788 0.0019900277 0.010922971 0.0020181865 0.011010119 0.0028075362
0.005845886 0.0034117494 0.014933822 0.00220189 0.0075572208 0.0043109753 0.00509735 0.0016904454
0.0030684427 0.004265541 0.004154269 0.007111164 0.0031397736 0.006672447 0.28212482 0.012927679
0.0055758245 0.017247107 0.010564449 0.071304426 0.009711157 0.005296209 0.17633033 0.01547041
0.012095799 0.0027598336 0.009998828 0.027962752 0.00894565 0.0016561539 0.007298383 0.13613193
0.012397247 0.0016999926 0.026255924 0.0015971313 0.025714684 0.015886473 0.038691007 0.01426978
0.007996928 0.0035194908 0.003080453 0.0057883807 0.0018162987 0.0024570725 0.002994766 0.0039115786
0.01739788 0.0033936028 0.043659583 0.022607476 0.013090618 0.0018962973 0.0012733809 0.025940396
00000000: 9e33 8f3b 74f9 ec3a 1bc3 223b 5b05 c83c
00000010: db14 f93c 904b b83a 238f a43d c01d 2a3c
00000020: 713d 4141 57bf 943d 5efd 0c3b 62bf a23c
00000030: 55ca 083c f781 593d f923 7b3c 74c0 983b
00000040: dfc8 c13a de3b 043c bcdb b73b d9da 493c
00000050: 0a1a 283c 7b1f 3d3c d1d3 003c 08de 853c
00000060: ec45 7a3d 0e01 9d3b a9de f13a 4e71 ed3c
00000070: 2b47 dd3a 759e 0b3b ad78 743d 0a11 3e3c
00000080: f6de 223c 3ae3 473d dd4d 0f3c c33d ae3c
00000090: ce0e 1f3d 9aae a83a 5c8c 8c3f 863b d03a
000000a0: 08af d33b 568c c93b 0c47 e23a 121f d83e
000000b0: 9361 5b3d c23e 323b d92d ef3c 1586 353c
000000c0: b8b5 d63a cf2c 773c d235 133c 2c18 513c
000000d0: ae4e 073c 9991 c13a b191 983c 318a a93b
000000e0: 2cfa 873b d822 803c 9eef 933c e90f 013c
000000f0: 54e1 943c 4555 ba3c 1715 0d3b 94ce ca3d
00000100: 4774 eb3a 991d 693d 9c19 393c 1017 113b
00000110: 026d 113d 1558 0b3d 1fa5 883b 9e5d 1e3c
00000120: 6a51 163b 2768 bd3b 5db0 893b a4b3 2f3c
00000130: aa28 083d 09df fc3a 5e26 9a3c 8fc4 823c
00000140: 8665 063b 8e77 b73b 250c 1b3b 3d11 bc3a
00000150: 9d18 1e3c 1275 a03b d71d d03d 7726 6d3b
00000160: 8fbc c13c 26bd 3d3b 52df 173c 8878 8b3a
00000170: 5c99 fb3c 300b 693d 3ae5 353c c17b 823b
00000180: 21f9 7e3b 87ff e33b 49fe 013c 11f3 a23d
00000190: c2aa ad3b d9be 023c 323a c13c 0c43 373c
000001a0: 43ee 2f3e 23eb 173b a5f9 d63a 7fa9 673b
000001b0: a6f1 c93c 2ba1 843b cd8f 233c a7ab 0d3c
000001c0: c41b a33b 36fb 183c 9983 a63b c167 a33a
000001d0: 3ef1 fa3a be09 1f3c 8485 053d 2b55 9b3c
000001e0: 903a 303c 617e fc3a d130 fc3a e323 153d
000001f0: 1654 0a3c 38db b13d 4d01 cb3b 1f1e 1b3b
00000200: a067 463c 9f8d 9b3b c592 d43b 9938 9c3c
00000210: f36a d53a 2630 bf3c a6ce c93c 86f2 693c
00000220: 645b 243c 68ed 673b a217 473c 9684 0e3b
00000230: 8241 c13c 481b 2c3c c0bb a83c 5c64 743c
00000240: 45f5 033c a981 063c 4e77 073b 3e63 6b3d
00000250: d911 4e3b 3b74 2b3c 0ab5 a73b 174b 083b
00000260: e541 093c 0cb2 e23c a0c5 eb3c 5a99 4f3d
00000270: decf dd3a da15 243d 6bcf ff3b ab35 153c
00000280: d68b 8e3c 9c58 be3c c804 813b 616d be3a
00000290: a46c 2b3b 6d2b 0c3b 17c9 d03b a58e 263d
000002a0: 9873 d73b c354 483b 26f3 853d ae08 143b
000002b0: 13a2 043b e1a6 913b 88fd b23c f597 873d
000002c0: 28eb 073d 111c cc3c 8d08 4d3b dc8c 413c
000002d0: a3e1 0d3d 0fc0 d03c 43ed 373c 9467 c93a
000002e0: 7b50 c73c 510b 0f3b d4b3 473c 6cff d03a
000002f0: 51c5 823b c916 003d bd5f 0e3d 01c5 b23b
00000300: 04b0 113c 0f58 123b fe08 c03c 206b 023b
00000310: 43f6 323c 8d43 043b c963 343c a4fe 373b
00000320: d98e bf3b a897 5f3b fdac 743c 964d 103b
00000330: 90a2 f73b 1543 8d3b ac07 a73b ef91 dd3a
00000340: ed17 493b f4c5 8b3b 8920 883b c404 e93b
00000350: a9c4 4d3b 8ba4 da3b aa72 903e 9ece 533c
00000360: 68b5 b63b ce49 8d3c 8316 2d3c 0e08 923d
00000370: 8b1b 1f3c d28b ad3b f08f 343e 9a77 7d3c
00000380: 752d 463c 53de 343b 20d2 233c 2412 e53c
00000390: c790 123c 4e13 d93a 4627 ef3b 2b66 0b3e
000003a0: d31d 4b3c 49d2 de3a aa16 d73c d556 d13a
000003b0: 9aa7 d23c 5924 823c 767a 1e3d cccb 693c
000003c0: 8c05 033c 42a7 663b 6de1 493b 75ac bd3b
000003d0: df10 ee3a d606 213b d643 443b b32c 803b
000003e0: 0086 8e3c 3567 5e3b 64d4 323d 5033 b93c
000003f0: 087a 563c 2e8d f83a 93e7 a63a f480 d43c

exp_avg f4 [2]
-0.001561905 0.0015619125
00000000: d6b8 ccba 16b9 cc3a

exp_avg_sq f4 [2]
0.028877659 0.028877662
00000000: d790 ec3c d990 ec3c
